<?xml version="1.0" ?>
<net name="horizontal-text-detection-0001" version="10">
	<layers>
		<layer id="0" name="image" type="Parameter" version="opset1">
			<data element_type="f32" shape="1, 3, 704, 704"/>
			<output>
				<port id="0" precision="FP32">
					<dim>1</dim>
					<dim>3</dim>
					<dim>704</dim>
					<dim>704</dim>
				</port>
			</output>
		</layer>
		<layer id="1" name="753/Broadcast/FillValue" type="Const" version="opset1">
			<data element_type="f32" offset="0" shape="1" size="4"/>
			<output>
				<port id="0" precision="FP32">
					<dim>1</dim>
				</port>
			</output>
		</layer>
		<layer id="2" name="image/scale_copy" type="Const" version="opset1">
			<data element_type="f32" offset="4" shape="32, 3, 3, 3" size="3456"/>
			<output>
				<port id="0" names="backbone.features.init_block.conv.weight" precision="FP32">
					<dim>32</dim>
					<dim>3</dim>
					<dim>3</dim>
					<dim>3</dim>
				</port>
			</output>
		</layer>
		<layer id="3" name="364" type="Convolution" version="opset1">
			<data auto_pad="explicit" dilations="1, 1" pads_begin="1, 1" pads_end="1, 1" strides="2, 2"/>
			<input>
				<port id="0" precision="FP32">
					<dim>1</dim>
					<dim>3</dim>
					<dim>704</dim>
					<dim>704</dim>
				</port>
				<port id="1" precision="FP32">
					<dim>32</dim>
					<dim>3</dim>
					<dim>3</dim>
					<dim>3</dim>
				</port>
			</input>
			<output>
				<port id="2" precision="FP32">
					<dim>1</dim>
					<dim>32</dim>
					<dim>352</dim>
					<dim>352</dim>
				</port>
			</output>
		</layer>
		<layer id="4" name="data_add_34424" type="Const" version="opset1">
			<data element_type="f32" offset="3460" shape="1, 32, 1, 1" size="128"/>
			<output>
				<port id="0" precision="FP32">
					<dim>1</dim>
					<dim>32</dim>
					<dim>1</dim>
					<dim>1</dim>
				</port>
			</output>
		</layer>
		<layer id="5" name="365/variance/Fused_Add_" type="Add" version="opset1">
			<data auto_broadcast="numpy"/>
			<input>
				<port id="0" precision="FP32">
					<dim>1</dim>
					<dim>32</dim>
					<dim>352</dim>
					<dim>352</dim>
				</port>
				<port id="1" precision="FP32">
					<dim>1</dim>
					<dim>32</dim>
					<dim>1</dim>
					<dim>1</dim>
				</port>
			</input>
			<output>
				<port id="2" names="365" precision="FP32">
					<dim>1</dim>
					<dim>32</dim>
					<dim>352</dim>
					<dim>352</dim>
				</port>
			</output>
		</layer>
		<layer id="6" name="366" type="Clamp" version="opset1">
			<data max="6" min="0"/>
			<input>
				<port id="0" precision="FP32">
					<dim>1</dim>
					<dim>32</dim>
					<dim>352</dim>
					<dim>352</dim>
				</port>
			</input>
			<output>
				<port id="1" names="366" precision="FP32">
					<dim>1</dim>
					<dim>32</dim>
					<dim>352</dim>
					<dim>352</dim>
				</port>
			</output>
		</layer>
		<layer id="7" name="368/mean/Fused_Mul__copy" type="Const" version="opset1">
			<data element_type="f32" offset="3588" shape="32, 32, 1, 1" size="4096"/>
			<output>
				<port id="0" names="backbone.features.stage1.unit1.conv1.conv.weight" precision="FP32">
					<dim>32</dim>
					<dim>32</dim>
					<dim>1</dim>
					<dim>1</dim>
				</port>
			</output>
		</layer>
		<layer id="8" name="367" type="Convolution" version="opset1">
			<data auto_pad="explicit" dilations="1, 1" pads_begin="0, 0" pads_end="0, 0" strides="1, 1"/>
			<input>
				<port id="0" precision="FP32">
					<dim>1</dim>
					<dim>32</dim>
					<dim>352</dim>
					<dim>352</dim>
				</port>
				<port id="1" precision="FP32">
					<dim>32</dim>
					<dim>32</dim>
					<dim>1</dim>
					<dim>1</dim>
				</port>
			</input>
			<output>
				<port id="2" precision="FP32">
					<dim>1</dim>
					<dim>32</dim>
					<dim>352</dim>
					<dim>352</dim>
				</port>
			</output>
		</layer>
		<layer id="9" name="data_add_3442734432" type="Const" version="opset1">
			<data element_type="f32" offset="7684" shape="1, 32, 1, 1" size="128"/>
			<output>
				<port id="0" precision="FP32">
					<dim>1</dim>
					<dim>32</dim>
					<dim>1</dim>
					<dim>1</dim>
				</port>
			</output>
		</layer>
		<layer id="10" name="368/variance/Fused_Add_" type="Add" version="opset1">
			<data auto_broadcast="numpy"/>
			<input>
				<port id="0" precision="FP32">
					<dim>1</dim>
					<dim>32</dim>
					<dim>352</dim>
					<dim>352</dim>
				</port>
				<port id="1" precision="FP32">
					<dim>1</dim>
					<dim>32</dim>
					<dim>1</dim>
					<dim>1</dim>
				</port>
			</input>
			<output>
				<port id="2" names="368" precision="FP32">
					<dim>1</dim>
					<dim>32</dim>
					<dim>352</dim>
					<dim>352</dim>
				</port>
			</output>
		</layer>
		<layer id="11" name="369" type="Clamp" version="opset1">
			<data max="6" min="0"/>
			<input>
				<port id="0" precision="FP32">
					<dim>1</dim>
					<dim>32</dim>
					<dim>352</dim>
					<dim>352</dim>
				</port>
			</input>
			<output>
				<port id="1" names="369" precision="FP32">
					<dim>1</dim>
					<dim>32</dim>
					<dim>352</dim>
					<dim>352</dim>
				</port>
			</output>
		</layer>
		<layer id="12" name="371/mean/Fused_Mul__copy" type="Const" version="opset1">
			<data element_type="f32" offset="7812" shape="32, 1, 1, 3, 3" size="1152"/>
			<output>
				<port id="0" names="backbone.features.stage1.unit1.conv2.conv.weight" precision="FP32">
					<dim>32</dim>
					<dim>1</dim>
					<dim>1</dim>
					<dim>3</dim>
					<dim>3</dim>
				</port>
			</output>
		</layer>
		<layer id="13" name="370" type="GroupConvolution" version="opset1">
			<data auto_pad="explicit" dilations="1, 1" pads_begin="1, 1" pads_end="1, 1" strides="1, 1"/>
			<input>
				<port id="0" precision="FP32">
					<dim>1</dim>
					<dim>32</dim>
					<dim>352</dim>
					<dim>352</dim>
				</port>
				<port id="1" precision="FP32">
					<dim>32</dim>
					<dim>1</dim>
					<dim>1</dim>
					<dim>3</dim>
					<dim>3</dim>
				</port>
			</input>
			<output>
				<port id="2" precision="FP32">
					<dim>1</dim>
					<dim>32</dim>
					<dim>352</dim>
					<dim>352</dim>
				</port>
			</output>
		</layer>
		<layer id="14" name="data_add_3443534440" type="Const" version="opset1">
			<data element_type="f32" offset="8964" shape="1, 32, 1, 1" size="128"/>
			<output>
				<port id="0" precision="FP32">
					<dim>1</dim>
					<dim>32</dim>
					<dim>1</dim>
					<dim>1</dim>
				</port>
			</output>
		</layer>
		<layer id="15" name="371/variance/Fused_Add_" type="Add" version="opset1">
			<data auto_broadcast="numpy"/>
			<input>
				<port id="0" precision="FP32">
					<dim>1</dim>
					<dim>32</dim>
					<dim>352</dim>
					<dim>352</dim>
				</port>
				<port id="1" precision="FP32">
					<dim>1</dim>
					<dim>32</dim>
					<dim>1</dim>
					<dim>1</dim>
				</port>
			</input>
			<output>
				<port id="2" names="371" precision="FP32">
					<dim>1</dim>
					<dim>32</dim>
					<dim>352</dim>
					<dim>352</dim>
				</port>
			</output>
		</layer>
		<layer id="16" name="372" type="Clamp" version="opset1">
			<data max="6" min="0"/>
			<input>
				<port id="0" precision="FP32">
					<dim>1</dim>
					<dim>32</dim>
					<dim>352</dim>
					<dim>352</dim>
				</port>
			</input>
			<output>
				<port id="1" names="372" precision="FP32">
					<dim>1</dim>
					<dim>32</dim>
					<dim>352</dim>
					<dim>352</dim>
				</port>
			</output>
		</layer>
		<layer id="17" name="374/mean/Fused_Mul__copy" type="Const" version="opset1">
			<data element_type="f32" offset="9092" shape="16, 32, 1, 1" size="2048"/>
			<output>
				<port id="0" names="backbone.features.stage1.unit1.conv3.conv.weight" precision="FP32">
					<dim>16</dim>
					<dim>32</dim>
					<dim>1</dim>
					<dim>1</dim>
				</port>
			</output>
		</layer>
		<layer id="18" name="373" type="Convolution" version="opset1">
			<data auto_pad="explicit" dilations="1, 1" pads_begin="0, 0" pads_end="0, 0" strides="1, 1"/>
			<input>
				<port id="0" precision="FP32">
					<dim>1</dim>
					<dim>32</dim>
					<dim>352</dim>
					<dim>352</dim>
				</port>
				<port id="1" precision="FP32">
					<dim>16</dim>
					<dim>32</dim>
					<dim>1</dim>
					<dim>1</dim>
				</port>
			</input>
			<output>
				<port id="2" precision="FP32">
					<dim>1</dim>
					<dim>16</dim>
					<dim>352</dim>
					<dim>352</dim>
				</port>
			</output>
		</layer>
		<layer id="19" name="data_add_3444334448" type="Const" version="opset1">
			<data element_type="f32" offset="11140" shape="1, 16, 1, 1" size="64"/>
			<output>
				<port id="0" precision="FP32">
					<dim>1</dim>
					<dim>16</dim>
					<dim>1</dim>
					<dim>1</dim>
				</port>
			</output>
		</layer>
		<layer id="20" name="374/variance/Fused_Add_" type="Add" version="opset1">
			<data auto_broadcast="numpy"/>
			<input>
				<port id="0" precision="FP32">
					<dim>1</dim>
					<dim>16</dim>
					<dim>352</dim>
					<dim>352</dim>
				</port>
				<port id="1" precision="FP32">
					<dim>1</dim>
					<dim>16</dim>
					<dim>1</dim>
					<dim>1</dim>
				</port>
			</input>
			<output>
				<port id="2" names="374" precision="FP32">
					<dim>1</dim>
					<dim>16</dim>
					<dim>352</dim>
					<dim>352</dim>
				</port>
			</output>
		</layer>
		<layer id="21" name="376/mean/Fused_Mul__copy" type="Const" version="opset1">
			<data element_type="f32" offset="11204" shape="96, 16, 1, 1" size="6144"/>
			<output>
				<port id="0" names="backbone.features.stage2.unit1.conv1.conv.weight" precision="FP32">
					<dim>96</dim>
					<dim>16</dim>
					<dim>1</dim>
					<dim>1</dim>
				</port>
			</output>
		</layer>
		<layer id="22" name="375" type="Convolution" version="opset1">
			<data auto_pad="explicit" dilations="1, 1" pads_begin="0, 0" pads_end="0, 0" strides="1, 1"/>
			<input>
				<port id="0" precision="FP32">
					<dim>1</dim>
					<dim>16</dim>
					<dim>352</dim>
					<dim>352</dim>
				</port>
				<port id="1" precision="FP32">
					<dim>96</dim>
					<dim>16</dim>
					<dim>1</dim>
					<dim>1</dim>
				</port>
			</input>
			<output>
				<port id="2" precision="FP32">
					<dim>1</dim>
					<dim>96</dim>
					<dim>352</dim>
					<dim>352</dim>
				</port>
			</output>
		</layer>
		<layer id="23" name="data_add_3445134456" type="Const" version="opset1">
			<data element_type="f32" offset="17348" shape="1, 96, 1, 1" size="384"/>
			<output>
				<port id="0" precision="FP32">
					<dim>1</dim>
					<dim>96</dim>
					<dim>1</dim>
					<dim>1</dim>
				</port>
			</output>
		</layer>
		<layer id="24" name="376/variance/Fused_Add_" type="Add" version="opset1">
			<data auto_broadcast="numpy"/>
			<input>
				<port id="0" precision="FP32">
					<dim>1</dim>
					<dim>96</dim>
					<dim>352</dim>
					<dim>352</dim>
				</port>
				<port id="1" precision="FP32">
					<dim>1</dim>
					<dim>96</dim>
					<dim>1</dim>
					<dim>1</dim>
				</port>
			</input>
			<output>
				<port id="2" names="376" precision="FP32">
					<dim>1</dim>
					<dim>96</dim>
					<dim>352</dim>
					<dim>352</dim>
				</port>
			</output>
		</layer>
		<layer id="25" name="377" type="Clamp" version="opset1">
			<data max="6" min="0"/>
			<input>
				<port id="0" precision="FP32">
					<dim>1</dim>
					<dim>96</dim>
					<dim>352</dim>
					<dim>352</dim>
				</port>
			</input>
			<output>
				<port id="1" names="377" precision="FP32">
					<dim>1</dim>
					<dim>96</dim>
					<dim>352</dim>
					<dim>352</dim>
				</port>
			</output>
		</layer>
		<layer id="26" name="379/mean/Fused_Mul__copy" type="Const" version="opset1">
			<data element_type="f32" offset="17732" shape="96, 1, 1, 3, 3" size="3456"/>
			<output>
				<port id="0" names="backbone.features.stage2.unit1.conv2.conv.weight" precision="FP32">
					<dim>96</dim>
					<dim>1</dim>
					<dim>1</dim>
					<dim>3</dim>
					<dim>3</dim>
				</port>
			</output>
		</layer>
		<layer id="27" name="378" type="GroupConvolution" version="opset1">
			<data auto_pad="explicit" dilations="1, 1" pads_begin="1, 1" pads_end="1, 1" strides="2, 2"/>
			<input>
				<port id="0" precision="FP32">
					<dim>1</dim>
					<dim>96</dim>
					<dim>352</dim>
					<dim>352</dim>
				</port>
				<port id="1" precision="FP32">
					<dim>96</dim>
					<dim>1</dim>
					<dim>1</dim>
					<dim>3</dim>
					<dim>3</dim>
				</port>
			</input>
			<output>
				<port id="2" precision="FP32">
					<dim>1</dim>
					<dim>96</dim>
					<dim>176</dim>
					<dim>176</dim>
				</port>
			</output>
		</layer>
		<layer id="28" name="data_add_3445934464" type="Const" version="opset1">
			<data element_type="f32" offset="21188" shape="1, 96, 1, 1" size="384"/>
			<output>
				<port id="0" precision="FP32">
					<dim>1</dim>
					<dim>96</dim>
					<dim>1</dim>
					<dim>1</dim>
				</port>
			</output>
		</layer>
		<layer id="29" name="379/variance/Fused_Add_" type="Add" version="opset1">
			<data auto_broadcast="numpy"/>
			<input>
				<port id="0" precision="FP32">
					<dim>1</dim>
					<dim>96</dim>
					<dim>176</dim>
					<dim>176</dim>
				</port>
				<port id="1" precision="FP32">
					<dim>1</dim>
					<dim>96</dim>
					<dim>1</dim>
					<dim>1</dim>
				</port>
			</input>
			<output>
				<port id="2" names="379" precision="FP32">
					<dim>1</dim>
					<dim>96</dim>
					<dim>176</dim>
					<dim>176</dim>
				</port>
			</output>
		</layer>
		<layer id="30" name="380" type="Clamp" version="opset1">
			<data max="6" min="0"/>
			<input>
				<port id="0" precision="FP32">
					<dim>1</dim>
					<dim>96</dim>
					<dim>176</dim>
					<dim>176</dim>
				</port>
			</input>
			<output>
				<port id="1" names="380" precision="FP32">
					<dim>1</dim>
					<dim>96</dim>
					<dim>176</dim>
					<dim>176</dim>
				</port>
			</output>
		</layer>
		<layer id="31" name="382/mean/Fused_Mul__copy" type="Const" version="opset1">
			<data element_type="f32" offset="21572" shape="24, 96, 1, 1" size="9216"/>
			<output>
				<port id="0" names="backbone.features.stage2.unit1.conv3.conv.weight" precision="FP32">
					<dim>24</dim>
					<dim>96</dim>
					<dim>1</dim>
					<dim>1</dim>
				</port>
			</output>
		</layer>
		<layer id="32" name="381" type="Convolution" version="opset1">
			<data auto_pad="explicit" dilations="1, 1" pads_begin="0, 0" pads_end="0, 0" strides="1, 1"/>
			<input>
				<port id="0" precision="FP32">
					<dim>1</dim>
					<dim>96</dim>
					<dim>176</dim>
					<dim>176</dim>
				</port>
				<port id="1" precision="FP32">
					<dim>24</dim>
					<dim>96</dim>
					<dim>1</dim>
					<dim>1</dim>
				</port>
			</input>
			<output>
				<port id="2" precision="FP32">
					<dim>1</dim>
					<dim>24</dim>
					<dim>176</dim>
					<dim>176</dim>
				</port>
			</output>
		</layer>
		<layer id="33" name="data_add_3446734472" type="Const" version="opset1">
			<data element_type="f32" offset="30788" shape="1, 24, 1, 1" size="96"/>
			<output>
				<port id="0" precision="FP32">
					<dim>1</dim>
					<dim>24</dim>
					<dim>1</dim>
					<dim>1</dim>
				</port>
			</output>
		</layer>
		<layer id="34" name="382/variance/Fused_Add_" type="Add" version="opset1">
			<data auto_broadcast="numpy"/>
			<input>
				<port id="0" precision="FP32">
					<dim>1</dim>
					<dim>24</dim>
					<dim>176</dim>
					<dim>176</dim>
				</port>
				<port id="1" precision="FP32">
					<dim>1</dim>
					<dim>24</dim>
					<dim>1</dim>
					<dim>1</dim>
				</port>
			</input>
			<output>
				<port id="2" names="382" precision="FP32">
					<dim>1</dim>
					<dim>24</dim>
					<dim>176</dim>
					<dim>176</dim>
				</port>
			</output>
		</layer>
		<layer id="35" name="384/mean/Fused_Mul__copy" type="Const" version="opset1">
			<data element_type="f32" offset="30884" shape="144, 24, 1, 1" size="13824"/>
			<output>
				<port id="0" names="backbone.features.stage2.unit2.conv1.conv.weight" precision="FP32">
					<dim>144</dim>
					<dim>24</dim>
					<dim>1</dim>
					<dim>1</dim>
				</port>
			</output>
		</layer>
		<layer id="36" name="383" type="Convolution" version="opset1">
			<data auto_pad="explicit" dilations="1, 1" pads_begin="0, 0" pads_end="0, 0" strides="1, 1"/>
			<input>
				<port id="0" precision="FP32">
					<dim>1</dim>
					<dim>24</dim>
					<dim>176</dim>
					<dim>176</dim>
				</port>
				<port id="1" precision="FP32">
					<dim>144</dim>
					<dim>24</dim>
					<dim>1</dim>
					<dim>1</dim>
				</port>
			</input>
			<output>
				<port id="2" precision="FP32">
					<dim>1</dim>
					<dim>144</dim>
					<dim>176</dim>
					<dim>176</dim>
				</port>
			</output>
		</layer>
		<layer id="37" name="data_add_3447534480" type="Const" version="opset1">
			<data element_type="f32" offset="44708" shape="1, 144, 1, 1" size="576"/>
			<output>
				<port id="0" precision="FP32">
					<dim>1</dim>
					<dim>144</dim>
					<dim>1</dim>
					<dim>1</dim>
				</port>
			</output>
		</layer>
		<layer id="38" name="384/variance/Fused_Add_" type="Add" version="opset1">
			<data auto_broadcast="numpy"/>
			<input>
				<port id="0" precision="FP32">
					<dim>1</dim>
					<dim>144</dim>
					<dim>176</dim>
					<dim>176</dim>
				</port>
				<port id="1" precision="FP32">
					<dim>1</dim>
					<dim>144</dim>
					<dim>1</dim>
					<dim>1</dim>
				</port>
			</input>
			<output>
				<port id="2" names="384" precision="FP32">
					<dim>1</dim>
					<dim>144</dim>
					<dim>176</dim>
					<dim>176</dim>
				</port>
			</output>
		</layer>
		<layer id="39" name="385" type="Clamp" version="opset1">
			<data max="6" min="0"/>
			<input>
				<port id="0" precision="FP32">
					<dim>1</dim>
					<dim>144</dim>
					<dim>176</dim>
					<dim>176</dim>
				</port>
			</input>
			<output>
				<port id="1" names="385" precision="FP32">
					<dim>1</dim>
					<dim>144</dim>
					<dim>176</dim>
					<dim>176</dim>
				</port>
			</output>
		</layer>
		<layer id="40" name="387/mean/Fused_Mul__copy" type="Const" version="opset1">
			<data element_type="f32" offset="45284" shape="144, 1, 1, 3, 3" size="5184"/>
			<output>
				<port id="0" names="backbone.features.stage2.unit2.conv2.conv.weight" precision="FP32">
					<dim>144</dim>
					<dim>1</dim>
					<dim>1</dim>
					<dim>3</dim>
					<dim>3</dim>
				</port>
			</output>
		</layer>
		<layer id="41" name="386" type="GroupConvolution" version="opset1">
			<data auto_pad="explicit" dilations="1, 1" pads_begin="1, 1" pads_end="1, 1" strides="1, 1"/>
			<input>
				<port id="0" precision="FP32">
					<dim>1</dim>
					<dim>144</dim>
					<dim>176</dim>
					<dim>176</dim>
				</port>
				<port id="1" precision="FP32">
					<dim>144</dim>
					<dim>1</dim>
					<dim>1</dim>
					<dim>3</dim>
					<dim>3</dim>
				</port>
			</input>
			<output>
				<port id="2" precision="FP32">
					<dim>1</dim>
					<dim>144</dim>
					<dim>176</dim>
					<dim>176</dim>
				</port>
			</output>
		</layer>
		<layer id="42" name="data_add_3448334488" type="Const" version="opset1">
			<data element_type="f32" offset="50468" shape="1, 144, 1, 1" size="576"/>
			<output>
				<port id="0" precision="FP32">
					<dim>1</dim>
					<dim>144</dim>
					<dim>1</dim>
					<dim>1</dim>
				</port>
			</output>
		</layer>
		<layer id="43" name="387/variance/Fused_Add_" type="Add" version="opset1">
			<data auto_broadcast="numpy"/>
			<input>
				<port id="0" precision="FP32">
					<dim>1</dim>
					<dim>144</dim>
					<dim>176</dim>
					<dim>176</dim>
				</port>
				<port id="1" precision="FP32">
					<dim>1</dim>
					<dim>144</dim>
					<dim>1</dim>
					<dim>1</dim>
				</port>
			</input>
			<output>
				<port id="2" names="387" precision="FP32">
					<dim>1</dim>
					<dim>144</dim>
					<dim>176</dim>
					<dim>176</dim>
				</port>
			</output>
		</layer>
		<layer id="44" name="388" type="Clamp" version="opset1">
			<data max="6" min="0"/>
			<input>
				<port id="0" precision="FP32">
					<dim>1</dim>
					<dim>144</dim>
					<dim>176</dim>
					<dim>176</dim>
				</port>
			</input>
			<output>
				<port id="1" names="388" precision="FP32">
					<dim>1</dim>
					<dim>144</dim>
					<dim>176</dim>
					<dim>176</dim>
				</port>
			</output>
		</layer>
		<layer id="45" name="390/mean/Fused_Mul__copy" type="Const" version="opset1">
			<data element_type="f32" offset="51044" shape="24, 144, 1, 1" size="13824"/>
			<output>
				<port id="0" names="backbone.features.stage2.unit2.conv3.conv.weight" precision="FP32">
					<dim>24</dim>
					<dim>144</dim>
					<dim>1</dim>
					<dim>1</dim>
				</port>
			</output>
		</layer>
		<layer id="46" name="389" type="Convolution" version="opset1">
			<data auto_pad="explicit" dilations="1, 1" pads_begin="0, 0" pads_end="0, 0" strides="1, 1"/>
			<input>
				<port id="0" precision="FP32">
					<dim>1</dim>
					<dim>144</dim>
					<dim>176</dim>
					<dim>176</dim>
				</port>
				<port id="1" precision="FP32">
					<dim>24</dim>
					<dim>144</dim>
					<dim>1</dim>
					<dim>1</dim>
				</port>
			</input>
			<output>
				<port id="2" precision="FP32">
					<dim>1</dim>
					<dim>24</dim>
					<dim>176</dim>
					<dim>176</dim>
				</port>
			</output>
		</layer>
		<layer id="47" name="data_add_3449134496" type="Const" version="opset1">
			<data element_type="f32" offset="64868" shape="1, 24, 1, 1" size="96"/>
			<output>
				<port id="0" precision="FP32">
					<dim>1</dim>
					<dim>24</dim>
					<dim>1</dim>
					<dim>1</dim>
				</port>
			</output>
		</layer>
		<layer id="48" name="390/variance/Fused_Add_" type="Add" version="opset1">
			<data auto_broadcast="numpy"/>
			<input>
				<port id="0" precision="FP32">
					<dim>1</dim>
					<dim>24</dim>
					<dim>176</dim>
					<dim>176</dim>
				</port>
				<port id="1" precision="FP32">
					<dim>1</dim>
					<dim>24</dim>
					<dim>1</dim>
					<dim>1</dim>
				</port>
			</input>
			<output>
				<port id="2" names="390" precision="FP32">
					<dim>1</dim>
					<dim>24</dim>
					<dim>176</dim>
					<dim>176</dim>
				</port>
			</output>
		</layer>
		<layer id="49" name="391" type="Add" version="opset1">
			<data auto_broadcast="numpy"/>
			<input>
				<port id="0" precision="FP32">
					<dim>1</dim>
					<dim>24</dim>
					<dim>176</dim>
					<dim>176</dim>
				</port>
				<port id="1" precision="FP32">
					<dim>1</dim>
					<dim>24</dim>
					<dim>176</dim>
					<dim>176</dim>
				</port>
			</input>
			<output>
				<port id="2" names="391" precision="FP32">
					<dim>1</dim>
					<dim>24</dim>
					<dim>176</dim>
					<dim>176</dim>
				</port>
			</output>
		</layer>
		<layer id="50" name="393/mean/Fused_Mul__copy" type="Const" version="opset1">
			<data element_type="f32" offset="64964" shape="144, 24, 1, 1" size="13824"/>
			<output>
				<port id="0" names="backbone.features.stage3.unit1.conv1.conv.weight" precision="FP32">
					<dim>144</dim>
					<dim>24</dim>
					<dim>1</dim>
					<dim>1</dim>
				</port>
			</output>
		</layer>
		<layer id="51" name="392" type="Convolution" version="opset1">
			<data auto_pad="explicit" dilations="1, 1" pads_begin="0, 0" pads_end="0, 0" strides="1, 1"/>
			<input>
				<port id="0" precision="FP32">
					<dim>1</dim>
					<dim>24</dim>
					<dim>176</dim>
					<dim>176</dim>
				</port>
				<port id="1" precision="FP32">
					<dim>144</dim>
					<dim>24</dim>
					<dim>1</dim>
					<dim>1</dim>
				</port>
			</input>
			<output>
				<port id="2" precision="FP32">
					<dim>1</dim>
					<dim>144</dim>
					<dim>176</dim>
					<dim>176</dim>
				</port>
			</output>
		</layer>
		<layer id="52" name="data_add_3449934504" type="Const" version="opset1">
			<data element_type="f32" offset="78788" shape="1, 144, 1, 1" size="576"/>
			<output>
				<port id="0" precision="FP32">
					<dim>1</dim>
					<dim>144</dim>
					<dim>1</dim>
					<dim>1</dim>
				</port>
			</output>
		</layer>
		<layer id="53" name="393/variance/Fused_Add_" type="Add" version="opset1">
			<data auto_broadcast="numpy"/>
			<input>
				<port id="0" precision="FP32">
					<dim>1</dim>
					<dim>144</dim>
					<dim>176</dim>
					<dim>176</dim>
				</port>
				<port id="1" precision="FP32">
					<dim>1</dim>
					<dim>144</dim>
					<dim>1</dim>
					<dim>1</dim>
				</port>
			</input>
			<output>
				<port id="2" names="393" precision="FP32">
					<dim>1</dim>
					<dim>144</dim>
					<dim>176</dim>
					<dim>176</dim>
				</port>
			</output>
		</layer>
		<layer id="54" name="394" type="Clamp" version="opset1">
			<data max="6" min="0"/>
			<input>
				<port id="0" precision="FP32">
					<dim>1</dim>
					<dim>144</dim>
					<dim>176</dim>
					<dim>176</dim>
				</port>
			</input>
			<output>
				<port id="1" names="394" precision="FP32">
					<dim>1</dim>
					<dim>144</dim>
					<dim>176</dim>
					<dim>176</dim>
				</port>
			</output>
		</layer>
		<layer id="55" name="396/mean/Fused_Mul__copy" type="Const" version="opset1">
			<data element_type="f32" offset="79364" shape="144, 1, 1, 3, 3" size="5184"/>
			<output>
				<port id="0" names="backbone.features.stage3.unit1.conv2.conv.weight" precision="FP32">
					<dim>144</dim>
					<dim>1</dim>
					<dim>1</dim>
					<dim>3</dim>
					<dim>3</dim>
				</port>
			</output>
		</layer>
		<layer id="56" name="395" type="GroupConvolution" version="opset1">
			<data auto_pad="explicit" dilations="1, 1" pads_begin="1, 1" pads_end="1, 1" strides="2, 2"/>
			<input>
				<port id="0" precision="FP32">
					<dim>1</dim>
					<dim>144</dim>
					<dim>176</dim>
					<dim>176</dim>
				</port>
				<port id="1" precision="FP32">
					<dim>144</dim>
					<dim>1</dim>
					<dim>1</dim>
					<dim>3</dim>
					<dim>3</dim>
				</port>
			</input>
			<output>
				<port id="2" precision="FP32">
					<dim>1</dim>
					<dim>144</dim>
					<dim>88</dim>
					<dim>88</dim>
				</port>
			</output>
		</layer>
		<layer id="57" name="data_add_3450734512" type="Const" version="opset1">
			<data element_type="f32" offset="84548" shape="1, 144, 1, 1" size="576"/>
			<output>
				<port id="0" precision="FP32">
					<dim>1</dim>
					<dim>144</dim>
					<dim>1</dim>
					<dim>1</dim>
				</port>
			</output>
		</layer>
		<layer id="58" name="396/variance/Fused_Add_" type="Add" version="opset1">
			<data auto_broadcast="numpy"/>
			<input>
				<port id="0" precision="FP32">
					<dim>1</dim>
					<dim>144</dim>
					<dim>88</dim>
					<dim>88</dim>
				</port>
				<port id="1" precision="FP32">
					<dim>1</dim>
					<dim>144</dim>
					<dim>1</dim>
					<dim>1</dim>
				</port>
			</input>
			<output>
				<port id="2" names="396" precision="FP32">
					<dim>1</dim>
					<dim>144</dim>
					<dim>88</dim>
					<dim>88</dim>
				</port>
			</output>
		</layer>
		<layer id="59" name="397" type="Clamp" version="opset1">
			<data max="6" min="0"/>
			<input>
				<port id="0" precision="FP32">
					<dim>1</dim>
					<dim>144</dim>
					<dim>88</dim>
					<dim>88</dim>
				</port>
			</input>
			<output>
				<port id="1" names="397" precision="FP32">
					<dim>1</dim>
					<dim>144</dim>
					<dim>88</dim>
					<dim>88</dim>
				</port>
			</output>
		</layer>
		<layer id="60" name="399/mean/Fused_Mul__copy" type="Const" version="opset1">
			<data element_type="f32" offset="85124" shape="32, 144, 1, 1" size="18432"/>
			<output>
				<port id="0" names="backbone.features.stage3.unit1.conv3.conv.weight" precision="FP32">
					<dim>32</dim>
					<dim>144</dim>
					<dim>1</dim>
					<dim>1</dim>
				</port>
			</output>
		</layer>
		<layer id="61" name="398" type="Convolution" version="opset1">
			<data auto_pad="explicit" dilations="1, 1" pads_begin="0, 0" pads_end="0, 0" strides="1, 1"/>
			<input>
				<port id="0" precision="FP32">
					<dim>1</dim>
					<dim>144</dim>
					<dim>88</dim>
					<dim>88</dim>
				</port>
				<port id="1" precision="FP32">
					<dim>32</dim>
					<dim>144</dim>
					<dim>1</dim>
					<dim>1</dim>
				</port>
			</input>
			<output>
				<port id="2" precision="FP32">
					<dim>1</dim>
					<dim>32</dim>
					<dim>88</dim>
					<dim>88</dim>
				</port>
			</output>
		</layer>
		<layer id="62" name="data_add_3451534520" type="Const" version="opset1">
			<data element_type="f32" offset="103556" shape="1, 32, 1, 1" size="128"/>
			<output>
				<port id="0" precision="FP32">
					<dim>1</dim>
					<dim>32</dim>
					<dim>1</dim>
					<dim>1</dim>
				</port>
			</output>
		</layer>
		<layer id="63" name="399/variance/Fused_Add_" type="Add" version="opset1">
			<data auto_broadcast="numpy"/>
			<input>
				<port id="0" precision="FP32">
					<dim>1</dim>
					<dim>32</dim>
					<dim>88</dim>
					<dim>88</dim>
				</port>
				<port id="1" precision="FP32">
					<dim>1</dim>
					<dim>32</dim>
					<dim>1</dim>
					<dim>1</dim>
				</port>
			</input>
			<output>
				<port id="2" names="399" precision="FP32">
					<dim>1</dim>
					<dim>32</dim>
					<dim>88</dim>
					<dim>88</dim>
				</port>
			</output>
		</layer>
		<layer id="64" name="401/mean/Fused_Mul__copy" type="Const" version="opset1">
			<data element_type="f32" offset="103684" shape="192, 32, 1, 1" size="24576"/>
			<output>
				<port id="0" names="backbone.features.stage3.unit2.conv1.conv.weight" precision="FP32">
					<dim>192</dim>
					<dim>32</dim>
					<dim>1</dim>
					<dim>1</dim>
				</port>
			</output>
		</layer>
		<layer id="65" name="400" type="Convolution" version="opset1">
			<data auto_pad="explicit" dilations="1, 1" pads_begin="0, 0" pads_end="0, 0" strides="1, 1"/>
			<input>
				<port id="0" precision="FP32">
					<dim>1</dim>
					<dim>32</dim>
					<dim>88</dim>
					<dim>88</dim>
				</port>
				<port id="1" precision="FP32">
					<dim>192</dim>
					<dim>32</dim>
					<dim>1</dim>
					<dim>1</dim>
				</port>
			</input>
			<output>
				<port id="2" precision="FP32">
					<dim>1</dim>
					<dim>192</dim>
					<dim>88</dim>
					<dim>88</dim>
				</port>
			</output>
		</layer>
		<layer id="66" name="data_add_3452334528" type="Const" version="opset1">
			<data element_type="f32" offset="128260" shape="1, 192, 1, 1" size="768"/>
			<output>
				<port id="0" precision="FP32">
					<dim>1</dim>
					<dim>192</dim>
					<dim>1</dim>
					<dim>1</dim>
				</port>
			</output>
		</layer>
		<layer id="67" name="401/variance/Fused_Add_" type="Add" version="opset1">
			<data auto_broadcast="numpy"/>
			<input>
				<port id="0" precision="FP32">
					<dim>1</dim>
					<dim>192</dim>
					<dim>88</dim>
					<dim>88</dim>
				</port>
				<port id="1" precision="FP32">
					<dim>1</dim>
					<dim>192</dim>
					<dim>1</dim>
					<dim>1</dim>
				</port>
			</input>
			<output>
				<port id="2" names="401" precision="FP32">
					<dim>1</dim>
					<dim>192</dim>
					<dim>88</dim>
					<dim>88</dim>
				</port>
			</output>
		</layer>
		<layer id="68" name="402" type="Clamp" version="opset1">
			<data max="6" min="0"/>
			<input>
				<port id="0" precision="FP32">
					<dim>1</dim>
					<dim>192</dim>
					<dim>88</dim>
					<dim>88</dim>
				</port>
			</input>
			<output>
				<port id="1" names="402" precision="FP32">
					<dim>1</dim>
					<dim>192</dim>
					<dim>88</dim>
					<dim>88</dim>
				</port>
			</output>
		</layer>
		<layer id="69" name="404/mean/Fused_Mul__copy" type="Const" version="opset1">
			<data element_type="f32" offset="129028" shape="192, 1, 1, 3, 3" size="6912"/>
			<output>
				<port id="0" names="backbone.features.stage3.unit2.conv2.conv.weight" precision="FP32">
					<dim>192</dim>
					<dim>1</dim>
					<dim>1</dim>
					<dim>3</dim>
					<dim>3</dim>
				</port>
			</output>
		</layer>
		<layer id="70" name="403" type="GroupConvolution" version="opset1">
			<data auto_pad="explicit" dilations="1, 1" pads_begin="1, 1" pads_end="1, 1" strides="1, 1"/>
			<input>
				<port id="0" precision="FP32">
					<dim>1</dim>
					<dim>192</dim>
					<dim>88</dim>
					<dim>88</dim>
				</port>
				<port id="1" precision="FP32">
					<dim>192</dim>
					<dim>1</dim>
					<dim>1</dim>
					<dim>3</dim>
					<dim>3</dim>
				</port>
			</input>
			<output>
				<port id="2" precision="FP32">
					<dim>1</dim>
					<dim>192</dim>
					<dim>88</dim>
					<dim>88</dim>
				</port>
			</output>
		</layer>
		<layer id="71" name="data_add_3453134536" type="Const" version="opset1">
			<data element_type="f32" offset="135940" shape="1, 192, 1, 1" size="768"/>
			<output>
				<port id="0" precision="FP32">
					<dim>1</dim>
					<dim>192</dim>
					<dim>1</dim>
					<dim>1</dim>
				</port>
			</output>
		</layer>
		<layer id="72" name="404/variance/Fused_Add_" type="Add" version="opset1">
			<data auto_broadcast="numpy"/>
			<input>
				<port id="0" precision="FP32">
					<dim>1</dim>
					<dim>192</dim>
					<dim>88</dim>
					<dim>88</dim>
				</port>
				<port id="1" precision="FP32">
					<dim>1</dim>
					<dim>192</dim>
					<dim>1</dim>
					<dim>1</dim>
				</port>
			</input>
			<output>
				<port id="2" names="404" precision="FP32">
					<dim>1</dim>
					<dim>192</dim>
					<dim>88</dim>
					<dim>88</dim>
				</port>
			</output>
		</layer>
		<layer id="73" name="405" type="Clamp" version="opset1">
			<data max="6" min="0"/>
			<input>
				<port id="0" precision="FP32">
					<dim>1</dim>
					<dim>192</dim>
					<dim>88</dim>
					<dim>88</dim>
				</port>
			</input>
			<output>
				<port id="1" names="405" precision="FP32">
					<dim>1</dim>
					<dim>192</dim>
					<dim>88</dim>
					<dim>88</dim>
				</port>
			</output>
		</layer>
		<layer id="74" name="407/mean/Fused_Mul__copy" type="Const" version="opset1">
			<data element_type="f32" offset="136708" shape="32, 192, 1, 1" size="24576"/>
			<output>
				<port id="0" names="backbone.features.stage3.unit2.conv3.conv.weight" precision="FP32">
					<dim>32</dim>
					<dim>192</dim>
					<dim>1</dim>
					<dim>1</dim>
				</port>
			</output>
		</layer>
		<layer id="75" name="406" type="Convolution" version="opset1">
			<data auto_pad="explicit" dilations="1, 1" pads_begin="0, 0" pads_end="0, 0" strides="1, 1"/>
			<input>
				<port id="0" precision="FP32">
					<dim>1</dim>
					<dim>192</dim>
					<dim>88</dim>
					<dim>88</dim>
				</port>
				<port id="1" precision="FP32">
					<dim>32</dim>
					<dim>192</dim>
					<dim>1</dim>
					<dim>1</dim>
				</port>
			</input>
			<output>
				<port id="2" precision="FP32">
					<dim>1</dim>
					<dim>32</dim>
					<dim>88</dim>
					<dim>88</dim>
				</port>
			</output>
		</layer>
		<layer id="76" name="data_add_3453934544" type="Const" version="opset1">
			<data element_type="f32" offset="161284" shape="1, 32, 1, 1" size="128"/>
			<output>
				<port id="0" precision="FP32">
					<dim>1</dim>
					<dim>32</dim>
					<dim>1</dim>
					<dim>1</dim>
				</port>
			</output>
		</layer>
		<layer id="77" name="407/variance/Fused_Add_" type="Add" version="opset1">
			<data auto_broadcast="numpy"/>
			<input>
				<port id="0" precision="FP32">
					<dim>1</dim>
					<dim>32</dim>
					<dim>88</dim>
					<dim>88</dim>
				</port>
				<port id="1" precision="FP32">
					<dim>1</dim>
					<dim>32</dim>
					<dim>1</dim>
					<dim>1</dim>
				</port>
			</input>
			<output>
				<port id="2" names="407" precision="FP32">
					<dim>1</dim>
					<dim>32</dim>
					<dim>88</dim>
					<dim>88</dim>
				</port>
			</output>
		</layer>
		<layer id="78" name="408" type="Add" version="opset1">
			<data auto_broadcast="numpy"/>
			<input>
				<port id="0" precision="FP32">
					<dim>1</dim>
					<dim>32</dim>
					<dim>88</dim>
					<dim>88</dim>
				</port>
				<port id="1" precision="FP32">
					<dim>1</dim>
					<dim>32</dim>
					<dim>88</dim>
					<dim>88</dim>
				</port>
			</input>
			<output>
				<port id="2" names="408" precision="FP32">
					<dim>1</dim>
					<dim>32</dim>
					<dim>88</dim>
					<dim>88</dim>
				</port>
			</output>
		</layer>
		<layer id="79" name="410/mean/Fused_Mul__copy" type="Const" version="opset1">
			<data element_type="f32" offset="161412" shape="192, 32, 1, 1" size="24576"/>
			<output>
				<port id="0" names="backbone.features.stage3.unit3.conv1.conv.weight" precision="FP32">
					<dim>192</dim>
					<dim>32</dim>
					<dim>1</dim>
					<dim>1</dim>
				</port>
			</output>
		</layer>
		<layer id="80" name="409" type="Convolution" version="opset1">
			<data auto_pad="explicit" dilations="1, 1" pads_begin="0, 0" pads_end="0, 0" strides="1, 1"/>
			<input>
				<port id="0" precision="FP32">
					<dim>1</dim>
					<dim>32</dim>
					<dim>88</dim>
					<dim>88</dim>
				</port>
				<port id="1" precision="FP32">
					<dim>192</dim>
					<dim>32</dim>
					<dim>1</dim>
					<dim>1</dim>
				</port>
			</input>
			<output>
				<port id="2" precision="FP32">
					<dim>1</dim>
					<dim>192</dim>
					<dim>88</dim>
					<dim>88</dim>
				</port>
			</output>
		</layer>
		<layer id="81" name="data_add_3454734552" type="Const" version="opset1">
			<data element_type="f32" offset="185988" shape="1, 192, 1, 1" size="768"/>
			<output>
				<port id="0" precision="FP32">
					<dim>1</dim>
					<dim>192</dim>
					<dim>1</dim>
					<dim>1</dim>
				</port>
			</output>
		</layer>
		<layer id="82" name="410/variance/Fused_Add_" type="Add" version="opset1">
			<data auto_broadcast="numpy"/>
			<input>
				<port id="0" precision="FP32">
					<dim>1</dim>
					<dim>192</dim>
					<dim>88</dim>
					<dim>88</dim>
				</port>
				<port id="1" precision="FP32">
					<dim>1</dim>
					<dim>192</dim>
					<dim>1</dim>
					<dim>1</dim>
				</port>
			</input>
			<output>
				<port id="2" names="410" precision="FP32">
					<dim>1</dim>
					<dim>192</dim>
					<dim>88</dim>
					<dim>88</dim>
				</port>
			</output>
		</layer>
		<layer id="83" name="411" type="Clamp" version="opset1">
			<data max="6" min="0"/>
			<input>
				<port id="0" precision="FP32">
					<dim>1</dim>
					<dim>192</dim>
					<dim>88</dim>
					<dim>88</dim>
				</port>
			</input>
			<output>
				<port id="1" names="411" precision="FP32">
					<dim>1</dim>
					<dim>192</dim>
					<dim>88</dim>
					<dim>88</dim>
				</port>
			</output>
		</layer>
		<layer id="84" name="413/mean/Fused_Mul__copy" type="Const" version="opset1">
			<data element_type="f32" offset="186756" shape="192, 1, 1, 3, 3" size="6912"/>
			<output>
				<port id="0" names="backbone.features.stage3.unit3.conv2.conv.weight" precision="FP32">
					<dim>192</dim>
					<dim>1</dim>
					<dim>1</dim>
					<dim>3</dim>
					<dim>3</dim>
				</port>
			</output>
		</layer>
		<layer id="85" name="412" type="GroupConvolution" version="opset1">
			<data auto_pad="explicit" dilations="1, 1" pads_begin="1, 1" pads_end="1, 1" strides="1, 1"/>
			<input>
				<port id="0" precision="FP32">
					<dim>1</dim>
					<dim>192</dim>
					<dim>88</dim>
					<dim>88</dim>
				</port>
				<port id="1" precision="FP32">
					<dim>192</dim>
					<dim>1</dim>
					<dim>1</dim>
					<dim>3</dim>
					<dim>3</dim>
				</port>
			</input>
			<output>
				<port id="2" precision="FP32">
					<dim>1</dim>
					<dim>192</dim>
					<dim>88</dim>
					<dim>88</dim>
				</port>
			</output>
		</layer>
		<layer id="86" name="data_add_3455534560" type="Const" version="opset1">
			<data element_type="f32" offset="193668" shape="1, 192, 1, 1" size="768"/>
			<output>
				<port id="0" precision="FP32">
					<dim>1</dim>
					<dim>192</dim>
					<dim>1</dim>
					<dim>1</dim>
				</port>
			</output>
		</layer>
		<layer id="87" name="413/variance/Fused_Add_" type="Add" version="opset1">
			<data auto_broadcast="numpy"/>
			<input>
				<port id="0" precision="FP32">
					<dim>1</dim>
					<dim>192</dim>
					<dim>88</dim>
					<dim>88</dim>
				</port>
				<port id="1" precision="FP32">
					<dim>1</dim>
					<dim>192</dim>
					<dim>1</dim>
					<dim>1</dim>
				</port>
			</input>
			<output>
				<port id="2" names="413" precision="FP32">
					<dim>1</dim>
					<dim>192</dim>
					<dim>88</dim>
					<dim>88</dim>
				</port>
			</output>
		</layer>
		<layer id="88" name="414" type="Clamp" version="opset1">
			<data max="6" min="0"/>
			<input>
				<port id="0" precision="FP32">
					<dim>1</dim>
					<dim>192</dim>
					<dim>88</dim>
					<dim>88</dim>
				</port>
			</input>
			<output>
				<port id="1" names="414" precision="FP32">
					<dim>1</dim>
					<dim>192</dim>
					<dim>88</dim>
					<dim>88</dim>
				</port>
			</output>
		</layer>
		<layer id="89" name="416/mean/Fused_Mul__copy" type="Const" version="opset1">
			<data element_type="f32" offset="194436" shape="32, 192, 1, 1" size="24576"/>
			<output>
				<port id="0" names="backbone.features.stage3.unit3.conv3.conv.weight" precision="FP32">
					<dim>32</dim>
					<dim>192</dim>
					<dim>1</dim>
					<dim>1</dim>
				</port>
			</output>
		</layer>
		<layer id="90" name="415" type="Convolution" version="opset1">
			<data auto_pad="explicit" dilations="1, 1" pads_begin="0, 0" pads_end="0, 0" strides="1, 1"/>
			<input>
				<port id="0" precision="FP32">
					<dim>1</dim>
					<dim>192</dim>
					<dim>88</dim>
					<dim>88</dim>
				</port>
				<port id="1" precision="FP32">
					<dim>32</dim>
					<dim>192</dim>
					<dim>1</dim>
					<dim>1</dim>
				</port>
			</input>
			<output>
				<port id="2" precision="FP32">
					<dim>1</dim>
					<dim>32</dim>
					<dim>88</dim>
					<dim>88</dim>
				</port>
			</output>
		</layer>
		<layer id="91" name="data_add_3456334568" type="Const" version="opset1">
			<data element_type="f32" offset="219012" shape="1, 32, 1, 1" size="128"/>
			<output>
				<port id="0" precision="FP32">
					<dim>1</dim>
					<dim>32</dim>
					<dim>1</dim>
					<dim>1</dim>
				</port>
			</output>
		</layer>
		<layer id="92" name="416/variance/Fused_Add_" type="Add" version="opset1">
			<data auto_broadcast="numpy"/>
			<input>
				<port id="0" precision="FP32">
					<dim>1</dim>
					<dim>32</dim>
					<dim>88</dim>
					<dim>88</dim>
				</port>
				<port id="1" precision="FP32">
					<dim>1</dim>
					<dim>32</dim>
					<dim>1</dim>
					<dim>1</dim>
				</port>
			</input>
			<output>
				<port id="2" names="416" precision="FP32">
					<dim>1</dim>
					<dim>32</dim>
					<dim>88</dim>
					<dim>88</dim>
				</port>
			</output>
		</layer>
		<layer id="93" name="417" type="Add" version="opset1">
			<data auto_broadcast="numpy"/>
			<input>
				<port id="0" precision="FP32">
					<dim>1</dim>
					<dim>32</dim>
					<dim>88</dim>
					<dim>88</dim>
				</port>
				<port id="1" precision="FP32">
					<dim>1</dim>
					<dim>32</dim>
					<dim>88</dim>
					<dim>88</dim>
				</port>
			</input>
			<output>
				<port id="2" names="417" precision="FP32">
					<dim>1</dim>
					<dim>32</dim>
					<dim>88</dim>
					<dim>88</dim>
				</port>
			</output>
		</layer>
		<layer id="94" name="neck.lateral_convs.0.conv.weight" type="Const" version="opset1">
			<data element_type="f32" offset="219140" shape="32, 32, 1, 1" size="4096"/>
			<output>
				<port id="0" names="neck.lateral_convs.0.conv.weight" precision="FP32">
					<dim>32</dim>
					<dim>32</dim>
					<dim>1</dim>
					<dim>1</dim>
				</port>
			</output>
		</layer>
		<layer id="95" name="513/WithoutBiases" type="Convolution" version="opset1">
			<data auto_pad="explicit" dilations="1, 1" pads_begin="0, 0" pads_end="0, 0" strides="1, 1"/>
			<input>
				<port id="0" precision="FP32">
					<dim>1</dim>
					<dim>32</dim>
					<dim>88</dim>
					<dim>88</dim>
				</port>
				<port id="1" precision="FP32">
					<dim>32</dim>
					<dim>32</dim>
					<dim>1</dim>
					<dim>1</dim>
				</port>
			</input>
			<output>
				<port id="2" precision="FP32">
					<dim>1</dim>
					<dim>32</dim>
					<dim>88</dim>
					<dim>88</dim>
				</port>
			</output>
		</layer>
		<layer id="96" name="513/Dims20759" type="Const" version="opset1">
			<data element_type="f32" offset="223236" shape="1, 32, 1, 1" size="128"/>
			<output>
				<port id="0" precision="FP32">
					<dim>1</dim>
					<dim>32</dim>
					<dim>1</dim>
					<dim>1</dim>
				</port>
			</output>
		</layer>
		<layer id="97" name="513" type="Add" version="opset1">
			<data auto_broadcast="numpy"/>
			<input>
				<port id="0" precision="FP32">
					<dim>1</dim>
					<dim>32</dim>
					<dim>88</dim>
					<dim>88</dim>
				</port>
				<port id="1" precision="FP32">
					<dim>1</dim>
					<dim>32</dim>
					<dim>1</dim>
					<dim>1</dim>
				</port>
			</input>
			<output>
				<port id="2" names="513" precision="FP32">
					<dim>1</dim>
					<dim>32</dim>
					<dim>88</dim>
					<dim>88</dim>
				</port>
			</output>
		</layer>
		<layer id="98" name="419/mean/Fused_Mul__copy" type="Const" version="opset1">
			<data element_type="f32" offset="223364" shape="192, 32, 1, 1" size="24576"/>
			<output>
				<port id="0" names="backbone.features.stage4.unit1.conv1.conv.weight" precision="FP32">
					<dim>192</dim>
					<dim>32</dim>
					<dim>1</dim>
					<dim>1</dim>
				</port>
			</output>
		</layer>
		<layer id="99" name="418" type="Convolution" version="opset1">
			<data auto_pad="explicit" dilations="1, 1" pads_begin="0, 0" pads_end="0, 0" strides="1, 1"/>
			<input>
				<port id="0" precision="FP32">
					<dim>1</dim>
					<dim>32</dim>
					<dim>88</dim>
					<dim>88</dim>
				</port>
				<port id="1" precision="FP32">
					<dim>192</dim>
					<dim>32</dim>
					<dim>1</dim>
					<dim>1</dim>
				</port>
			</input>
			<output>
				<port id="2" precision="FP32">
					<dim>1</dim>
					<dim>192</dim>
					<dim>88</dim>
					<dim>88</dim>
				</port>
			</output>
		</layer>
		<layer id="100" name="data_add_3457134576" type="Const" version="opset1">
			<data element_type="f32" offset="247940" shape="1, 192, 1, 1" size="768"/>
			<output>
				<port id="0" precision="FP32">
					<dim>1</dim>
					<dim>192</dim>
					<dim>1</dim>
					<dim>1</dim>
				</port>
			</output>
		</layer>
		<layer id="101" name="419/variance/Fused_Add_" type="Add" version="opset1">
			<data auto_broadcast="numpy"/>
			<input>
				<port id="0" precision="FP32">
					<dim>1</dim>
					<dim>192</dim>
					<dim>88</dim>
					<dim>88</dim>
				</port>
				<port id="1" precision="FP32">
					<dim>1</dim>
					<dim>192</dim>
					<dim>1</dim>
					<dim>1</dim>
				</port>
			</input>
			<output>
				<port id="2" names="419" precision="FP32">
					<dim>1</dim>
					<dim>192</dim>
					<dim>88</dim>
					<dim>88</dim>
				</port>
			</output>
		</layer>
		<layer id="102" name="420" type="Clamp" version="opset1">
			<data max="6" min="0"/>
			<input>
				<port id="0" precision="FP32">
					<dim>1</dim>
					<dim>192</dim>
					<dim>88</dim>
					<dim>88</dim>
				</port>
			</input>
			<output>
				<port id="1" names="420" precision="FP32">
					<dim>1</dim>
					<dim>192</dim>
					<dim>88</dim>
					<dim>88</dim>
				</port>
			</output>
		</layer>
		<layer id="103" name="422/mean/Fused_Mul__copy" type="Const" version="opset1">
			<data element_type="f32" offset="248708" shape="192, 1, 1, 3, 3" size="6912"/>
			<output>
				<port id="0" names="backbone.features.stage4.unit1.conv2.conv.weight" precision="FP32">
					<dim>192</dim>
					<dim>1</dim>
					<dim>1</dim>
					<dim>3</dim>
					<dim>3</dim>
				</port>
			</output>
		</layer>
		<layer id="104" name="421" type="GroupConvolution" version="opset1">
			<data auto_pad="explicit" dilations="1, 1" pads_begin="1, 1" pads_end="1, 1" strides="2, 2"/>
			<input>
				<port id="0" precision="FP32">
					<dim>1</dim>
					<dim>192</dim>
					<dim>88</dim>
					<dim>88</dim>
				</port>
				<port id="1" precision="FP32">
					<dim>192</dim>
					<dim>1</dim>
					<dim>1</dim>
					<dim>3</dim>
					<dim>3</dim>
				</port>
			</input>
			<output>
				<port id="2" precision="FP32">
					<dim>1</dim>
					<dim>192</dim>
					<dim>44</dim>
					<dim>44</dim>
				</port>
			</output>
		</layer>
		<layer id="105" name="data_add_3457934584" type="Const" version="opset1">
			<data element_type="f32" offset="255620" shape="1, 192, 1, 1" size="768"/>
			<output>
				<port id="0" precision="FP32">
					<dim>1</dim>
					<dim>192</dim>
					<dim>1</dim>
					<dim>1</dim>
				</port>
			</output>
		</layer>
		<layer id="106" name="422/variance/Fused_Add_" type="Add" version="opset1">
			<data auto_broadcast="numpy"/>
			<input>
				<port id="0" precision="FP32">
					<dim>1</dim>
					<dim>192</dim>
					<dim>44</dim>
					<dim>44</dim>
				</port>
				<port id="1" precision="FP32">
					<dim>1</dim>
					<dim>192</dim>
					<dim>1</dim>
					<dim>1</dim>
				</port>
			</input>
			<output>
				<port id="2" names="422" precision="FP32">
					<dim>1</dim>
					<dim>192</dim>
					<dim>44</dim>
					<dim>44</dim>
				</port>
			</output>
		</layer>
		<layer id="107" name="423" type="Clamp" version="opset1">
			<data max="6" min="0"/>
			<input>
				<port id="0" precision="FP32">
					<dim>1</dim>
					<dim>192</dim>
					<dim>44</dim>
					<dim>44</dim>
				</port>
			</input>
			<output>
				<port id="1" names="423" precision="FP32">
					<dim>1</dim>
					<dim>192</dim>
					<dim>44</dim>
					<dim>44</dim>
				</port>
			</output>
		</layer>
		<layer id="108" name="425/mean/Fused_Mul__copy" type="Const" version="opset1">
			<data element_type="f32" offset="256388" shape="64, 192, 1, 1" size="49152"/>
			<output>
				<port id="0" names="backbone.features.stage4.unit1.conv3.conv.weight" precision="FP32">
					<dim>64</dim>
					<dim>192</dim>
					<dim>1</dim>
					<dim>1</dim>
				</port>
			</output>
		</layer>
		<layer id="109" name="424" type="Convolution" version="opset1">
			<data auto_pad="explicit" dilations="1, 1" pads_begin="0, 0" pads_end="0, 0" strides="1, 1"/>
			<input>
				<port id="0" precision="FP32">
					<dim>1</dim>
					<dim>192</dim>
					<dim>44</dim>
					<dim>44</dim>
				</port>
				<port id="1" precision="FP32">
					<dim>64</dim>
					<dim>192</dim>
					<dim>1</dim>
					<dim>1</dim>
				</port>
			</input>
			<output>
				<port id="2" precision="FP32">
					<dim>1</dim>
					<dim>64</dim>
					<dim>44</dim>
					<dim>44</dim>
				</port>
			</output>
		</layer>
		<layer id="110" name="data_add_3458734592" type="Const" version="opset1">
			<data element_type="f32" offset="305540" shape="1, 64, 1, 1" size="256"/>
			<output>
				<port id="0" precision="FP32">
					<dim>1</dim>
					<dim>64</dim>
					<dim>1</dim>
					<dim>1</dim>
				</port>
			</output>
		</layer>
		<layer id="111" name="425/variance/Fused_Add_" type="Add" version="opset1">
			<data auto_broadcast="numpy"/>
			<input>
				<port id="0" precision="FP32">
					<dim>1</dim>
					<dim>64</dim>
					<dim>44</dim>
					<dim>44</dim>
				</port>
				<port id="1" precision="FP32">
					<dim>1</dim>
					<dim>64</dim>
					<dim>1</dim>
					<dim>1</dim>
				</port>
			</input>
			<output>
				<port id="2" names="425" precision="FP32">
					<dim>1</dim>
					<dim>64</dim>
					<dim>44</dim>
					<dim>44</dim>
				</port>
			</output>
		</layer>
		<layer id="112" name="427/mean/Fused_Mul__copy" type="Const" version="opset1">
			<data element_type="f32" offset="305796" shape="384, 64, 1, 1" size="98304"/>
			<output>
				<port id="0" names="backbone.features.stage4.unit2.conv1.conv.weight" precision="FP32">
					<dim>384</dim>
					<dim>64</dim>
					<dim>1</dim>
					<dim>1</dim>
				</port>
			</output>
		</layer>
		<layer id="113" name="426" type="Convolution" version="opset1">
			<data auto_pad="explicit" dilations="1, 1" pads_begin="0, 0" pads_end="0, 0" strides="1, 1"/>
			<input>
				<port id="0" precision="FP32">
					<dim>1</dim>
					<dim>64</dim>
					<dim>44</dim>
					<dim>44</dim>
				</port>
				<port id="1" precision="FP32">
					<dim>384</dim>
					<dim>64</dim>
					<dim>1</dim>
					<dim>1</dim>
				</port>
			</input>
			<output>
				<port id="2" precision="FP32">
					<dim>1</dim>
					<dim>384</dim>
					<dim>44</dim>
					<dim>44</dim>
				</port>
			</output>
		</layer>
		<layer id="114" name="data_add_3459534600" type="Const" version="opset1">
			<data element_type="f32" offset="404100" shape="1, 384, 1, 1" size="1536"/>
			<output>
				<port id="0" precision="FP32">
					<dim>1</dim>
					<dim>384</dim>
					<dim>1</dim>
					<dim>1</dim>
				</port>
			</output>
		</layer>
		<layer id="115" name="427/variance/Fused_Add_" type="Add" version="opset1">
			<data auto_broadcast="numpy"/>
			<input>
				<port id="0" precision="FP32">
					<dim>1</dim>
					<dim>384</dim>
					<dim>44</dim>
					<dim>44</dim>
				</port>
				<port id="1" precision="FP32">
					<dim>1</dim>
					<dim>384</dim>
					<dim>1</dim>
					<dim>1</dim>
				</port>
			</input>
			<output>
				<port id="2" names="427" precision="FP32">
					<dim>1</dim>
					<dim>384</dim>
					<dim>44</dim>
					<dim>44</dim>
				</port>
			</output>
		</layer>
		<layer id="116" name="428" type="Clamp" version="opset1">
			<data max="6" min="0"/>
			<input>
				<port id="0" precision="FP32">
					<dim>1</dim>
					<dim>384</dim>
					<dim>44</dim>
					<dim>44</dim>
				</port>
			</input>
			<output>
				<port id="1" names="428" precision="FP32">
					<dim>1</dim>
					<dim>384</dim>
					<dim>44</dim>
					<dim>44</dim>
				</port>
			</output>
		</layer>
		<layer id="117" name="430/mean/Fused_Mul__copy" type="Const" version="opset1">
			<data element_type="f32" offset="405636" shape="384, 1, 1, 3, 3" size="13824"/>
			<output>
				<port id="0" names="backbone.features.stage4.unit2.conv2.conv.weight" precision="FP32">
					<dim>384</dim>
					<dim>1</dim>
					<dim>1</dim>
					<dim>3</dim>
					<dim>3</dim>
				</port>
			</output>
		</layer>
		<layer id="118" name="429" type="GroupConvolution" version="opset1">
			<data auto_pad="explicit" dilations="1, 1" pads_begin="1, 1" pads_end="1, 1" strides="1, 1"/>
			<input>
				<port id="0" precision="FP32">
					<dim>1</dim>
					<dim>384</dim>
					<dim>44</dim>
					<dim>44</dim>
				</port>
				<port id="1" precision="FP32">
					<dim>384</dim>
					<dim>1</dim>
					<dim>1</dim>
					<dim>3</dim>
					<dim>3</dim>
				</port>
			</input>
			<output>
				<port id="2" precision="FP32">
					<dim>1</dim>
					<dim>384</dim>
					<dim>44</dim>
					<dim>44</dim>
				</port>
			</output>
		</layer>
		<layer id="119" name="data_add_3460334608" type="Const" version="opset1">
			<data element_type="f32" offset="419460" shape="1, 384, 1, 1" size="1536"/>
			<output>
				<port id="0" precision="FP32">
					<dim>1</dim>
					<dim>384</dim>
					<dim>1</dim>
					<dim>1</dim>
				</port>
			</output>
		</layer>
		<layer id="120" name="430/variance/Fused_Add_" type="Add" version="opset1">
			<data auto_broadcast="numpy"/>
			<input>
				<port id="0" precision="FP32">
					<dim>1</dim>
					<dim>384</dim>
					<dim>44</dim>
					<dim>44</dim>
				</port>
				<port id="1" precision="FP32">
					<dim>1</dim>
					<dim>384</dim>
					<dim>1</dim>
					<dim>1</dim>
				</port>
			</input>
			<output>
				<port id="2" names="430" precision="FP32">
					<dim>1</dim>
					<dim>384</dim>
					<dim>44</dim>
					<dim>44</dim>
				</port>
			</output>
		</layer>
		<layer id="121" name="431" type="Clamp" version="opset1">
			<data max="6" min="0"/>
			<input>
				<port id="0" precision="FP32">
					<dim>1</dim>
					<dim>384</dim>
					<dim>44</dim>
					<dim>44</dim>
				</port>
			</input>
			<output>
				<port id="1" names="431" precision="FP32">
					<dim>1</dim>
					<dim>384</dim>
					<dim>44</dim>
					<dim>44</dim>
				</port>
			</output>
		</layer>
		<layer id="122" name="433/mean/Fused_Mul__copy" type="Const" version="opset1">
			<data element_type="f32" offset="420996" shape="64, 384, 1, 1" size="98304"/>
			<output>
				<port id="0" names="backbone.features.stage4.unit2.conv3.conv.weight" precision="FP32">
					<dim>64</dim>
					<dim>384</dim>
					<dim>1</dim>
					<dim>1</dim>
				</port>
			</output>
		</layer>
		<layer id="123" name="432" type="Convolution" version="opset1">
			<data auto_pad="explicit" dilations="1, 1" pads_begin="0, 0" pads_end="0, 0" strides="1, 1"/>
			<input>
				<port id="0" precision="FP32">
					<dim>1</dim>
					<dim>384</dim>
					<dim>44</dim>
					<dim>44</dim>
				</port>
				<port id="1" precision="FP32">
					<dim>64</dim>
					<dim>384</dim>
					<dim>1</dim>
					<dim>1</dim>
				</port>
			</input>
			<output>
				<port id="2" precision="FP32">
					<dim>1</dim>
					<dim>64</dim>
					<dim>44</dim>
					<dim>44</dim>
				</port>
			</output>
		</layer>
		<layer id="124" name="data_add_3461134616" type="Const" version="opset1">
			<data element_type="f32" offset="519300" shape="1, 64, 1, 1" size="256"/>
			<output>
				<port id="0" precision="FP32">
					<dim>1</dim>
					<dim>64</dim>
					<dim>1</dim>
					<dim>1</dim>
				</port>
			</output>
		</layer>
		<layer id="125" name="433/variance/Fused_Add_" type="Add" version="opset1">
			<data auto_broadcast="numpy"/>
			<input>
				<port id="0" precision="FP32">
					<dim>1</dim>
					<dim>64</dim>
					<dim>44</dim>
					<dim>44</dim>
				</port>
				<port id="1" precision="FP32">
					<dim>1</dim>
					<dim>64</dim>
					<dim>1</dim>
					<dim>1</dim>
				</port>
			</input>
			<output>
				<port id="2" names="433" precision="FP32">
					<dim>1</dim>
					<dim>64</dim>
					<dim>44</dim>
					<dim>44</dim>
				</port>
			</output>
		</layer>
		<layer id="126" name="434" type="Add" version="opset1">
			<data auto_broadcast="numpy"/>
			<input>
				<port id="0" precision="FP32">
					<dim>1</dim>
					<dim>64</dim>
					<dim>44</dim>
					<dim>44</dim>
				</port>
				<port id="1" precision="FP32">
					<dim>1</dim>
					<dim>64</dim>
					<dim>44</dim>
					<dim>44</dim>
				</port>
			</input>
			<output>
				<port id="2" names="434" precision="FP32">
					<dim>1</dim>
					<dim>64</dim>
					<dim>44</dim>
					<dim>44</dim>
				</port>
			</output>
		</layer>
		<layer id="127" name="436/mean/Fused_Mul__copy" type="Const" version="opset1">
			<data element_type="f32" offset="519556" shape="384, 64, 1, 1" size="98304"/>
			<output>
				<port id="0" names="backbone.features.stage4.unit3.conv1.conv.weight" precision="FP32">
					<dim>384</dim>
					<dim>64</dim>
					<dim>1</dim>
					<dim>1</dim>
				</port>
			</output>
		</layer>
		<layer id="128" name="435" type="Convolution" version="opset1">
			<data auto_pad="explicit" dilations="1, 1" pads_begin="0, 0" pads_end="0, 0" strides="1, 1"/>
			<input>
				<port id="0" precision="FP32">
					<dim>1</dim>
					<dim>64</dim>
					<dim>44</dim>
					<dim>44</dim>
				</port>
				<port id="1" precision="FP32">
					<dim>384</dim>
					<dim>64</dim>
					<dim>1</dim>
					<dim>1</dim>
				</port>
			</input>
			<output>
				<port id="2" precision="FP32">
					<dim>1</dim>
					<dim>384</dim>
					<dim>44</dim>
					<dim>44</dim>
				</port>
			</output>
		</layer>
		<layer id="129" name="data_add_3461934624" type="Const" version="opset1">
			<data element_type="f32" offset="617860" shape="1, 384, 1, 1" size="1536"/>
			<output>
				<port id="0" precision="FP32">
					<dim>1</dim>
					<dim>384</dim>
					<dim>1</dim>
					<dim>1</dim>
				</port>
			</output>
		</layer>
		<layer id="130" name="436/variance/Fused_Add_" type="Add" version="opset1">
			<data auto_broadcast="numpy"/>
			<input>
				<port id="0" precision="FP32">
					<dim>1</dim>
					<dim>384</dim>
					<dim>44</dim>
					<dim>44</dim>
				</port>
				<port id="1" precision="FP32">
					<dim>1</dim>
					<dim>384</dim>
					<dim>1</dim>
					<dim>1</dim>
				</port>
			</input>
			<output>
				<port id="2" names="436" precision="FP32">
					<dim>1</dim>
					<dim>384</dim>
					<dim>44</dim>
					<dim>44</dim>
				</port>
			</output>
		</layer>
		<layer id="131" name="437" type="Clamp" version="opset1">
			<data max="6" min="0"/>
			<input>
				<port id="0" precision="FP32">
					<dim>1</dim>
					<dim>384</dim>
					<dim>44</dim>
					<dim>44</dim>
				</port>
			</input>
			<output>
				<port id="1" names="437" precision="FP32">
					<dim>1</dim>
					<dim>384</dim>
					<dim>44</dim>
					<dim>44</dim>
				</port>
			</output>
		</layer>
		<layer id="132" name="439/mean/Fused_Mul__copy" type="Const" version="opset1">
			<data element_type="f32" offset="619396" shape="384, 1, 1, 3, 3" size="13824"/>
			<output>
				<port id="0" names="backbone.features.stage4.unit3.conv2.conv.weight" precision="FP32">
					<dim>384</dim>
					<dim>1</dim>
					<dim>1</dim>
					<dim>3</dim>
					<dim>3</dim>
				</port>
			</output>
		</layer>
		<layer id="133" name="438" type="GroupConvolution" version="opset1">
			<data auto_pad="explicit" dilations="1, 1" pads_begin="1, 1" pads_end="1, 1" strides="1, 1"/>
			<input>
				<port id="0" precision="FP32">
					<dim>1</dim>
					<dim>384</dim>
					<dim>44</dim>
					<dim>44</dim>
				</port>
				<port id="1" precision="FP32">
					<dim>384</dim>
					<dim>1</dim>
					<dim>1</dim>
					<dim>3</dim>
					<dim>3</dim>
				</port>
			</input>
			<output>
				<port id="2" precision="FP32">
					<dim>1</dim>
					<dim>384</dim>
					<dim>44</dim>
					<dim>44</dim>
				</port>
			</output>
		</layer>
		<layer id="134" name="data_add_3462734632" type="Const" version="opset1">
			<data element_type="f32" offset="633220" shape="1, 384, 1, 1" size="1536"/>
			<output>
				<port id="0" precision="FP32">
					<dim>1</dim>
					<dim>384</dim>
					<dim>1</dim>
					<dim>1</dim>
				</port>
			</output>
		</layer>
		<layer id="135" name="439/variance/Fused_Add_" type="Add" version="opset1">
			<data auto_broadcast="numpy"/>
			<input>
				<port id="0" precision="FP32">
					<dim>1</dim>
					<dim>384</dim>
					<dim>44</dim>
					<dim>44</dim>
				</port>
				<port id="1" precision="FP32">
					<dim>1</dim>
					<dim>384</dim>
					<dim>1</dim>
					<dim>1</dim>
				</port>
			</input>
			<output>
				<port id="2" names="439" precision="FP32">
					<dim>1</dim>
					<dim>384</dim>
					<dim>44</dim>
					<dim>44</dim>
				</port>
			</output>
		</layer>
		<layer id="136" name="440" type="Clamp" version="opset1">
			<data max="6" min="0"/>
			<input>
				<port id="0" precision="FP32">
					<dim>1</dim>
					<dim>384</dim>
					<dim>44</dim>
					<dim>44</dim>
				</port>
			</input>
			<output>
				<port id="1" names="440" precision="FP32">
					<dim>1</dim>
					<dim>384</dim>
					<dim>44</dim>
					<dim>44</dim>
				</port>
			</output>
		</layer>
		<layer id="137" name="442/mean/Fused_Mul__copy" type="Const" version="opset1">
			<data element_type="f32" offset="634756" shape="64, 384, 1, 1" size="98304"/>
			<output>
				<port id="0" names="backbone.features.stage4.unit3.conv3.conv.weight" precision="FP32">
					<dim>64</dim>
					<dim>384</dim>
					<dim>1</dim>
					<dim>1</dim>
				</port>
			</output>
		</layer>
		<layer id="138" name="441" type="Convolution" version="opset1">
			<data auto_pad="explicit" dilations="1, 1" pads_begin="0, 0" pads_end="0, 0" strides="1, 1"/>
			<input>
				<port id="0" precision="FP32">
					<dim>1</dim>
					<dim>384</dim>
					<dim>44</dim>
					<dim>44</dim>
				</port>
				<port id="1" precision="FP32">
					<dim>64</dim>
					<dim>384</dim>
					<dim>1</dim>
					<dim>1</dim>
				</port>
			</input>
			<output>
				<port id="2" precision="FP32">
					<dim>1</dim>
					<dim>64</dim>
					<dim>44</dim>
					<dim>44</dim>
				</port>
			</output>
		</layer>
		<layer id="139" name="data_add_3463534640" type="Const" version="opset1">
			<data element_type="f32" offset="733060" shape="1, 64, 1, 1" size="256"/>
			<output>
				<port id="0" precision="FP32">
					<dim>1</dim>
					<dim>64</dim>
					<dim>1</dim>
					<dim>1</dim>
				</port>
			</output>
		</layer>
		<layer id="140" name="442/variance/Fused_Add_" type="Add" version="opset1">
			<data auto_broadcast="numpy"/>
			<input>
				<port id="0" precision="FP32">
					<dim>1</dim>
					<dim>64</dim>
					<dim>44</dim>
					<dim>44</dim>
				</port>
				<port id="1" precision="FP32">
					<dim>1</dim>
					<dim>64</dim>
					<dim>1</dim>
					<dim>1</dim>
				</port>
			</input>
			<output>
				<port id="2" names="442" precision="FP32">
					<dim>1</dim>
					<dim>64</dim>
					<dim>44</dim>
					<dim>44</dim>
				</port>
			</output>
		</layer>
		<layer id="141" name="443" type="Add" version="opset1">
			<data auto_broadcast="numpy"/>
			<input>
				<port id="0" precision="FP32">
					<dim>1</dim>
					<dim>64</dim>
					<dim>44</dim>
					<dim>44</dim>
				</port>
				<port id="1" precision="FP32">
					<dim>1</dim>
					<dim>64</dim>
					<dim>44</dim>
					<dim>44</dim>
				</port>
			</input>
			<output>
				<port id="2" names="443" precision="FP32">
					<dim>1</dim>
					<dim>64</dim>
					<dim>44</dim>
					<dim>44</dim>
				</port>
			</output>
		</layer>
		<layer id="142" name="445/mean/Fused_Mul__copy" type="Const" version="opset1">
			<data element_type="f32" offset="733316" shape="384, 64, 1, 1" size="98304"/>
			<output>
				<port id="0" names="backbone.features.stage4.unit4.conv1.conv.weight" precision="FP32">
					<dim>384</dim>
					<dim>64</dim>
					<dim>1</dim>
					<dim>1</dim>
				</port>
			</output>
		</layer>
		<layer id="143" name="444" type="Convolution" version="opset1">
			<data auto_pad="explicit" dilations="1, 1" pads_begin="0, 0" pads_end="0, 0" strides="1, 1"/>
			<input>
				<port id="0" precision="FP32">
					<dim>1</dim>
					<dim>64</dim>
					<dim>44</dim>
					<dim>44</dim>
				</port>
				<port id="1" precision="FP32">
					<dim>384</dim>
					<dim>64</dim>
					<dim>1</dim>
					<dim>1</dim>
				</port>
			</input>
			<output>
				<port id="2" precision="FP32">
					<dim>1</dim>
					<dim>384</dim>
					<dim>44</dim>
					<dim>44</dim>
				</port>
			</output>
		</layer>
		<layer id="144" name="data_add_3464334648" type="Const" version="opset1">
			<data element_type="f32" offset="831620" shape="1, 384, 1, 1" size="1536"/>
			<output>
				<port id="0" precision="FP32">
					<dim>1</dim>
					<dim>384</dim>
					<dim>1</dim>
					<dim>1</dim>
				</port>
			</output>
		</layer>
		<layer id="145" name="445/variance/Fused_Add_" type="Add" version="opset1">
			<data auto_broadcast="numpy"/>
			<input>
				<port id="0" precision="FP32">
					<dim>1</dim>
					<dim>384</dim>
					<dim>44</dim>
					<dim>44</dim>
				</port>
				<port id="1" precision="FP32">
					<dim>1</dim>
					<dim>384</dim>
					<dim>1</dim>
					<dim>1</dim>
				</port>
			</input>
			<output>
				<port id="2" names="445" precision="FP32">
					<dim>1</dim>
					<dim>384</dim>
					<dim>44</dim>
					<dim>44</dim>
				</port>
			</output>
		</layer>
		<layer id="146" name="446" type="Clamp" version="opset1">
			<data max="6" min="0"/>
			<input>
				<port id="0" precision="FP32">
					<dim>1</dim>
					<dim>384</dim>
					<dim>44</dim>
					<dim>44</dim>
				</port>
			</input>
			<output>
				<port id="1" names="446" precision="FP32">
					<dim>1</dim>
					<dim>384</dim>
					<dim>44</dim>
					<dim>44</dim>
				</port>
			</output>
		</layer>
		<layer id="147" name="448/mean/Fused_Mul__copy" type="Const" version="opset1">
			<data element_type="f32" offset="833156" shape="384, 1, 1, 3, 3" size="13824"/>
			<output>
				<port id="0" names="backbone.features.stage4.unit4.conv2.conv.weight" precision="FP32">
					<dim>384</dim>
					<dim>1</dim>
					<dim>1</dim>
					<dim>3</dim>
					<dim>3</dim>
				</port>
			</output>
		</layer>
		<layer id="148" name="447" type="GroupConvolution" version="opset1">
			<data auto_pad="explicit" dilations="1, 1" pads_begin="1, 1" pads_end="1, 1" strides="1, 1"/>
			<input>
				<port id="0" precision="FP32">
					<dim>1</dim>
					<dim>384</dim>
					<dim>44</dim>
					<dim>44</dim>
				</port>
				<port id="1" precision="FP32">
					<dim>384</dim>
					<dim>1</dim>
					<dim>1</dim>
					<dim>3</dim>
					<dim>3</dim>
				</port>
			</input>
			<output>
				<port id="2" precision="FP32">
					<dim>1</dim>
					<dim>384</dim>
					<dim>44</dim>
					<dim>44</dim>
				</port>
			</output>
		</layer>
		<layer id="149" name="data_add_3465134656" type="Const" version="opset1">
			<data element_type="f32" offset="846980" shape="1, 384, 1, 1" size="1536"/>
			<output>
				<port id="0" precision="FP32">
					<dim>1</dim>
					<dim>384</dim>
					<dim>1</dim>
					<dim>1</dim>
				</port>
			</output>
		</layer>
		<layer id="150" name="448/variance/Fused_Add_" type="Add" version="opset1">
			<data auto_broadcast="numpy"/>
			<input>
				<port id="0" precision="FP32">
					<dim>1</dim>
					<dim>384</dim>
					<dim>44</dim>
					<dim>44</dim>
				</port>
				<port id="1" precision="FP32">
					<dim>1</dim>
					<dim>384</dim>
					<dim>1</dim>
					<dim>1</dim>
				</port>
			</input>
			<output>
				<port id="2" names="448" precision="FP32">
					<dim>1</dim>
					<dim>384</dim>
					<dim>44</dim>
					<dim>44</dim>
				</port>
			</output>
		</layer>
		<layer id="151" name="449" type="Clamp" version="opset1">
			<data max="6" min="0"/>
			<input>
				<port id="0" precision="FP32">
					<dim>1</dim>
					<dim>384</dim>
					<dim>44</dim>
					<dim>44</dim>
				</port>
			</input>
			<output>
				<port id="1" names="449" precision="FP32">
					<dim>1</dim>
					<dim>384</dim>
					<dim>44</dim>
					<dim>44</dim>
				</port>
			</output>
		</layer>
		<layer id="152" name="451/mean/Fused_Mul__copy" type="Const" version="opset1">
			<data element_type="f32" offset="848516" shape="64, 384, 1, 1" size="98304"/>
			<output>
				<port id="0" names="backbone.features.stage4.unit4.conv3.conv.weight" precision="FP32">
					<dim>64</dim>
					<dim>384</dim>
					<dim>1</dim>
					<dim>1</dim>
				</port>
			</output>
		</layer>
		<layer id="153" name="450" type="Convolution" version="opset1">
			<data auto_pad="explicit" dilations="1, 1" pads_begin="0, 0" pads_end="0, 0" strides="1, 1"/>
			<input>
				<port id="0" precision="FP32">
					<dim>1</dim>
					<dim>384</dim>
					<dim>44</dim>
					<dim>44</dim>
				</port>
				<port id="1" precision="FP32">
					<dim>64</dim>
					<dim>384</dim>
					<dim>1</dim>
					<dim>1</dim>
				</port>
			</input>
			<output>
				<port id="2" precision="FP32">
					<dim>1</dim>
					<dim>64</dim>
					<dim>44</dim>
					<dim>44</dim>
				</port>
			</output>
		</layer>
		<layer id="154" name="data_add_3465934664" type="Const" version="opset1">
			<data element_type="f32" offset="946820" shape="1, 64, 1, 1" size="256"/>
			<output>
				<port id="0" precision="FP32">
					<dim>1</dim>
					<dim>64</dim>
					<dim>1</dim>
					<dim>1</dim>
				</port>
			</output>
		</layer>
		<layer id="155" name="451/variance/Fused_Add_" type="Add" version="opset1">
			<data auto_broadcast="numpy"/>
			<input>
				<port id="0" precision="FP32">
					<dim>1</dim>
					<dim>64</dim>
					<dim>44</dim>
					<dim>44</dim>
				</port>
				<port id="1" precision="FP32">
					<dim>1</dim>
					<dim>64</dim>
					<dim>1</dim>
					<dim>1</dim>
				</port>
			</input>
			<output>
				<port id="2" names="451" precision="FP32">
					<dim>1</dim>
					<dim>64</dim>
					<dim>44</dim>
					<dim>44</dim>
				</port>
			</output>
		</layer>
		<layer id="156" name="452" type="Add" version="opset1">
			<data auto_broadcast="numpy"/>
			<input>
				<port id="0" precision="FP32">
					<dim>1</dim>
					<dim>64</dim>
					<dim>44</dim>
					<dim>44</dim>
				</port>
				<port id="1" precision="FP32">
					<dim>1</dim>
					<dim>64</dim>
					<dim>44</dim>
					<dim>44</dim>
				</port>
			</input>
			<output>
				<port id="2" names="452" precision="FP32">
					<dim>1</dim>
					<dim>64</dim>
					<dim>44</dim>
					<dim>44</dim>
				</port>
			</output>
		</layer>
		<layer id="157" name="454/mean/Fused_Mul__copy" type="Const" version="opset1">
			<data element_type="f32" offset="947076" shape="384, 64, 1, 1" size="98304"/>
			<output>
				<port id="0" names="backbone.features.stage4.unit5.conv1.conv.weight" precision="FP32">
					<dim>384</dim>
					<dim>64</dim>
					<dim>1</dim>
					<dim>1</dim>
				</port>
			</output>
		</layer>
		<layer id="158" name="453" type="Convolution" version="opset1">
			<data auto_pad="explicit" dilations="1, 1" pads_begin="0, 0" pads_end="0, 0" strides="1, 1"/>
			<input>
				<port id="0" precision="FP32">
					<dim>1</dim>
					<dim>64</dim>
					<dim>44</dim>
					<dim>44</dim>
				</port>
				<port id="1" precision="FP32">
					<dim>384</dim>
					<dim>64</dim>
					<dim>1</dim>
					<dim>1</dim>
				</port>
			</input>
			<output>
				<port id="2" precision="FP32">
					<dim>1</dim>
					<dim>384</dim>
					<dim>44</dim>
					<dim>44</dim>
				</port>
			</output>
		</layer>
		<layer id="159" name="data_add_3466734672" type="Const" version="opset1">
			<data element_type="f32" offset="1045380" shape="1, 384, 1, 1" size="1536"/>
			<output>
				<port id="0" precision="FP32">
					<dim>1</dim>
					<dim>384</dim>
					<dim>1</dim>
					<dim>1</dim>
				</port>
			</output>
		</layer>
		<layer id="160" name="454/variance/Fused_Add_" type="Add" version="opset1">
			<data auto_broadcast="numpy"/>
			<input>
				<port id="0" precision="FP32">
					<dim>1</dim>
					<dim>384</dim>
					<dim>44</dim>
					<dim>44</dim>
				</port>
				<port id="1" precision="FP32">
					<dim>1</dim>
					<dim>384</dim>
					<dim>1</dim>
					<dim>1</dim>
				</port>
			</input>
			<output>
				<port id="2" names="454" precision="FP32">
					<dim>1</dim>
					<dim>384</dim>
					<dim>44</dim>
					<dim>44</dim>
				</port>
			</output>
		</layer>
		<layer id="161" name="455" type="Clamp" version="opset1">
			<data max="6" min="0"/>
			<input>
				<port id="0" precision="FP32">
					<dim>1</dim>
					<dim>384</dim>
					<dim>44</dim>
					<dim>44</dim>
				</port>
			</input>
			<output>
				<port id="1" names="455" precision="FP32">
					<dim>1</dim>
					<dim>384</dim>
					<dim>44</dim>
					<dim>44</dim>
				</port>
			</output>
		</layer>
		<layer id="162" name="457/mean/Fused_Mul__copy" type="Const" version="opset1">
			<data element_type="f32" offset="1046916" shape="384, 1, 1, 3, 3" size="13824"/>
			<output>
				<port id="0" names="backbone.features.stage4.unit5.conv2.conv.weight" precision="FP32">
					<dim>384</dim>
					<dim>1</dim>
					<dim>1</dim>
					<dim>3</dim>
					<dim>3</dim>
				</port>
			</output>
		</layer>
		<layer id="163" name="456" type="GroupConvolution" version="opset1">
			<data auto_pad="explicit" dilations="1, 1" pads_begin="1, 1" pads_end="1, 1" strides="1, 1"/>
			<input>
				<port id="0" precision="FP32">
					<dim>1</dim>
					<dim>384</dim>
					<dim>44</dim>
					<dim>44</dim>
				</port>
				<port id="1" precision="FP32">
					<dim>384</dim>
					<dim>1</dim>
					<dim>1</dim>
					<dim>3</dim>
					<dim>3</dim>
				</port>
			</input>
			<output>
				<port id="2" precision="FP32">
					<dim>1</dim>
					<dim>384</dim>
					<dim>44</dim>
					<dim>44</dim>
				</port>
			</output>
		</layer>
		<layer id="164" name="data_add_3467534680" type="Const" version="opset1">
			<data element_type="f32" offset="1060740" shape="1, 384, 1, 1" size="1536"/>
			<output>
				<port id="0" precision="FP32">
					<dim>1</dim>
					<dim>384</dim>
					<dim>1</dim>
					<dim>1</dim>
				</port>
			</output>
		</layer>
		<layer id="165" name="457/variance/Fused_Add_" type="Add" version="opset1">
			<data auto_broadcast="numpy"/>
			<input>
				<port id="0" precision="FP32">
					<dim>1</dim>
					<dim>384</dim>
					<dim>44</dim>
					<dim>44</dim>
				</port>
				<port id="1" precision="FP32">
					<dim>1</dim>
					<dim>384</dim>
					<dim>1</dim>
					<dim>1</dim>
				</port>
			</input>
			<output>
				<port id="2" names="457" precision="FP32">
					<dim>1</dim>
					<dim>384</dim>
					<dim>44</dim>
					<dim>44</dim>
				</port>
			</output>
		</layer>
		<layer id="166" name="458" type="Clamp" version="opset1">
			<data max="6" min="0"/>
			<input>
				<port id="0" precision="FP32">
					<dim>1</dim>
					<dim>384</dim>
					<dim>44</dim>
					<dim>44</dim>
				</port>
			</input>
			<output>
				<port id="1" names="458" precision="FP32">
					<dim>1</dim>
					<dim>384</dim>
					<dim>44</dim>
					<dim>44</dim>
				</port>
			</output>
		</layer>
		<layer id="167" name="460/mean/Fused_Mul__copy" type="Const" version="opset1">
			<data element_type="f32" offset="1062276" shape="96, 384, 1, 1" size="147456"/>
			<output>
				<port id="0" names="backbone.features.stage4.unit5.conv3.conv.weight" precision="FP32">
					<dim>96</dim>
					<dim>384</dim>
					<dim>1</dim>
					<dim>1</dim>
				</port>
			</output>
		</layer>
		<layer id="168" name="459" type="Convolution" version="opset1">
			<data auto_pad="explicit" dilations="1, 1" pads_begin="0, 0" pads_end="0, 0" strides="1, 1"/>
			<input>
				<port id="0" precision="FP32">
					<dim>1</dim>
					<dim>384</dim>
					<dim>44</dim>
					<dim>44</dim>
				</port>
				<port id="1" precision="FP32">
					<dim>96</dim>
					<dim>384</dim>
					<dim>1</dim>
					<dim>1</dim>
				</port>
			</input>
			<output>
				<port id="2" precision="FP32">
					<dim>1</dim>
					<dim>96</dim>
					<dim>44</dim>
					<dim>44</dim>
				</port>
			</output>
		</layer>
		<layer id="169" name="data_add_3468334688" type="Const" version="opset1">
			<data element_type="f32" offset="1209732" shape="1, 96, 1, 1" size="384"/>
			<output>
				<port id="0" precision="FP32">
					<dim>1</dim>
					<dim>96</dim>
					<dim>1</dim>
					<dim>1</dim>
				</port>
			</output>
		</layer>
		<layer id="170" name="460/variance/Fused_Add_" type="Add" version="opset1">
			<data auto_broadcast="numpy"/>
			<input>
				<port id="0" precision="FP32">
					<dim>1</dim>
					<dim>96</dim>
					<dim>44</dim>
					<dim>44</dim>
				</port>
				<port id="1" precision="FP32">
					<dim>1</dim>
					<dim>96</dim>
					<dim>1</dim>
					<dim>1</dim>
				</port>
			</input>
			<output>
				<port id="2" names="460" precision="FP32">
					<dim>1</dim>
					<dim>96</dim>
					<dim>44</dim>
					<dim>44</dim>
				</port>
			</output>
		</layer>
		<layer id="171" name="462/mean/Fused_Mul__copy" type="Const" version="opset1">
			<data element_type="f32" offset="1210116" shape="576, 96, 1, 1" size="221184"/>
			<output>
				<port id="0" names="backbone.features.stage4.unit6.conv1.conv.weight" precision="FP32">
					<dim>576</dim>
					<dim>96</dim>
					<dim>1</dim>
					<dim>1</dim>
				</port>
			</output>
		</layer>
		<layer id="172" name="461" type="Convolution" version="opset1">
			<data auto_pad="explicit" dilations="1, 1" pads_begin="0, 0" pads_end="0, 0" strides="1, 1"/>
			<input>
				<port id="0" precision="FP32">
					<dim>1</dim>
					<dim>96</dim>
					<dim>44</dim>
					<dim>44</dim>
				</port>
				<port id="1" precision="FP32">
					<dim>576</dim>
					<dim>96</dim>
					<dim>1</dim>
					<dim>1</dim>
				</port>
			</input>
			<output>
				<port id="2" precision="FP32">
					<dim>1</dim>
					<dim>576</dim>
					<dim>44</dim>
					<dim>44</dim>
				</port>
			</output>
		</layer>
		<layer id="173" name="data_add_3469134696" type="Const" version="opset1">
			<data element_type="f32" offset="1431300" shape="1, 576, 1, 1" size="2304"/>
			<output>
				<port id="0" precision="FP32">
					<dim>1</dim>
					<dim>576</dim>
					<dim>1</dim>
					<dim>1</dim>
				</port>
			</output>
		</layer>
		<layer id="174" name="462/variance/Fused_Add_" type="Add" version="opset1">
			<data auto_broadcast="numpy"/>
			<input>
				<port id="0" precision="FP32">
					<dim>1</dim>
					<dim>576</dim>
					<dim>44</dim>
					<dim>44</dim>
				</port>
				<port id="1" precision="FP32">
					<dim>1</dim>
					<dim>576</dim>
					<dim>1</dim>
					<dim>1</dim>
				</port>
			</input>
			<output>
				<port id="2" names="462" precision="FP32">
					<dim>1</dim>
					<dim>576</dim>
					<dim>44</dim>
					<dim>44</dim>
				</port>
			</output>
		</layer>
		<layer id="175" name="463" type="Clamp" version="opset1">
			<data max="6" min="0"/>
			<input>
				<port id="0" precision="FP32">
					<dim>1</dim>
					<dim>576</dim>
					<dim>44</dim>
					<dim>44</dim>
				</port>
			</input>
			<output>
				<port id="1" names="463" precision="FP32">
					<dim>1</dim>
					<dim>576</dim>
					<dim>44</dim>
					<dim>44</dim>
				</port>
			</output>
		</layer>
		<layer id="176" name="465/mean/Fused_Mul__copy" type="Const" version="opset1">
			<data element_type="f32" offset="1433604" shape="576, 1, 1, 3, 3" size="20736"/>
			<output>
				<port id="0" names="backbone.features.stage4.unit6.conv2.conv.weight" precision="FP32">
					<dim>576</dim>
					<dim>1</dim>
					<dim>1</dim>
					<dim>3</dim>
					<dim>3</dim>
				</port>
			</output>
		</layer>
		<layer id="177" name="464" type="GroupConvolution" version="opset1">
			<data auto_pad="explicit" dilations="1, 1" pads_begin="1, 1" pads_end="1, 1" strides="1, 1"/>
			<input>
				<port id="0" precision="FP32">
					<dim>1</dim>
					<dim>576</dim>
					<dim>44</dim>
					<dim>44</dim>
				</port>
				<port id="1" precision="FP32">
					<dim>576</dim>
					<dim>1</dim>
					<dim>1</dim>
					<dim>3</dim>
					<dim>3</dim>
				</port>
			</input>
			<output>
				<port id="2" precision="FP32">
					<dim>1</dim>
					<dim>576</dim>
					<dim>44</dim>
					<dim>44</dim>
				</port>
			</output>
		</layer>
		<layer id="178" name="data_add_3469934704" type="Const" version="opset1">
			<data element_type="f32" offset="1454340" shape="1, 576, 1, 1" size="2304"/>
			<output>
				<port id="0" precision="FP32">
					<dim>1</dim>
					<dim>576</dim>
					<dim>1</dim>
					<dim>1</dim>
				</port>
			</output>
		</layer>
		<layer id="179" name="465/variance/Fused_Add_" type="Add" version="opset1">
			<data auto_broadcast="numpy"/>
			<input>
				<port id="0" precision="FP32">
					<dim>1</dim>
					<dim>576</dim>
					<dim>44</dim>
					<dim>44</dim>
				</port>
				<port id="1" precision="FP32">
					<dim>1</dim>
					<dim>576</dim>
					<dim>1</dim>
					<dim>1</dim>
				</port>
			</input>
			<output>
				<port id="2" names="465" precision="FP32">
					<dim>1</dim>
					<dim>576</dim>
					<dim>44</dim>
					<dim>44</dim>
				</port>
			</output>
		</layer>
		<layer id="180" name="466" type="Clamp" version="opset1">
			<data max="6" min="0"/>
			<input>
				<port id="0" precision="FP32">
					<dim>1</dim>
					<dim>576</dim>
					<dim>44</dim>
					<dim>44</dim>
				</port>
			</input>
			<output>
				<port id="1" names="466" precision="FP32">
					<dim>1</dim>
					<dim>576</dim>
					<dim>44</dim>
					<dim>44</dim>
				</port>
			</output>
		</layer>
		<layer id="181" name="468/mean/Fused_Mul__copy" type="Const" version="opset1">
			<data element_type="f32" offset="1456644" shape="96, 576, 1, 1" size="221184"/>
			<output>
				<port id="0" names="backbone.features.stage4.unit6.conv3.conv.weight" precision="FP32">
					<dim>96</dim>
					<dim>576</dim>
					<dim>1</dim>
					<dim>1</dim>
				</port>
			</output>
		</layer>
		<layer id="182" name="467" type="Convolution" version="opset1">
			<data auto_pad="explicit" dilations="1, 1" pads_begin="0, 0" pads_end="0, 0" strides="1, 1"/>
			<input>
				<port id="0" precision="FP32">
					<dim>1</dim>
					<dim>576</dim>
					<dim>44</dim>
					<dim>44</dim>
				</port>
				<port id="1" precision="FP32">
					<dim>96</dim>
					<dim>576</dim>
					<dim>1</dim>
					<dim>1</dim>
				</port>
			</input>
			<output>
				<port id="2" precision="FP32">
					<dim>1</dim>
					<dim>96</dim>
					<dim>44</dim>
					<dim>44</dim>
				</port>
			</output>
		</layer>
		<layer id="183" name="data_add_3470734712" type="Const" version="opset1">
			<data element_type="f32" offset="1677828" shape="1, 96, 1, 1" size="384"/>
			<output>
				<port id="0" precision="FP32">
					<dim>1</dim>
					<dim>96</dim>
					<dim>1</dim>
					<dim>1</dim>
				</port>
			</output>
		</layer>
		<layer id="184" name="468/variance/Fused_Add_" type="Add" version="opset1">
			<data auto_broadcast="numpy"/>
			<input>
				<port id="0" precision="FP32">
					<dim>1</dim>
					<dim>96</dim>
					<dim>44</dim>
					<dim>44</dim>
				</port>
				<port id="1" precision="FP32">
					<dim>1</dim>
					<dim>96</dim>
					<dim>1</dim>
					<dim>1</dim>
				</port>
			</input>
			<output>
				<port id="2" names="468" precision="FP32">
					<dim>1</dim>
					<dim>96</dim>
					<dim>44</dim>
					<dim>44</dim>
				</port>
			</output>
		</layer>
		<layer id="185" name="469" type="Add" version="opset1">
			<data auto_broadcast="numpy"/>
			<input>
				<port id="0" precision="FP32">
					<dim>1</dim>
					<dim>96</dim>
					<dim>44</dim>
					<dim>44</dim>
				</port>
				<port id="1" precision="FP32">
					<dim>1</dim>
					<dim>96</dim>
					<dim>44</dim>
					<dim>44</dim>
				</port>
			</input>
			<output>
				<port id="2" names="469" precision="FP32">
					<dim>1</dim>
					<dim>96</dim>
					<dim>44</dim>
					<dim>44</dim>
				</port>
			</output>
		</layer>
		<layer id="186" name="471/mean/Fused_Mul__copy" type="Const" version="opset1">
			<data element_type="f32" offset="1678212" shape="576, 96, 1, 1" size="221184"/>
			<output>
				<port id="0" names="backbone.features.stage4.unit7.conv1.conv.weight" precision="FP32">
					<dim>576</dim>
					<dim>96</dim>
					<dim>1</dim>
					<dim>1</dim>
				</port>
			</output>
		</layer>
		<layer id="187" name="470" type="Convolution" version="opset1">
			<data auto_pad="explicit" dilations="1, 1" pads_begin="0, 0" pads_end="0, 0" strides="1, 1"/>
			<input>
				<port id="0" precision="FP32">
					<dim>1</dim>
					<dim>96</dim>
					<dim>44</dim>
					<dim>44</dim>
				</port>
				<port id="1" precision="FP32">
					<dim>576</dim>
					<dim>96</dim>
					<dim>1</dim>
					<dim>1</dim>
				</port>
			</input>
			<output>
				<port id="2" precision="FP32">
					<dim>1</dim>
					<dim>576</dim>
					<dim>44</dim>
					<dim>44</dim>
				</port>
			</output>
		</layer>
		<layer id="188" name="data_add_3471534720" type="Const" version="opset1">
			<data element_type="f32" offset="1899396" shape="1, 576, 1, 1" size="2304"/>
			<output>
				<port id="0" precision="FP32">
					<dim>1</dim>
					<dim>576</dim>
					<dim>1</dim>
					<dim>1</dim>
				</port>
			</output>
		</layer>
		<layer id="189" name="471/variance/Fused_Add_" type="Add" version="opset1">
			<data auto_broadcast="numpy"/>
			<input>
				<port id="0" precision="FP32">
					<dim>1</dim>
					<dim>576</dim>
					<dim>44</dim>
					<dim>44</dim>
				</port>
				<port id="1" precision="FP32">
					<dim>1</dim>
					<dim>576</dim>
					<dim>1</dim>
					<dim>1</dim>
				</port>
			</input>
			<output>
				<port id="2" names="471" precision="FP32">
					<dim>1</dim>
					<dim>576</dim>
					<dim>44</dim>
					<dim>44</dim>
				</port>
			</output>
		</layer>
		<layer id="190" name="472" type="Clamp" version="opset1">
			<data max="6" min="0"/>
			<input>
				<port id="0" precision="FP32">
					<dim>1</dim>
					<dim>576</dim>
					<dim>44</dim>
					<dim>44</dim>
				</port>
			</input>
			<output>
				<port id="1" names="472" precision="FP32">
					<dim>1</dim>
					<dim>576</dim>
					<dim>44</dim>
					<dim>44</dim>
				</port>
			</output>
		</layer>
		<layer id="191" name="474/mean/Fused_Mul__copy" type="Const" version="opset1">
			<data element_type="f32" offset="1901700" shape="576, 1, 1, 3, 3" size="20736"/>
			<output>
				<port id="0" names="backbone.features.stage4.unit7.conv2.conv.weight" precision="FP32">
					<dim>576</dim>
					<dim>1</dim>
					<dim>1</dim>
					<dim>3</dim>
					<dim>3</dim>
				</port>
			</output>
		</layer>
		<layer id="192" name="473" type="GroupConvolution" version="opset1">
			<data auto_pad="explicit" dilations="1, 1" pads_begin="1, 1" pads_end="1, 1" strides="1, 1"/>
			<input>
				<port id="0" precision="FP32">
					<dim>1</dim>
					<dim>576</dim>
					<dim>44</dim>
					<dim>44</dim>
				</port>
				<port id="1" precision="FP32">
					<dim>576</dim>
					<dim>1</dim>
					<dim>1</dim>
					<dim>3</dim>
					<dim>3</dim>
				</port>
			</input>
			<output>
				<port id="2" precision="FP32">
					<dim>1</dim>
					<dim>576</dim>
					<dim>44</dim>
					<dim>44</dim>
				</port>
			</output>
		</layer>
		<layer id="193" name="data_add_3472334728" type="Const" version="opset1">
			<data element_type="f32" offset="1922436" shape="1, 576, 1, 1" size="2304"/>
			<output>
				<port id="0" precision="FP32">
					<dim>1</dim>
					<dim>576</dim>
					<dim>1</dim>
					<dim>1</dim>
				</port>
			</output>
		</layer>
		<layer id="194" name="474/variance/Fused_Add_" type="Add" version="opset1">
			<data auto_broadcast="numpy"/>
			<input>
				<port id="0" precision="FP32">
					<dim>1</dim>
					<dim>576</dim>
					<dim>44</dim>
					<dim>44</dim>
				</port>
				<port id="1" precision="FP32">
					<dim>1</dim>
					<dim>576</dim>
					<dim>1</dim>
					<dim>1</dim>
				</port>
			</input>
			<output>
				<port id="2" names="474" precision="FP32">
					<dim>1</dim>
					<dim>576</dim>
					<dim>44</dim>
					<dim>44</dim>
				</port>
			</output>
		</layer>
		<layer id="195" name="475" type="Clamp" version="opset1">
			<data max="6" min="0"/>
			<input>
				<port id="0" precision="FP32">
					<dim>1</dim>
					<dim>576</dim>
					<dim>44</dim>
					<dim>44</dim>
				</port>
			</input>
			<output>
				<port id="1" names="475" precision="FP32">
					<dim>1</dim>
					<dim>576</dim>
					<dim>44</dim>
					<dim>44</dim>
				</port>
			</output>
		</layer>
		<layer id="196" name="477/mean/Fused_Mul__copy" type="Const" version="opset1">
			<data element_type="f32" offset="1924740" shape="96, 576, 1, 1" size="221184"/>
			<output>
				<port id="0" names="backbone.features.stage4.unit7.conv3.conv.weight" precision="FP32">
					<dim>96</dim>
					<dim>576</dim>
					<dim>1</dim>
					<dim>1</dim>
				</port>
			</output>
		</layer>
		<layer id="197" name="476" type="Convolution" version="opset1">
			<data auto_pad="explicit" dilations="1, 1" pads_begin="0, 0" pads_end="0, 0" strides="1, 1"/>
			<input>
				<port id="0" precision="FP32">
					<dim>1</dim>
					<dim>576</dim>
					<dim>44</dim>
					<dim>44</dim>
				</port>
				<port id="1" precision="FP32">
					<dim>96</dim>
					<dim>576</dim>
					<dim>1</dim>
					<dim>1</dim>
				</port>
			</input>
			<output>
				<port id="2" precision="FP32">
					<dim>1</dim>
					<dim>96</dim>
					<dim>44</dim>
					<dim>44</dim>
				</port>
			</output>
		</layer>
		<layer id="198" name="data_add_3473134736" type="Const" version="opset1">
			<data element_type="f32" offset="2145924" shape="1, 96, 1, 1" size="384"/>
			<output>
				<port id="0" precision="FP32">
					<dim>1</dim>
					<dim>96</dim>
					<dim>1</dim>
					<dim>1</dim>
				</port>
			</output>
		</layer>
		<layer id="199" name="477/variance/Fused_Add_" type="Add" version="opset1">
			<data auto_broadcast="numpy"/>
			<input>
				<port id="0" precision="FP32">
					<dim>1</dim>
					<dim>96</dim>
					<dim>44</dim>
					<dim>44</dim>
				</port>
				<port id="1" precision="FP32">
					<dim>1</dim>
					<dim>96</dim>
					<dim>1</dim>
					<dim>1</dim>
				</port>
			</input>
			<output>
				<port id="2" names="477" precision="FP32">
					<dim>1</dim>
					<dim>96</dim>
					<dim>44</dim>
					<dim>44</dim>
				</port>
			</output>
		</layer>
		<layer id="200" name="478" type="Add" version="opset1">
			<data auto_broadcast="numpy"/>
			<input>
				<port id="0" precision="FP32">
					<dim>1</dim>
					<dim>96</dim>
					<dim>44</dim>
					<dim>44</dim>
				</port>
				<port id="1" precision="FP32">
					<dim>1</dim>
					<dim>96</dim>
					<dim>44</dim>
					<dim>44</dim>
				</port>
			</input>
			<output>
				<port id="2" names="478" precision="FP32">
					<dim>1</dim>
					<dim>96</dim>
					<dim>44</dim>
					<dim>44</dim>
				</port>
			</output>
		</layer>
		<layer id="201" name="neck.lateral_convs.1.conv.weight" type="Const" version="opset1">
			<data element_type="f32" offset="2146308" shape="32, 96, 1, 1" size="12288"/>
			<output>
				<port id="0" names="neck.lateral_convs.1.conv.weight" precision="FP32">
					<dim>32</dim>
					<dim>96</dim>
					<dim>1</dim>
					<dim>1</dim>
				</port>
			</output>
		</layer>
		<layer id="202" name="514/WithoutBiases" type="Convolution" version="opset1">
			<data auto_pad="explicit" dilations="1, 1" pads_begin="0, 0" pads_end="0, 0" strides="1, 1"/>
			<input>
				<port id="0" precision="FP32">
					<dim>1</dim>
					<dim>96</dim>
					<dim>44</dim>
					<dim>44</dim>
				</port>
				<port id="1" precision="FP32">
					<dim>32</dim>
					<dim>96</dim>
					<dim>1</dim>
					<dim>1</dim>
				</port>
			</input>
			<output>
				<port id="2" precision="FP32">
					<dim>1</dim>
					<dim>32</dim>
					<dim>44</dim>
					<dim>44</dim>
				</port>
			</output>
		</layer>
		<layer id="203" name="514/Dims20867" type="Const" version="opset1">
			<data element_type="f32" offset="2158596" shape="1, 32, 1, 1" size="128"/>
			<output>
				<port id="0" precision="FP32">
					<dim>1</dim>
					<dim>32</dim>
					<dim>1</dim>
					<dim>1</dim>
				</port>
			</output>
		</layer>
		<layer id="204" name="514" type="Add" version="opset1">
			<data auto_broadcast="numpy"/>
			<input>
				<port id="0" precision="FP32">
					<dim>1</dim>
					<dim>32</dim>
					<dim>44</dim>
					<dim>44</dim>
				</port>
				<port id="1" precision="FP32">
					<dim>1</dim>
					<dim>32</dim>
					<dim>1</dim>
					<dim>1</dim>
				</port>
			</input>
			<output>
				<port id="2" names="514" precision="FP32">
					<dim>1</dim>
					<dim>32</dim>
					<dim>44</dim>
					<dim>44</dim>
				</port>
			</output>
		</layer>
		<layer id="205" name="480/mean/Fused_Mul__copy" type="Const" version="opset1">
			<data element_type="f32" offset="2158724" shape="576, 96, 1, 1" size="221184"/>
			<output>
				<port id="0" names="backbone.features.stage5.unit1.conv1.conv.weight" precision="FP32">
					<dim>576</dim>
					<dim>96</dim>
					<dim>1</dim>
					<dim>1</dim>
				</port>
			</output>
		</layer>
		<layer id="206" name="479" type="Convolution" version="opset1">
			<data auto_pad="explicit" dilations="1, 1" pads_begin="0, 0" pads_end="0, 0" strides="1, 1"/>
			<input>
				<port id="0" precision="FP32">
					<dim>1</dim>
					<dim>96</dim>
					<dim>44</dim>
					<dim>44</dim>
				</port>
				<port id="1" precision="FP32">
					<dim>576</dim>
					<dim>96</dim>
					<dim>1</dim>
					<dim>1</dim>
				</port>
			</input>
			<output>
				<port id="2" precision="FP32">
					<dim>1</dim>
					<dim>576</dim>
					<dim>44</dim>
					<dim>44</dim>
				</port>
			</output>
		</layer>
		<layer id="207" name="data_add_3473934744" type="Const" version="opset1">
			<data element_type="f32" offset="2379908" shape="1, 576, 1, 1" size="2304"/>
			<output>
				<port id="0" precision="FP32">
					<dim>1</dim>
					<dim>576</dim>
					<dim>1</dim>
					<dim>1</dim>
				</port>
			</output>
		</layer>
		<layer id="208" name="480/variance/Fused_Add_" type="Add" version="opset1">
			<data auto_broadcast="numpy"/>
			<input>
				<port id="0" precision="FP32">
					<dim>1</dim>
					<dim>576</dim>
					<dim>44</dim>
					<dim>44</dim>
				</port>
				<port id="1" precision="FP32">
					<dim>1</dim>
					<dim>576</dim>
					<dim>1</dim>
					<dim>1</dim>
				</port>
			</input>
			<output>
				<port id="2" names="480" precision="FP32">
					<dim>1</dim>
					<dim>576</dim>
					<dim>44</dim>
					<dim>44</dim>
				</port>
			</output>
		</layer>
		<layer id="209" name="481" type="Clamp" version="opset1">
			<data max="6" min="0"/>
			<input>
				<port id="0" precision="FP32">
					<dim>1</dim>
					<dim>576</dim>
					<dim>44</dim>
					<dim>44</dim>
				</port>
			</input>
			<output>
				<port id="1" names="481" precision="FP32">
					<dim>1</dim>
					<dim>576</dim>
					<dim>44</dim>
					<dim>44</dim>
				</port>
			</output>
		</layer>
		<layer id="210" name="483/mean/Fused_Mul__copy" type="Const" version="opset1">
			<data element_type="f32" offset="2382212" shape="576, 1, 1, 3, 3" size="20736"/>
			<output>
				<port id="0" names="backbone.features.stage5.unit1.conv2.conv.weight" precision="FP32">
					<dim>576</dim>
					<dim>1</dim>
					<dim>1</dim>
					<dim>3</dim>
					<dim>3</dim>
				</port>
			</output>
		</layer>
		<layer id="211" name="482" type="GroupConvolution" version="opset1">
			<data auto_pad="explicit" dilations="1, 1" pads_begin="1, 1" pads_end="1, 1" strides="2, 2"/>
			<input>
				<port id="0" precision="FP32">
					<dim>1</dim>
					<dim>576</dim>
					<dim>44</dim>
					<dim>44</dim>
				</port>
				<port id="1" precision="FP32">
					<dim>576</dim>
					<dim>1</dim>
					<dim>1</dim>
					<dim>3</dim>
					<dim>3</dim>
				</port>
			</input>
			<output>
				<port id="2" precision="FP32">
					<dim>1</dim>
					<dim>576</dim>
					<dim>22</dim>
					<dim>22</dim>
				</port>
			</output>
		</layer>
		<layer id="212" name="data_add_3474734752" type="Const" version="opset1">
			<data element_type="f32" offset="2402948" shape="1, 576, 1, 1" size="2304"/>
			<output>
				<port id="0" precision="FP32">
					<dim>1</dim>
					<dim>576</dim>
					<dim>1</dim>
					<dim>1</dim>
				</port>
			</output>
		</layer>
		<layer id="213" name="483/variance/Fused_Add_" type="Add" version="opset1">
			<data auto_broadcast="numpy"/>
			<input>
				<port id="0" precision="FP32">
					<dim>1</dim>
					<dim>576</dim>
					<dim>22</dim>
					<dim>22</dim>
				</port>
				<port id="1" precision="FP32">
					<dim>1</dim>
					<dim>576</dim>
					<dim>1</dim>
					<dim>1</dim>
				</port>
			</input>
			<output>
				<port id="2" names="483" precision="FP32">
					<dim>1</dim>
					<dim>576</dim>
					<dim>22</dim>
					<dim>22</dim>
				</port>
			</output>
		</layer>
		<layer id="214" name="484" type="Clamp" version="opset1">
			<data max="6" min="0"/>
			<input>
				<port id="0" precision="FP32">
					<dim>1</dim>
					<dim>576</dim>
					<dim>22</dim>
					<dim>22</dim>
				</port>
			</input>
			<output>
				<port id="1" names="484" precision="FP32">
					<dim>1</dim>
					<dim>576</dim>
					<dim>22</dim>
					<dim>22</dim>
				</port>
			</output>
		</layer>
		<layer id="215" name="486/mean/Fused_Mul__copy" type="Const" version="opset1">
			<data element_type="f32" offset="2405252" shape="160, 576, 1, 1" size="368640"/>
			<output>
				<port id="0" names="backbone.features.stage5.unit1.conv3.conv.weight" precision="FP32">
					<dim>160</dim>
					<dim>576</dim>
					<dim>1</dim>
					<dim>1</dim>
				</port>
			</output>
		</layer>
		<layer id="216" name="485" type="Convolution" version="opset1">
			<data auto_pad="explicit" dilations="1, 1" pads_begin="0, 0" pads_end="0, 0" strides="1, 1"/>
			<input>
				<port id="0" precision="FP32">
					<dim>1</dim>
					<dim>576</dim>
					<dim>22</dim>
					<dim>22</dim>
				</port>
				<port id="1" precision="FP32">
					<dim>160</dim>
					<dim>576</dim>
					<dim>1</dim>
					<dim>1</dim>
				</port>
			</input>
			<output>
				<port id="2" precision="FP32">
					<dim>1</dim>
					<dim>160</dim>
					<dim>22</dim>
					<dim>22</dim>
				</port>
			</output>
		</layer>
		<layer id="217" name="data_add_3475534760" type="Const" version="opset1">
			<data element_type="f32" offset="2773892" shape="1, 160, 1, 1" size="640"/>
			<output>
				<port id="0" precision="FP32">
					<dim>1</dim>
					<dim>160</dim>
					<dim>1</dim>
					<dim>1</dim>
				</port>
			</output>
		</layer>
		<layer id="218" name="486/variance/Fused_Add_" type="Add" version="opset1">
			<data auto_broadcast="numpy"/>
			<input>
				<port id="0" precision="FP32">
					<dim>1</dim>
					<dim>160</dim>
					<dim>22</dim>
					<dim>22</dim>
				</port>
				<port id="1" precision="FP32">
					<dim>1</dim>
					<dim>160</dim>
					<dim>1</dim>
					<dim>1</dim>
				</port>
			</input>
			<output>
				<port id="2" names="486" precision="FP32">
					<dim>1</dim>
					<dim>160</dim>
					<dim>22</dim>
					<dim>22</dim>
				</port>
			</output>
		</layer>
		<layer id="219" name="488/mean/Fused_Mul__copy" type="Const" version="opset1">
			<data element_type="f32" offset="2774532" shape="960, 160, 1, 1" size="614400"/>
			<output>
				<port id="0" names="backbone.features.stage5.unit2.conv1.conv.weight" precision="FP32">
					<dim>960</dim>
					<dim>160</dim>
					<dim>1</dim>
					<dim>1</dim>
				</port>
			</output>
		</layer>
		<layer id="220" name="487" type="Convolution" version="opset1">
			<data auto_pad="explicit" dilations="1, 1" pads_begin="0, 0" pads_end="0, 0" strides="1, 1"/>
			<input>
				<port id="0" precision="FP32">
					<dim>1</dim>
					<dim>160</dim>
					<dim>22</dim>
					<dim>22</dim>
				</port>
				<port id="1" precision="FP32">
					<dim>960</dim>
					<dim>160</dim>
					<dim>1</dim>
					<dim>1</dim>
				</port>
			</input>
			<output>
				<port id="2" precision="FP32">
					<dim>1</dim>
					<dim>960</dim>
					<dim>22</dim>
					<dim>22</dim>
				</port>
			</output>
		</layer>
		<layer id="221" name="data_add_3476334768" type="Const" version="opset1">
			<data element_type="f32" offset="3388932" shape="1, 960, 1, 1" size="3840"/>
			<output>
				<port id="0" precision="FP32">
					<dim>1</dim>
					<dim>960</dim>
					<dim>1</dim>
					<dim>1</dim>
				</port>
			</output>
		</layer>
		<layer id="222" name="488/variance/Fused_Add_" type="Add" version="opset1">
			<data auto_broadcast="numpy"/>
			<input>
				<port id="0" precision="FP32">
					<dim>1</dim>
					<dim>960</dim>
					<dim>22</dim>
					<dim>22</dim>
				</port>
				<port id="1" precision="FP32">
					<dim>1</dim>
					<dim>960</dim>
					<dim>1</dim>
					<dim>1</dim>
				</port>
			</input>
			<output>
				<port id="2" names="488" precision="FP32">
					<dim>1</dim>
					<dim>960</dim>
					<dim>22</dim>
					<dim>22</dim>
				</port>
			</output>
		</layer>
		<layer id="223" name="489" type="Clamp" version="opset1">
			<data max="6" min="0"/>
			<input>
				<port id="0" precision="FP32">
					<dim>1</dim>
					<dim>960</dim>
					<dim>22</dim>
					<dim>22</dim>
				</port>
			</input>
			<output>
				<port id="1" names="489" precision="FP32">
					<dim>1</dim>
					<dim>960</dim>
					<dim>22</dim>
					<dim>22</dim>
				</port>
			</output>
		</layer>
		<layer id="224" name="491/mean/Fused_Mul__copy" type="Const" version="opset1">
			<data element_type="f32" offset="3392772" shape="960, 1, 1, 3, 3" size="34560"/>
			<output>
				<port id="0" names="backbone.features.stage5.unit2.conv2.conv.weight" precision="FP32">
					<dim>960</dim>
					<dim>1</dim>
					<dim>1</dim>
					<dim>3</dim>
					<dim>3</dim>
				</port>
			</output>
		</layer>
		<layer id="225" name="490" type="GroupConvolution" version="opset1">
			<data auto_pad="explicit" dilations="1, 1" pads_begin="1, 1" pads_end="1, 1" strides="1, 1"/>
			<input>
				<port id="0" precision="FP32">
					<dim>1</dim>
					<dim>960</dim>
					<dim>22</dim>
					<dim>22</dim>
				</port>
				<port id="1" precision="FP32">
					<dim>960</dim>
					<dim>1</dim>
					<dim>1</dim>
					<dim>3</dim>
					<dim>3</dim>
				</port>
			</input>
			<output>
				<port id="2" precision="FP32">
					<dim>1</dim>
					<dim>960</dim>
					<dim>22</dim>
					<dim>22</dim>
				</port>
			</output>
		</layer>
		<layer id="226" name="data_add_3477134776" type="Const" version="opset1">
			<data element_type="f32" offset="3427332" shape="1, 960, 1, 1" size="3840"/>
			<output>
				<port id="0" precision="FP32">
					<dim>1</dim>
					<dim>960</dim>
					<dim>1</dim>
					<dim>1</dim>
				</port>
			</output>
		</layer>
		<layer id="227" name="491/variance/Fused_Add_" type="Add" version="opset1">
			<data auto_broadcast="numpy"/>
			<input>
				<port id="0" precision="FP32">
					<dim>1</dim>
					<dim>960</dim>
					<dim>22</dim>
					<dim>22</dim>
				</port>
				<port id="1" precision="FP32">
					<dim>1</dim>
					<dim>960</dim>
					<dim>1</dim>
					<dim>1</dim>
				</port>
			</input>
			<output>
				<port id="2" names="491" precision="FP32">
					<dim>1</dim>
					<dim>960</dim>
					<dim>22</dim>
					<dim>22</dim>
				</port>
			</output>
		</layer>
		<layer id="228" name="492" type="Clamp" version="opset1">
			<data max="6" min="0"/>
			<input>
				<port id="0" precision="FP32">
					<dim>1</dim>
					<dim>960</dim>
					<dim>22</dim>
					<dim>22</dim>
				</port>
			</input>
			<output>
				<port id="1" names="492" precision="FP32">
					<dim>1</dim>
					<dim>960</dim>
					<dim>22</dim>
					<dim>22</dim>
				</port>
			</output>
		</layer>
		<layer id="229" name="494/mean/Fused_Mul__copy" type="Const" version="opset1">
			<data element_type="f32" offset="3431172" shape="160, 960, 1, 1" size="614400"/>
			<output>
				<port id="0" names="backbone.features.stage5.unit2.conv3.conv.weight" precision="FP32">
					<dim>160</dim>
					<dim>960</dim>
					<dim>1</dim>
					<dim>1</dim>
				</port>
			</output>
		</layer>
		<layer id="230" name="493" type="Convolution" version="opset1">
			<data auto_pad="explicit" dilations="1, 1" pads_begin="0, 0" pads_end="0, 0" strides="1, 1"/>
			<input>
				<port id="0" precision="FP32">
					<dim>1</dim>
					<dim>960</dim>
					<dim>22</dim>
					<dim>22</dim>
				</port>
				<port id="1" precision="FP32">
					<dim>160</dim>
					<dim>960</dim>
					<dim>1</dim>
					<dim>1</dim>
				</port>
			</input>
			<output>
				<port id="2" precision="FP32">
					<dim>1</dim>
					<dim>160</dim>
					<dim>22</dim>
					<dim>22</dim>
				</port>
			</output>
		</layer>
		<layer id="231" name="data_add_3477934784" type="Const" version="opset1">
			<data element_type="f32" offset="4045572" shape="1, 160, 1, 1" size="640"/>
			<output>
				<port id="0" precision="FP32">
					<dim>1</dim>
					<dim>160</dim>
					<dim>1</dim>
					<dim>1</dim>
				</port>
			</output>
		</layer>
		<layer id="232" name="494/variance/Fused_Add_" type="Add" version="opset1">
			<data auto_broadcast="numpy"/>
			<input>
				<port id="0" precision="FP32">
					<dim>1</dim>
					<dim>160</dim>
					<dim>22</dim>
					<dim>22</dim>
				</port>
				<port id="1" precision="FP32">
					<dim>1</dim>
					<dim>160</dim>
					<dim>1</dim>
					<dim>1</dim>
				</port>
			</input>
			<output>
				<port id="2" names="494" precision="FP32">
					<dim>1</dim>
					<dim>160</dim>
					<dim>22</dim>
					<dim>22</dim>
				</port>
			</output>
		</layer>
		<layer id="233" name="495" type="Add" version="opset1">
			<data auto_broadcast="numpy"/>
			<input>
				<port id="0" precision="FP32">
					<dim>1</dim>
					<dim>160</dim>
					<dim>22</dim>
					<dim>22</dim>
				</port>
				<port id="1" precision="FP32">
					<dim>1</dim>
					<dim>160</dim>
					<dim>22</dim>
					<dim>22</dim>
				</port>
			</input>
			<output>
				<port id="2" names="495" precision="FP32">
					<dim>1</dim>
					<dim>160</dim>
					<dim>22</dim>
					<dim>22</dim>
				</port>
			</output>
		</layer>
		<layer id="234" name="497/mean/Fused_Mul__copy" type="Const" version="opset1">
			<data element_type="f32" offset="4046212" shape="960, 160, 1, 1" size="614400"/>
			<output>
				<port id="0" names="backbone.features.stage5.unit3.conv1.conv.weight" precision="FP32">
					<dim>960</dim>
					<dim>160</dim>
					<dim>1</dim>
					<dim>1</dim>
				</port>
			</output>
		</layer>
		<layer id="235" name="496" type="Convolution" version="opset1">
			<data auto_pad="explicit" dilations="1, 1" pads_begin="0, 0" pads_end="0, 0" strides="1, 1"/>
			<input>
				<port id="0" precision="FP32">
					<dim>1</dim>
					<dim>160</dim>
					<dim>22</dim>
					<dim>22</dim>
				</port>
				<port id="1" precision="FP32">
					<dim>960</dim>
					<dim>160</dim>
					<dim>1</dim>
					<dim>1</dim>
				</port>
			</input>
			<output>
				<port id="2" precision="FP32">
					<dim>1</dim>
					<dim>960</dim>
					<dim>22</dim>
					<dim>22</dim>
				</port>
			</output>
		</layer>
		<layer id="236" name="data_add_3478734792" type="Const" version="opset1">
			<data element_type="f32" offset="4660612" shape="1, 960, 1, 1" size="3840"/>
			<output>
				<port id="0" precision="FP32">
					<dim>1</dim>
					<dim>960</dim>
					<dim>1</dim>
					<dim>1</dim>
				</port>
			</output>
		</layer>
		<layer id="237" name="497/variance/Fused_Add_" type="Add" version="opset1">
			<data auto_broadcast="numpy"/>
			<input>
				<port id="0" precision="FP32">
					<dim>1</dim>
					<dim>960</dim>
					<dim>22</dim>
					<dim>22</dim>
				</port>
				<port id="1" precision="FP32">
					<dim>1</dim>
					<dim>960</dim>
					<dim>1</dim>
					<dim>1</dim>
				</port>
			</input>
			<output>
				<port id="2" names="497" precision="FP32">
					<dim>1</dim>
					<dim>960</dim>
					<dim>22</dim>
					<dim>22</dim>
				</port>
			</output>
		</layer>
		<layer id="238" name="498" type="Clamp" version="opset1">
			<data max="6" min="0"/>
			<input>
				<port id="0" precision="FP32">
					<dim>1</dim>
					<dim>960</dim>
					<dim>22</dim>
					<dim>22</dim>
				</port>
			</input>
			<output>
				<port id="1" names="498" precision="FP32">
					<dim>1</dim>
					<dim>960</dim>
					<dim>22</dim>
					<dim>22</dim>
				</port>
			</output>
		</layer>
		<layer id="239" name="500/mean/Fused_Mul__copy" type="Const" version="opset1">
			<data element_type="f32" offset="4664452" shape="960, 1, 1, 3, 3" size="34560"/>
			<output>
				<port id="0" names="backbone.features.stage5.unit3.conv2.conv.weight" precision="FP32">
					<dim>960</dim>
					<dim>1</dim>
					<dim>1</dim>
					<dim>3</dim>
					<dim>3</dim>
				</port>
			</output>
		</layer>
		<layer id="240" name="499" type="GroupConvolution" version="opset1">
			<data auto_pad="explicit" dilations="1, 1" pads_begin="1, 1" pads_end="1, 1" strides="1, 1"/>
			<input>
				<port id="0" precision="FP32">
					<dim>1</dim>
					<dim>960</dim>
					<dim>22</dim>
					<dim>22</dim>
				</port>
				<port id="1" precision="FP32">
					<dim>960</dim>
					<dim>1</dim>
					<dim>1</dim>
					<dim>3</dim>
					<dim>3</dim>
				</port>
			</input>
			<output>
				<port id="2" precision="FP32">
					<dim>1</dim>
					<dim>960</dim>
					<dim>22</dim>
					<dim>22</dim>
				</port>
			</output>
		</layer>
		<layer id="241" name="data_add_3479534800" type="Const" version="opset1">
			<data element_type="f32" offset="4699012" shape="1, 960, 1, 1" size="3840"/>
			<output>
				<port id="0" precision="FP32">
					<dim>1</dim>
					<dim>960</dim>
					<dim>1</dim>
					<dim>1</dim>
				</port>
			</output>
		</layer>
		<layer id="242" name="500/variance/Fused_Add_" type="Add" version="opset1">
			<data auto_broadcast="numpy"/>
			<input>
				<port id="0" precision="FP32">
					<dim>1</dim>
					<dim>960</dim>
					<dim>22</dim>
					<dim>22</dim>
				</port>
				<port id="1" precision="FP32">
					<dim>1</dim>
					<dim>960</dim>
					<dim>1</dim>
					<dim>1</dim>
				</port>
			</input>
			<output>
				<port id="2" names="500" precision="FP32">
					<dim>1</dim>
					<dim>960</dim>
					<dim>22</dim>
					<dim>22</dim>
				</port>
			</output>
		</layer>
		<layer id="243" name="501" type="Clamp" version="opset1">
			<data max="6" min="0"/>
			<input>
				<port id="0" precision="FP32">
					<dim>1</dim>
					<dim>960</dim>
					<dim>22</dim>
					<dim>22</dim>
				</port>
			</input>
			<output>
				<port id="1" names="501" precision="FP32">
					<dim>1</dim>
					<dim>960</dim>
					<dim>22</dim>
					<dim>22</dim>
				</port>
			</output>
		</layer>
		<layer id="244" name="503/mean/Fused_Mul__copy" type="Const" version="opset1">
			<data element_type="f32" offset="4702852" shape="160, 960, 1, 1" size="614400"/>
			<output>
				<port id="0" names="backbone.features.stage5.unit3.conv3.conv.weight" precision="FP32">
					<dim>160</dim>
					<dim>960</dim>
					<dim>1</dim>
					<dim>1</dim>
				</port>
			</output>
		</layer>
		<layer id="245" name="502" type="Convolution" version="opset1">
			<data auto_pad="explicit" dilations="1, 1" pads_begin="0, 0" pads_end="0, 0" strides="1, 1"/>
			<input>
				<port id="0" precision="FP32">
					<dim>1</dim>
					<dim>960</dim>
					<dim>22</dim>
					<dim>22</dim>
				</port>
				<port id="1" precision="FP32">
					<dim>160</dim>
					<dim>960</dim>
					<dim>1</dim>
					<dim>1</dim>
				</port>
			</input>
			<output>
				<port id="2" precision="FP32">
					<dim>1</dim>
					<dim>160</dim>
					<dim>22</dim>
					<dim>22</dim>
				</port>
			</output>
		</layer>
		<layer id="246" name="data_add_3480334808" type="Const" version="opset1">
			<data element_type="f32" offset="5317252" shape="1, 160, 1, 1" size="640"/>
			<output>
				<port id="0" precision="FP32">
					<dim>1</dim>
					<dim>160</dim>
					<dim>1</dim>
					<dim>1</dim>
				</port>
			</output>
		</layer>
		<layer id="247" name="503/variance/Fused_Add_" type="Add" version="opset1">
			<data auto_broadcast="numpy"/>
			<input>
				<port id="0" precision="FP32">
					<dim>1</dim>
					<dim>160</dim>
					<dim>22</dim>
					<dim>22</dim>
				</port>
				<port id="1" precision="FP32">
					<dim>1</dim>
					<dim>160</dim>
					<dim>1</dim>
					<dim>1</dim>
				</port>
			</input>
			<output>
				<port id="2" names="503" precision="FP32">
					<dim>1</dim>
					<dim>160</dim>
					<dim>22</dim>
					<dim>22</dim>
				</port>
			</output>
		</layer>
		<layer id="248" name="504" type="Add" version="opset1">
			<data auto_broadcast="numpy"/>
			<input>
				<port id="0" precision="FP32">
					<dim>1</dim>
					<dim>160</dim>
					<dim>22</dim>
					<dim>22</dim>
				</port>
				<port id="1" precision="FP32">
					<dim>1</dim>
					<dim>160</dim>
					<dim>22</dim>
					<dim>22</dim>
				</port>
			</input>
			<output>
				<port id="2" names="504" precision="FP32">
					<dim>1</dim>
					<dim>160</dim>
					<dim>22</dim>
					<dim>22</dim>
				</port>
			</output>
		</layer>
		<layer id="249" name="506/mean/Fused_Mul__copy" type="Const" version="opset1">
			<data element_type="f32" offset="5317892" shape="960, 160, 1, 1" size="614400"/>
			<output>
				<port id="0" names="backbone.features.stage5.unit4.conv1.conv.weight" precision="FP32">
					<dim>960</dim>
					<dim>160</dim>
					<dim>1</dim>
					<dim>1</dim>
				</port>
			</output>
		</layer>
		<layer id="250" name="505" type="Convolution" version="opset1">
			<data auto_pad="explicit" dilations="1, 1" pads_begin="0, 0" pads_end="0, 0" strides="1, 1"/>
			<input>
				<port id="0" precision="FP32">
					<dim>1</dim>
					<dim>160</dim>
					<dim>22</dim>
					<dim>22</dim>
				</port>
				<port id="1" precision="FP32">
					<dim>960</dim>
					<dim>160</dim>
					<dim>1</dim>
					<dim>1</dim>
				</port>
			</input>
			<output>
				<port id="2" precision="FP32">
					<dim>1</dim>
					<dim>960</dim>
					<dim>22</dim>
					<dim>22</dim>
				</port>
			</output>
		</layer>
		<layer id="251" name="data_add_3481134816" type="Const" version="opset1">
			<data element_type="f32" offset="5932292" shape="1, 960, 1, 1" size="3840"/>
			<output>
				<port id="0" precision="FP32">
					<dim>1</dim>
					<dim>960</dim>
					<dim>1</dim>
					<dim>1</dim>
				</port>
			</output>
		</layer>
		<layer id="252" name="506/variance/Fused_Add_" type="Add" version="opset1">
			<data auto_broadcast="numpy"/>
			<input>
				<port id="0" precision="FP32">
					<dim>1</dim>
					<dim>960</dim>
					<dim>22</dim>
					<dim>22</dim>
				</port>
				<port id="1" precision="FP32">
					<dim>1</dim>
					<dim>960</dim>
					<dim>1</dim>
					<dim>1</dim>
				</port>
			</input>
			<output>
				<port id="2" names="506" precision="FP32">
					<dim>1</dim>
					<dim>960</dim>
					<dim>22</dim>
					<dim>22</dim>
				</port>
			</output>
		</layer>
		<layer id="253" name="507" type="Clamp" version="opset1">
			<data max="6" min="0"/>
			<input>
				<port id="0" precision="FP32">
					<dim>1</dim>
					<dim>960</dim>
					<dim>22</dim>
					<dim>22</dim>
				</port>
			</input>
			<output>
				<port id="1" names="507" precision="FP32">
					<dim>1</dim>
					<dim>960</dim>
					<dim>22</dim>
					<dim>22</dim>
				</port>
			</output>
		</layer>
		<layer id="254" name="509/mean/Fused_Mul__copy" type="Const" version="opset1">
			<data element_type="f32" offset="5936132" shape="960, 1, 1, 3, 3" size="34560"/>
			<output>
				<port id="0" names="backbone.features.stage5.unit4.conv2.conv.weight" precision="FP32">
					<dim>960</dim>
					<dim>1</dim>
					<dim>1</dim>
					<dim>3</dim>
					<dim>3</dim>
				</port>
			</output>
		</layer>
		<layer id="255" name="508" type="GroupConvolution" version="opset1">
			<data auto_pad="explicit" dilations="1, 1" pads_begin="1, 1" pads_end="1, 1" strides="1, 1"/>
			<input>
				<port id="0" precision="FP32">
					<dim>1</dim>
					<dim>960</dim>
					<dim>22</dim>
					<dim>22</dim>
				</port>
				<port id="1" precision="FP32">
					<dim>960</dim>
					<dim>1</dim>
					<dim>1</dim>
					<dim>3</dim>
					<dim>3</dim>
				</port>
			</input>
			<output>
				<port id="2" precision="FP32">
					<dim>1</dim>
					<dim>960</dim>
					<dim>22</dim>
					<dim>22</dim>
				</port>
			</output>
		</layer>
		<layer id="256" name="data_add_3481934824" type="Const" version="opset1">
			<data element_type="f32" offset="5970692" shape="1, 960, 1, 1" size="3840"/>
			<output>
				<port id="0" precision="FP32">
					<dim>1</dim>
					<dim>960</dim>
					<dim>1</dim>
					<dim>1</dim>
				</port>
			</output>
		</layer>
		<layer id="257" name="509/variance/Fused_Add_" type="Add" version="opset1">
			<data auto_broadcast="numpy"/>
			<input>
				<port id="0" precision="FP32">
					<dim>1</dim>
					<dim>960</dim>
					<dim>22</dim>
					<dim>22</dim>
				</port>
				<port id="1" precision="FP32">
					<dim>1</dim>
					<dim>960</dim>
					<dim>1</dim>
					<dim>1</dim>
				</port>
			</input>
			<output>
				<port id="2" names="509" precision="FP32">
					<dim>1</dim>
					<dim>960</dim>
					<dim>22</dim>
					<dim>22</dim>
				</port>
			</output>
		</layer>
		<layer id="258" name="510" type="Clamp" version="opset1">
			<data max="6" min="0"/>
			<input>
				<port id="0" precision="FP32">
					<dim>1</dim>
					<dim>960</dim>
					<dim>22</dim>
					<dim>22</dim>
				</port>
			</input>
			<output>
				<port id="1" names="510" precision="FP32">
					<dim>1</dim>
					<dim>960</dim>
					<dim>22</dim>
					<dim>22</dim>
				</port>
			</output>
		</layer>
		<layer id="259" name="512/mean/Fused_Mul__copy" type="Const" version="opset1">
			<data element_type="f32" offset="5974532" shape="320, 960, 1, 1" size="1228800"/>
			<output>
				<port id="0" names="backbone.features.stage5.unit4.conv3.conv.weight" precision="FP32">
					<dim>320</dim>
					<dim>960</dim>
					<dim>1</dim>
					<dim>1</dim>
				</port>
			</output>
		</layer>
		<layer id="260" name="511" type="Convolution" version="opset1">
			<data auto_pad="explicit" dilations="1, 1" pads_begin="0, 0" pads_end="0, 0" strides="1, 1"/>
			<input>
				<port id="0" precision="FP32">
					<dim>1</dim>
					<dim>960</dim>
					<dim>22</dim>
					<dim>22</dim>
				</port>
				<port id="1" precision="FP32">
					<dim>320</dim>
					<dim>960</dim>
					<dim>1</dim>
					<dim>1</dim>
				</port>
			</input>
			<output>
				<port id="2" precision="FP32">
					<dim>1</dim>
					<dim>320</dim>
					<dim>22</dim>
					<dim>22</dim>
				</port>
			</output>
		</layer>
		<layer id="261" name="data_add_3482734832" type="Const" version="opset1">
			<data element_type="f32" offset="7203332" shape="1, 320, 1, 1" size="1280"/>
			<output>
				<port id="0" precision="FP32">
					<dim>1</dim>
					<dim>320</dim>
					<dim>1</dim>
					<dim>1</dim>
				</port>
			</output>
		</layer>
		<layer id="262" name="512/variance/Fused_Add_" type="Add" version="opset1">
			<data auto_broadcast="numpy"/>
			<input>
				<port id="0" precision="FP32">
					<dim>1</dim>
					<dim>320</dim>
					<dim>22</dim>
					<dim>22</dim>
				</port>
				<port id="1" precision="FP32">
					<dim>1</dim>
					<dim>320</dim>
					<dim>1</dim>
					<dim>1</dim>
				</port>
			</input>
			<output>
				<port id="2" names="512" precision="FP32">
					<dim>1</dim>
					<dim>320</dim>
					<dim>22</dim>
					<dim>22</dim>
				</port>
			</output>
		</layer>
		<layer id="263" name="neck.lateral_convs.2.conv.weight" type="Const" version="opset1">
			<data element_type="f32" offset="7204612" shape="32, 320, 1, 1" size="40960"/>
			<output>
				<port id="0" names="neck.lateral_convs.2.conv.weight" precision="FP32">
					<dim>32</dim>
					<dim>320</dim>
					<dim>1</dim>
					<dim>1</dim>
				</port>
			</output>
		</layer>
		<layer id="264" name="515/WithoutBiases" type="Convolution" version="opset1">
			<data auto_pad="explicit" dilations="1, 1" pads_begin="0, 0" pads_end="0, 0" strides="1, 1"/>
			<input>
				<port id="0" precision="FP32">
					<dim>1</dim>
					<dim>320</dim>
					<dim>22</dim>
					<dim>22</dim>
				</port>
				<port id="1" precision="FP32">
					<dim>32</dim>
					<dim>320</dim>
					<dim>1</dim>
					<dim>1</dim>
				</port>
			</input>
			<output>
				<port id="2" precision="FP32">
					<dim>1</dim>
					<dim>32</dim>
					<dim>22</dim>
					<dim>22</dim>
				</port>
			</output>
		</layer>
		<layer id="265" name="515/Dims20831" type="Const" version="opset1">
			<data element_type="f32" offset="7245572" shape="1, 32, 1, 1" size="128"/>
			<output>
				<port id="0" precision="FP32">
					<dim>1</dim>
					<dim>32</dim>
					<dim>1</dim>
					<dim>1</dim>
				</port>
			</output>
		</layer>
		<layer id="266" name="515" type="Add" version="opset1">
			<data auto_broadcast="numpy"/>
			<input>
				<port id="0" precision="FP32">
					<dim>1</dim>
					<dim>32</dim>
					<dim>22</dim>
					<dim>22</dim>
				</port>
				<port id="1" precision="FP32">
					<dim>1</dim>
					<dim>32</dim>
					<dim>1</dim>
					<dim>1</dim>
				</port>
			</input>
			<output>
				<port id="2" names="515" precision="FP32">
					<dim>1</dim>
					<dim>32</dim>
					<dim>22</dim>
					<dim>22</dim>
				</port>
			</output>
		</layer>
		<layer id="267" name="535/ShapeOf" type="ShapeOf" version="opset3">
			<data output_type="i64"/>
			<input>
				<port id="0" precision="FP32">
					<dim>1</dim>
					<dim>32</dim>
					<dim>22</dim>
					<dim>22</dim>
				</port>
			</input>
			<output>
				<port id="1" precision="I64">
					<dim>4</dim>
				</port>
			</output>
		</layer>
		<layer id="268" name="1736" type="Convert" version="opset1">
			<data destination_type="f32"/>
			<input>
				<port id="0" precision="I64">
					<dim>4</dim>
				</port>
			</input>
			<output>
				<port id="1" precision="FP32">
					<dim>4</dim>
				</port>
			</output>
		</layer>
		<layer id="269" name="525" type="Const" version="opset1">
			<data element_type="f32" offset="7245700" shape="2" size="8"/>
			<output>
				<port id="0" names="525" precision="FP32">
					<dim>2</dim>
				</port>
			</output>
		</layer>
		<layer id="270" name="516" type="ShapeOf" version="opset3">
			<data output_type="i64"/>
			<input>
				<port id="0" precision="FP32">
					<dim>1</dim>
					<dim>32</dim>
					<dim>44</dim>
					<dim>44</dim>
				</port>
			</input>
			<output>
				<port id="1" names="516" precision="I64">
					<dim>4</dim>
				</port>
			</output>
		</layer>
		<layer id="271" name="517" type="Const" version="opset1">
			<data element_type="i32" offset="7245708" shape="" size="4"/>
			<output>
				<port id="0" names="517" precision="I32"/>
			</output>
		</layer>
		<layer id="272" name="518/axis" type="Const" version="opset1">
			<data element_type="i64" offset="7245712" shape="" size="8"/>
			<output>
				<port id="0" precision="I64"/>
			</output>
		</layer>
		<layer id="273" name="5182439" type="Gather" version="opset7">
			<data batch_dims="0"/>
			<input>
				<port id="0" precision="I64">
					<dim>4</dim>
				</port>
				<port id="1" precision="I32"/>
				<port id="2" precision="I64"/>
			</input>
			<output>
				<port id="3" names="518" precision="I64"/>
			</output>
		</layer>
		<layer id="274" name="522/Dims" type="Const" version="opset1">
			<data element_type="i64" offset="7245712" shape="1" size="8"/>
			<output>
				<port id="0" precision="I64">
					<dim>1</dim>
				</port>
			</output>
		</layer>
		<layer id="275" name="522/Unsqueeze" type="Unsqueeze" version="opset1">
			<input>
				<port id="0" precision="I64"/>
				<port id="1" precision="I64">
					<dim>1</dim>
				</port>
			</input>
			<output>
				<port id="2" names="522" precision="I64">
					<dim>1</dim>
				</port>
			</output>
		</layer>
		<layer id="276" name="519" type="ShapeOf" version="opset3">
			<data output_type="i64"/>
			<input>
				<port id="0" precision="FP32">
					<dim>1</dim>
					<dim>32</dim>
					<dim>44</dim>
					<dim>44</dim>
				</port>
			</input>
			<output>
				<port id="1" names="519" precision="I64">
					<dim>4</dim>
				</port>
			</output>
		</layer>
		<layer id="277" name="520" type="Const" version="opset1">
			<data element_type="i32" offset="7245720" shape="" size="4"/>
			<output>
				<port id="0" names="520" precision="I32"/>
			</output>
		</layer>
		<layer id="278" name="521/axis" type="Const" version="opset1">
			<data element_type="i64" offset="7245712" shape="" size="8"/>
			<output>
				<port id="0" precision="I64"/>
			</output>
		</layer>
		<layer id="279" name="5212397" type="Gather" version="opset7">
			<data batch_dims="0"/>
			<input>
				<port id="0" precision="I64">
					<dim>4</dim>
				</port>
				<port id="1" precision="I32"/>
				<port id="2" precision="I64"/>
			</input>
			<output>
				<port id="3" names="521" precision="I64"/>
			</output>
		</layer>
		<layer id="280" name="523/Dims" type="Const" version="opset1">
			<data element_type="i64" offset="7245712" shape="1" size="8"/>
			<output>
				<port id="0" precision="I64">
					<dim>1</dim>
				</port>
			</output>
		</layer>
		<layer id="281" name="523/Unsqueeze" type="Unsqueeze" version="opset1">
			<input>
				<port id="0" precision="I64"/>
				<port id="1" precision="I64">
					<dim>1</dim>
				</port>
			</input>
			<output>
				<port id="2" names="523" precision="I64">
					<dim>1</dim>
				</port>
			</output>
		</layer>
		<layer id="282" name="524" type="Concat" version="opset1">
			<data axis="0"/>
			<input>
				<port id="0" precision="I64">
					<dim>1</dim>
				</port>
				<port id="1" precision="I64">
					<dim>1</dim>
				</port>
			</input>
			<output>
				<port id="2" names="524" precision="I64">
					<dim>2</dim>
				</port>
			</output>
		</layer>
		<layer id="283" name="526" type="Convert" version="opset1">
			<data destination_type="f32"/>
			<input>
				<port id="0" precision="I64">
					<dim>2</dim>
				</port>
			</input>
			<output>
				<port id="1" names="526" precision="FP32">
					<dim>2</dim>
				</port>
			</output>
		</layer>
		<layer id="284" name="527" type="ShapeOf" version="opset3">
			<data output_type="i64"/>
			<input>
				<port id="0" precision="FP32">
					<dim>1</dim>
					<dim>32</dim>
					<dim>22</dim>
					<dim>22</dim>
				</port>
			</input>
			<output>
				<port id="1" names="527" precision="I64">
					<dim>4</dim>
				</port>
			</output>
		</layer>
		<layer id="285" name="531/Concat2205477384" type="Const" version="opset1">
			<data element_type="i64" offset="7245724" shape="1" size="8"/>
			<output>
				<port id="0" precision="I64">
					<dim>1</dim>
				</port>
			</output>
		</layer>
		<layer id="286" name="531/Concat220442205576640" type="Const" version="opset1">
			<data element_type="i64" offset="7245732" shape="1" size="8"/>
			<output>
				<port id="0" precision="I64">
					<dim>1</dim>
				</port>
			</output>
		</layer>
		<layer id="287" name="531/Strides2205677855" type="Const" version="opset1">
			<data element_type="i64" offset="7245740" shape="1" size="8"/>
			<output>
				<port id="0" precision="I64">
					<dim>1</dim>
				</port>
			</output>
		</layer>
		<layer id="288" name="531" type="StridedSlice" version="opset1">
			<data begin_mask="0" ellipsis_mask="0" end_mask="0" new_axis_mask="0" shrink_axis_mask="0"/>
			<input>
				<port id="0" precision="I64">
					<dim>4</dim>
				</port>
				<port id="1" precision="I64">
					<dim>1</dim>
				</port>
				<port id="2" precision="I64">
					<dim>1</dim>
				</port>
				<port id="3" precision="I64">
					<dim>1</dim>
				</port>
			</input>
			<output>
				<port id="4" names="531" precision="I64">
					<dim>2</dim>
				</port>
			</output>
		</layer>
		<layer id="289" name="532" type="Convert" version="opset1">
			<data destination_type="f32"/>
			<input>
				<port id="0" precision="I64">
					<dim>2</dim>
				</port>
			</input>
			<output>
				<port id="1" names="532" precision="FP32">
					<dim>2</dim>
				</port>
			</output>
		</layer>
		<layer id="290" name="533" type="Divide" version="opset1">
			<data auto_broadcast="numpy" m_pythondiv="true"/>
			<input>
				<port id="0" precision="FP32">
					<dim>2</dim>
				</port>
				<port id="1" precision="FP32">
					<dim>2</dim>
				</port>
			</input>
			<output>
				<port id="2" names="533" precision="FP32">
					<dim>2</dim>
				</port>
			</output>
		</layer>
		<layer id="291" name="534" type="Concat" version="opset1">
			<data axis="0"/>
			<input>
				<port id="0" precision="FP32">
					<dim>2</dim>
				</port>
				<port id="1" precision="FP32">
					<dim>2</dim>
				</port>
			</input>
			<output>
				<port id="2" names="534" precision="FP32">
					<dim>4</dim>
				</port>
			</output>
		</layer>
		<layer id="292" name="535/Add_input_port_1/value" type="Const" version="opset1">
			<data element_type="f32" offset="7245748" shape="1" size="4"/>
			<output>
				<port id="0" precision="FP32">
					<dim>1</dim>
				</port>
			</output>
		</layer>
		<layer id="293" name="535/Add" type="Add" version="opset1">
			<data auto_broadcast="numpy"/>
			<input>
				<port id="0" precision="FP32">
					<dim>4</dim>
				</port>
				<port id="1" precision="FP32">
					<dim>1</dim>
				</port>
			</input>
			<output>
				<port id="2" precision="FP32">
					<dim>4</dim>
				</port>
			</output>
		</layer>
		<layer id="294" name="535/Mul" type="Multiply" version="opset1">
			<data auto_broadcast="numpy"/>
			<input>
				<port id="0" precision="FP32">
					<dim>4</dim>
				</port>
				<port id="1" precision="FP32">
					<dim>4</dim>
				</port>
			</input>
			<output>
				<port id="2" precision="FP32">
					<dim>4</dim>
				</port>
			</output>
		</layer>
		<layer id="295" name="535/Floor" type="Floor" version="opset1">
			<input>
				<port id="0" precision="FP32">
					<dim>4</dim>
				</port>
			</input>
			<output>
				<port id="1" precision="FP32">
					<dim>4</dim>
				</port>
			</output>
		</layer>
		<layer id="296" name="1739" type="Convert" version="opset1">
			<data destination_type="i64"/>
			<input>
				<port id="0" precision="FP32">
					<dim>4</dim>
				</port>
			</input>
			<output>
				<port id="1" precision="I64">
					<dim>4</dim>
				</port>
			</output>
		</layer>
		<layer id="297" name="535/sizes_ss_input_port_1/value" type="Const" version="opset1">
			<data element_type="i64" offset="7245724" shape="1" size="8"/>
			<output>
				<port id="0" precision="I64">
					<dim>1</dim>
				</port>
			</output>
		</layer>
		<layer id="298" name="535/sizes_ss_input_port_2/value" type="Const" version="opset1">
			<data element_type="i64" offset="7245712" shape="1" size="8"/>
			<output>
				<port id="0" precision="I64">
					<dim>1</dim>
				</port>
			</output>
		</layer>
		<layer id="299" name="535/sizes_ss_input_port_3/value" type="Const" version="opset1">
			<data element_type="i64" offset="7245740" shape="1" size="8"/>
			<output>
				<port id="0" precision="I64">
					<dim>1</dim>
				</port>
			</output>
		</layer>
		<layer id="300" name="535/sizes_ss" type="StridedSlice" version="opset1">
			<data begin_mask="0" ellipsis_mask="0" end_mask="1" new_axis_mask="0" shrink_axis_mask="0"/>
			<input>
				<port id="0" precision="I64">
					<dim>4</dim>
				</port>
				<port id="1" precision="I64">
					<dim>1</dim>
				</port>
				<port id="2" precision="I64">
					<dim>1</dim>
				</port>
				<port id="3" precision="I64">
					<dim>1</dim>
				</port>
			</input>
			<output>
				<port id="4" precision="I64">
					<dim>2</dim>
				</port>
			</output>
		</layer>
		<layer id="301" name="535/scales_ss_input_port_1/value" type="Const" version="opset1">
			<data element_type="i64" offset="7245724" shape="1" size="8"/>
			<output>
				<port id="0" precision="I64">
					<dim>1</dim>
				</port>
			</output>
		</layer>
		<layer id="302" name="535/scales_ss_input_port_2/value" type="Const" version="opset1">
			<data element_type="i64" offset="7245712" shape="1" size="8"/>
			<output>
				<port id="0" precision="I64">
					<dim>1</dim>
				</port>
			</output>
		</layer>
		<layer id="303" name="535/scales_ss_input_port_3/value" type="Const" version="opset1">
			<data element_type="i64" offset="7245740" shape="1" size="8"/>
			<output>
				<port id="0" precision="I64">
					<dim>1</dim>
				</port>
			</output>
		</layer>
		<layer id="304" name="535/scales_ss" type="StridedSlice" version="opset1">
			<data begin_mask="0" ellipsis_mask="0" end_mask="1" new_axis_mask="0" shrink_axis_mask="0"/>
			<input>
				<port id="0" precision="FP32">
					<dim>4</dim>
				</port>
				<port id="1" precision="I64">
					<dim>1</dim>
				</port>
				<port id="2" precision="I64">
					<dim>1</dim>
				</port>
				<port id="3" precision="I64">
					<dim>1</dim>
				</port>
			</input>
			<output>
				<port id="4" precision="FP32">
					<dim>2</dim>
				</port>
			</output>
		</layer>
		<layer id="305" name="535/axes_input_port_0/value" type="Const" version="opset1">
			<data element_type="i64" offset="7245724" shape="" size="8"/>
			<output>
				<port id="0" precision="I64"/>
			</output>
		</layer>
		<layer id="306" name="535/max_axes/shape_of" type="ShapeOf" version="opset3">
			<data output_type="i64"/>
			<input>
				<port id="0" precision="FP32">
					<dim>1</dim>
					<dim>32</dim>
					<dim>22</dim>
					<dim>22</dim>
				</port>
			</input>
			<output>
				<port id="1" precision="I64">
					<dim>4</dim>
				</port>
			</output>
		</layer>
		<layer id="307" name="535/max_axes/rank_of" type="ShapeOf" version="opset3">
			<data output_type="i64"/>
			<input>
				<port id="0" precision="I64">
					<dim>4</dim>
				</port>
			</input>
			<output>
				<port id="1" precision="I64">
					<dim>1</dim>
				</port>
			</output>
		</layer>
		<layer id="308" name="535/max_axes/0d_rank_of/value" type="Const" version="opset1">
			<data element_type="i64" offset="7245712" shape="1" size="8"/>
			<output>
				<port id="0" precision="I64">
					<dim>1</dim>
				</port>
			</output>
		</layer>
		<layer id="309" name="535/max_axes" type="Squeeze" version="opset1">
			<input>
				<port id="0" precision="I64">
					<dim>1</dim>
				</port>
				<port id="1" precision="I64">
					<dim>1</dim>
				</port>
			</input>
			<output>
				<port id="2" precision="I64"/>
			</output>
		</layer>
		<layer id="310" name="535/axes_input_port_2/value" type="Const" version="opset1">
			<data element_type="i64" offset="7245740" shape="" size="8"/>
			<output>
				<port id="0" precision="I64"/>
			</output>
		</layer>
		<layer id="311" name="535/axes" type="Range" version="opset4">
			<data output_type="i64"/>
			<input>
				<port id="0" precision="I64"/>
				<port id="1" precision="I64"/>
				<port id="2" precision="I64"/>
			</input>
			<output>
				<port id="3" precision="I64">
					<dim>2</dim>
				</port>
			</output>
		</layer>
		<layer id="312" name="535" type="Interpolate" version="opset4">
			<data antialias="false" coordinate_transformation_mode="asymmetric" cube_coeff="-0.75" mode="nearest" nearest_mode="simple" pads_begin="0, 0, 0, 0" pads_end="0, 0, 0, 0" shape_calculation_mode="scales"/>
			<input>
				<port id="0" precision="FP32">
					<dim>1</dim>
					<dim>32</dim>
					<dim>22</dim>
					<dim>22</dim>
				</port>
				<port id="1" precision="I64">
					<dim>2</dim>
				</port>
				<port id="2" precision="FP32">
					<dim>2</dim>
				</port>
				<port id="3" precision="I64">
					<dim>2</dim>
				</port>
			</input>
			<output>
				<port id="4" names="535" precision="FP32">
					<dim>1</dim>
					<dim>32</dim>
					<dim>44</dim>
					<dim>44</dim>
				</port>
			</output>
		</layer>
		<layer id="313" name="536" type="Add" version="opset1">
			<data auto_broadcast="numpy"/>
			<input>
				<port id="0" precision="FP32">
					<dim>1</dim>
					<dim>32</dim>
					<dim>44</dim>
					<dim>44</dim>
				</port>
				<port id="1" precision="FP32">
					<dim>1</dim>
					<dim>32</dim>
					<dim>44</dim>
					<dim>44</dim>
				</port>
			</input>
			<output>
				<port id="2" names="536" precision="FP32">
					<dim>1</dim>
					<dim>32</dim>
					<dim>44</dim>
					<dim>44</dim>
				</port>
			</output>
		</layer>
		<layer id="314" name="556/ShapeOf" type="ShapeOf" version="opset3">
			<data output_type="i64"/>
			<input>
				<port id="0" precision="FP32">
					<dim>1</dim>
					<dim>32</dim>
					<dim>44</dim>
					<dim>44</dim>
				</port>
			</input>
			<output>
				<port id="1" precision="I64">
					<dim>4</dim>
				</port>
			</output>
		</layer>
		<layer id="315" name="1756" type="Convert" version="opset1">
			<data destination_type="f32"/>
			<input>
				<port id="0" precision="I64">
					<dim>4</dim>
				</port>
			</input>
			<output>
				<port id="1" precision="FP32">
					<dim>4</dim>
				</port>
			</output>
		</layer>
		<layer id="316" name="546" type="Const" version="opset1">
			<data element_type="f32" offset="7245700" shape="2" size="8"/>
			<output>
				<port id="0" names="546" precision="FP32">
					<dim>2</dim>
				</port>
			</output>
		</layer>
		<layer id="317" name="537" type="ShapeOf" version="opset3">
			<data output_type="i64"/>
			<input>
				<port id="0" precision="FP32">
					<dim>1</dim>
					<dim>32</dim>
					<dim>88</dim>
					<dim>88</dim>
				</port>
			</input>
			<output>
				<port id="1" names="537" precision="I64">
					<dim>4</dim>
				</port>
			</output>
		</layer>
		<layer id="318" name="538" type="Const" version="opset1">
			<data element_type="i32" offset="7245708" shape="" size="4"/>
			<output>
				<port id="0" names="538" precision="I32"/>
			</output>
		</layer>
		<layer id="319" name="539/axis" type="Const" version="opset1">
			<data element_type="i64" offset="7245712" shape="" size="8"/>
			<output>
				<port id="0" precision="I64"/>
			</output>
		</layer>
		<layer id="320" name="5392313" type="Gather" version="opset7">
			<data batch_dims="0"/>
			<input>
				<port id="0" precision="I64">
					<dim>4</dim>
				</port>
				<port id="1" precision="I32"/>
				<port id="2" precision="I64"/>
			</input>
			<output>
				<port id="3" names="539" precision="I64"/>
			</output>
		</layer>
		<layer id="321" name="543/Dims" type="Const" version="opset1">
			<data element_type="i64" offset="7245712" shape="1" size="8"/>
			<output>
				<port id="0" precision="I64">
					<dim>1</dim>
				</port>
			</output>
		</layer>
		<layer id="322" name="543/Unsqueeze" type="Unsqueeze" version="opset1">
			<input>
				<port id="0" precision="I64"/>
				<port id="1" precision="I64">
					<dim>1</dim>
				</port>
			</input>
			<output>
				<port id="2" names="543" precision="I64">
					<dim>1</dim>
				</port>
			</output>
		</layer>
		<layer id="323" name="540" type="ShapeOf" version="opset3">
			<data output_type="i64"/>
			<input>
				<port id="0" precision="FP32">
					<dim>1</dim>
					<dim>32</dim>
					<dim>88</dim>
					<dim>88</dim>
				</port>
			</input>
			<output>
				<port id="1" names="540" precision="I64">
					<dim>4</dim>
				</port>
			</output>
		</layer>
		<layer id="324" name="541" type="Const" version="opset1">
			<data element_type="i32" offset="7245720" shape="" size="4"/>
			<output>
				<port id="0" names="541" precision="I32"/>
			</output>
		</layer>
		<layer id="325" name="542/axis" type="Const" version="opset1">
			<data element_type="i64" offset="7245712" shape="" size="8"/>
			<output>
				<port id="0" precision="I64"/>
			</output>
		</layer>
		<layer id="326" name="5422277" type="Gather" version="opset7">
			<data batch_dims="0"/>
			<input>
				<port id="0" precision="I64">
					<dim>4</dim>
				</port>
				<port id="1" precision="I32"/>
				<port id="2" precision="I64"/>
			</input>
			<output>
				<port id="3" names="542" precision="I64"/>
			</output>
		</layer>
		<layer id="327" name="544/Dims" type="Const" version="opset1">
			<data element_type="i64" offset="7245712" shape="1" size="8"/>
			<output>
				<port id="0" precision="I64">
					<dim>1</dim>
				</port>
			</output>
		</layer>
		<layer id="328" name="544/Unsqueeze" type="Unsqueeze" version="opset1">
			<input>
				<port id="0" precision="I64"/>
				<port id="1" precision="I64">
					<dim>1</dim>
				</port>
			</input>
			<output>
				<port id="2" names="544" precision="I64">
					<dim>1</dim>
				</port>
			</output>
		</layer>
		<layer id="329" name="545" type="Concat" version="opset1">
			<data axis="0"/>
			<input>
				<port id="0" precision="I64">
					<dim>1</dim>
				</port>
				<port id="1" precision="I64">
					<dim>1</dim>
				</port>
			</input>
			<output>
				<port id="2" names="545" precision="I64">
					<dim>2</dim>
				</port>
			</output>
		</layer>
		<layer id="330" name="547" type="Convert" version="opset1">
			<data destination_type="f32"/>
			<input>
				<port id="0" precision="I64">
					<dim>2</dim>
				</port>
			</input>
			<output>
				<port id="1" names="547" precision="FP32">
					<dim>2</dim>
				</port>
			</output>
		</layer>
		<layer id="331" name="548" type="ShapeOf" version="opset3">
			<data output_type="i64"/>
			<input>
				<port id="0" precision="FP32">
					<dim>1</dim>
					<dim>32</dim>
					<dim>44</dim>
					<dim>44</dim>
				</port>
			</input>
			<output>
				<port id="1" names="548" precision="I64">
					<dim>4</dim>
				</port>
			</output>
		</layer>
		<layer id="332" name="552/Concat2209076775" type="Const" version="opset1">
			<data element_type="i64" offset="7245724" shape="1" size="8"/>
			<output>
				<port id="0" precision="I64">
					<dim>1</dim>
				</port>
			</output>
		</layer>
		<layer id="333" name="552/Concat220802209178044" type="Const" version="opset1">
			<data element_type="i64" offset="7245732" shape="1" size="8"/>
			<output>
				<port id="0" precision="I64">
					<dim>1</dim>
				</port>
			</output>
		</layer>
		<layer id="334" name="552/Strides2209278752" type="Const" version="opset1">
			<data element_type="i64" offset="7245740" shape="1" size="8"/>
			<output>
				<port id="0" precision="I64">
					<dim>1</dim>
				</port>
			</output>
		</layer>
		<layer id="335" name="552" type="StridedSlice" version="opset1">
			<data begin_mask="0" ellipsis_mask="0" end_mask="0" new_axis_mask="0" shrink_axis_mask="0"/>
			<input>
				<port id="0" precision="I64">
					<dim>4</dim>
				</port>
				<port id="1" precision="I64">
					<dim>1</dim>
				</port>
				<port id="2" precision="I64">
					<dim>1</dim>
				</port>
				<port id="3" precision="I64">
					<dim>1</dim>
				</port>
			</input>
			<output>
				<port id="4" names="552" precision="I64">
					<dim>2</dim>
				</port>
			</output>
		</layer>
		<layer id="336" name="553" type="Convert" version="opset1">
			<data destination_type="f32"/>
			<input>
				<port id="0" precision="I64">
					<dim>2</dim>
				</port>
			</input>
			<output>
				<port id="1" names="553" precision="FP32">
					<dim>2</dim>
				</port>
			</output>
		</layer>
		<layer id="337" name="554" type="Divide" version="opset1">
			<data auto_broadcast="numpy" m_pythondiv="true"/>
			<input>
				<port id="0" precision="FP32">
					<dim>2</dim>
				</port>
				<port id="1" precision="FP32">
					<dim>2</dim>
				</port>
			</input>
			<output>
				<port id="2" names="554" precision="FP32">
					<dim>2</dim>
				</port>
			</output>
		</layer>
		<layer id="338" name="555" type="Concat" version="opset1">
			<data axis="0"/>
			<input>
				<port id="0" precision="FP32">
					<dim>2</dim>
				</port>
				<port id="1" precision="FP32">
					<dim>2</dim>
				</port>
			</input>
			<output>
				<port id="2" names="555" precision="FP32">
					<dim>4</dim>
				</port>
			</output>
		</layer>
		<layer id="339" name="556/Add_input_port_1/value" type="Const" version="opset1">
			<data element_type="f32" offset="7245748" shape="1" size="4"/>
			<output>
				<port id="0" precision="FP32">
					<dim>1</dim>
				</port>
			</output>
		</layer>
		<layer id="340" name="556/Add" type="Add" version="opset1">
			<data auto_broadcast="numpy"/>
			<input>
				<port id="0" precision="FP32">
					<dim>4</dim>
				</port>
				<port id="1" precision="FP32">
					<dim>1</dim>
				</port>
			</input>
			<output>
				<port id="2" precision="FP32">
					<dim>4</dim>
				</port>
			</output>
		</layer>
		<layer id="341" name="556/Mul" type="Multiply" version="opset1">
			<data auto_broadcast="numpy"/>
			<input>
				<port id="0" precision="FP32">
					<dim>4</dim>
				</port>
				<port id="1" precision="FP32">
					<dim>4</dim>
				</port>
			</input>
			<output>
				<port id="2" precision="FP32">
					<dim>4</dim>
				</port>
			</output>
		</layer>
		<layer id="342" name="556/Floor" type="Floor" version="opset1">
			<input>
				<port id="0" precision="FP32">
					<dim>4</dim>
				</port>
			</input>
			<output>
				<port id="1" precision="FP32">
					<dim>4</dim>
				</port>
			</output>
		</layer>
		<layer id="343" name="1759" type="Convert" version="opset1">
			<data destination_type="i64"/>
			<input>
				<port id="0" precision="FP32">
					<dim>4</dim>
				</port>
			</input>
			<output>
				<port id="1" precision="I64">
					<dim>4</dim>
				</port>
			</output>
		</layer>
		<layer id="344" name="556/sizes_ss_input_port_1/value" type="Const" version="opset1">
			<data element_type="i64" offset="7245724" shape="1" size="8"/>
			<output>
				<port id="0" precision="I64">
					<dim>1</dim>
				</port>
			</output>
		</layer>
		<layer id="345" name="556/sizes_ss_input_port_2/value" type="Const" version="opset1">
			<data element_type="i64" offset="7245712" shape="1" size="8"/>
			<output>
				<port id="0" precision="I64">
					<dim>1</dim>
				</port>
			</output>
		</layer>
		<layer id="346" name="556/sizes_ss_input_port_3/value" type="Const" version="opset1">
			<data element_type="i64" offset="7245740" shape="1" size="8"/>
			<output>
				<port id="0" precision="I64">
					<dim>1</dim>
				</port>
			</output>
		</layer>
		<layer id="347" name="556/sizes_ss" type="StridedSlice" version="opset1">
			<data begin_mask="0" ellipsis_mask="0" end_mask="1" new_axis_mask="0" shrink_axis_mask="0"/>
			<input>
				<port id="0" precision="I64">
					<dim>4</dim>
				</port>
				<port id="1" precision="I64">
					<dim>1</dim>
				</port>
				<port id="2" precision="I64">
					<dim>1</dim>
				</port>
				<port id="3" precision="I64">
					<dim>1</dim>
				</port>
			</input>
			<output>
				<port id="4" precision="I64">
					<dim>2</dim>
				</port>
			</output>
		</layer>
		<layer id="348" name="556/scales_ss_input_port_1/value" type="Const" version="opset1">
			<data element_type="i64" offset="7245724" shape="1" size="8"/>
			<output>
				<port id="0" precision="I64">
					<dim>1</dim>
				</port>
			</output>
		</layer>
		<layer id="349" name="556/scales_ss_input_port_2/value" type="Const" version="opset1">
			<data element_type="i64" offset="7245712" shape="1" size="8"/>
			<output>
				<port id="0" precision="I64">
					<dim>1</dim>
				</port>
			</output>
		</layer>
		<layer id="350" name="556/scales_ss_input_port_3/value" type="Const" version="opset1">
			<data element_type="i64" offset="7245740" shape="1" size="8"/>
			<output>
				<port id="0" precision="I64">
					<dim>1</dim>
				</port>
			</output>
		</layer>
		<layer id="351" name="556/scales_ss" type="StridedSlice" version="opset1">
			<data begin_mask="0" ellipsis_mask="0" end_mask="1" new_axis_mask="0" shrink_axis_mask="0"/>
			<input>
				<port id="0" precision="FP32">
					<dim>4</dim>
				</port>
				<port id="1" precision="I64">
					<dim>1</dim>
				</port>
				<port id="2" precision="I64">
					<dim>1</dim>
				</port>
				<port id="3" precision="I64">
					<dim>1</dim>
				</port>
			</input>
			<output>
				<port id="4" precision="FP32">
					<dim>2</dim>
				</port>
			</output>
		</layer>
		<layer id="352" name="556/axes_input_port_0/value" type="Const" version="opset1">
			<data element_type="i64" offset="7245724" shape="" size="8"/>
			<output>
				<port id="0" precision="I64"/>
			</output>
		</layer>
		<layer id="353" name="556/max_axes/shape_of" type="ShapeOf" version="opset3">
			<data output_type="i64"/>
			<input>
				<port id="0" precision="FP32">
					<dim>1</dim>
					<dim>32</dim>
					<dim>44</dim>
					<dim>44</dim>
				</port>
			</input>
			<output>
				<port id="1" precision="I64">
					<dim>4</dim>
				</port>
			</output>
		</layer>
		<layer id="354" name="556/max_axes/rank_of" type="ShapeOf" version="opset3">
			<data output_type="i64"/>
			<input>
				<port id="0" precision="I64">
					<dim>4</dim>
				</port>
			</input>
			<output>
				<port id="1" precision="I64">
					<dim>1</dim>
				</port>
			</output>
		</layer>
		<layer id="355" name="556/max_axes/0d_rank_of/value" type="Const" version="opset1">
			<data element_type="i64" offset="7245712" shape="1" size="8"/>
			<output>
				<port id="0" precision="I64">
					<dim>1</dim>
				</port>
			</output>
		</layer>
		<layer id="356" name="556/max_axes" type="Squeeze" version="opset1">
			<input>
				<port id="0" precision="I64">
					<dim>1</dim>
				</port>
				<port id="1" precision="I64">
					<dim>1</dim>
				</port>
			</input>
			<output>
				<port id="2" precision="I64"/>
			</output>
		</layer>
		<layer id="357" name="556/axes_input_port_2/value" type="Const" version="opset1">
			<data element_type="i64" offset="7245740" shape="" size="8"/>
			<output>
				<port id="0" precision="I64"/>
			</output>
		</layer>
		<layer id="358" name="556/axes" type="Range" version="opset4">
			<data output_type="i64"/>
			<input>
				<port id="0" precision="I64"/>
				<port id="1" precision="I64"/>
				<port id="2" precision="I64"/>
			</input>
			<output>
				<port id="3" precision="I64">
					<dim>2</dim>
				</port>
			</output>
		</layer>
		<layer id="359" name="556" type="Interpolate" version="opset4">
			<data antialias="false" coordinate_transformation_mode="asymmetric" cube_coeff="-0.75" mode="nearest" nearest_mode="simple" pads_begin="0, 0, 0, 0" pads_end="0, 0, 0, 0" shape_calculation_mode="scales"/>
			<input>
				<port id="0" precision="FP32">
					<dim>1</dim>
					<dim>32</dim>
					<dim>44</dim>
					<dim>44</dim>
				</port>
				<port id="1" precision="I64">
					<dim>2</dim>
				</port>
				<port id="2" precision="FP32">
					<dim>2</dim>
				</port>
				<port id="3" precision="I64">
					<dim>2</dim>
				</port>
…
		<edge from-layer="1456" from-port="2" to-layer="1457" to-port="0"/>
		<edge from-layer="1457" from-port="1" to-layer="1955" to-port="0"/>
		<edge from-layer="1457" from-port="1" to-layer="1459" to-port="0"/>
		<edge from-layer="1458" from-port="0" to-layer="1459" to-port="1"/>
		<edge from-layer="1459" from-port="2" to-layer="1460" to-port="1"/>
		<edge from-layer="1460" from-port="2" to-layer="1462" to-port="0"/>
		<edge from-layer="1461" from-port="0" to-layer="1462" to-port="1"/>
		<edge from-layer="1462" from-port="2" to-layer="1464" to-port="0"/>
		<edge from-layer="1462" from-port="2" to-layer="1488" to-port="0"/>
		<edge from-layer="1463" from-port="0" to-layer="1470" to-port="0"/>
		<edge from-layer="1464" from-port="1" to-layer="1467" to-port="0"/>
		<edge from-layer="1465" from-port="0" to-layer="1467" to-port="1"/>
		<edge from-layer="1466" from-port="0" to-layer="1467" to-port="2"/>
		<edge from-layer="1467" from-port="3" to-layer="1469" to-port="0"/>
		<edge from-layer="1468" from-port="0" to-layer="1469" to-port="1"/>
		<edge from-layer="1469" from-port="2" to-layer="1470" to-port="1"/>
		<edge from-layer="1470" from-port="2" to-layer="1471" to-port="0"/>
		<edge from-layer="1471" from-port="1" to-layer="1473" to-port="0"/>
		<edge from-layer="1471" from-port="1" to-layer="1479" to-port="0"/>
		<edge from-layer="1472" from-port="0" to-layer="1478" to-port="0"/>
		<edge from-layer="1473" from-port="1" to-layer="1474" to-port="0"/>
		<edge from-layer="1474" from-port="1" to-layer="1476" to-port="0"/>
		<edge from-layer="1475" from-port="0" to-layer="1476" to-port="1"/>
		<edge from-layer="1476" from-port="2" to-layer="1478" to-port="1"/>
		<edge from-layer="1477" from-port="0" to-layer="1478" to-port="2"/>
		<edge from-layer="1478" from-port="3" to-layer="1479" to-port="1"/>
		<edge from-layer="1479" from-port="2" to-layer="1480" to-port="0"/>
		<edge from-layer="1480" from-port="1" to-layer="1482" to-port="0"/>
		<edge from-layer="1481" from-port="0" to-layer="1482" to-port="1"/>
		<edge from-layer="1482" from-port="2" to-layer="1484" to-port="0"/>
		<edge from-layer="1483" from-port="0" to-layer="1484" to-port="1"/>
		<edge from-layer="1484" from-port="2" to-layer="1486" to-port="0"/>
		<edge from-layer="1485" from-port="0" to-layer="1486" to-port="1"/>
		<edge from-layer="1486" from-port="2" to-layer="1487" to-port="0"/>
		<edge from-layer="1487" from-port="1" to-layer="1488" to-port="1"/>
		<edge from-layer="1488" from-port="3" to-layer="1937" to-port="0"/>
		<edge from-layer="1488" from-port="3" to-layer="1953" to-port="0"/>
		<edge from-layer="1488" from-port="2" to-layer="2074" to-port="0"/>
		<edge from-layer="1488" from-port="3" to-layer="1489" to-port="0"/>
		<edge from-layer="1488" from-port="3" to-layer="1567" to-port="0"/>
		<edge from-layer="1489" from-port="1" to-layer="1491" to-port="1"/>
		<edge from-layer="1490" from-port="0" to-layer="1491" to-port="2"/>
		<edge from-layer="1491" from-port="3" to-layer="1494" to-port="0"/>
		<edge from-layer="1491" from-port="3" to-layer="1579" to-port="0"/>
		<edge from-layer="1491" from-port="3" to-layer="1589" to-port="0"/>
		<edge from-layer="1491" from-port="3" to-layer="1599" to-port="0"/>
		<edge from-layer="1492" from-port="0" to-layer="1494" to-port="1"/>
		<edge from-layer="1493" from-port="0" to-layer="1494" to-port="2"/>
		<edge from-layer="1494" from-port="3" to-layer="1573" to-port="0"/>
		<edge from-layer="1495" from-port="0" to-layer="1496" to-port="1"/>
		<edge from-layer="1496" from-port="2" to-layer="1498" to-port="0"/>
		<edge from-layer="1496" from-port="2" to-layer="1504" to-port="0"/>
		<edge from-layer="1497" from-port="0" to-layer="1503" to-port="0"/>
		<edge from-layer="1498" from-port="1" to-layer="1499" to-port="0"/>
		<edge from-layer="1499" from-port="1" to-layer="1501" to-port="0"/>
		<edge from-layer="1500" from-port="0" to-layer="1501" to-port="1"/>
		<edge from-layer="1501" from-port="2" to-layer="1503" to-port="1"/>
		<edge from-layer="1502" from-port="0" to-layer="1503" to-port="2"/>
		<edge from-layer="1503" from-port="3" to-layer="1504" to-port="1"/>
		<edge from-layer="1504" from-port="2" to-layer="1506" to-port="0"/>
		<edge from-layer="1505" from-port="0" to-layer="1506" to-port="1"/>
		<edge from-layer="1506" from-port="2" to-layer="1508" to-port="0"/>
		<edge from-layer="1507" from-port="0" to-layer="1508" to-port="1"/>
		<edge from-layer="1508" from-port="2" to-layer="1509" to-port="0"/>
		<edge from-layer="1509" from-port="1" to-layer="1511" to-port="0"/>
		<edge from-layer="1510" from-port="0" to-layer="1511" to-port="1"/>
		<edge from-layer="1511" from-port="2" to-layer="1513" to-port="0"/>
		<edge from-layer="1511" from-port="2" to-layer="1519" to-port="0"/>
		<edge from-layer="1512" from-port="0" to-layer="1518" to-port="0"/>
		<edge from-layer="1513" from-port="1" to-layer="1514" to-port="0"/>
		<edge from-layer="1514" from-port="1" to-layer="1516" to-port="0"/>
		<edge from-layer="1515" from-port="0" to-layer="1516" to-port="1"/>
		<edge from-layer="1516" from-port="2" to-layer="1518" to-port="1"/>
		<edge from-layer="1517" from-port="0" to-layer="1518" to-port="2"/>
		<edge from-layer="1518" from-port="3" to-layer="1519" to-port="1"/>
		<edge from-layer="1519" from-port="2" to-layer="1521" to-port="0"/>
		<edge from-layer="1520" from-port="0" to-layer="1521" to-port="1"/>
		<edge from-layer="1521" from-port="2" to-layer="1523" to-port="0"/>
		<edge from-layer="1522" from-port="0" to-layer="1523" to-port="1"/>
		<edge from-layer="1523" from-port="2" to-layer="1524" to-port="0"/>
		<edge from-layer="1524" from-port="1" to-layer="1526" to-port="0"/>
		<edge from-layer="1525" from-port="0" to-layer="1526" to-port="1"/>
		<edge from-layer="1526" from-port="2" to-layer="1528" to-port="0"/>
		<edge from-layer="1526" from-port="2" to-layer="1534" to-port="0"/>
		<edge from-layer="1527" from-port="0" to-layer="1533" to-port="0"/>
		<edge from-layer="1528" from-port="1" to-layer="1529" to-port="0"/>
		<edge from-layer="1529" from-port="1" to-layer="1531" to-port="0"/>
		<edge from-layer="1530" from-port="0" to-layer="1531" to-port="1"/>
		<edge from-layer="1531" from-port="2" to-layer="1533" to-port="1"/>
		<edge from-layer="1532" from-port="0" to-layer="1533" to-port="2"/>
		<edge from-layer="1533" from-port="3" to-layer="1534" to-port="1"/>
		<edge from-layer="1534" from-port="2" to-layer="1536" to-port="0"/>
		<edge from-layer="1535" from-port="0" to-layer="1536" to-port="1"/>
		<edge from-layer="1536" from-port="2" to-layer="1538" to-port="0"/>
		<edge from-layer="1537" from-port="0" to-layer="1538" to-port="1"/>
		<edge from-layer="1538" from-port="2" to-layer="1539" to-port="0"/>
		<edge from-layer="1539" from-port="1" to-layer="1541" to-port="0"/>
		<edge from-layer="1540" from-port="0" to-layer="1541" to-port="1"/>
		<edge from-layer="1541" from-port="2" to-layer="1543" to-port="0"/>
		<edge from-layer="1541" from-port="2" to-layer="1549" to-port="0"/>
		<edge from-layer="1542" from-port="0" to-layer="1548" to-port="0"/>
		<edge from-layer="1543" from-port="1" to-layer="1544" to-port="0"/>
		<edge from-layer="1544" from-port="1" to-layer="1546" to-port="0"/>
		<edge from-layer="1545" from-port="0" to-layer="1546" to-port="1"/>
		<edge from-layer="1546" from-port="2" to-layer="1548" to-port="1"/>
		<edge from-layer="1547" from-port="0" to-layer="1548" to-port="2"/>
		<edge from-layer="1548" from-port="3" to-layer="1549" to-port="1"/>
		<edge from-layer="1549" from-port="2" to-layer="1551" to-port="0"/>
		<edge from-layer="1550" from-port="0" to-layer="1551" to-port="1"/>
		<edge from-layer="1551" from-port="2" to-layer="1553" to-port="0"/>
		<edge from-layer="1552" from-port="0" to-layer="1553" to-port="1"/>
		<edge from-layer="1553" from-port="2" to-layer="1554" to-port="0"/>
		<edge from-layer="1554" from-port="1" to-layer="1556" to-port="0"/>
		<edge from-layer="1555" from-port="0" to-layer="1556" to-port="1"/>
		<edge from-layer="1556" from-port="2" to-layer="1558" to-port="0"/>
		<edge from-layer="1557" from-port="0" to-layer="1558" to-port="1"/>
		<edge from-layer="1558" from-port="2" to-layer="1559" to-port="0"/>
		<edge from-layer="1559" from-port="1" to-layer="1562" to-port="0"/>
		<edge from-layer="1560" from-port="0" to-layer="1562" to-port="1"/>
		<edge from-layer="1561" from-port="0" to-layer="1562" to-port="2"/>
		<edge from-layer="1562" from-port="3" to-layer="1564" to-port="0"/>
		<edge from-layer="1563" from-port="0" to-layer="1564" to-port="1"/>
		<edge from-layer="1564" from-port="2" to-layer="1566" to-port="0"/>
		<edge from-layer="1565" from-port="0" to-layer="1566" to-port="1"/>
		<edge from-layer="1566" from-port="2" to-layer="1569" to-port="0"/>
		<edge from-layer="1567" from-port="1" to-layer="1569" to-port="1"/>
		<edge from-layer="1568" from-port="0" to-layer="1569" to-port="2"/>
		<edge from-layer="1569" from-port="3" to-layer="1572" to-port="0"/>
		<edge from-layer="1569" from-port="3" to-layer="1582" to-port="0"/>
		<edge from-layer="1569" from-port="3" to-layer="1592" to-port="0"/>
		<edge from-layer="1569" from-port="3" to-layer="1602" to-port="0"/>
		<edge from-layer="1570" from-port="0" to-layer="1572" to-port="1"/>
		<edge from-layer="1571" from-port="0" to-layer="1572" to-port="2"/>
		<edge from-layer="1572" from-port="3" to-layer="1573" to-port="1"/>
		<edge from-layer="1573" from-port="2" to-layer="1574" to-port="0"/>
		<edge from-layer="1574" from-port="1" to-layer="1576" to-port="0"/>
		<edge from-layer="1575" from-port="0" to-layer="1576" to-port="1"/>
		<edge from-layer="1576" from-port="2" to-layer="1607" to-port="0"/>
		<edge from-layer="1577" from-port="0" to-layer="1579" to-port="1"/>
		<edge from-layer="1578" from-port="0" to-layer="1579" to-port="2"/>
		<edge from-layer="1579" from-port="3" to-layer="1583" to-port="0"/>
		<edge from-layer="1580" from-port="0" to-layer="1582" to-port="1"/>
		<edge from-layer="1581" from-port="0" to-layer="1582" to-port="2"/>
		<edge from-layer="1582" from-port="3" to-layer="1583" to-port="1"/>
		<edge from-layer="1583" from-port="2" to-layer="1584" to-port="0"/>
		<edge from-layer="1584" from-port="1" to-layer="1586" to-port="0"/>
		<edge from-layer="1585" from-port="0" to-layer="1586" to-port="1"/>
		<edge from-layer="1586" from-port="2" to-layer="1607" to-port="1"/>
		<edge from-layer="1587" from-port="0" to-layer="1589" to-port="1"/>
		<edge from-layer="1588" from-port="0" to-layer="1589" to-port="2"/>
		<edge from-layer="1589" from-port="3" to-layer="1593" to-port="0"/>
		<edge from-layer="1590" from-port="0" to-layer="1592" to-port="1"/>
		<edge from-layer="1591" from-port="0" to-layer="1592" to-port="2"/>
		<edge from-layer="1592" from-port="3" to-layer="1593" to-port="1"/>
		<edge from-layer="1593" from-port="2" to-layer="1594" to-port="0"/>
		<edge from-layer="1594" from-port="1" to-layer="1596" to-port="0"/>
		<edge from-layer="1595" from-port="0" to-layer="1596" to-port="1"/>
		<edge from-layer="1596" from-port="2" to-layer="1607" to-port="2"/>
		<edge from-layer="1597" from-port="0" to-layer="1599" to-port="1"/>
		<edge from-layer="1598" from-port="0" to-layer="1599" to-port="2"/>
		<edge from-layer="1599" from-port="3" to-layer="1603" to-port="0"/>
		<edge from-layer="1600" from-port="0" to-layer="1602" to-port="1"/>
		<edge from-layer="1601" from-port="0" to-layer="1602" to-port="2"/>
		<edge from-layer="1602" from-port="3" to-layer="1603" to-port="1"/>
		<edge from-layer="1603" from-port="2" to-layer="1604" to-port="0"/>
		<edge from-layer="1604" from-port="1" to-layer="1606" to-port="0"/>
		<edge from-layer="1605" from-port="0" to-layer="1606" to-port="1"/>
		<edge from-layer="1606" from-port="2" to-layer="1607" to-port="3"/>
		<edge from-layer="1607" from-port="4" to-layer="1921" to-port="3"/>
		<edge from-layer="1608" from-port="0" to-layer="1690" to-port="0"/>
		<edge from-layer="1609" from-port="1" to-layer="1611" to-port="0"/>
		<edge from-layer="1610" from-port="0" to-layer="1611" to-port="1"/>
		<edge from-layer="1611" from-port="2" to-layer="1613" to-port="0"/>
		<edge from-layer="1612" from-port="0" to-layer="1613" to-port="1"/>
		<edge from-layer="1613" from-port="2" to-layer="1809" to-port="0"/>
		<edge from-layer="1613" from-port="2" to-layer="1615" to-port="0"/>
		<edge from-layer="1614" from-port="0" to-layer="1615" to-port="1"/>
		<edge from-layer="1615" from-port="2" to-layer="1617" to-port="0"/>
		<edge from-layer="1615" from-port="2" to-layer="1623" to-port="0"/>
		<edge from-layer="1616" from-port="0" to-layer="1622" to-port="0"/>
		<edge from-layer="1617" from-port="1" to-layer="1618" to-port="0"/>
		<edge from-layer="1618" from-port="1" to-layer="1620" to-port="0"/>
		<edge from-layer="1619" from-port="0" to-layer="1620" to-port="1"/>
		<edge from-layer="1620" from-port="2" to-layer="1622" to-port="1"/>
		<edge from-layer="1621" from-port="0" to-layer="1622" to-port="2"/>
		<edge from-layer="1622" from-port="3" to-layer="1623" to-port="1"/>
		<edge from-layer="1623" from-port="2" to-layer="1625" to-port="0"/>
		<edge from-layer="1624" from-port="0" to-layer="1625" to-port="1"/>
		<edge from-layer="1625" from-port="2" to-layer="1627" to-port="0"/>
		<edge from-layer="1626" from-port="0" to-layer="1627" to-port="1"/>
		<edge from-layer="1627" from-port="2" to-layer="1628" to-port="0"/>
		<edge from-layer="1628" from-port="1" to-layer="1630" to-port="0"/>
		<edge from-layer="1629" from-port="0" to-layer="1630" to-port="1"/>
		<edge from-layer="1630" from-port="2" to-layer="1632" to-port="0"/>
		<edge from-layer="1630" from-port="2" to-layer="1638" to-port="0"/>
		<edge from-layer="1631" from-port="0" to-layer="1637" to-port="0"/>
		<edge from-layer="1632" from-port="1" to-layer="1633" to-port="0"/>
		<edge from-layer="1633" from-port="1" to-layer="1635" to-port="0"/>
		<edge from-layer="1634" from-port="0" to-layer="1635" to-port="1"/>
		<edge from-layer="1635" from-port="2" to-layer="1637" to-port="1"/>
		<edge from-layer="1636" from-port="0" to-layer="1637" to-port="2"/>
		<edge from-layer="1637" from-port="3" to-layer="1638" to-port="1"/>
		<edge from-layer="1638" from-port="2" to-layer="1640" to-port="0"/>
		<edge from-layer="1639" from-port="0" to-layer="1640" to-port="1"/>
		<edge from-layer="1640" from-port="2" to-layer="1642" to-port="0"/>
		<edge from-layer="1641" from-port="0" to-layer="1642" to-port="1"/>
		<edge from-layer="1642" from-port="2" to-layer="1643" to-port="0"/>
		<edge from-layer="1643" from-port="1" to-layer="1645" to-port="0"/>
		<edge from-layer="1644" from-port="0" to-layer="1645" to-port="1"/>
		<edge from-layer="1645" from-port="2" to-layer="1647" to-port="0"/>
		<edge from-layer="1645" from-port="2" to-layer="1653" to-port="0"/>
		<edge from-layer="1646" from-port="0" to-layer="1652" to-port="0"/>
		<edge from-layer="1647" from-port="1" to-layer="1648" to-port="0"/>
		<edge from-layer="1648" from-port="1" to-layer="1650" to-port="0"/>
		<edge from-layer="1649" from-port="0" to-layer="1650" to-port="1"/>
		<edge from-layer="1650" from-port="2" to-layer="1652" to-port="1"/>
		<edge from-layer="1651" from-port="0" to-layer="1652" to-port="2"/>
		<edge from-layer="1652" from-port="3" to-layer="1653" to-port="1"/>
		<edge from-layer="1653" from-port="2" to-layer="1655" to-port="0"/>
		<edge from-layer="1654" from-port="0" to-layer="1655" to-port="1"/>
		<edge from-layer="1655" from-port="2" to-layer="1657" to-port="0"/>
		<edge from-layer="1656" from-port="0" to-layer="1657" to-port="1"/>
		<edge from-layer="1657" from-port="2" to-layer="1658" to-port="0"/>
		<edge from-layer="1658" from-port="1" to-layer="1660" to-port="0"/>
		<edge from-layer="1659" from-port="0" to-layer="1660" to-port="1"/>
		<edge from-layer="1660" from-port="2" to-layer="1662" to-port="0"/>
		<edge from-layer="1660" from-port="2" to-layer="1668" to-port="0"/>
		<edge from-layer="1661" from-port="0" to-layer="1667" to-port="0"/>
		<edge from-layer="1662" from-port="1" to-layer="1663" to-port="0"/>
		<edge from-layer="1663" from-port="1" to-layer="1665" to-port="0"/>
		<edge from-layer="1664" from-port="0" to-layer="1665" to-port="1"/>
		<edge from-layer="1665" from-port="2" to-layer="1667" to-port="1"/>
		<edge from-layer="1666" from-port="0" to-layer="1667" to-port="2"/>
		<edge from-layer="1667" from-port="3" to-layer="1668" to-port="1"/>
		<edge from-layer="1668" from-port="2" to-layer="1670" to-port="0"/>
		<edge from-layer="1669" from-port="0" to-layer="1670" to-port="1"/>
		<edge from-layer="1670" from-port="2" to-layer="1672" to-port="0"/>
		<edge from-layer="1671" from-port="0" to-layer="1672" to-port="1"/>
		<edge from-layer="1672" from-port="2" to-layer="1673" to-port="0"/>
		<edge from-layer="1673" from-port="1" to-layer="1760" to-port="0"/>
		<edge from-layer="1673" from-port="1" to-layer="1675" to-port="0"/>
		<edge from-layer="1674" from-port="0" to-layer="1675" to-port="1"/>
		<edge from-layer="1675" from-port="2" to-layer="1677" to-port="0"/>
		<edge from-layer="1676" from-port="0" to-layer="1677" to-port="1"/>
		<edge from-layer="1677" from-port="2" to-layer="1753" to-port="0"/>
		<edge from-layer="1677" from-port="2" to-layer="1678" to-port="0"/>
		<edge from-layer="1677" from-port="2" to-layer="1708" to-port="0"/>
		<edge from-layer="1678" from-port="1" to-layer="1681" to-port="0"/>
		<edge from-layer="1679" from-port="0" to-layer="1681" to-port="1"/>
		<edge from-layer="1680" from-port="0" to-layer="1681" to-port="2"/>
		<edge from-layer="1681" from-port="3" to-layer="1683" to-port="0"/>
		<edge from-layer="1682" from-port="0" to-layer="1683" to-port="1"/>
		<edge from-layer="1683" from-port="2" to-layer="1685" to-port="0"/>
		<edge from-layer="1684" from-port="0" to-layer="1685" to-port="1"/>
		<edge from-layer="1685" from-port="2" to-layer="1687" to-port="0"/>
		<edge from-layer="1686" from-port="0" to-layer="1687" to-port="1"/>
		<edge from-layer="1687" from-port="2" to-layer="1689" to-port="0"/>
		<edge from-layer="1688" from-port="0" to-layer="1689" to-port="1"/>
		<edge from-layer="1689" from-port="2" to-layer="1690" to-port="1"/>
		<edge from-layer="1690" from-port="2" to-layer="1691" to-port="0"/>
		<edge from-layer="1691" from-port="1" to-layer="1693" to-port="0"/>
		<edge from-layer="1692" from-port="0" to-layer="1693" to-port="1"/>
		<edge from-layer="1693" from-port="2" to-layer="1695" to-port="0"/>
		<edge from-layer="1694" from-port="0" to-layer="1695" to-port="1"/>
		<edge from-layer="1695" from-port="2" to-layer="1697" to-port="0"/>
		<edge from-layer="1696" from-port="0" to-layer="1697" to-port="1"/>
		<edge from-layer="1697" from-port="2" to-layer="1699" to-port="0"/>
		<edge from-layer="1698" from-port="0" to-layer="1699" to-port="1"/>
		<edge from-layer="1699" from-port="2" to-layer="1700" to-port="0"/>
		<edge from-layer="1700" from-port="1" to-layer="1702" to-port="0"/>
		<edge from-layer="1701" from-port="0" to-layer="1702" to-port="1"/>
		<edge from-layer="1702" from-port="2" to-layer="1704" to-port="0"/>
		<edge from-layer="1702" from-port="2" to-layer="1706" to-port="0"/>
		<edge from-layer="1703" from-port="0" to-layer="1705" to-port="0"/>
		<edge from-layer="1704" from-port="1" to-layer="1705" to-port="1"/>
		<edge from-layer="1704" from-port="1" to-layer="1734" to-port="1"/>
		<edge from-layer="1705" from-port="2" to-layer="1706" to-port="1"/>
		<edge from-layer="1706" from-port="2" to-layer="1735" to-port="0"/>
		<edge from-layer="1707" from-port="0" to-layer="1720" to-port="0"/>
		<edge from-layer="1708" from-port="1" to-layer="1711" to-port="0"/>
		<edge from-layer="1709" from-port="0" to-layer="1711" to-port="1"/>
		<edge from-layer="1710" from-port="0" to-layer="1711" to-port="2"/>
		<edge from-layer="1711" from-port="3" to-layer="1713" to-port="0"/>
		<edge from-layer="1712" from-port="0" to-layer="1713" to-port="1"/>
		<edge from-layer="1713" from-port="2" to-layer="1715" to-port="0"/>
		<edge from-layer="1714" from-port="0" to-layer="1715" to-port="1"/>
		<edge from-layer="1715" from-port="2" to-layer="1717" to-port="0"/>
		<edge from-layer="1716" from-port="0" to-layer="1717" to-port="1"/>
		<edge from-layer="1717" from-port="2" to-layer="1719" to-port="0"/>
		<edge from-layer="1718" from-port="0" to-layer="1719" to-port="1"/>
		<edge from-layer="1719" from-port="2" to-layer="1720" to-port="1"/>
		<edge from-layer="1720" from-port="2" to-layer="1721" to-port="0"/>
		<edge from-layer="1721" from-port="1" to-layer="1723" to-port="0"/>
		<edge from-layer="1722" from-port="0" to-layer="1723" to-port="1"/>
		<edge from-layer="1723" from-port="2" to-layer="1725" to-port="0"/>
		<edge from-layer="1724" from-port="0" to-layer="1725" to-port="1"/>
		<edge from-layer="1725" from-port="2" to-layer="1727" to-port="0"/>
		<edge from-layer="1726" from-port="0" to-layer="1727" to-port="1"/>
		<edge from-layer="1727" from-port="2" to-layer="1729" to-port="0"/>
		<edge from-layer="1728" from-port="0" to-layer="1729" to-port="1"/>
		<edge from-layer="1729" from-port="2" to-layer="1730" to-port="0"/>
		<edge from-layer="1730" from-port="1" to-layer="1732" to-port="0"/>
		<edge from-layer="1731" from-port="0" to-layer="1732" to-port="1"/>
		<edge from-layer="1732" from-port="2" to-layer="1733" to-port="0"/>
		<edge from-layer="1732" from-port="2" to-layer="1742" to-port="0"/>
		<edge from-layer="1733" from-port="1" to-layer="1734" to-port="0"/>
		<edge from-layer="1733" from-port="1" to-layer="1741" to-port="0"/>
		<edge from-layer="1734" from-port="2" to-layer="1735" to-port="1"/>
		<edge from-layer="1734" from-port="2" to-layer="1743" to-port="1"/>
		<edge from-layer="1735" from-port="2" to-layer="1737" to-port="0"/>
		<edge from-layer="1736" from-port="0" to-layer="1737" to-port="1"/>
		<edge from-layer="1737" from-port="2" to-layer="1739" to-port="0"/>
		<edge from-layer="1738" from-port="0" to-layer="1739" to-port="1"/>
		<edge from-layer="1739" from-port="2" to-layer="1748" to-port="0"/>
		<edge from-layer="1740" from-port="0" to-layer="1741" to-port="1"/>
		<edge from-layer="1741" from-port="2" to-layer="1742" to-port="1"/>
		<edge from-layer="1742" from-port="2" to-layer="1743" to-port="0"/>
		<edge from-layer="1743" from-port="2" to-layer="1745" to-port="0"/>
		<edge from-layer="1744" from-port="0" to-layer="1745" to-port="1"/>
		<edge from-layer="1745" from-port="2" to-layer="1747" to-port="0"/>
		<edge from-layer="1746" from-port="0" to-layer="1747" to-port="1"/>
		<edge from-layer="1747" from-port="2" to-layer="1748" to-port="1"/>
		<edge from-layer="1748" from-port="2" to-layer="1750" to-port="0"/>
		<edge from-layer="1749" from-port="0" to-layer="1750" to-port="1"/>
		<edge from-layer="1750" from-port="2" to-layer="1804" to-port="0"/>
		<edge from-layer="1751" from-port="0" to-layer="1753" to-port="1"/>
		<edge from-layer="1752" from-port="0" to-layer="1753" to-port="2"/>
		<edge from-layer="1753" from-port="3" to-layer="1755" to-port="0"/>
		<edge from-layer="1754" from-port="0" to-layer="1755" to-port="1"/>
		<edge from-layer="1755" from-port="2" to-layer="1757" to-port="0"/>
		<edge from-layer="1756" from-port="0" to-layer="1757" to-port="1"/>
		<edge from-layer="1757" from-port="2" to-layer="1758" to-port="0"/>
		<edge from-layer="1758" from-port="1" to-layer="1773" to-port="0"/>
		<edge from-layer="1758" from-port="1" to-layer="1942" to-port="0"/>
		<edge from-layer="1759" from-port="0" to-layer="1760" to-port="1"/>
		<edge from-layer="1760" from-port="2" to-layer="1762" to-port="0"/>
		<edge from-layer="1761" from-port="0" to-layer="1762" to-port="1"/>
		<edge from-layer="1762" from-port="2" to-layer="1765" to-port="0"/>
		<edge from-layer="1763" from-port="0" to-layer="1765" to-port="1"/>
		<edge from-layer="1764" from-port="0" to-layer="1765" to-port="2"/>
		<edge from-layer="1765" from-port="3" to-layer="1767" to-port="0"/>
		<edge from-layer="1766" from-port="0" to-layer="1767" to-port="1"/>
		<edge from-layer="1767" from-port="2" to-layer="1769" to-port="0"/>
		<edge from-layer="1768" from-port="0" to-layer="1769" to-port="1"/>
		<edge from-layer="1769" from-port="2" to-layer="1770" to-port="0"/>
		<edge from-layer="1770" from-port="1" to-layer="1772" to-port="0"/>
		<edge from-layer="1770" from-port="1" to-layer="1958" to-port="0"/>
		<edge from-layer="1771" from-port="0" to-layer="1772" to-port="1"/>
		<edge from-layer="1772" from-port="2" to-layer="1773" to-port="1"/>
		<edge from-layer="1773" from-port="2" to-layer="1775" to-port="0"/>
		<edge from-layer="1774" from-port="0" to-layer="1775" to-port="1"/>
		<edge from-layer="1775" from-port="2" to-layer="1777" to-port="0"/>
		<edge from-layer="1775" from-port="2" to-layer="1801" to-port="0"/>
		<edge from-layer="1776" from-port="0" to-layer="1783" to-port="0"/>
		<edge from-layer="1777" from-port="1" to-layer="1780" to-port="0"/>
		<edge from-layer="1778" from-port="0" to-layer="1780" to-port="1"/>
		<edge from-layer="1779" from-port="0" to-layer="1780" to-port="2"/>
		<edge from-layer="1780" from-port="3" to-layer="1782" to-port="0"/>
		<edge from-layer="1781" from-port="0" to-layer="1782" to-port="1"/>
		<edge from-layer="1782" from-port="2" to-layer="1783" to-port="1"/>
		<edge from-layer="1783" from-port="2" to-layer="1784" to-port="0"/>
		<edge from-layer="1784" from-port="1" to-layer="1786" to-port="0"/>
		<edge from-layer="1784" from-port="1" to-layer="1792" to-port="0"/>
		<edge from-layer="1785" from-port="0" to-layer="1791" to-port="0"/>
		<edge from-layer="1786" from-port="1" to-layer="1787" to-port="0"/>
		<edge from-layer="1787" from-port="1" to-layer="1789" to-port="0"/>
		<edge from-layer="1788" from-port="0" to-layer="1789" to-port="1"/>
		<edge from-layer="1789" from-port="2" to-layer="1791" to-port="1"/>
		<edge from-layer="1790" from-port="0" to-layer="1791" to-port="2"/>
		<edge from-layer="1791" from-port="3" to-layer="1792" to-port="1"/>
		<edge from-layer="1792" from-port="2" to-layer="1793" to-port="0"/>
		<edge from-layer="1793" from-port="1" to-layer="1795" to-port="0"/>
		<edge from-layer="1794" from-port="0" to-layer="1795" to-port="1"/>
		<edge from-layer="1795" from-port="2" to-layer="1797" to-port="0"/>
		<edge from-layer="1796" from-port="0" to-layer="1797" to-port="1"/>
		<edge from-layer="1797" from-port="2" to-layer="1799" to-port="0"/>
		<edge from-layer="1798" from-port="0" to-layer="1799" to-port="1"/>
		<edge from-layer="1799" from-port="2" to-layer="1800" to-port="0"/>
		<edge from-layer="1800" from-port="1" to-layer="1801" to-port="1"/>
		<edge from-layer="1801" from-port="3" to-layer="1802" to-port="0"/>
		<edge from-layer="1801" from-port="3" to-layer="1880" to-port="0"/>
		<edge from-layer="1801" from-port="3" to-layer="1940" to-port="0"/>
		<edge from-layer="1801" from-port="3" to-layer="1956" to-port="0"/>
		<edge from-layer="1801" from-port="2" to-layer="2073" to-port="0"/>
		<edge from-layer="1802" from-port="1" to-layer="1804" to-port="1"/>
		<edge from-layer="1803" from-port="0" to-layer="1804" to-port="2"/>
		<edge from-layer="1804" from-port="3" to-layer="1807" to-port="0"/>
		<edge from-layer="1804" from-port="3" to-layer="1892" to-port="0"/>
		<edge from-layer="1804" from-port="3" to-layer="1902" to-port="0"/>
		<edge from-layer="1804" from-port="3" to-layer="1912" to-port="0"/>
		<edge from-layer="1805" from-port="0" to-layer="1807" to-port="1"/>
		<edge from-layer="1806" from-port="0" to-layer="1807" to-port="2"/>
		<edge from-layer="1807" from-port="3" to-layer="1886" to-port="0"/>
		<edge from-layer="1808" from-port="0" to-layer="1809" to-port="1"/>
		<edge from-layer="1809" from-port="2" to-layer="1811" to-port="0"/>
		<edge from-layer="1809" from-port="2" to-layer="1817" to-port="0"/>
		<edge from-layer="1810" from-port="0" to-layer="1816" to-port="0"/>
		<edge from-layer="1811" from-port="1" to-layer="1812" to-port="0"/>
		<edge from-layer="1812" from-port="1" to-layer="1814" to-port="0"/>
		<edge from-layer="1813" from-port="0" to-layer="1814" to-port="1"/>
		<edge from-layer="1814" from-port="2" to-layer="1816" to-port="1"/>
		<edge from-layer="1815" from-port="0" to-layer="1816" to-port="2"/>
		<edge from-layer="1816" from-port="3" to-layer="1817" to-port="1"/>
		<edge from-layer="1817" from-port="2" to-layer="1819" to-port="0"/>
		<edge from-layer="1818" from-port="0" to-layer="1819" to-port="1"/>
		<edge from-layer="1819" from-port="2" to-layer="1821" to-port="0"/>
		<edge from-layer="1820" from-port="0" to-layer="1821" to-port="1"/>
		<edge from-layer="1821" from-port="2" to-layer="1822" to-port="0"/>
		<edge from-layer="1822" from-port="1" to-layer="1824" to-port="0"/>
		<edge from-layer="1823" from-port="0" to-layer="1824" to-port="1"/>
		<edge from-layer="1824" from-port="2" to-layer="1826" to-port="0"/>
		<edge from-layer="1824" from-port="2" to-layer="1832" to-port="0"/>
		<edge from-layer="1825" from-port="0" to-layer="1831" to-port="0"/>
		<edge from-layer="1826" from-port="1" to-layer="1827" to-port="0"/>
		<edge from-layer="1827" from-port="1" to-layer="1829" to-port="0"/>
		<edge from-layer="1828" from-port="0" to-layer="1829" to-port="1"/>
		<edge from-layer="1829" from-port="2" to-layer="1831" to-port="1"/>
		<edge from-layer="1830" from-port="0" to-layer="1831" to-port="2"/>
		<edge from-layer="1831" from-port="3" to-layer="1832" to-port="1"/>
		<edge from-layer="1832" from-port="2" to-layer="1834" to-port="0"/>
		<edge from-layer="1833" from-port="0" to-layer="1834" to-port="1"/>
		<edge from-layer="1834" from-port="2" to-layer="1836" to-port="0"/>
		<edge from-layer="1835" from-port="0" to-layer="1836" to-port="1"/>
		<edge from-layer="1836" from-port="2" to-layer="1837" to-port="0"/>
		<edge from-layer="1837" from-port="1" to-layer="1839" to-port="0"/>
		<edge from-layer="1838" from-port="0" to-layer="1839" to-port="1"/>
		<edge from-layer="1839" from-port="2" to-layer="1841" to-port="0"/>
		<edge from-layer="1839" from-port="2" to-layer="1847" to-port="0"/>
		<edge from-layer="1840" from-port="0" to-layer="1846" to-port="0"/>
		<edge from-layer="1841" from-port="1" to-layer="1842" to-port="0"/>
		<edge from-layer="1842" from-port="1" to-layer="1844" to-port="0"/>
		<edge from-layer="1843" from-port="0" to-layer="1844" to-port="1"/>
		<edge from-layer="1844" from-port="2" to-layer="1846" to-port="1"/>
		<edge from-layer="1845" from-port="0" to-layer="1846" to-port="2"/>
		<edge from-layer="1846" from-port="3" to-layer="1847" to-port="1"/>
		<edge from-layer="1847" from-port="2" to-layer="1849" to-port="0"/>
		<edge from-layer="1848" from-port="0" to-layer="1849" to-port="1"/>
		<edge from-layer="1849" from-port="2" to-layer="1851" to-port="0"/>
		<edge from-layer="1850" from-port="0" to-layer="1851" to-port="1"/>
		<edge from-layer="1851" from-port="2" to-layer="1852" to-port="0"/>
		<edge from-layer="1852" from-port="1" to-layer="1854" to-port="0"/>
		<edge from-layer="1853" from-port="0" to-layer="1854" to-port="1"/>
		<edge from-layer="1854" from-port="2" to-layer="1856" to-port="0"/>
		<edge from-layer="1854" from-port="2" to-layer="1862" to-port="0"/>
		<edge from-layer="1855" from-port="0" to-layer="1861" to-port="0"/>
		<edge from-layer="1856" from-port="1" to-layer="1857" to-port="0"/>
		<edge from-layer="1857" from-port="1" to-layer="1859" to-port="0"/>
		<edge from-layer="1858" from-port="0" to-layer="1859" to-port="1"/>
		<edge from-layer="1859" from-port="2" to-layer="1861" to-port="1"/>
		<edge from-layer="1860" from-port="0" to-layer="1861" to-port="2"/>
		<edge from-layer="1861" from-port="3" to-layer="1862" to-port="1"/>
		<edge from-layer="1862" from-port="2" to-layer="1864" to-port="0"/>
		<edge from-layer="1863" from-port="0" to-layer="1864" to-port="1"/>
		<edge from-layer="1864" from-port="2" to-layer="1866" to-port="0"/>
		<edge from-layer="1865" from-port="0" to-layer="1866" to-port="1"/>
		<edge from-layer="1866" from-port="2" to-layer="1867" to-port="0"/>
		<edge from-layer="1867" from-port="1" to-layer="1869" to-port="0"/>
		<edge from-layer="1868" from-port="0" to-layer="1869" to-port="1"/>
		<edge from-layer="1869" from-port="2" to-layer="1871" to-port="0"/>
		<edge from-layer="1870" from-port="0" to-layer="1871" to-port="1"/>
		<edge from-layer="1871" from-port="2" to-layer="1872" to-port="0"/>
		<edge from-layer="1872" from-port="1" to-layer="1875" to-port="0"/>
		<edge from-layer="1873" from-port="0" to-layer="1875" to-port="1"/>
		<edge from-layer="1874" from-port="0" to-layer="1875" to-port="2"/>
		<edge from-layer="1875" from-port="3" to-layer="1877" to-port="0"/>
		<edge from-layer="1876" from-port="0" to-layer="1877" to-port="1"/>
		<edge from-layer="1877" from-port="2" to-layer="1879" to-port="0"/>
		<edge from-layer="1878" from-port="0" to-layer="1879" to-port="1"/>
		<edge from-layer="1879" from-port="2" to-layer="1882" to-port="0"/>
		<edge from-layer="1880" from-port="1" to-layer="1882" to-port="1"/>
		<edge from-layer="1881" from-port="0" to-layer="1882" to-port="2"/>
		<edge from-layer="1882" from-port="3" to-layer="1885" to-port="0"/>
		<edge from-layer="1882" from-port="3" to-layer="1895" to-port="0"/>
		<edge from-layer="1882" from-port="3" to-layer="1905" to-port="0"/>
		<edge from-layer="1882" from-port="3" to-layer="1915" to-port="0"/>
		<edge from-layer="1883" from-port="0" to-layer="1885" to-port="1"/>
		<edge from-layer="1884" from-port="0" to-layer="1885" to-port="2"/>
		<edge from-layer="1885" from-port="3" to-layer="1886" to-port="1"/>
		<edge from-layer="1886" from-port="2" to-layer="1887" to-port="0"/>
		<edge from-layer="1887" from-port="1" to-layer="1889" to-port="0"/>
		<edge from-layer="1888" from-port="0" to-layer="1889" to-port="1"/>
		<edge from-layer="1889" from-port="2" to-layer="1920" to-port="0"/>
		<edge from-layer="1890" from-port="0" to-layer="1892" to-port="1"/>
		<edge from-layer="1891" from-port="0" to-layer="1892" to-port="2"/>
		<edge from-layer="1892" from-port="3" to-layer="1896" to-port="0"/>
		<edge from-layer="1893" from-port="0" to-layer="1895" to-port="1"/>
		<edge from-layer="1894" from-port="0" to-layer="1895" to-port="2"/>
		<edge from-layer="1895" from-port="3" to-layer="1896" to-port="1"/>
		<edge from-layer="1896" from-port="2" to-layer="1897" to-port="0"/>
		<edge from-layer="1897" from-port="1" to-layer="1899" to-port="0"/>
		<edge from-layer="1898" from-port="0" to-layer="1899" to-port="1"/>
		<edge from-layer="1899" from-port="2" to-layer="1920" to-port="1"/>
		<edge from-layer="1900" from-port="0" to-layer="1902" to-port="1"/>
		<edge from-layer="1901" from-port="0" to-layer="1902" to-port="2"/>
		<edge from-layer="1902" from-port="3" to-layer="1906" to-port="0"/>
		<edge from-layer="1903" from-port="0" to-layer="1905" to-port="1"/>
		<edge from-layer="1904" from-port="0" to-layer="1905" to-port="2"/>
		<edge from-layer="1905" from-port="3" to-layer="1906" to-port="1"/>
		<edge from-layer="1906" from-port="2" to-layer="1907" to-port="0"/>
		<edge from-layer="1907" from-port="1" to-layer="1909" to-port="0"/>
		<edge from-layer="1908" from-port="0" to-layer="1909" to-port="1"/>
		<edge from-layer="1909" from-port="2" to-layer="1920" to-port="2"/>
		<edge from-layer="1910" from-port="0" to-layer="1912" to-port="1"/>
		<edge from-layer="1911" from-port="0" to-layer="1912" to-port="2"/>
		<edge from-layer="1912" from-port="3" to-layer="1916" to-port="0"/>
		<edge from-layer="1913" from-port="0" to-layer="1915" to-port="1"/>
		<edge from-layer="1914" from-port="0" to-layer="1915" to-port="2"/>
		<edge from-layer="1915" from-port="3" to-layer="1916" to-port="1"/>
		<edge from-layer="1916" from-port="2" to-layer="1917" to-port="0"/>
		<edge from-layer="1917" from-port="1" to-layer="1919" to-port="0"/>
		<edge from-layer="1918" from-port="0" to-layer="1919" to-port="1"/>
		<edge from-layer="1919" from-port="2" to-layer="1920" to-port="3"/>
		<edge from-layer="1920" from-port="4" to-layer="1921" to-port="4"/>
		<edge from-layer="1921" from-port="5" to-layer="1923" to-port="0"/>
		<edge from-layer="1922" from-port="0" to-layer="1923" to-port="1"/>
		<edge from-layer="1923" from-port="2" to-layer="1925" to-port="0"/>
		<edge from-layer="1924" from-port="0" to-layer="1925" to-port="1"/>
		<edge from-layer="1925" from-port="2" to-layer="1927" to-port="0"/>
		<edge from-layer="1925" from-port="2" to-layer="1974" to-port="0"/>
		<edge from-layer="1925" from-port="2" to-layer="1980" to-port="0"/>
		<edge from-layer="1925" from-port="2" to-layer="1990" to-port="0"/>
		<edge from-layer="1926" from-port="0" to-layer="1927" to-port="1"/>
		<edge from-layer="1927" from-port="2" to-layer="2000" to-port="0"/>
		<edge from-layer="1928" from-port="1" to-layer="1930" to-port="1"/>
		<edge from-layer="1929" from-port="0" to-layer="1930" to-port="2"/>
		<edge from-layer="1930" from-port="3" to-layer="1943" to-port="0"/>
		<edge from-layer="1931" from-port="1" to-layer="1933" to-port="1"/>
		<edge from-layer="1932" from-port="0" to-layer="1933" to-port="2"/>
		<edge from-layer="1933" from-port="3" to-layer="1943" to-port="1"/>
		<edge from-layer="1934" from-port="1" to-layer="1936" to-port="1"/>
		<edge from-layer="1935" from-port="0" to-layer="1936" to-port="2"/>
		<edge from-layer="1936" from-port="3" to-layer="1943" to-port="2"/>
		<edge from-layer="1937" from-port="1" to-layer="1939" to-port="1"/>
		<edge from-layer="1938" from-port="0" to-layer="1939" to-port="2"/>
		<edge from-layer="1939" from-port="3" to-layer="1943" to-port="3"/>
		<edge from-layer="1940" from-port="1" to-layer="1942" to-port="1"/>
		<edge from-layer="1941" from-port="0" to-layer="1942" to-port="2"/>
		<edge from-layer="1942" from-port="3" to-layer="1943" to-port="4"/>
		<edge from-layer="1943" from-port="5" to-layer="1969" to-port="0"/>
		<edge from-layer="1943" from-port="5" to-layer="1971" to-port="0"/>
		<edge from-layer="1944" from-port="1" to-layer="1946" to-port="1"/>
		<edge from-layer="1945" from-port="0" to-layer="1946" to-port="2"/>
		<edge from-layer="1946" from-port="3" to-layer="1959" to-port="0"/>
		<edge from-layer="1947" from-port="1" to-layer="1949" to-port="1"/>
		<edge from-layer="1948" from-port="0" to-layer="1949" to-port="2"/>
		<edge from-layer="1949" from-port="3" to-layer="1959" to-port="1"/>
		<edge from-layer="1950" from-port="1" to-layer="1952" to-port="1"/>
		<edge from-layer="1951" from-port="0" to-layer="1952" to-port="2"/>
		<edge from-layer="1952" from-port="3" to-layer="1959" to-port="2"/>
		<edge from-layer="1953" from-port="1" to-layer="1955" to-port="1"/>
		<edge from-layer="1954" from-port="0" to-layer="1955" to-port="2"/>
		<edge from-layer="1955" from-port="3" to-layer="1959" to-port="3"/>
		<edge from-layer="1956" from-port="1" to-layer="1958" to-port="1"/>
		<edge from-layer="1957" from-port="0" to-layer="1958" to-port="2"/>
		<edge from-layer="1958" from-port="3" to-layer="1959" to-port="4"/>
		<edge from-layer="1959" from-port="5" to-layer="1960" to-port="0"/>
		<edge from-layer="1959" from-port="5" to-layer="1968" to-port="0"/>
		<edge from-layer="1960" from-port="1" to-layer="1963" to-port="0"/>
		<edge from-layer="1961" from-port="0" to-layer="1963" to-port="1"/>
		<edge from-layer="1962" from-port="0" to-layer="1963" to-port="2"/>
		<edge from-layer="1963" from-port="3" to-layer="1965" to-port="0"/>
		<edge from-layer="1964" from-port="0" to-layer="1965" to-port="1"/>
		<edge from-layer="1965" from-port="2" to-layer="1967" to-port="0"/>
		<edge from-layer="1966" from-port="0" to-layer="1967" to-port="1"/>
		<edge from-layer="1967" from-port="2" to-layer="1968" to-port="1"/>
		<edge from-layer="1968" from-port="2" to-layer="1970" to-port="0"/>
		<edge from-layer="1969" from-port="1" to-layer="1970" to-port="1"/>
		<edge from-layer="1970" from-port="2" to-layer="1971" to-port="1"/>
		<edge from-layer="1971" from-port="2" to-layer="1973" to-port="0"/>
		<edge from-layer="1972" from-port="0" to-layer="1973" to-port="1"/>
		<edge from-layer="1973" from-port="2" to-layer="1986" to-port="0"/>
		<edge from-layer="1974" from-port="1" to-layer="1978" to-port="0"/>
		<edge from-layer="1975" from-port="0" to-layer="1978" to-port="1"/>
		<edge from-layer="1976" from-port="0" to-layer="1978" to-port="2"/>
		<edge from-layer="1977" from-port="0" to-layer="1978" to-port="3"/>
		<edge from-layer="1978" from-port="4" to-layer="1985" to-port="0"/>
		<edge from-layer="1979" from-port="0" to-layer="1985" to-port="1"/>
		<edge from-layer="1980" from-port="1" to-layer="1984" to-port="0"/>
		<edge from-layer="1981" from-port="0" to-layer="1984" to-port="1"/>
		<edge from-layer="1982" from-port="0" to-layer="1984" to-port="2"/>
		<edge from-layer="1983" from-port="0" to-layer="1984" to-port="3"/>
		<edge from-layer="1984" from-port="4" to-layer="1985" to-port="2"/>
		<edge from-layer="1984" from-port="4" to-layer="1995" to-port="0"/>
		<edge from-layer="1985" from-port="3" to-layer="1986" to-port="1"/>
		<edge from-layer="1986" from-port="2" to-layer="1990" to-port="1"/>
		<edge from-layer="1986" from-port="2" to-layer="2004" to-port="0"/>
		<edge from-layer="1986" from-port="2" to-layer="2005" to-port="0"/>
		<edge from-layer="1987" from-port="0" to-layer="1990" to-port="2"/>
		<edge from-layer="1988" from-port="0" to-layer="1990" to-port="3"/>
		<edge from-layer="1989" from-port="0" to-layer="1990" to-port="4"/>
		<edge from-layer="1990" from-port="5" to-layer="1993" to-port="0"/>
		<edge from-layer="1991" from-port="0" to-layer="1993" to-port="1"/>
		<edge from-layer="1992" from-port="0" to-layer="1993" to-port="2"/>
		<edge from-layer="1993" from-port="3" to-layer="1996" to-port="0"/>
		<edge from-layer="1993" from-port="5" to-layer="1997" to-port="1"/>
		<edge from-layer="1993" from-port="3" to-layer="2012" to-port="0"/>
		<edge from-layer="1993" from-port="4" to-layer="2013" to-port="1"/>
		<edge from-layer="1993" from-port="5" to-layer="2015" to-port="1"/>
		<edge from-layer="1993" from-port="4" to-layer="2021" to-port="0"/>
		<edge from-layer="1993" from-port="3" to-layer="2021" to-port="1"/>
		<edge from-layer="1994" from-port="0" to-layer="1995" to-port="1"/>
		<edge from-layer="1995" from-port="2" to-layer="1996" to-port="1"/>
		<edge from-layer="1995" from-port="2" to-layer="2014" to-port="1"/>
		<edge from-layer="1996" from-port="2" to-layer="1997" to-port="0"/>
		<edge from-layer="1997" from-port="2" to-layer="1998" to-port="0"/>
		<edge from-layer="1998" from-port="1" to-layer="2000" to-port="1"/>
		<edge from-layer="1999" from-port="0" to-layer="2000" to-port="2"/>
		<edge from-layer="2000" from-port="3" to-layer="2002" to-port="0"/>
		<edge from-layer="2001" from-port="0" to-layer="2002" to-port="1"/>
		<edge from-layer="2002" from-port="2" to-layer="2025" to-port="0"/>
		<edge from-layer="2003" from-port="0" to-layer="2004" to-port="1"/>
		<edge from-layer="2004" from-port="2" to-layer="2018" to-port="0"/>
		<edge from-layer="2005" from-port="1" to-layer="2009" to-port="0"/>
		<edge from-layer="2006" from-port="0" to-layer="2009" to-port="1"/>
		<edge from-layer="2007" from-port="0" to-layer="2009" to-port="2"/>
		<edge from-layer="2008" from-port="0" to-layer="2009" to-port="3"/>
		<edge from-layer="2009" from-port="4" to-layer="2011" to-port="0"/>
		<edge from-layer="2010" from-port="0" to-layer="2011" to-port="1"/>
		<edge from-layer="2011" from-port="2" to-layer="2012" to-port="1"/>
		<edge from-layer="2012" from-port="2" to-layer="2013" to-port="0"/>
		<edge from-layer="2013" from-port="2" to-layer="2014" to-port="0"/>
		<edge from-layer="2014" from-port="2" to-layer="2015" to-port="0"/>
		<edge from-layer="2015" from-port="2" to-layer="2016" to-port="0"/>
		<edge from-layer="2016" from-port="1" to-layer="2018" to-port="1"/>
		<edge from-layer="2017" from-port="0" to-layer="2018" to-port="2"/>
		<edge from-layer="2018" from-port="3" to-layer="2020" to-port="0"/>
		<edge from-layer="2019" from-port="0" to-layer="2020" to-port="1"/>
		<edge from-layer="2020" from-port="2" to-layer="2025" to-port="1"/>
		<edge from-layer="2021" from-port="2" to-layer="2022" to-port="0"/>
		<edge from-layer="2022" from-port="1" to-layer="2024" to-port="0"/>
		<edge from-layer="2023" from-port="0" to-layer="2024" to-port="1"/>
		<edge from-layer="2024" from-port="2" to-layer="2025" to-port="2"/>
		<edge from-layer="2025" from-port="3" to-layer="2028" to-port="0"/>
		<edge from-layer="2025" from-port="3" to-layer="2059" to-port="0"/>
		<edge from-layer="2026" from-port="0" to-layer="2028" to-port="1"/>
		<edge from-layer="2027" from-port="0" to-layer="2028" to-port="2"/>
		<edge from-layer="2028" from-port="3" to-layer="2030" to-port="0"/>
		<edge from-layer="2029" from-port="0" to-layer="2030" to-port="1"/>
		<edge from-layer="2030" from-port="2" to-layer="2032" to-port="0"/>
		<edge from-layer="2030" from-port="2" to-layer="2056" to-port="0"/>
		<edge from-layer="2031" from-port="0" to-layer="2038" to-port="0"/>
		<edge from-layer="2032" from-port="1" to-layer="2035" to-port="0"/>
		<edge from-layer="2033" from-port="0" to-layer="2035" to-port="1"/>
		<edge from-layer="2034" from-port="0" to-layer="2035" to-port="2"/>
		<edge from-layer="2035" from-port="3" to-layer="2037" to-port="0"/>
		<edge from-layer="2036" from-port="0" to-layer="2037" to-port="1"/>
		<edge from-layer="2037" from-port="2" to-layer="2038" to-port="1"/>
		<edge from-layer="2038" from-port="2" to-layer="2039" to-port="0"/>
		<edge from-layer="2039" from-port="1" to-layer="2041" to-port="0"/>
		<edge from-layer="2039" from-port="1" to-layer="2047" to-port="0"/>
		<edge from-layer="2040" from-port="0" to-layer="2046" to-port="0"/>
		<edge from-layer="2041" from-port="1" to-layer="2042" to-port="0"/>
		<edge from-layer="2042" from-port="1" to-layer="2044" to-port="0"/>
		<edge from-layer="2043" from-port="0" to-layer="2044" to-port="1"/>
		<edge from-layer="2044" from-port="2" to-layer="2046" to-port="1"/>
		<edge from-layer="2045" from-port="0" to-layer="2046" to-port="2"/>
		<edge from-layer="2046" from-port="3" to-layer="2047" to-port="1"/>
		<edge from-layer="2047" from-port="2" to-layer="2048" to-port="0"/>
		<edge from-layer="2048" from-port="1" to-layer="2050" to-port="0"/>
		<edge from-layer="2049" from-port="0" to-layer="2050" to-port="1"/>
		<edge from-layer="2050" from-port="2" to-layer="2052" to-port="0"/>
		<edge from-layer="2051" from-port="0" to-layer="2052" to-port="1"/>
		<edge from-layer="2052" from-port="2" to-layer="2054" to-port="0"/>
		<edge from-layer="2053" from-port="0" to-layer="2054" to-port="1"/>
		<edge from-layer="2054" from-port="2" to-layer="2055" to-port="0"/>
		<edge from-layer="2055" from-port="1" to-layer="2056" to-port="1"/>
		<edge from-layer="2056" from-port="3" to-layer="2057" to-port="0"/>
		<edge from-layer="2056" from-port="2" to-layer="2072" to-port="0"/>
		<edge from-layer="2057" from-port="1" to-layer="2059" to-port="1"/>
		<edge from-layer="2058" from-port="0" to-layer="2059" to-port="2"/>
		<edge from-layer="2059" from-port="3" to-layer="2062" to-port="0"/>
		<edge from-layer="2059" from-port="3" to-layer="2070" to-port="0"/>
		<edge from-layer="2060" from-port="0" to-layer="2062" to-port="1"/>
		<edge from-layer="2061" from-port="0" to-layer="2062" to-port="2"/>
		<edge from-layer="2062" from-port="3" to-layer="2063" to-port="0"/>
		<edge from-layer="2063" from-port="1" to-layer="2065" to-port="0"/>
		<edge from-layer="2064" from-port="0" to-layer="2065" to-port="1"/>
		<edge from-layer="2065" from-port="2" to-layer="2066" to-port="0"/>
		<edge from-layer="2067" from-port="0" to-layer="2070" to-port="1"/>
		<edge from-layer="2068" from-port="0" to-layer="2070" to-port="2"/>
		<edge from-layer="2069" from-port="0" to-layer="2070" to-port="3"/>
		<edge from-layer="2070" from-port="4" to-layer="2071" to-port="0"/>
	</edges>
	<meta_data>
		<MO_version value="2021.4.0-3827-c5b65f2cb1d-releases/2021/4"/>
		<cli_parameters>
			<caffe_parser_path value="DIR"/>
			<data_type value="FP32"/>
			<disable_nhwc_to_nchw value="False"/>
			<disable_omitting_optional value="False"/>
			<disable_resnet_optimization value="False"/>
			<disable_weights_compression value="False"/>
			<enable_concat_optimization value="False"/>
			<enable_flattening_nested_params value="False"/>
			<enable_ssd_gluoncv value="False"/>
			<extensions value="DIR"/>
			<framework value="onnx"/>
			<freeze_placeholder_with_value value="{}"/>
			<generate_deprecated_IR_V7 value="False"/>
			<input value="image"/>
			<input_model value="DIR/model.onnx"/>
			<input_model_is_text value="False"/>
			<input_shape value="[1,3,704,704]"/>
			<k value="DIR/CustomLayersMapping.xml"/>
			<keep_shape_ops value="True"/>
			<legacy_ir_generation value="False"/>
			<legacy_mxnet_model value="False"/>
			<log_level value="ERROR"/>
			<mean_scale_values value="{'image': {'mean': array([0., 0., 0.]), 'scale': array([255., 255., 255.])}}"/>
			<mean_values value="image[0.0,0.0,0.0]"/>
			<model_name value="horizontal-text-detection-0001"/>
			<output value="['boxes', 'labels']"/>
			<output_dir value="DIR"/>
			<placeholder_data_types value="{}"/>
			<placeholder_shapes value="{'image': array([  1,   3, 704, 704])}"/>
			<progress value="False"/>
			<remove_memory value="False"/>
			<remove_output_softmax value="False"/>
			<reverse_input_channels value="True"/>
			<save_params_from_nd value="False"/>
			<scale_values value="image[255.0,255.0,255.0]"/>
			<silent value="False"/>
			<static_shape value="False"/>
			<stream_output value="False"/>
			<transform value=""/>
			<unset unset_cli_parameters="batch, counts, disable_fusing, disable_gfusing, finegrain_fusing, input_checkpoint, input_meta_graph, input_proto, input_symbol, mean_file, mean_file_offsets, move_to_preprocess, nd_prefix_name, pretrained_model_name, saved_model_dir, saved_model_tags, scale, tensorboard_logdir, tensorflow_custom_layer_libraries, tensorflow_custom_operations_config_update, tensorflow_object_detection_api_pipeline_config, tensorflow_use_custom_operations_config, transformations_config"/>
		</cli_parameters>
	</meta_data>
</net>
