<?xml version="1.0" ?>
<net name="torch-jit-export" version="11">
	<layers>
		<layer id="0" name="blur_image" type="Parameter" version="opset1">
			<data shape="1,3,736,1312" element_type="f32"/>
			<rt_info>
				<attribute name="fused_names" version="0" value="blur_image"/>
				<attribute name="old_api_map_element_type" version="0" value="f16"/>
			</rt_info>
			<output>
				<port id="0" precision="FP32" names="blur_image">
					<dim>1</dim>
					<dim>3</dim>
					<dim>736</dim>
					<dim>1312</dim>
					<rt_info>
						<attribute name="layout" version="0" layout="[N,C,H,W]"/>
					</rt_info>
				</port>
			</output>
		</layer>
		<layer id="1" name="Constant_6563_compressed" type="Const" version="opset1">
			<data element_type="f16" shape="1, 160, 1, 1" offset="0" size="320"/>
			<output>
				<port id="0" precision="FP16">
					<dim>1</dim>
					<dim>160</dim>
					<dim>1</dim>
					<dim>1</dim>
				</port>
			</output>
		</layer>
		<layer id="2" name="Constant_6563" type="Convert" version="opset1">
			<data destination_type="f32"/>
			<rt_info>
				<attribute name="decompression" version="0"/>
			</rt_info>
			<input>
				<port id="0" precision="FP16">
					<dim>1</dim>
					<dim>160</dim>
					<dim>1</dim>
					<dim>1</dim>
				</port>
			</input>
			<output>
				<port id="1" precision="FP32">
					<dim>1</dim>
					<dim>160</dim>
					<dim>1</dim>
					<dim>1</dim>
				</port>
			</output>
		</layer>
		<layer id="3" name="Constant_6558_compressed" type="Const" version="opset1">
			<data element_type="f16" shape="1, 576, 1, 1" offset="320" size="1152"/>
			<output>
				<port id="0" precision="FP16">
					<dim>1</dim>
					<dim>576</dim>
					<dim>1</dim>
					<dim>1</dim>
				</port>
			</output>
		</layer>
		<layer id="4" name="Constant_6558" type="Convert" version="opset1">
			<data destination_type="f32"/>
			<rt_info>
				<attribute name="decompression" version="0"/>
			</rt_info>
			<input>
				<port id="0" precision="FP16">
					<dim>1</dim>
					<dim>576</dim>
					<dim>1</dim>
					<dim>1</dim>
				</port>
			</input>
			<output>
				<port id="1" precision="FP32">
					<dim>1</dim>
					<dim>576</dim>
					<dim>1</dim>
					<dim>1</dim>
				</port>
			</output>
		</layer>
		<layer id="5" name="Constant_6553_compressed" type="Const" version="opset1">
			<data element_type="f16" shape="1, 576, 1, 1" offset="1472" size="1152"/>
			<output>
				<port id="0" precision="FP16">
					<dim>1</dim>
					<dim>576</dim>
					<dim>1</dim>
					<dim>1</dim>
				</port>
			</output>
		</layer>
		<layer id="6" name="Constant_6553" type="Convert" version="opset1">
			<data destination_type="f32"/>
			<rt_info>
				<attribute name="decompression" version="0"/>
			</rt_info>
			<input>
				<port id="0" precision="FP16">
					<dim>1</dim>
					<dim>576</dim>
					<dim>1</dim>
					<dim>1</dim>
				</port>
			</input>
			<output>
				<port id="1" precision="FP32">
					<dim>1</dim>
					<dim>576</dim>
					<dim>1</dim>
					<dim>1</dim>
				</port>
			</output>
		</layer>
		<layer id="7" name="Constant_6518_compressed" type="Const" version="opset1">
			<data element_type="f16" shape="1, 96, 1, 1" offset="2624" size="192"/>
			<output>
				<port id="0" precision="FP16">
					<dim>1</dim>
					<dim>96</dim>
					<dim>1</dim>
					<dim>1</dim>
				</port>
			</output>
		</layer>
		<layer id="8" name="Constant_6518" type="Convert" version="opset1">
			<data destination_type="f32"/>
			<rt_info>
				<attribute name="decompression" version="0"/>
			</rt_info>
			<input>
				<port id="0" precision="FP16">
					<dim>1</dim>
					<dim>96</dim>
					<dim>1</dim>
					<dim>1</dim>
				</port>
			</input>
			<output>
				<port id="1" precision="FP32">
					<dim>1</dim>
					<dim>96</dim>
					<dim>1</dim>
					<dim>1</dim>
				</port>
			</output>
		</layer>
		<layer id="9" name="Constant_6513_compressed" type="Const" version="opset1">
			<data element_type="f16" shape="1, 384, 1, 1" offset="2816" size="768"/>
			<output>
				<port id="0" precision="FP16">
					<dim>1</dim>
					<dim>384</dim>
					<dim>1</dim>
					<dim>1</dim>
				</port>
			</output>
		</layer>
		<layer id="10" name="Constant_6513" type="Convert" version="opset1">
			<data destination_type="f32"/>
			<rt_info>
				<attribute name="decompression" version="0"/>
			</rt_info>
			<input>
				<port id="0" precision="FP16">
					<dim>1</dim>
					<dim>384</dim>
					<dim>1</dim>
					<dim>1</dim>
				</port>
			</input>
			<output>
				<port id="1" precision="FP32">
					<dim>1</dim>
					<dim>384</dim>
					<dim>1</dim>
					<dim>1</dim>
				</port>
			</output>
		</layer>
		<layer id="11" name="Constant_6508_compressed" type="Const" version="opset1">
			<data element_type="f16" shape="1, 384, 1, 1" offset="3584" size="768"/>
			<output>
				<port id="0" precision="FP16">
					<dim>1</dim>
					<dim>384</dim>
					<dim>1</dim>
					<dim>1</dim>
				</port>
			</output>
		</layer>
		<layer id="12" name="Constant_6508" type="Convert" version="opset1">
			<data destination_type="f32"/>
			<rt_info>
				<attribute name="decompression" version="0"/>
			</rt_info>
			<input>
				<port id="0" precision="FP16">
					<dim>1</dim>
					<dim>384</dim>
					<dim>1</dim>
					<dim>1</dim>
				</port>
			</input>
			<output>
				<port id="1" precision="FP32">
					<dim>1</dim>
					<dim>384</dim>
					<dim>1</dim>
					<dim>1</dim>
				</port>
			</output>
		</layer>
		<layer id="13" name="Constant_6458_compressed" type="Const" version="opset1">
			<data element_type="f16" shape="1, 64, 1, 1" offset="4352" size="128"/>
			<output>
				<port id="0" precision="FP16">
					<dim>1</dim>
					<dim>64</dim>
					<dim>1</dim>
					<dim>1</dim>
				</port>
			</output>
		</layer>
		<layer id="14" name="Constant_6458" type="Convert" version="opset1">
			<data destination_type="f32"/>
			<rt_info>
				<attribute name="decompression" version="0"/>
			</rt_info>
			<input>
				<port id="0" precision="FP16">
					<dim>1</dim>
					<dim>64</dim>
					<dim>1</dim>
					<dim>1</dim>
				</port>
			</input>
			<output>
				<port id="1" precision="FP32">
					<dim>1</dim>
					<dim>64</dim>
					<dim>1</dim>
					<dim>1</dim>
				</port>
			</output>
		</layer>
		<layer id="15" name="Constant_6453_compressed" type="Const" version="opset1">
			<data element_type="f16" shape="1, 192, 1, 1" offset="4480" size="384"/>
			<output>
				<port id="0" precision="FP16">
					<dim>1</dim>
					<dim>192</dim>
					<dim>1</dim>
					<dim>1</dim>
				</port>
			</output>
		</layer>
		<layer id="16" name="Constant_6453" type="Convert" version="opset1">
			<data destination_type="f32"/>
			<rt_info>
				<attribute name="decompression" version="0"/>
			</rt_info>
			<input>
				<port id="0" precision="FP16">
					<dim>1</dim>
					<dim>192</dim>
					<dim>1</dim>
					<dim>1</dim>
				</port>
			</input>
			<output>
				<port id="1" precision="FP32">
					<dim>1</dim>
					<dim>192</dim>
					<dim>1</dim>
					<dim>1</dim>
				</port>
			</output>
		</layer>
		<layer id="17" name="Constant_6448_compressed" type="Const" version="opset1">
			<data element_type="f16" shape="1, 192, 1, 1" offset="4864" size="384"/>
			<output>
				<port id="0" precision="FP16">
					<dim>1</dim>
					<dim>192</dim>
					<dim>1</dim>
					<dim>1</dim>
				</port>
			</output>
		</layer>
		<layer id="18" name="Constant_6448" type="Convert" version="opset1">
			<data destination_type="f32"/>
			<rt_info>
				<attribute name="decompression" version="0"/>
			</rt_info>
			<input>
				<port id="0" precision="FP16">
					<dim>1</dim>
					<dim>192</dim>
					<dim>1</dim>
					<dim>1</dim>
				</port>
			</input>
			<output>
				<port id="1" precision="FP32">
					<dim>1</dim>
					<dim>192</dim>
					<dim>1</dim>
					<dim>1</dim>
				</port>
			</output>
		</layer>
		<layer id="19" name="Constant_6413_compressed" type="Const" version="opset1">
			<data element_type="f16" shape="1, 32, 1, 1" offset="5248" size="64"/>
			<output>
				<port id="0" precision="FP16">
					<dim>1</dim>
					<dim>32</dim>
					<dim>1</dim>
					<dim>1</dim>
				</port>
			</output>
		</layer>
		<layer id="20" name="Constant_6413" type="Convert" version="opset1">
			<data destination_type="f32"/>
			<rt_info>
				<attribute name="decompression" version="0"/>
			</rt_info>
			<input>
				<port id="0" precision="FP16">
					<dim>1</dim>
					<dim>32</dim>
					<dim>1</dim>
					<dim>1</dim>
				</port>
			</input>
			<output>
				<port id="1" precision="FP32">
					<dim>1</dim>
					<dim>32</dim>
					<dim>1</dim>
					<dim>1</dim>
				</port>
			</output>
		</layer>
		<layer id="21" name="Constant_6408_compressed" type="Const" version="opset1">
			<data element_type="f16" shape="1, 144, 1, 1" offset="5312" size="288"/>
			<output>
				<port id="0" precision="FP16">
					<dim>1</dim>
					<dim>144</dim>
					<dim>1</dim>
					<dim>1</dim>
				</port>
			</output>
		</layer>
		<layer id="22" name="Constant_6408" type="Convert" version="opset1">
			<data destination_type="f32"/>
			<rt_info>
				<attribute name="decompression" version="0"/>
			</rt_info>
			<input>
				<port id="0" precision="FP16">
					<dim>1</dim>
					<dim>144</dim>
					<dim>1</dim>
					<dim>1</dim>
				</port>
			</input>
			<output>
				<port id="1" precision="FP32">
					<dim>1</dim>
					<dim>144</dim>
					<dim>1</dim>
					<dim>1</dim>
				</port>
			</output>
		</layer>
		<layer id="23" name="Constant_6403_compressed" type="Const" version="opset1">
			<data element_type="f16" shape="1, 144, 1, 1" offset="5600" size="288"/>
			<output>
				<port id="0" precision="FP16">
					<dim>1</dim>
					<dim>144</dim>
					<dim>1</dim>
					<dim>1</dim>
				</port>
			</output>
		</layer>
		<layer id="24" name="Constant_6403" type="Convert" version="opset1">
			<data destination_type="f32"/>
			<rt_info>
				<attribute name="decompression" version="0"/>
			</rt_info>
			<input>
				<port id="0" precision="FP16">
					<dim>1</dim>
					<dim>144</dim>
					<dim>1</dim>
					<dim>1</dim>
				</port>
			</input>
			<output>
				<port id="1" precision="FP32">
					<dim>1</dim>
					<dim>144</dim>
					<dim>1</dim>
					<dim>1</dim>
				</port>
			</output>
		</layer>
		<layer id="25" name="Constant_6383_compressed" type="Const" version="opset1">
			<data element_type="f16" shape="1, 24, 1, 1" offset="5888" size="48"/>
			<output>
				<port id="0" precision="FP16">
					<dim>1</dim>
					<dim>24</dim>
					<dim>1</dim>
					<dim>1</dim>
				</port>
			</output>
		</layer>
		<layer id="26" name="Constant_6383" type="Convert" version="opset1">
			<data destination_type="f32"/>
			<rt_info>
				<attribute name="decompression" version="0"/>
			</rt_info>
			<input>
				<port id="0" precision="FP16">
					<dim>1</dim>
					<dim>24</dim>
					<dim>1</dim>
					<dim>1</dim>
				</port>
			</input>
			<output>
				<port id="1" precision="FP32">
					<dim>1</dim>
					<dim>24</dim>
					<dim>1</dim>
					<dim>1</dim>
				</port>
			</output>
		</layer>
		<layer id="27" name="Constant_6378_compressed" type="Const" version="opset1">
			<data element_type="f16" shape="1, 96, 1, 1" offset="5936" size="192"/>
			<output>
				<port id="0" precision="FP16">
					<dim>1</dim>
					<dim>96</dim>
					<dim>1</dim>
					<dim>1</dim>
				</port>
			</output>
		</layer>
		<layer id="28" name="Constant_6378" type="Convert" version="opset1">
			<data destination_type="f32"/>
			<rt_info>
				<attribute name="decompression" version="0"/>
			</rt_info>
			<input>
				<port id="0" precision="FP16">
					<dim>1</dim>
					<dim>96</dim>
					<dim>1</dim>
					<dim>1</dim>
				</port>
			</input>
			<output>
				<port id="1" precision="FP32">
					<dim>1</dim>
					<dim>96</dim>
					<dim>1</dim>
					<dim>1</dim>
				</port>
			</output>
		</layer>
		<layer id="29" name="Constant_6373_compressed" type="Const" version="opset1">
			<data element_type="f16" shape="1, 96, 1, 1" offset="6128" size="192"/>
			<output>
				<port id="0" precision="FP16">
					<dim>1</dim>
					<dim>96</dim>
					<dim>1</dim>
					<dim>1</dim>
				</port>
			</output>
		</layer>
		<layer id="30" name="Constant_6373" type="Convert" version="opset1">
			<data destination_type="f32"/>
			<rt_info>
				<attribute name="decompression" version="0"/>
			</rt_info>
			<input>
				<port id="0" precision="FP16">
					<dim>1</dim>
					<dim>96</dim>
					<dim>1</dim>
					<dim>1</dim>
				</port>
			</input>
			<output>
				<port id="1" precision="FP32">
					<dim>1</dim>
					<dim>96</dim>
					<dim>1</dim>
					<dim>1</dim>
				</port>
			</output>
		</layer>
		<layer id="31" name="Constant_6368_compressed" type="Const" version="opset1">
			<data element_type="f16" shape="1, 16, 1, 1" offset="6320" size="32"/>
			<output>
				<port id="0" precision="FP16">
					<dim>1</dim>
					<dim>16</dim>
					<dim>1</dim>
					<dim>1</dim>
				</port>
			</output>
		</layer>
		<layer id="32" name="Constant_6368" type="Convert" version="opset1">
			<data destination_type="f32"/>
			<rt_info>
				<attribute name="decompression" version="0"/>
			</rt_info>
			<input>
				<port id="0" precision="FP16">
					<dim>1</dim>
					<dim>16</dim>
					<dim>1</dim>
					<dim>1</dim>
				</port>
			</input>
			<output>
				<port id="1" precision="FP32">
					<dim>1</dim>
					<dim>16</dim>
					<dim>1</dim>
					<dim>1</dim>
				</port>
			</output>
		</layer>
		<layer id="33" name="Constant_6363_compressed" type="Const" version="opset1">
			<data element_type="f16" shape="1, 32, 1, 1" offset="6352" size="64"/>
			<output>
				<port id="0" precision="FP16">
					<dim>1</dim>
					<dim>32</dim>
					<dim>1</dim>
					<dim>1</dim>
				</port>
			</output>
		</layer>
		<layer id="34" name="Constant_6363" type="Convert" version="opset1">
			<data destination_type="f32"/>
			<rt_info>
				<attribute name="decompression" version="0"/>
			</rt_info>
			<input>
				<port id="0" precision="FP16">
					<dim>1</dim>
					<dim>32</dim>
					<dim>1</dim>
					<dim>1</dim>
				</port>
			</input>
			<output>
				<port id="1" precision="FP32">
					<dim>1</dim>
					<dim>32</dim>
					<dim>1</dim>
					<dim>1</dim>
				</port>
			</output>
		</layer>
		<layer id="35" name="Constant_6358_compressed" type="Const" version="opset1">
			<data element_type="f16" shape="1, 32, 1, 1" offset="6416" size="64"/>
			<output>
				<port id="0" precision="FP16">
					<dim>1</dim>
					<dim>32</dim>
					<dim>1</dim>
					<dim>1</dim>
				</port>
			</output>
		</layer>
		<layer id="36" name="Constant_6358" type="Convert" version="opset1">
			<data destination_type="f32"/>
			<rt_info>
				<attribute name="decompression" version="0"/>
			</rt_info>
			<input>
				<port id="0" precision="FP16">
					<dim>1</dim>
					<dim>32</dim>
					<dim>1</dim>
					<dim>1</dim>
				</port>
			</input>
			<output>
				<port id="1" precision="FP32">
					<dim>1</dim>
					<dim>32</dim>
					<dim>1</dim>
					<dim>1</dim>
				</port>
			</output>
		</layer>
		<layer id="37" name="Range_3817" type="Const" version="opset1">
			<data element_type="i32" shape="3" offset="6480" size="12"/>
			<output>
				<port id="0" precision="I32">
					<dim>3</dim>
				</port>
			</output>
		</layer>
		<layer id="38" name="Constant_3818" type="Const" version="opset1">
			<data element_type="i32" shape="1" offset="6492" size="4"/>
			<rt_info>
				<attribute name="fused_names" version="0" value="Constant_3818"/>
			</rt_info>
			<output>
				<port id="0" precision="I32">
					<dim>1</dim>
				</port>
			</output>
		</layer>
		<layer id="39" name="Gather_3819" type="Gather" version="opset8">
			<data batch_dims="0"/>
			<rt_info>
				<attribute name="fused_names" version="0" value="Gather_3819, Range_3817"/>
				<attribute name="preprocessing" version="0"/>
			</rt_info>
			<input>
				<port id="0" precision="FP32">
					<dim>1</dim>
					<dim>3</dim>
					<dim>736</dim>
					<dim>1312</dim>
				</port>
				<port id="1" precision="I32">
					<dim>3</dim>
				</port>
				<port id="2" precision="I32">
					<dim>1</dim>
				</port>
			</input>
			<output>
				<port id="3" precision="FP32">
					<dim>1</dim>
					<dim>3</dim>
					<dim>736</dim>
					<dim>1312</dim>
				</port>
			</output>
		</layer>
		<layer id="40" name="Constant_6356_compressed" type="Const" version="opset1">
			<data element_type="f16" shape="1, 1, 1, 1" offset="6496" size="2"/>
			<output>
				<port id="0" precision="FP16">
					<dim>1</dim>
					<dim>1</dim>
					<dim>1</dim>
					<dim>1</dim>
				</port>
			</output>
		</layer>
		<layer id="41" name="Constant_6356" type="Convert" version="opset1">
			<data destination_type="f32"/>
			<rt_info>
				<attribute name="decompression" version="0"/>
			</rt_info>
			<input>
				<port id="0" precision="FP16">
					<dim>1</dim>
					<dim>1</dim>
					<dim>1</dim>
					<dim>1</dim>
				</port>
			</input>
			<output>
				<port id="1" precision="FP32">
					<dim>1</dim>
					<dim>1</dim>
					<dim>1</dim>
					<dim>1</dim>
				</port>
			</output>
		</layer>
		<layer id="42" name="Subtract_3821" type="Subtract" version="opset1">
			<data auto_broadcast="numpy"/>
			<rt_info>
				<attribute name="fused_names" version="0" value="Subtract_3821"/>
				<attribute name="preprocessing" version="0"/>
			</rt_info>
			<input>
				<port id="0" precision="FP32">
					<dim>1</dim>
					<dim>3</dim>
					<dim>736</dim>
					<dim>1312</dim>
				</port>
				<port id="1" precision="FP32">
					<dim>1</dim>
					<dim>1</dim>
					<dim>1</dim>
					<dim>1</dim>
				</port>
			</input>
			<output>
				<port id="2" precision="FP32">
					<dim>1</dim>
					<dim>3</dim>
					<dim>736</dim>
					<dim>1312</dim>
				</port>
			</output>
		</layer>
		<layer id="43" name="Constant_6357_compressed" type="Const" version="opset1">
			<data element_type="f16" shape="1, 1, 1, 1" offset="6498" size="2"/>
			<output>
				<port id="0" precision="FP16">
					<dim>1</dim>
					<dim>1</dim>
					<dim>1</dim>
					<dim>1</dim>
				</port>
			</output>
		</layer>
		<layer id="44" name="Constant_6357" type="Convert" version="opset1">
			<data destination_type="f32"/>
			<rt_info>
				<attribute name="decompression" version="0"/>
			</rt_info>
			<input>
				<port id="0" precision="FP16">
					<dim>1</dim>
					<dim>1</dim>
					<dim>1</dim>
					<dim>1</dim>
				</port>
			</input>
			<output>
				<port id="1" precision="FP32">
					<dim>1</dim>
					<dim>1</dim>
					<dim>1</dim>
					<dim>1</dim>
				</port>
			</output>
		</layer>
		<layer id="45" name="Divide_3823" type="Multiply" version="opset1">
			<data auto_broadcast="numpy"/>
			<rt_info>
				<attribute name="fused_names" version="0" value="Constant_3822, Divide_3823"/>
				<attribute name="preprocessing" version="0"/>
			</rt_info>
			<input>
				<port id="0" precision="FP32">
					<dim>1</dim>
					<dim>3</dim>
					<dim>736</dim>
					<dim>1312</dim>
				</port>
				<port id="1" precision="FP32">
					<dim>1</dim>
					<dim>1</dim>
					<dim>1</dim>
					<dim>1</dim>
				</port>
			</input>
			<output>
				<port id="2" precision="FP32">
					<dim>1</dim>
					<dim>3</dim>
					<dim>736</dim>
					<dim>1312</dim>
				</port>
			</output>
		</layer>
		<layer id="46" name="impl.module.fpn.features.0.0.weight_compressed" type="Const" version="opset1">
			<data element_type="f16" shape="32, 3, 3, 3" offset="6500" size="1728"/>
			<output>
				<port id="0" precision="FP16">
					<dim>32</dim>
					<dim>3</dim>
					<dim>3</dim>
					<dim>3</dim>
				</port>
			</output>
		</layer>
		<layer id="47" name="impl.module.fpn.features.0.0.weight" type="Convert" version="opset1">
			<data destination_type="f32"/>
			<rt_info>
				<attribute name="decompression" version="0"/>
				<attribute name="fused_names" version="0" value="impl.module.fpn.features.0.0.weight"/>
			</rt_info>
			<input>
				<port id="0" precision="FP16">
					<dim>32</dim>
					<dim>3</dim>
					<dim>3</dim>
					<dim>3</dim>
				</port>
			</input>
			<output>
				<port id="1" precision="FP32" names="impl.module.fpn.features.0.0.weight">
					<dim>32</dim>
					<dim>3</dim>
					<dim>3</dim>
					<dim>3</dim>
				</port>
			</output>
		</layer>
		<layer id="48" name="197" type="Convolution" version="opset1">
			<data strides="2, 2" dilations="1, 1" pads_begin="1, 1" pads_end="1, 1" auto_pad="explicit"/>
			<rt_info>
				<attribute name="fused_names" version="0" value="197"/>
			</rt_info>
			<input>
				<port id="0" precision="FP32">
					<dim>1</dim>
					<dim>3</dim>
					<dim>736</dim>
					<dim>1312</dim>
				</port>
				<port id="1" precision="FP32">
					<dim>32</dim>
					<dim>3</dim>
					<dim>3</dim>
					<dim>3</dim>
				</port>
			</input>
			<output>
				<port id="2" precision="FP32" names="197">
					<dim>1</dim>
					<dim>32</dim>
					<dim>368</dim>
					<dim>656</dim>
				</port>
			</output>
		</layer>
		<layer id="49" name="Constant_220" type="Const" version="opset1">
			<data element_type="i64" shape="3" offset="8228" size="24"/>
			<rt_info>
				<attribute name="fused_names" version="0" value="Constant_220"/>
			</rt_info>
			<output>
				<port id="0" precision="I64">
					<dim>3</dim>
				</port>
			</output>
		</layer>
		<layer id="50" name="198" type="ReduceMean" version="opset1">
			<data keep_dims="false"/>
			<rt_info>
				<attribute name="fused_names" version="0" value="198"/>
			</rt_info>
			<input>
				<port id="0" precision="FP32">
					<dim>1</dim>
					<dim>32</dim>
					<dim>368</dim>
					<dim>656</dim>
				</port>
				<port id="1" precision="I64">
					<dim>3</dim>
				</port>
			</input>
			<output>
				<port id="2" precision="FP32" names="198">
					<dim>32</dim>
				</port>
			</output>
		</layer>
		<layer id="51" name="Constant_243" type="Const" version="opset1">
			<data element_type="i64" shape="1" offset="8252" size="8"/>
			<rt_info>
				<attribute name="fused_names" version="0" value="Constant_243"/>
			</rt_info>
			<output>
				<port id="0" precision="I64">
					<dim>1</dim>
				</port>
			</output>
		</layer>
		<layer id="52" name="220" type="Unsqueeze" version="opset1">
			<rt_info>
				<attribute name="fused_names" version="0" value="220"/>
			</rt_info>
			<input>
				<port id="0" precision="FP32">
					<dim>32</dim>
				</port>
				<port id="1" precision="I64">
					<dim>1</dim>
				</port>
			</input>
			<output>
				<port id="2" precision="FP32" names="220">
					<dim>32</dim>
					<dim>1</dim>
				</port>
			</output>
		</layer>
		<layer id="53" name="Constant_245" type="Const" version="opset1">
			<data element_type="i64" shape="1" offset="8260" size="8"/>
			<rt_info>
				<attribute name="fused_names" version="0" value="Constant_245"/>
			</rt_info>
			<output>
				<port id="0" precision="I64">
					<dim>1</dim>
				</port>
			</output>
		</layer>
		<layer id="54" name="221" type="Unsqueeze" version="opset1">
			<rt_info>
				<attribute name="fused_names" version="0" value="221"/>
			</rt_info>
			<input>
				<port id="0" precision="FP32">
					<dim>32</dim>
					<dim>1</dim>
				</port>
				<port id="1" precision="I64">
					<dim>1</dim>
				</port>
			</input>
			<output>
				<port id="2" precision="FP32" names="221">
					<dim>32</dim>
					<dim>1</dim>
					<dim>1</dim>
				</port>
			</output>
		</layer>
		<layer id="55" name="222" type="Subtract" version="opset1">
			<data auto_broadcast="numpy"/>
			<rt_info>
				<attribute name="fused_names" version="0" value="222"/>
			</rt_info>
			<input>
				<port id="0" precision="FP32">
					<dim>1</dim>
					<dim>32</dim>
					<dim>368</dim>
					<dim>656</dim>
				</port>
				<port id="1" precision="FP32">
					<dim>32</dim>
					<dim>1</dim>
					<dim>1</dim>
				</port>
			</input>
			<output>
				<port id="2" precision="FP32" names="222">
					<dim>1</dim>
					<dim>32</dim>
					<dim>368</dim>
					<dim>656</dim>
				</port>
			</output>
		</layer>
		<layer id="56" name="223" type="Multiply" version="opset1">
			<data auto_broadcast="numpy"/>
			<rt_info>
				<attribute name="fused_names" version="0" value="223"/>
			</rt_info>
			<input>
				<port id="0" precision="FP32">
					<dim>1</dim>
					<dim>32</dim>
					<dim>1</dim>
					<dim>1</dim>
				</port>
				<port id="1" precision="FP32">
					<dim>1</dim>
					<dim>32</dim>
					<dim>368</dim>
					<dim>656</dim>
				</port>
			</input>
			<output>
				<port id="2" precision="FP32" names="223">
					<dim>1</dim>
					<dim>32</dim>
					<dim>368</dim>
					<dim>656</dim>
				</port>
			</output>
		</layer>
		<layer id="57" name="Constant_6361_compressed" type="Const" version="opset1">
			<data element_type="f16" shape="1, 1, 1" offset="8268" size="2"/>
			<output>
				<port id="0" precision="FP16">
					<dim>1</dim>
					<dim>1</dim>
					<dim>1</dim>
				</port>
			</output>
		</layer>
		<layer id="58" name="Constant_6361" type="Convert" version="opset1">
			<data destination_type="f32"/>
			<rt_info>
				<attribute name="decompression" version="0"/>
			</rt_info>
			<input>
				<port id="0" precision="FP16">
					<dim>1</dim>
					<dim>1</dim>
					<dim>1</dim>
				</port>
			</input>
			<output>
				<port id="1" precision="FP32">
					<dim>1</dim>
					<dim>1</dim>
					<dim>1</dim>
				</port>
			</output>
		</layer>
		<layer id="59" name="199" type="Multiply" version="opset1">
			<data auto_broadcast="numpy"/>
			<rt_info>
				<attribute name="fused_names" version="0" value="199"/>
			</rt_info>
			<input>
				<port id="0" precision="FP32">
					<dim>1</dim>
					<dim>32</dim>
					<dim>368</dim>
					<dim>656</dim>
				</port>
				<port id="1" precision="FP32">
					<dim>1</dim>
					<dim>32</dim>
					<dim>368</dim>
					<dim>656</dim>
				</port>
			</input>
			<output>
				<port id="2" precision="FP32" names="199">
					<dim>1</dim>
					<dim>32</dim>
					<dim>368</dim>
					<dim>656</dim>
				</port>
			</output>
		</layer>
		<layer id="60" name="Constant_223" type="Const" version="opset1">
			<data element_type="i64" shape="3" offset="8228" size="24"/>
			<rt_info>
				<attribute name="fused_names" version="0" value="Constant_223"/>
			</rt_info>
			<output>
				<port id="0" precision="I64">
					<dim>3</dim>
				</port>
			</output>
		</layer>
		<layer id="61" name="200" type="ReduceMean" version="opset1">
			<data keep_dims="false"/>
			<rt_info>
				<attribute name="fused_names" version="0" value="200"/>
			</rt_info>
			<input>
				<port id="0" precision="FP32">
					<dim>1</dim>
					<dim>32</dim>
					<dim>368</dim>
					<dim>656</dim>
				</port>
				<port id="1" precision="I64">
					<dim>3</dim>
				</port>
			</input>
			<output>
				<port id="2" precision="FP32" names="200">
					<dim>32</dim>
				</port>
			</output>
		</layer>
		<layer id="62" name="Constant_225" type="Const" version="opset1">
			<data element_type="i64" shape="3" offset="8228" size="24"/>
			<rt_info>
				<attribute name="fused_names" version="0" value="Constant_225"/>
			</rt_info>
			<output>
				<port id="0" precision="I64">
					<dim>3</dim>
				</port>
			</output>
		</layer>
		<layer id="63" name="201" type="ReduceMean" version="opset1">
			<data keep_dims="false"/>
			<rt_info>
				<attribute name="fused_names" version="0" value="201"/>
			</rt_info>
			<input>
				<port id="0" precision="FP32">
					<dim>1</dim>
					<dim>32</dim>
					<dim>368</dim>
					<dim>656</dim>
				</port>
				<port id="1" precision="I64">
					<dim>3</dim>
				</port>
			</input>
			<output>
				<port id="2" precision="FP32" names="201">
					<dim>32</dim>
				</port>
			</output>
		</layer>
		<layer id="64" name="202" type="Multiply" version="opset1">
			<data auto_broadcast="numpy"/>
			<rt_info>
				<attribute name="fused_names" version="0" value="202"/>
			</rt_info>
			<input>
				<port id="0" precision="FP32">
					<dim>32</dim>
				</port>
				<port id="1" precision="FP32">
					<dim>32</dim>
				</port>
			</input>
			<output>
				<port id="2" precision="FP32" names="202">
					<dim>32</dim>
				</port>
			</output>
		</layer>
		<layer id="65" name="203" type="Subtract" version="opset1">
			<data auto_broadcast="numpy"/>
			<rt_info>
				<attribute name="fused_names" version="0" value="203"/>
			</rt_info>
			<input>
				<port id="0" precision="FP32">
					<dim>32</dim>
				</port>
				<port id="1" precision="FP32">
					<dim>32</dim>
				</port>
			</input>
			<output>
				<port id="2" precision="FP32" names="203">
					<dim>32</dim>
				</port>
			</output>
		</layer>
		<layer id="66" name="204" type="Abs" version="opset1">
			<rt_info>
				<attribute name="fused_names" version="0" value="204"/>
			</rt_info>
			<input>
				<port id="0" precision="FP32">
					<dim>32</dim>
				</port>
			</input>
			<output>
				<port id="1" precision="FP32" names="204">
					<dim>32</dim>
				</port>
			</output>
		</layer>
		<layer id="67" name="205" type="Sqrt" version="opset1">
			<rt_info>
				<attribute name="fused_names" version="0" value="205"/>
			</rt_info>
			<input>
				<port id="0" precision="FP32">
					<dim>32</dim>
				</port>
			</input>
			<output>
				<port id="1" precision="FP32" names="205">
					<dim>32</dim>
				</port>
			</output>
		</layer>
		<layer id="68" name="Constant_6359_compressed" type="Const" version="opset1">
			<data element_type="f16" shape="1" offset="8270" size="2"/>
			<output>
				<port id="0" precision="FP16">
					<dim>1</dim>
				</port>
			</output>
		</layer>
		<layer id="69" name="Constant_6359" type="Convert" version="opset1">
			<data destination_type="f32"/>
			<rt_info>
				<attribute name="decompression" version="0"/>
			</rt_info>
			<input>
				<port id="0" precision="FP16">
					<dim>1</dim>
				</port>
			</input>
			<output>
				<port id="1" precision="FP32">
					<dim>1</dim>
				</port>
			</output>
		</layer>
		<layer id="70" name="208" type="Power" version="opset1">
			<data auto_broadcast="numpy"/>
			<rt_info>
				<attribute name="fused_names" version="0" value="208"/>
			</rt_info>
			<input>
				<port id="0" precision="FP32">
					<dim>32</dim>
				</port>
				<port id="1" precision="FP32">
					<dim>1</dim>
				</port>
			</input>
			<output>
				<port id="2" precision="FP32" names="208">
					<dim>32</dim>
				</port>
			</output>
		</layer>
		<layer id="71" name="Constant_232" type="Const" version="opset1">
			<data element_type="i64" shape="1" offset="8252" size="8"/>
			<rt_info>
				<attribute name="fused_names" version="0" value="Constant_232"/>
			</rt_info>
			<output>
				<port id="0" precision="I64">
					<dim>1</dim>
				</port>
			</output>
		</layer>
		<layer id="72" name="209" type="Unsqueeze" version="opset1">
			<rt_info>
				<attribute name="fused_names" version="0" value="209"/>
			</rt_info>
			<input>
				<port id="0" precision="FP32">
					<dim>32</dim>
				</port>
				<port id="1" precision="I64">
					<dim>1</dim>
				</port>
			</input>
			<output>
				<port id="2" precision="FP32" names="209">
					<dim>32</dim>
					<dim>1</dim>
				</port>
			</output>
		</layer>
		<layer id="73" name="Constant_234" type="Const" version="opset1">
			<data element_type="i64" shape="1" offset="8260" size="8"/>
			<rt_info>
				<attribute name="fused_names" version="0" value="Constant_234"/>
			</rt_info>
			<output>
				<port id="0" precision="I64">
					<dim>1</dim>
				</port>
			</output>
		</layer>
		<layer id="74" name="210" type="Unsqueeze" version="opset1">
			<rt_info>
				<attribute name="fused_names" version="0" value="210"/>
			</rt_info>
			<input>
				<port id="0" precision="FP32">
					<dim>32</dim>
					<dim>1</dim>
				</port>
				<port id="1" precision="I64">
					<dim>1</dim>
				</port>
			</input>
			<output>
				<port id="2" precision="FP32" names="210">
					<dim>32</dim>
					<dim>1</dim>
					<dim>1</dim>
				</port>
			</output>
		</layer>
		<layer id="75" name="Constant_6360_compressed" type="Const" version="opset1">
			<data element_type="f16" shape="1, 1, 1" offset="8272" size="2"/>
			<output>
				<port id="0" precision="FP16">
					<dim>1</dim>
					<dim>1</dim>
					<dim>1</dim>
				</port>
			</output>
		</layer>
		<layer id="76" name="Constant_6360" type="Convert" version="opset1">
			<data destination_type="f32"/>
			<rt_info>
				<attribute name="decompression" version="0"/>
			</rt_info>
			<input>
				<port id="0" precision="FP16">
					<dim>1</dim>
					<dim>1</dim>
					<dim>1</dim>
				</port>
			</input>
			<output>
				<port id="1" precision="FP32">
					<dim>1</dim>
					<dim>1</dim>
					<dim>1</dim>
				</port>
			</output>
		</layer>
		<layer id="77" name="212" type="Add" version="opset1">
			<data auto_broadcast="numpy"/>
			<rt_info>
				<attribute name="fused_names" version="0" value="212"/>
			</rt_info>
			<input>
				<port id="0" precision="FP32">
					<dim>32</dim>
					<dim>1</dim>
					<dim>1</dim>
				</port>
				<port id="1" precision="FP32">
					<dim>1</dim>
					<dim>1</dim>
					<dim>1</dim>
				</port>
			</input>
			<output>
				<port id="2" precision="FP32" names="212">
					<dim>32</dim>
					<dim>1</dim>
					<dim>1</dim>
				</port>
			</output>
		</layer>
		<layer id="78" name="213" type="Sqrt" version="opset1">
			<rt_info>
				<attribute name="fused_names" version="0" value="213"/>
			</rt_info>
			<input>
				<port id="0" precision="FP32">
					<dim>32</dim>
					<dim>1</dim>
					<dim>1</dim>
				</port>
			</input>
			<output>
				<port id="1" precision="FP32" names="213">
					<dim>32</dim>
					<dim>1</dim>
					<dim>1</dim>
				</port>
			</output>
		</layer>
		<layer id="79" name="215" type="Divide" version="opset1">
			<data auto_broadcast="numpy" m_pythondiv="true"/>
			<rt_info>
				<attribute name="fused_names" version="0" value="215, 217"/>
			</rt_info>
			<input>
				<port id="0" precision="FP32">
					<dim>1</dim>
					<dim>1</dim>
					<dim>1</dim>
				</port>
				<port id="1" precision="FP32">
					<dim>32</dim>
					<dim>1</dim>
					<dim>1</dim>
				</port>
			</input>
			<output>
				<port id="2" precision="FP32" names="215,217">
					<dim>32</dim>
					<dim>1</dim>
					<dim>1</dim>
				</port>
			</output>
		</layer>
		<layer id="80" name="224" type="Multiply" version="opset1">
			<data auto_broadcast="numpy"/>
			<rt_info>
				<attribute name="fused_names" version="0" value="224"/>
			</rt_info>
			<input>
				<port id="0" precision="FP32">
					<dim>1</dim>
					<dim>32</dim>
					<dim>368</dim>
					<dim>656</dim>
				</port>
				<port id="1" precision="FP32">
					<dim>32</dim>
					<dim>1</dim>
					<dim>1</dim>
				</port>
			</input>
			<output>
				<port id="2" precision="FP32" names="224">
					<dim>1</dim>
					<dim>32</dim>
					<dim>368</dim>
					<dim>656</dim>
				</port>
			</output>
		</layer>
		<layer id="81" name="Constant_6362_compressed" type="Const" version="opset1">
			<data element_type="f16" shape="1, 32, 1, 1" offset="8274" size="64"/>
			<output>
				<port id="0" precision="FP16">
					<dim>1</dim>
					<dim>32</dim>
					<dim>1</dim>
					<dim>1</dim>
				</port>
			</output>
		</layer>
		<layer id="82" name="Constant_6362" type="Convert" version="opset1">
			<data destination_type="f32"/>
			<rt_info>
				<attribute name="decompression" version="0"/>
			</rt_info>
			<input>
				<port id="0" precision="FP16">
					<dim>1</dim>
					<dim>32</dim>
					<dim>1</dim>
					<dim>1</dim>
				</port>
			</input>
			<output>
				<port id="1" precision="FP32">
					<dim>1</dim>
					<dim>32</dim>
					<dim>1</dim>
					<dim>1</dim>
				</port>
			</output>
		</layer>
		<layer id="83" name="227" type="Add" version="opset1">
			<data auto_broadcast="numpy"/>
			<rt_info>
				<attribute name="fused_names" version="0" value="227"/>
			</rt_info>
			<input>
				<port id="0" precision="FP32">
					<dim>1</dim>
					<dim>32</dim>
					<dim>368</dim>
					<dim>656</dim>
				</port>
				<port id="1" precision="FP32">
					<dim>1</dim>
					<dim>32</dim>
					<dim>1</dim>
					<dim>1</dim>
				</port>
			</input>
			<output>
				<port id="2" precision="FP32" names="227">
					<dim>1</dim>
					<dim>32</dim>
					<dim>368</dim>
					<dim>656</dim>
				</port>
			</output>
		</layer>
		<layer id="84" name="230" type="Clamp" version="opset1">
			<data min="0" max="6"/>
			<rt_info>
				<attribute name="fused_names" version="0" value="230, Maximum_253"/>
			</rt_info>
			<input>
				<port id="0" precision="FP32">
					<dim>1</dim>
					<dim>32</dim>
					<dim>368</dim>
					<dim>656</dim>
				</port>
			</input>
			<output>
				<port id="1" precision="FP32" names="230">
					<dim>1</dim>
					<dim>32</dim>
					<dim>368</dim>
					<dim>656</dim>
				</port>
			</output>
		</layer>
		<layer id="85" name="Reshape_263_compressed" type="Const" version="opset1">
			<data element_type="f16" shape="32, 1, 1, 3, 3" offset="8338" size="576"/>
			<output>
				<port id="0" precision="FP16">
					<dim>32</dim>
					<dim>1</dim>
					<dim>1</dim>
					<dim>3</dim>
					<dim>3</dim>
				</port>
			</output>
		</layer>
		<layer id="86" name="Reshape_263" type="Convert" version="opset1">
			<data destination_type="f32"/>
			<rt_info>
				<attribute name="decompression" version="0"/>
			</rt_info>
			<input>
				<port id="0" precision="FP16">
					<dim>32</dim>
					<dim>1</dim>
					<dim>1</dim>
					<dim>3</dim>
					<dim>3</dim>
				</port>
			</input>
			<output>
				<port id="1" precision="FP32">
					<dim>32</dim>
					<dim>1</dim>
					<dim>1</dim>
					<dim>3</dim>
					<dim>3</dim>
				</port>
			</output>
		</layer>
		<layer id="87" name="231" type="GroupConvolution" version="opset1">
			<data strides="1, 1" pads_begin="1, 1" pads_end="1, 1" dilations="1, 1" auto_pad="explicit"/>
			<rt_info>
				<attribute name="fused_names" version="0" value="231, Reshape_263"/>
			</rt_info>
			<input>
				<port id="0" precision="FP32">
					<dim>1</dim>
					<dim>32</dim>
					<dim>368</dim>
					<dim>656</dim>
				</port>
				<port id="1" precision="FP32">
					<dim>32</dim>
					<dim>1</dim>
					<dim>1</dim>
					<dim>3</dim>
					<dim>3</dim>
				</port>
			</input>
			<output>
				<port id="2" precision="FP32" names="231">
					<dim>1</dim>
					<dim>32</dim>
					<dim>368</dim>
					<dim>656</dim>
				</port>
			</output>
		</layer>
		<layer id="88" name="Constant_330" type="Const" version="opset1">
			<data element_type="i64" shape="3" offset="8228" size="24"/>
			<rt_info>
				<attribute name="fused_names" version="0" value="Constant_330"/>
			</rt_info>
			<output>
				<port id="0" precision="I64">
					<dim>3</dim>
				</port>
			</output>
		</layer>
		<layer id="89" name="232" type="ReduceMean" version="opset1">
			<data keep_dims="false"/>
			<rt_info>
				<attribute name="fused_names" version="0" value="232"/>
			</rt_info>
			<input>
				<port id="0" precision="FP32">
					<dim>1</dim>
					<dim>32</dim>
					<dim>368</dim>
					<dim>656</dim>
				</port>
				<port id="1" precision="I64">
					<dim>3</dim>
				</port>
			</input>
			<output>
				<port id="2" precision="FP32" names="232">
					<dim>32</dim>
				</port>
			</output>
		</layer>
		<layer id="90" name="Constant_353" type="Const" version="opset1">
			<data element_type="i64" shape="1" offset="8252" size="8"/>
			<rt_info>
				<attribute name="fused_names" version="0" value="Constant_353"/>
			</rt_info>
			<output>
				<port id="0" precision="I64">
					<dim>1</dim>
				</port>
			</output>
		</layer>
		<layer id="91" name="254" type="Unsqueeze" version="opset1">
			<rt_info>
				<attribute name="fused_names" version="0" value="254"/>
			</rt_info>
			<input>
				<port id="0" precision="FP32">
					<dim>32</dim>
				</port>
				<port id="1" precision="I64">
					<dim>1</dim>
				</port>
			</input>
			<output>
				<port id="2" precision="FP32" names="254">
					<dim>32</dim>
					<dim>1</dim>
				</port>
			</output>
		</layer>
		<layer id="92" name="Constant_355" type="Const" version="opset1">
			<data element_type="i64" shape="1" offset="8260" size="8"/>
			<rt_info>
				<attribute name="fused_names" version="0" value="Constant_355"/>
			</rt_info>
			<output>
				<port id="0" precision="I64">
					<dim>1</dim>
				</port>
			</output>
		</layer>
		<layer id="93" name="255" type="Unsqueeze" version="opset1">
			<rt_info>
				<attribute name="fused_names" version="0" value="255"/>
			</rt_info>
			<input>
				<port id="0" precision="FP32">
					<dim>32</dim>
					<dim>1</dim>
				</port>
				<port id="1" precision="I64">
					<dim>1</dim>
				</port>
			</input>
			<output>
				<port id="2" precision="FP32" names="255">
					<dim>32</dim>
					<dim>1</dim>
					<dim>1</dim>
				</port>
			</output>
		</layer>
		<layer id="94" name="256" type="Subtract" version="opset1">
			<data auto_broadcast="numpy"/>
			<rt_info>
				<attribute name="fused_names" version="0" value="256"/>
			</rt_info>
			<input>
				<port id="0" precision="FP32">
					<dim>1</dim>
					<dim>32</dim>
					<dim>368</dim>
					<dim>656</dim>
				</port>
				<port id="1" precision="FP32">
					<dim>32</dim>
					<dim>1</dim>
					<dim>1</dim>
				</port>
			</input>
			<output>
				<port id="2" precision="FP32" names="256">
					<dim>1</dim>
					<dim>32</dim>
					<dim>368</dim>
					<dim>656</dim>
				</port>
			</output>
		</layer>
		<layer id="95" name="257" type="Multiply" version="opset1">
			<data auto_broadcast="numpy"/>
			<rt_info>
				<attribute name="fused_names" version="0" value="257"/>
			</rt_info>
			<input>
				<port id="0" precision="FP32">
					<dim>1</dim>
					<dim>32</dim>
					<dim>1</dim>
					<dim>1</dim>
				</port>
				<port id="1" precision="FP32">
					<dim>1</dim>
					<dim>32</dim>
					<dim>368</dim>
					<dim>656</dim>
				</port>
			</input>
			<output>
				<port id="2" precision="FP32" names="257">
					<dim>1</dim>
					<dim>32</dim>
					<dim>368</dim>
					<dim>656</dim>
				</port>
			</output>
		</layer>
		<layer id="96" name="Constant_6366_compressed" type="Const" version="opset1">
			<data element_type="f16" shape="1, 1, 1" offset="8268" size="2"/>
			<output>
				<port id="0" precision="FP16">
					<dim>1</dim>
					<dim>1</dim>
					<dim>1</dim>
				</port>
			</output>
		</layer>
		<layer id="97" name="Constant_6366" type="Convert" version="opset1">
			<data destination_type="f32"/>
			<rt_info>
				<attribute name="decompression" version="0"/>
			</rt_info>
			<input>
				<port id="0" precision="FP16">
					<dim>1</dim>
					<dim>1</dim>
					<dim>1</dim>
				</port>
			</input>
			<output>
				<port id="1" precision="FP32">
					<dim>1</dim>
					<dim>1</dim>
					<dim>1</dim>
				</port>
			</output>
		</layer>
		<layer id="98" name="233" type="Multiply" version="opset1">
			<data auto_broadcast="numpy"/>
			<rt_info>
				<attribute name="fused_names" version="0" value="233"/>
			</rt_info>
			<input>
				<port id="0" precision="FP32">
					<dim>1</dim>
					<dim>32</dim>
					<dim>368</dim>
					<dim>656</dim>
				</port>
				<port id="1" precision="FP32">
					<dim>1</dim>
					<dim>32</dim>
					<dim>368</dim>
					<dim>656</dim>
				</port>
			</input>
			<output>
				<port id="2" precision="FP32" names="233">
					<dim>1</dim>
					<dim>32</dim>
					<dim>368</dim>
					<dim>656</dim>
				</port>
			</output>
		</layer>
		<layer id="99" name="Constant_333" type="Const" version="opset1">
			<data element_type="i64" shape="3" offset="8228" size="24"/>
			<rt_info>
				<attribute name="fused_names" version="0" value="Constant_333"/>
			</rt_info>
			<output>
				<port id="0" precision="I64">
					<dim>3</dim>
				</port>
			</output>
		</layer>
		<layer id="100" name="234" type="ReduceMean" version="opset1">
			<data keep_dims="false"/>
			<rt_info>
				<attribute name="fused_names" version="0" value="234"/>
			</rt_info>
			<input>
				<port id="0" precision="FP32">
					<dim>1</dim>
					<dim>32</dim>
					<dim>368</dim>
					<dim>656</dim>
				</port>
				<port id="1" precision="I64">
					<dim>3</dim>
				</port>
			</input>
			<output>
				<port id="2" precision="FP32" names="234">
					<dim>32</dim>
				</port>
			</output>
		</layer>
		<layer id="101" name="Constant_335" type="Const" version="opset1">
			<data element_type="i64" shape="3" offset="8228" size="24"/>
			<rt_info>
				<attribute name="fused_names" version="0" value="Constant_335"/>
			</rt_info>
			<output>
				<port id="0" precision="I64">
					<dim>3</dim>
				</port>
			</output>
		</layer>
		<layer id="102" name="235" type="ReduceMean" version="opset1">
			<data keep_dims="false"/>
			<rt_info>
				<attribute name="fused_names" version="0" value="235"/>
			</rt_info>
			<input>
				<port id="0" precision="FP32">
					<dim>1</dim>
					<dim>32</dim>
					<dim>368</dim>
					<dim>656</dim>
				</port>
				<port id="1" precision="I64">
					<dim>3</dim>
				</port>
			</input>
			<output>
				<port id="2" precision="FP32" names="235">
					<dim>32</dim>
				</port>
			</output>
		</layer>
		<layer id="103" name="236" type="Multiply" version="opset1">
			<data auto_broadcast="numpy"/>
			<rt_info>
				<attribute name="fused_names" version="0" value="236"/>
			</rt_info>
			<input>
				<port id="0" precision="FP32">
					<dim>32</dim>
				</port>
				<port id="1" precision="FP32">
					<dim>32</dim>
				</port>
			</input>
			<output>
				<port id="2" precision="FP32" names="236">
					<dim>32</dim>
				</port>
			</output>
		</layer>
		<layer id="104" name="237" type="Subtract" version="opset1">
			<data auto_broadcast="numpy"/>
			<rt_info>
				<attribute name="fused_names" version="0" value="237"/>
			</rt_info>
			<input>
				<port id="0" precision="FP32">
					<dim>32</dim>
				</port>
				<port id="1" precision="FP32">
					<dim>32</dim>
				</port>
			</input>
			<output>
				<port id="2" precision="FP32" names="237">
					<dim>32</dim>
				</port>
			</output>
		</layer>
		<layer id="105" name="238" type="Abs" version="opset1">
			<rt_info>
				<attribute name="fused_names" version="0" value="238"/>
			</rt_info>
			<input>
				<port id="0" precision="FP32">
					<dim>32</dim>
				</port>
			</input>
			<output>
				<port id="1" precision="FP32" names="238">
					<dim>32</dim>
				</port>
			</output>
		</layer>
		<layer id="106" name="239" type="Sqrt" version="opset1">
			<rt_info>
				<attribute name="fused_names" version="0" value="239"/>
			</rt_info>
			<input>
				<port id="0" precision="FP32">
					<dim>32</dim>
				</port>
			</input>
			<output>
				<port id="1" precision="FP32" names="239">
					<dim>32</dim>
				</port>
			</output>
		</layer>
		<layer id="107" name="Constant_6364_compressed" type="Const" version="opset1">
			<data element_type="f16" shape="1" offset="8270" size="2"/>
			<output>
				<port id="0" precision="FP16">
					<dim>1</dim>
				</port>
			</output>
		</layer>
		<layer id="108" name="Constant_6364" type="Convert" version="opset1">
			<data destination_type="f32"/>
			<rt_info>
				<attribute name="decompression" version="0"/>
			</rt_info>
			<input>
				<port id="0" precision="FP16">
					<dim>1</dim>
				</port>
			</input>
			<output>
				<port id="1" precision="FP32">
					<dim>1</dim>
				</port>
			</output>
		</layer>
		<layer id="109" name="242" type="Power" version="opset1">
			<data auto_broadcast="numpy"/>
			<rt_info>
				<attribute name="fused_names" version="0" value="242"/>
			</rt_info>
			<input>
				<port id="0" precision="FP32">
					<dim>32</dim>
				</port>
				<port id="1" precision="FP32">
					<dim>1</dim>
				</port>
			</input>
			<output>
				<port id="2" precision="FP32" names="242">
					<dim>32</dim>
				</port>
			</output>
		</layer>
		<layer id="110" name="Constant_342" type="Const" version="opset1">
			<data element_type="i64" shape="1" offset="8252" size="8"/>
			<rt_info>
				<attribute name="fused_names" version="0" value="Constant_342"/>
			</rt_info>
			<output>
				<port id="0" precision="I64">
					<dim>1</dim>
				</port>
			</output>
		</layer>
		<layer id="111" name="243" type="Unsqueeze" version="opset1">
			<rt_info>
				<attribute name="fused_names" version="0" value="243"/>
			</rt_info>
			<input>
				<port id="0" precision="FP32">
					<dim>32</dim>
				</port>
				<port id="1" precision="I64">
					<dim>1</dim>
				</port>
			</input>
			<output>
				<port id="2" precision="FP32" names="243">
					<dim>32</dim>
					<dim>1</dim>
				</port>
			</output>
		</layer>
		<layer id="112" name="Constant_344" type="Const" version="opset1">
			<data element_type="i64" shape="1" offset="8260" size="8"/>
			<rt_info>
				<attribute name="fused_names" version="0" value="Constant_344"/>
			</rt_info>
			<output>
				<port id="0" precision="I64">
					<dim>1</dim>
				</port>
			</output>
		</layer>
		<layer id="113" name="244" type="Unsqueeze" version="opset1">
			<rt_info>
				<attribute name="fused_names" version="0" value="244"/>
			</rt_info>
			<input>
				<port id="0" precision="FP32">
					<dim>32</dim>
					<dim>1</dim>
				</port>
				<port id="1" precision="I64">
					<dim>1</dim>
				</port>
			</input>
			<output>
				<port id="2" precision="FP32" names="244">
					<dim>32</dim>
					<dim>1</dim>
					<dim>1</dim>
				</port>
			</output>
		</layer>
		<layer id="114" name="Constant_6365_compressed" type="Const" version="opset1">
			<data element_type="f16" shape="1, 1, 1" offset="8272" size="2"/>
			<output>
				<port id="0" precision="FP16">
					<dim>1</dim>
					<dim>1</dim>
					<dim>1</dim>
				</port>
			</output>
		</layer>
		<layer id="115" name="Constant_6365" type="Convert" version="opset1">
			<data destination_type="f32"/>
			<rt_info>
				<attribute name="decompression" version="0"/>
			</rt_info>
			<input>
				<port id="0" precision="FP16">
					<dim>1</dim>
					<dim>1</dim>
					<dim>1</dim>
				</port>
			</input>
			<output>
				<port id="1" precision="FP32">
					<dim>1</dim>
					<dim>1</dim>
					<dim>1</dim>
				</port>
			</output>
		</layer>
		<layer id="116" name="246" type="Add" version="opset1">
			<data auto_broadcast="numpy"/>
			<rt_info>
				<attribute name="fused_names" version="0" value="246"/>
			</rt_info>
			<input>
				<port id="0" precision="FP32">
					<dim>32</dim>
					<dim>1</dim>
					<dim>1</dim>
				</port>
				<port id="1" precision="FP32">
					<dim>1</dim>
					<dim>1</dim>
					<dim>1</dim>
				</port>
			</input>
			<output>
				<port id="2" precision="FP32" names="246">
					<dim>32</dim>
					<dim>1</dim>
					<dim>1</dim>
				</port>
			</output>
		</layer>
		<layer id="117" name="247" type="Sqrt" version="opset1">
			<rt_info>
				<attribute name="fused_names" version="0" value="247"/>
			</rt_info>
			<input>
				<port id="0" precision="FP32">
					<dim>32</dim>
					<dim>1</dim>
					<dim>1</dim>
				</port>
			</input>
			<output>
				<port id="1" precision="FP32" names="247">
					<dim>32</dim>
					<dim>1</dim>
					<dim>1</dim>
				</port>
			</output>
		</layer>
		<layer id="118" name="249" type="Divide" version="opset1">
			<data auto_broadcast="numpy" m_pythondiv="true"/>
			<rt_info>
				<attribute name="fused_names" version="0" value="249, 251"/>
			</rt_info>
			<input>
				<port id="0" precision="FP32">
					<dim>1</dim>
					<dim>1</dim>
					<dim>1</dim>
				</port>
				<port id="1" precision="FP32">
					<dim>32</dim>
					<dim>1</dim>
					<dim>1</dim>
				</port>
			</input>
			<output>
				<port id="2" precision="FP32" names="249,251">
					<dim>32</dim>
					<dim>1</dim>
					<dim>1</dim>
				</port>
			</output>
		</layer>
		<layer id="119" name="258" type="Multiply" version="opset1">
			<data auto_broadcast="numpy"/>
			<rt_info>
				<attribute name="fused_names" version="0" value="258"/>
			</rt_info>
			<input>
				<port id="0" precision="FP32">
					<dim>1</dim>
					<dim>32</dim>
					<dim>368</dim>
					<dim>656</dim>
				</port>
				<port id="1" precision="FP32">
					<dim>32</dim>
					<dim>1</dim>
					<dim>1</dim>
				</port>
			</input>
			<output>
				<port id="2" precision="FP32" names="258">
					<dim>1</dim>
					<dim>32</dim>
					<dim>368</dim>
					<dim>656</dim>
				</port>
			</output>
		</layer>
		<layer id="120" name="Constant_6367_compressed" type="Const" version="opset1">
			<data element_type="f16" shape="1, 32, 1, 1" offset="8914" size="64"/>
			<output>
				<port id="0" precision="FP16">
					<dim>1</dim>
					<dim>32</dim>
					<dim>1</dim>
					<dim>1</dim>
				</port>
			</output>
		</layer>
		<layer id="121" name="Constant_6367" type="Convert" version="opset1">
			<data destination_type="f32"/>
			<rt_info>
				<attribute name="decompression" version="0"/>
			</rt_info>
			<input>
				<port id="0" precision="FP16">
					<dim>1</dim>
					<dim>32</dim>
					<dim>1</dim>
					<dim>1</dim>
				</port>
			</input>
			<output>
				<port id="1" precision="FP32">
					<dim>1</dim>
					<dim>32</dim>
					<dim>1</dim>
					<dim>1</dim>
				</port>
			</output>
		</layer>
		<layer id="122" name="261" type="Add" version="opset1">
			<data auto_broadcast="numpy"/>
			<rt_info>
				<attribute name="fused_names" version="0" value="261"/>
			</rt_info>
			<input>
				<port id="0" precision="FP32">
					<dim>1</dim>
					<dim>32</dim>
					<dim>368</dim>
					<dim>656</dim>
				</port>
				<port id="1" precision="FP32">
					<dim>1</dim>
					<dim>32</dim>
					<dim>1</dim>
					<dim>1</dim>
				</port>
			</input>
			<output>
				<port id="2" precision="FP32" names="261">
					<dim>1</dim>
					<dim>32</dim>
					<dim>368</dim>
					<dim>656</dim>
				</port>
			</output>
		</layer>
		<layer id="123" name="264" type="Clamp" version="opset1">
			<data min="0" max="6"/>
			<rt_info>
				<attribute name="fused_names" version="0" value="264, Maximum_363"/>
			</rt_info>
			<input>
				<port id="0" precision="FP32">
					<dim>1</dim>
					<dim>32</dim>
					<dim>368</dim>
					<dim>656</dim>
				</port>
			</input>
			<output>
				<port id="1" precision="FP32" names="264">
					<dim>1</dim>
					<dim>32</dim>
					<dim>368</dim>
					<dim>656</dim>
				</port>
			</output>
		</layer>
		<layer id="124" name="impl.module.fpn.features.1.conv.3.weight_compressed" type="Const" version="opset1">
			<data element_type="f16" shape="16, 32, 1, 1" offset="8978" size="1024"/>
			<output>
				<port id="0" precision="FP16">
					<dim>16</dim>
					<dim>32</dim>
					<dim>1</dim>
					<dim>1</dim>
				</port>
			</output>
		</layer>
		<layer id="125" name="impl.module.fpn.features.1.conv.3.weight" type="Convert" version="opset1">
			<data destination_type="f32"/>
			<rt_info>
				<attribute name="decompression" version="0"/>
				<attribute name="fused_names" version="0" value="impl.module.fpn.features.1.conv.3.weight"/>
			</rt_info>
			<input>
				<port id="0" precision="FP16">
					<dim>16</dim>
					<dim>32</dim>
					<dim>1</dim>
					<dim>1</dim>
				</port>
			</input>
			<output>
				<port id="1" precision="FP32" names="impl.module.fpn.features.1.conv.3.weight">
					<dim>16</dim>
					<dim>32</dim>
					<dim>1</dim>
					<dim>1</dim>
				</port>
			</output>
		</layer>
		<layer id="126" name="265" type="Convolution" version="opset1">
			<data strides="1, 1" dilations="1, 1" pads_begin="0, 0" pads_end="0, 0" auto_pad="explicit"/>
			<rt_info>
				<attribute name="fused_names" version="0" value="265"/>
			</rt_info>
			<input>
				<port id="0" precision="FP32">
					<dim>1</dim>
					<dim>32</dim>
					<dim>368</dim>
					<dim>656</dim>
				</port>
				<port id="1" precision="FP32">
					<dim>16</dim>
					<dim>32</dim>
					<dim>1</dim>
					<dim>1</dim>
				</port>
			</input>
			<output>
				<port id="2" precision="FP32" names="265">
					<dim>1</dim>
					<dim>16</dim>
					<dim>368</dim>
					<dim>656</dim>
				</port>
			</output>
		</layer>
		<layer id="127" name="Constant_367" type="Const" version="opset1">
			<data element_type="i64" shape="3" offset="8228" size="24"/>
			<rt_info>
				<attribute name="fused_names" version="0" value="Constant_367"/>
			</rt_info>
			<output>
				<port id="0" precision="I64">
					<dim>3</dim>
				</port>
			</output>
		</layer>
		<layer id="128" name="266" type="ReduceMean" version="opset1">
			<data keep_dims="false"/>
			<rt_info>
				<attribute name="fused_names" version="0" value="266"/>
			</rt_info>
			<input>
				<port id="0" precision="FP32">
					<dim>1</dim>
					<dim>16</dim>
					<dim>368</dim>
					<dim>656</dim>
				</port>
				<port id="1" precision="I64">
					<dim>3</dim>
				</port>
			</input>
			<output>
				<port id="2" precision="FP32" names="266">
					<dim>16</dim>
				</port>
			</output>
		</layer>
		<layer id="129" name="Constant_390" type="Const" version="opset1">
			<data element_type="i64" shape="1" offset="8252" size="8"/>
			<rt_info>
				<attribute name="fused_names" version="0" value="Constant_390"/>
			</rt_info>
			<output>
				<port id="0" precision="I64">
					<dim>1</dim>
				</port>
			</output>
		</layer>
		<layer id="130" name="288" type="Unsqueeze" version="opset1">
			<rt_info>
				<attribute name="fused_names" version="0" value="288"/>
			</rt_info>
			<input>
				<port id="0" precision="FP32">
					<dim>16</dim>
				</port>
				<port id="1" precision="I64">
					<dim>1</dim>
				</port>
			</input>
			<output>
				<port id="2" precision="FP32" names="288">
					<dim>16</dim>
					<dim>1</dim>
				</port>
			</output>
		</layer>
		<layer id="131" name="Constant_392" type="Const" version="opset1">
			<data element_type="i64" shape="1" offset="8260" size="8"/>
			<rt_info>
				<attribute name="fused_names" version="0" value="Constant_392"/>
			</rt_info>
			<output>
				<port id="0" precision="I64">
					<dim>1</dim>
				</port>
			</output>
		</layer>
		<layer id="132" name="289" type="Unsqueeze" version="opset1">
			<rt_info>
				<attribute name="fused_names" version="0" value="289"/>
			</rt_info>
			<input>
				<port id="0" precision="FP32">
					<dim>16</dim>
					<dim>1</dim>
				</port>
				<port id="1" precision="I64">
					<dim>1</dim>
				</port>
			</input>
			<output>
				<port id="2" precision="FP32" names="289">
					<dim>16</dim>
					<dim>1</dim>
					<dim>1</dim>
				</port>
			</output>
		</layer>
		<layer id="133" name="290" type="Subtract" version="opset1">
			<data auto_broadcast="numpy"/>
			<rt_info>
				<attribute name="fused_names" version="0" value="290"/>
			</rt_info>
			<input>
				<port id="0" precision="FP32">
					<dim>1</dim>
					<dim>16</dim>
					<dim>368</dim>
					<dim>656</dim>
				</port>
				<port id="1" precision="FP32">
					<dim>16</dim>
					<dim>1</dim>
					<dim>1</dim>
				</port>
			</input>
			<output>
				<port id="2" precision="FP32" names="290">
					<dim>1</dim>
					<dim>16</dim>
					<dim>368</dim>
					<dim>656</dim>
				</port>
			</output>
		</layer>
		<layer id="134" name="291" type="Multiply" version="opset1">
			<data auto_broadcast="numpy"/>
			<rt_info>
				<attribute name="fused_names" version="0" value="291"/>
			</rt_info>
			<input>
				<port id="0" precision="FP32">
					<dim>1</dim>
					<dim>16</dim>
					<dim>1</dim>
					<dim>1</dim>
				</port>
				<port id="1" precision="FP32">
					<dim>1</dim>
					<dim>16</dim>
					<dim>368</dim>
					<dim>656</dim>
				</port>
			</input>
			<output>
				<port id="2" precision="FP32" names="291">
					<dim>1</dim>
					<dim>16</dim>
					<dim>368</dim>
					<dim>656</dim>
				</port>
			</output>
		</layer>
		<layer id="135" name="Constant_6371_compressed" type="Const" version="opset1">
			<data element_type="f16" shape="1, 1, 1" offset="8268" size="2"/>
			<output>
				<port id="0" precision="FP16">
					<dim>1</dim>
					<dim>1</dim>
					<dim>1</dim>
				</port>
			</output>
		</layer>
		<layer id="136" name="Constant_6371" type="Convert" version="opset1">
			<data destination_type="f32"/>
			<rt_info>
				<attribute name="decompression" version="0"/>
			</rt_info>
			<input>
				<port id="0" precision="FP16">
					<dim>1</dim>
					<dim>1</dim>
					<dim>1</dim>
				</port>
			</input>
			<output>
				<port id="1" precision="FP32">
					<dim>1</dim>
					<dim>1</dim>
					<dim>1</dim>
				</port>
			</output>
		</layer>
		<layer id="137" name="267" type="Multiply" version="opset1">
			<data auto_broadcast="numpy"/>
			<rt_info>
				<attribute name="fused_names" version="0" value="267"/>
			</rt_info>
			<input>
				<port id="0" precision="FP32">
					<dim>1</dim>
					<dim>16</dim>
					<dim>368</dim>
					<dim>656</dim>
				</port>
				<port id="1" precision="FP32">
					<dim>1</dim>
					<dim>16</dim>
					<dim>368</dim>
					<dim>656</dim>
				</port>
			</input>
			<output>
				<port id="2" precision="FP32" names="267">
					<dim>1</dim>
					<dim>16</dim>
					<dim>368</dim>
					<dim>656</dim>
				</port>
			</output>
		</layer>
		<layer id="138" name="Constant_370" type="Const" version="opset1">
			<data element_type="i64" shape="3" offset="8228" size="24"/>
			<rt_info>
				<attribute name="fused_names" version="0" value="Constant_370"/>
			</rt_info>
			<output>
				<port id="0" precision="I64">
					<dim>3</dim>
				</port>
			</output>
		</layer>
		<layer id="139" name="268" type="ReduceMean" version="opset1">
			<data keep_dims="false"/>
			<rt_info>
				<attribute name="fused_names" version="0" value="268"/>
			</rt_info>
			<input>
				<port id="0" precision="FP32">
					<dim>1</dim>
					<dim>16</dim>
					<dim>368</dim>
					<dim>656</dim>
				</port>
				<port id="1" precision="I64">
					<dim>3</dim>
				</port>
			</input>
			<output>
				<port id="2" precision="FP32" names="268">
					<dim>16</dim>
				</port>
			</output>
		</layer>
		<layer id="140" name="Constant_372" type="Const" version="opset1">
			<data element_type="i64" shape="3" offset="8228" size="24"/>
			<rt_info>
				<attribute name="fused_names" version="0" value="Constant_372"/>
			</rt_info>
			<output>
				<port id="0" precision="I64">
					<dim>3</dim>
				</port>
			</output>
		</layer>
		<layer id="141" name="269" type="ReduceMean" version="opset1">
			<data keep_dims="false"/>
			<rt_info>
				<attribute name="fused_names" version="0" value="269"/>
			</rt_info>
			<input>
				<port id="0" precision="FP32">
					<dim>1</dim>
					<dim>16</dim>
					<dim>368</dim>
					<dim>656</dim>
				</port>
				<port id="1" precision="I64">
					<dim>3</dim>
				</port>
			</input>
			<output>
				<port id="2" precision="FP32" names="269">
					<dim>16</dim>
				</port>
			</output>
		</layer>
		<layer id="142" name="270" type="Multiply" version="opset1">
			<data auto_broadcast="numpy"/>
			<rt_info>
				<attribute name="fused_names" version="0" value="270"/>
			</rt_info>
			<input>
				<port id="0" precision="FP32">
					<dim>16</dim>
				</port>
				<port id="1" precision="FP32">
					<dim>16</dim>
				</port>
			</input>
			<output>
				<port id="2" precision="FP32" names="270">
					<dim>16</dim>
				</port>
			</output>
		</layer>
		<layer id="143" name="271" type="Subtract" version="opset1">
			<data auto_broadcast="numpy"/>
			<rt_info>
				<attribute name="fused_names" version="0" value="271"/>
			</rt_info>
			<input>
				<port id="0" precision="FP32">
					<dim>16</dim>
				</port>
				<port id="1" precision="FP32">
					<dim>16</dim>
				</port>
			</input>
			<output>
				<port id="2" precision="FP32" names="271">
					<dim>16</dim>
				</port>
			</output>
		</layer>
		<layer id="144" name="272" type="Abs" version="opset1">
			<rt_info>
				<attribute name="fused_names" version="0" value="272"/>
			</rt_info>
			<input>
				<port id="0" precision="FP32">
					<dim>16</dim>
				</port>
			</input>
			<output>
				<port id="1" precision="FP32" names="272">
					<dim>16</dim>
				</port>
			</output>
		</layer>
		<layer id="145" name="273" type="Sqrt" version="opset1">
			<rt_info>
				<attribute name="fused_names" version="0" value="273"/>
			</rt_info>
			<input>
				<port id="0" precision="FP32">
					<dim>16</dim>
				</port>
			</input>
			<output>
				<port id="1" precision="FP32" names="273">
					<dim>16</dim>
				</port>
			</output>
		</layer>
		<layer id="146" name="Constant_6369_compressed" type="Const" version="opset1">
			<data element_type="f16" shape="1" offset="8270" size="2"/>
			<output>
				<port id="0" precision="FP16">
					<dim>1</dim>
				</port>
			</output>
		</layer>
		<layer id="147" name="Constant_6369" type="Convert" version="opset1">
			<data destination_type="f32"/>
			<rt_info>
				<attribute name="decompression" version="0"/>
			</rt_info>
			<input>
				<port id="0" precision="FP16">
					<dim>1</dim>
				</port>
			</input>
			<output>
				<port id="1" precision="FP32">
					<dim>1</dim>
				</port>
			</output>
		</layer>
		<layer id="148" name="276" type="Power" version="opset1">
			<data auto_broadcast="numpy"/>
			<rt_info>
				<attribute name="fused_names" version="0" value="276"/>
			</rt_info>
			<input>
				<port id="0" precision="FP32">
					<dim>16</dim>
				</port>
				<port id="1" precision="FP32">
					<dim>1</dim>
				</port>
			</input>
			<output>
				<port id="2" precision="FP32" names="276">
					<dim>16</dim>
				</port>
			</output>
		</layer>
		<layer id="149" name="Constant_379" type="Const" version="opset1">
			<data element_type="i64" shape="1" offset="8252" size="8"/>
			<rt_info>
				<attribute name="fused_names" version="0" value="Constant_379"/>
			</rt_info>
			<output>
				<port id="0" precision="I64">
					<dim>1</dim>
				</port>
			</output>
		</layer>
		<layer id="150" name="277" type="Unsqueeze" version="opset1">
			<rt_info>
				<attribute name="fused_names" version="0" value="277"/>
			</rt_info>
			<input>
				<port id="0" precision="FP32">
					<dim>16</dim>
				</port>
				<port id="1" precision="I64">
					<dim>1</dim>
				</port>
			</input>
			<output>
				<port id="2" precision="FP32" names="277">
					<dim>16</dim>
					<dim>1</dim>
				</port>
			</output>
		</layer>
		<layer id="151" name="Constant_381" type="Const" version="opset1">
			<data element_type="i64" shape="1" offset="8260" size="8"/>
			<rt_info>
				<attribute name="fused_names" version="0" value="Constant_381"/>
			</rt_info>
			<output>
				<port id="0" precision="I64">
					<dim>1</dim>
				</port>
			</output>
		</layer>
		<layer id="152" name="278" type="Unsqueeze" version="opset1">
			<rt_info>
				<attribute name="fused_names" version="0" value="278"/>
			</rt_info>
			<input>
				<port id="0" precision="FP32">
					<dim>16</dim>
					<dim>1</dim>
				</port>
				<port id="1" precision="I64">
					<dim>1</dim>
				</port>
			</input>
			<output>
				<port id="2" precision="FP32" names="278">
					<dim>16</dim>
					<dim>1</dim>
					<dim>1</dim>
				</port>
			</output>
		</layer>
		<layer id="153" name="Constant_6370_compressed" type="Const" version="opset1">
			<data element_type="f16" shape="1, 1, 1" offset="8272" size="2"/>
			<output>
				<port id="0" precision="FP16">
					<dim>1</dim>
					<dim>1</dim>
					<dim>1</dim>
				</port>
			</output>
		</layer>
		<layer id="154" name="Constant_6370" type="Convert" version="opset1">
			<data destination_type="f32"/>
			<rt_info>
				<attribute name="decompression" version="0"/>
			</rt_info>
			<input>
				<port id="0" precision="FP16">
					<dim>1</dim>
					<dim>1</dim>
					<dim>1</dim>
				</port>
			</input>
			<output>
				<port id="1" precision="FP32">
					<dim>1</dim>
					<dim>1</dim>
					<dim>1</dim>
				</port>
			</output>
		</layer>
		<layer id="155" name="280" type="Add" version="opset1">
			<data auto_broadcast="numpy"/>
			<rt_info>
				<attribute name="fused_names" version="0" value="280"/>
			</rt_info>
			<input>
				<port id="0" precision="FP32">
					<dim>16</dim>
					<dim>1</dim>
					<dim>1</dim>
				</port>
				<port id="1" precision="FP32">
					<dim>1</dim>
					<dim>1</dim>
					<dim>1</dim>
				</port>
			</input>
			<output>
				<port id="2" precision="FP32" names="280">
					<dim>16</dim>
					<dim>1</dim>
					<dim>1</dim>
				</port>
			</output>
		</layer>
		<layer id="156" name="281" type="Sqrt" version="opset1">
			<rt_info>
				<attribute name="fused_names" version="0" value="281"/>
			</rt_info>
			<input>
				<port id="0" precision="FP32">
					<dim>16</dim>
					<dim>1</dim>
					<dim>1</dim>
				</port>
			</input>
			<output>
				<port id="1" precision="FP32" names="281">
					<dim>16</dim>
					<dim>1</dim>
					<dim>1</dim>
				</port>
			</output>
		</layer>
		<layer id="157" name="283" type="Divide" version="opset1">
			<data auto_broadcast="numpy" m_pythondiv="true"/>
			<rt_info>
				<attribute name="fused_names" version="0" value="283, 285"/>
			</rt_info>
			<input>
				<port id="0" precision="FP32">
					<dim>1</dim>
					<dim>1</dim>
					<dim>1</dim>
				</port>
				<port id="1" precision="FP32">
					<dim>16</dim>
					<dim>1</dim>
					<dim>1</dim>
				</port>
			</input>
			<output>
				<port id="2" precision="FP32" names="283,285">
					<dim>16</dim>
					<dim>1</dim>
					<dim>1</dim>
				</port>
			</output>
		</layer>
		<layer id="158" name="292" type="Multiply" version="opset1">
			<data auto_broadcast="numpy"/>
			<rt_info>
				<attribute name="fused_names" version="0" value="292"/>
			</rt_info>
			<input>
				<port id="0" precision="FP32">
					<dim>1</dim>
					<dim>16</dim>
					<dim>368</dim>
					<dim>656</dim>
				</port>
				<port id="1" precision="FP32">
					<dim>16</dim>
					<dim>1</dim>
					<dim>1</dim>
				</port>
			</input>
			<output>
				<port id="2" precision="FP32" names="292">
					<dim>1</dim>
					<dim>16</dim>
					<dim>368</dim>
					<dim>656</dim>
				</port>
			</output>
		</layer>
		<layer id="159" name="Constant_6372_compressed" type="Const" version="opset1">
			<data element_type="f16" shape="1, 16, 1, 1" offset="10002" size="32"/>
			<output>
				<port id="0" precision="FP16">
					<dim>1</dim>
					<dim>16</dim>
					<dim>1</dim>
					<dim>1</dim>
				</port>
			</output>
		</layer>
		<layer id="160" name="Constant_6372" type="Convert" version="opset1">
			<data destination_type="f32"/>
			<rt_info>
				<attribute name="decompression" version="0"/>
			</rt_info>
			<input>
				<port id="0" precision="FP16">
					<dim>1</dim>
					<dim>16</dim>
					<dim>1</dim>
					<dim>1</dim>
				</port>
			</input>
			<output>
				<port id="1" precision="FP32">
					<dim>1</dim>
					<dim>16</dim>
					<dim>1</dim>
					<dim>1</dim>
				</port>
			</output>
		</layer>
		<layer id="161" name="295" type="Add" version="opset1">
			<data auto_broadcast="numpy"/>
			<rt_info>
				<attribute name="fused_names" version="0" value="295"/>
			</rt_info>
			<input>
				<port id="0" precision="FP32">
					<dim>1</dim>
					<dim>16</dim>
					<dim>368</dim>
					<dim>656</dim>
				</port>
				<port id="1" precision="FP32">
					<dim>1</dim>
					<dim>16</dim>
					<dim>1</dim>
					<dim>1</dim>
				</port>
			</input>
			<output>
				<port id="2" precision="FP32" names="295">
					<dim>1</dim>
					<dim>16</dim>
					<dim>368</dim>
					<dim>656</dim>
				</port>
			</output>
		</layer>
		<layer id="162" name="impl.module.fpn.features.2.conv.0.weight_compressed" type="Const" version="opset1">
			<data element_type="f16" shape="96, 16, 1, 1" offset="10034" size="3072"/>
			<output>
				<port id="0" precision="FP16">
					<dim>96</dim>
					<dim>16</dim>
					<dim>1</dim>
					<dim>1</dim>
				</port>
			</output>
		</layer>
		<layer id="163" name="impl.module.fpn.features.2.conv.0.weight" type="Convert" version="opset1">
			<data destination_type="f32"/>
			<rt_info>
				<attribute name="decompression" version="0"/>
				<attribute name="fused_names" version="0" value="impl.module.fpn.features.2.conv.0.weight"/>
			</rt_info>
			<input>
				<port id="0" precision="FP16">
					<dim>96</dim>
					<dim>16</dim>
					<dim>1</dim>
					<dim>1</dim>
				</port>
			</input>
			<output>
				<port id="1" precision="FP32" names="impl.module.fpn.features.2.conv.0.weight">
					<dim>96</dim>
					<dim>16</dim>
					<dim>1</dim>
					<dim>1</dim>
				</port>
			</output>
		</layer>
		<layer id="164" name="296" type="Convolution" version="opset1">
			<data strides="1, 1" dilations="1, 1" pads_begin="0, 0" pads_end="0, 0" auto_pad="explicit"/>
			<rt_info>
				<attribute name="fused_names" version="0" value="296"/>
			</rt_info>
			<input>
				<port id="0" precision="FP32">
					<dim>1</dim>
					<dim>16</dim>
					<dim>368</dim>
					<dim>656</dim>
				</port>
				<port id="1" precision="FP32">
					<dim>96</dim>
					<dim>16</dim>
					<dim>1</dim>
					<dim>1</dim>
				</port>
			</input>
			<output>
				<port id="2" precision="FP32" names="296">
					<dim>1</dim>
					<dim>96</dim>
					<dim>368</dim>
					<dim>656</dim>
				</port>
			</output>
		</layer>
		<layer id="165" name="Constant_400" type="Const" version="opset1">
			<data element_type="i64" shape="3" offset="8228" size="24"/>
			<rt_info>
				<attribute name="fused_names" version="0" value="Constant_400"/>
			</rt_info>
			<output>
				<port id="0" precision="I64">
					<dim>3</dim>
				</port>
			</output>
		</layer>
		<layer id="166" name="297" type="ReduceMean" version="opset1">
			<data keep_dims="false"/>
			<rt_info>
				<attribute name="fused_names" version="0" value="297"/>
			</rt_info>
			<input>
				<port id="0" precision="FP32">
					<dim>1</dim>
					<dim>96</dim>
					<dim>368</dim>
					<dim>656</dim>
				</port>
				<port id="1" precision="I64">
					<dim>3</dim>
				</port>
			</input>
			<output>
				<port id="2" precision="FP32" names="297">
					<dim>96</dim>
				</port>
			</output>
		</layer>
		<layer id="167" name="Constant_423" type="Const" version="opset1">
			<data element_type="i64" shape="1" offset="8252" size="8"/>
			<rt_info>
				<attribute name="fused_names" version="0" value="Constant_423"/>
			</rt_info>
			<output>
				<port id="0" precision="I64">
					<dim>1</dim>
				</port>
			</output>
		</layer>
		<layer id="168" name="319" type="Unsqueeze" version="opset1">
			<rt_info>
				<attribute name="fused_names" version="0" value="319"/>
			</rt_info>
			<input>
				<port id="0" precision="FP32">
					<dim>96</dim>
				</port>
				<port id="1" precision="I64">
					<dim>1</dim>
				</port>
			</input>
			<output>
				<port id="2" precision="FP32" names="319">
					<dim>96</dim>
					<dim>1</dim>
				</port>
			</output>
		</layer>
		<layer id="169" name="Constant_425" type="Const" version="opset1">
			<data element_type="i64" shape="1" offset="8260" size="8"/>
			<rt_info>
				<attribute name="fused_names" version="0" value="Constant_425"/>
			</rt_info>
			<output>
				<port id="0" precision="I64">
					<dim>1</dim>
				</port>
			</output>
		</layer>
		<layer id="170" name="320" type="Unsqueeze" version="opset1">
			<rt_info>
				<attribute name="fused_names" version="0" value="320"/>
			</rt_info>
			<input>
				<port id="0" precision="FP32">
					<dim>96</dim>
					<dim>1</dim>
				</port>
				<port id="1" precision="I64">
					<dim>1</dim>
				</port>
			</input>
			<output>
				<port id="2" precision="FP32" names="320">
					<dim>96</dim>
					<dim>1</dim>
					<dim>1</dim>
				</port>
			</output>
		</layer>
		<layer id="171" name="321" type="Subtract" version="opset1">
			<data auto_broadcast="numpy"/>
			<rt_info>
				<attribute name="fused_names" version="0" value="321"/>
			</rt_info>
			<input>
				<port id="0" precision="FP32">
					<dim>1</dim>
					<dim>96</dim>
					<dim>368</dim>
					<dim>656</dim>
				</port>
				<port id="1" precision="FP32">
					<dim>96</dim>
					<dim>1</dim>
					<dim>1</dim>
				</port>
			</input>
			<output>
				<port id="2" precision="FP32" names="321">
					<dim>1</dim>
					<dim>96</dim>
					<dim>368</dim>
					<dim>656</dim>
				</port>
			</output>
		</layer>
		<layer id="172" name="322" type="Multiply" version="opset1">
			<data auto_broadcast="numpy"/>
			<rt_info>
				<attribute name="fused_names" version="0" value="322"/>
			</rt_info>
			<input>
				<port id="0" precision="FP32">
					<dim>1</dim>
					<dim>96</dim>
					<dim>1</dim>
					<dim>1</dim>
				</port>
				<port id="1" precision="FP32">
					<dim>1</dim>
					<dim>96</dim>
					<dim>368</dim>
					<dim>656</dim>
				</port>
			</input>
			<output>
				<port id="2" precision="FP32" names="322">
					<dim>1</dim>
					<dim>96</dim>
					<dim>368</dim>
					<dim>656</dim>
				</port>
			</output>
		</layer>
		<layer id="173" name="Constant_6376_compressed" type="Const" version="opset1">
			<data element_type="f16" shape="1, 1, 1" offset="8268" size="2"/>
			<output>
				<port id="0" precision="FP16">
					<dim>1</dim>
					<dim>1</dim>
					<dim>1</dim>
				</port>
			</output>
		</layer>
		<layer id="174" name="Constant_6376" type="Convert" version="opset1">
			<data destination_type="f32"/>
			<rt_info>
				<attribute name="decompression" version="0"/>
			</rt_info>
			<input>
				<port id="0" precision="FP16">
					<dim>1</dim>
					<dim>1</dim>
					<dim>1</dim>
				</port>
			</input>
			<output>
				<port id="1" precision="FP32">
					<dim>1</dim>
					<dim>1</dim>
					<dim>1</dim>
				</port>
			</output>
		</layer>
		<layer id="175" name="298" type="Multiply" version="opset1">
			<data auto_broadcast="numpy"/>
			<rt_info>
				<attribute name="fused_names" version="0" value="298"/>
			</rt_info>
			<input>
				<port id="0" precision="FP32">
					<dim>1</dim>
					<dim>96</dim>
					<dim>368</dim>
					<dim>656</dim>
				</port>
				<port id="1" precision="FP32">
					<dim>1</dim>
					<dim>96</dim>
					<dim>368</dim>
					<dim>656</dim>
				</port>
			</input>
			<output>
				<port id="2" precision="FP32" names="298">
					<dim>1</dim>
					<dim>96</dim>
					<dim>368</dim>
					<dim>656</dim>
				</port>
			</output>
		</layer>
		<layer id="176" name="Constant_403" type="Const" version="opset1">
			<data element_type="i64" shape="3" offset="8228" size="24"/>
			<rt_info>
				<attribute name="fused_names" version="0" value="Constant_403"/>
			</rt_info>
			<output>
				<port id="0" precision="I64">
					<dim>3</dim>
				</port>
			</output>
		</layer>
		<layer id="177" name="299" type="ReduceMean" version="opset1">
			<data keep_dims="false"/>
			<rt_info>
				<attribute name="fused_names" version="0" value="299"/>
			</rt_info>
			<input>
				<port id="0" precision="FP32">
					<dim>1</dim>
					<dim>96</dim>
					<dim>368</dim>
					<dim>656</dim>
				</port>
				<port id="1" precision="I64">
					<dim>3</dim>
				</port>
			</input>
			<output>
				<port id="2" precision="FP32" names="299">
					<dim>96</dim>
				</port>
			</output>
		</layer>
		<layer id="178" name="Constant_405" type="Const" version="opset1">
			<data element_type="i64" shape="3" offset="8228" size="24"/>
			<rt_info>
				<attribute name="fused_names" version="0" value="Constant_405"/>
			</rt_info>
			<output>
				<port id="0" precision="I64">
					<dim>3</dim>
				</port>
			</output>
		</layer>
		<layer id="179" name="300" type="ReduceMean" version="opset1">
			<data keep_dims="false"/>
			<rt_info>
				<attribute name="fused_names" version="0" value="300"/>
			</rt_info>
			<input>
				<port id="0" precision="FP32">
					<dim>1</dim>
					<dim>96</dim>
					<dim>368</dim>
					<dim>656</dim>
				</port>
				<port id="1" precision="I64">
					<dim>3</dim>
				</port>
			</input>
			<output>
				<port id="2" precision="FP32" names="300">
					<dim>96</dim>
				</port>
			</output>
		</layer>
		<layer id="180" name="301" type="Multiply" version="opset1">
			<data auto_broadcast="numpy"/>
			<rt_info>
				<attribute name="fused_names" version="0" value="301"/>
			</rt_info>
			<input>
				<port id="0" precision="FP32">
					<dim>96</dim>
				</port>
				<port id="1" precision="FP32">
					<dim>96</dim>
				</port>
			</input>
			<output>
				<port id="2" precision="FP32" names="301">
					<dim>96</dim>
				</port>
			</output>
		</layer>
		<layer id="181" name="302" type="Subtract" version="opset1">
			<data auto_broadcast="numpy"/>
			<rt_info>
				<attribute name="fused_names" version="0" value="302"/>
			</rt_info>
			<input>
				<port id="0" precision="FP32">
					<dim>96</dim>
				</port>
				<port id="1" precision="FP32">
					<dim>96</dim>
				</port>
			</input>
			<output>
				<port id="2" precision="FP32" names="302">
					<dim>96</dim>
				</port>
			</output>
		</layer>
		<layer id="182" name="303" type="Abs" version="opset1">
			<rt_info>
				<attribute name="fused_names" version="0" value="303"/>
			</rt_info>
			<input>
				<port id="0" precision="FP32">
					<dim>96</dim>
				</port>
			</input>
			<output>
				<port id="1" precision="FP32" names="303">
					<dim>96</dim>
				</port>
			</output>
		</layer>
		<layer id="183" name="304" type="Sqrt" version="opset1">
			<rt_info>
				<attribute name="fused_names" version="0" value="304"/>
			</rt_info>
			<input>
				<port id="0" precision="FP32">
					<dim>96</dim>
				</port>
			</input>
			<output>
				<port id="1" precision="FP32" names="304">
					<dim>96</dim>
				</port>
			</output>
		</layer>
		<layer id="184" name="Constant_6374_compressed" type="Const" version="opset1">
			<data element_type="f16" shape="1" offset="8270" size="2"/>
			<output>
				<port id="0" precision="FP16">
					<dim>1</dim>
				</port>
			</output>
		</layer>
		<layer id="185" name="Constant_6374" type="Convert" version="opset1">
			<data destination_type="f32"/>
			<rt_info>
				<attribute name="decompression" version="0"/>
			</rt_info>
			<input>
				<port id="0" precision="FP16">
					<dim>1</dim>
				</port>
			</input>
			<output>
				<port id="1" precision="FP32">
					<dim>1</dim>
				</port>
			</output>
		</layer>
		<layer id="186" name="307" type="Power" version="opset1">
			<data auto_broadcast="numpy"/>
			<rt_info>
				<attribute name="fused_names" version="0" value="307"/>
			</rt_info>
			<input>
				<port id="0" precision="FP32">
					<dim>96</dim>
				</port>
				<port id="1" precision="FP32">
					<dim>1</dim>
				</port>
			</input>
			<output>
				<port id="2" precision="FP32" names="307">
					<dim>96</dim>
				</port>
			</output>
		</layer>
		<layer id="187" name="Constant_412" type="Const" version="opset1">
			<data element_type="i64" shape="1" offset="8252" size="8"/>
			<rt_info>
				<attribute name="fused_names" version="0" value="Constant_412"/>
			</rt_info>
			<output>
				<port id="0" precision="I64">
					<dim>1</dim>
				</port>
			</output>
		</layer>
		<layer id="188" name="308" type="Unsqueeze" version="opset1">
			<rt_info>
				<attribute name="fused_names" version="0" value="308"/>
			</rt_info>
			<input>
				<port id="0" precision="FP32">
					<dim>96</dim>
				</port>
				<port id="1" precision="I64">
					<dim>1</dim>
				</port>
			</input>
			<output>
				<port id="2" precision="FP32" names="308">
					<dim>96</dim>
					<dim>1</dim>
				</port>
			</output>
		</layer>
		<layer id="189" name="Constant_414" type="Const" version="opset1">
			<data element_type="i64" shape="1" offset="8260" size="8"/>
			<rt_info>
				<attribute name="fused_names" version="0" value="Constant_414"/>
			</rt_info>
			<output>
				<port id="0" precision="I64">
					<dim>1</dim>
				</port>
			</output>
		</layer>
		<layer id="190" name="309" type="Unsqueeze" version="opset1">
			<rt_info>
				<attribute name="fused_names" version="0" value="309"/>
			</rt_info>
			<input>
				<port id="0" precision="FP32">
					<dim>96</dim>
					<dim>1</dim>
				</port>
				<port id="1" precision="I64">
					<dim>1</dim>
				</port>
			</input>
			<output>
				<port id="2" precision="FP32" names="309">
					<dim>96</dim>
					<dim>1</dim>
					<dim>1</dim>
				</port>
			</output>
		</layer>
		<layer id="191" name="Constant_6375_compressed" type="Const" version="opset1">
			<data element_type="f16" shape="1, 1, 1" offset="8272" size="2"/>
			<output>
				<port id="0" precision="FP16">
					<dim>1</dim>
					<dim>1</dim>
					<dim>1</dim>
				</port>
			</output>
		</layer>
		<layer id="192" name="Constant_6375" type="Convert" version="opset1">
			<data destination_type="f32"/>
			<rt_info>
				<attribute name="decompression" version="0"/>
			</rt_info>
			<input>
				<port id="0" precision="FP16">
					<dim>1</dim>
					<dim>1</dim>
					<dim>1</dim>
				</port>
			</input>
			<output>
				<port id="1" precision="FP32">
					<dim>1</dim>
					<dim>1</dim>
					<dim>1</dim>
				</port>
			</output>
		</layer>
		<layer id="193" name="311" type="Add" version="opset1">
			<data auto_broadcast="numpy"/>
			<rt_info>
				<attribute name="fused_names" version="0" value="311"/>
			</rt_info>
			<input>
				<port id="0" precision="FP32">
					<dim>96</dim>
					<dim>1</dim>
					<dim>1</dim>
				</port>
				<port id="1" precision="FP32">
					<dim>1</dim>
					<dim>1</dim>
					<dim>1</dim>
				</port>
			</input>
			<output>
				<port id="2" precision="FP32" names="311">
					<dim>96</dim>
					<dim>1</dim>
					<dim>1</dim>
				</port>
			</output>
		</layer>
		<layer id="194" name="312" type="Sqrt" version="opset1">
			<rt_info>
				<attribute name="fused_names" version="0" value="312"/>
			</rt_info>
			<input>
				<port id="0" precision="FP32">
					<dim>96</dim>
					<dim>1</dim>
					<dim>1</dim>
				</port>
			</input>
			<output>
				<port id="1" precision="FP32" names="312">
					<dim>96</dim>
					<dim>1</dim>
					<dim>1</dim>
				</port>
			</output>
		</layer>
		<layer id="195" name="314" type="Divide" version="opset1">
			<data auto_broadcast="numpy" m_pythondiv="true"/>
			<rt_info>
				<attribute name="fused_names" version="0" value="314, 316"/>
			</rt_info>
			<input>
				<port id="0" precision="FP32">
					<dim>1</dim>
					<dim>1</dim>
					<dim>1</dim>
				</port>
				<port id="1" precision="FP32">
					<dim>96</dim>
					<dim>1</dim>
					<dim>1</dim>
				</port>
			</input>
			<output>
				<port id="2" precision="FP32" names="314,316">
					<dim>96</dim>
					<dim>1</dim>
					<dim>1</dim>
				</port>
			</output>
		</layer>
		<layer id="196" name="323" type="Multiply" version="opset1">
			<data auto_broadcast="numpy"/>
			<rt_info>
				<attribute name="fused_names" version="0" value="323"/>
			</rt_info>
			<input>
				<port id="0" precision="FP32">
					<dim>1</dim>
					<dim>96</dim>
					<dim>368</dim>
					<dim>656</dim>
				</port>
				<port id="1" precision="FP32">
					<dim>96</dim>
					<dim>1</dim>
					<dim>1</dim>
				</port>
			</input>
			<output>
				<port id="2" precision="FP32" names="323">
					<dim>1</dim>
					<dim>96</dim>
					<dim>368</dim>
					<dim>656</dim>
				</port>
			</output>
		</layer>
		<layer id="197" name="Constant_6377_compressed" type="Const" version="opset1">
			<data element_type="f16" shape="1, 96, 1, 1" offset="13106" size="192"/>
			<output>
				<port id="0" precision="FP16">
					<dim>1</dim>
					<dim>96</dim>
					<dim>1</dim>
					<dim>1</dim>
				</port>
			</output>
		</layer>
		<layer id="198" name="Constant_6377" type="Convert" version="opset1">
			<data destination_type="f32"/>
			<rt_info>
				<attribute name="decompression" version="0"/>
			</rt_info>
			<input>
				<port id="0" precision="FP16">
					<dim>1</dim>
					<dim>96</dim>
					<dim>1</dim>
					<dim>1</dim>
				</port>
			</input>
			<output>
				<port id="1" precision="FP32">
					<dim>1</dim>
					<dim>96</dim>
					<dim>1</dim>
					<dim>1</dim>
				</port>
			</output>
		</layer>
		<layer id="199" name="326" type="Add" version="opset1">
			<data auto_broadcast="numpy"/>
			<rt_info>
				<attribute name="fused_names" version="0" value="326"/>
			</rt_info>
			<input>
				<port id="0" precision="FP32">
					<dim>1</dim>
					<dim>96</dim>
					<dim>368</dim>
					<dim>656</dim>
				</port>
				<port id="1" precision="FP32">
					<dim>1</dim>
					<dim>96</dim>
					<dim>1</dim>
					<dim>1</dim>
				</port>
			</input>
			<output>
				<port id="2" precision="FP32" names="326">
					<dim>1</dim>
					<dim>96</dim>
					<dim>368</dim>
					<dim>656</dim>
				</port>
			</output>
		</layer>
		<layer id="200" name="329" type="Clamp" version="opset1">
			<data min="0" max="6"/>
			<rt_info>
				<attribute name="fused_names" version="0" value="329, Maximum_433"/>
			</rt_info>
			<input>
				<port id="0" precision="FP32">
					<dim>1</dim>
					<dim>96</dim>
					<dim>368</dim>
					<dim>656</dim>
				</port>
			</input>
			<output>
				<port id="1" precision="FP32" names="329">
					<dim>1</dim>
					<dim>96</dim>
					<dim>368</dim>
					<dim>656</dim>
				</port>
			</output>
		</layer>
		<layer id="201" name="Reshape_443_compressed" type="Const" version="opset1">
			<data element_type="f16" shape="96, 1, 1, 3, 3" offset="13298" size="1728"/>
			<output>
				<port id="0" precision="FP16">
					<dim>96</dim>
					<dim>1</dim>
					<dim>1</dim>
					<dim>3</dim>
					<dim>3</dim>
				</port>
			</output>
		</layer>
		<layer id="202" name="Reshape_443" type="Convert" version="opset1">
			<data destination_type="f32"/>
			<rt_info>
				<attribute name="decompression" version="0"/>
			</rt_info>
			<input>
				<port id="0" precision="FP16">
					<dim>96</dim>
					<dim>1</dim>
					<dim>1</dim>
					<dim>3</dim>
					<dim>3</dim>
				</port>
			</input>
			<output>
				<port id="1" precision="FP32">
					<dim>96</dim>
					<dim>1</dim>
					<dim>1</dim>
					<dim>3</dim>
					<dim>3</dim>
				</port>
			</output>
		</layer>
		<layer id="203" name="330" type="GroupConvolution" version="opset1">
			<data strides="2, 2" pads_begin="1, 1" pads_end="1, 1" dilations="1, 1" auto_pad="explicit"/>
			<rt_info>
				<attribute name="fused_names" version="0" value="330, Reshape_443"/>
			</rt_info>
			<input>
				<port id="0" precision="FP32">
					<dim>1</dim>
					<dim>96</dim>
					<dim>368</dim>
					<dim>656</dim>
				</port>
				<port id="1" precision="FP32">
					<dim>96</dim>
					<dim>1</dim>
					<dim>1</dim>
					<dim>3</dim>
					<dim>3</dim>
				</port>
			</input>
			<output>
				<port id="2" precision="FP32" names="330">
					<dim>1</dim>
					<dim>96</dim>
					<dim>184</dim>
					<dim>328</dim>
				</port>
			</output>
		</layer>
		<layer id="204" name="Constant_510" type="Const" version="opset1">
			<data element_type="i64" shape="3" offset="8228" size="24"/>
			<rt_info>
				<attribute name="fused_names" version="0" value="Constant_510"/>
			</rt_info>
			<output>
				<port id="0" precision="I64">
					<dim>3</dim>
				</port>
			</output>
		</layer>
		<layer id="205" name="331" type="ReduceMean" version="opset1">
			<data keep_dims="false"/>
			<rt_info>
				<attribute name="fused_names" version="0" value="331"/>
			</rt_info>
			<input>
				<port id="0" precision="FP32">
					<dim>1</dim>
					<dim>96</dim>
					<dim>184</dim>
					<dim>328</dim>
				</port>
				<port id="1" precision="I64">
					<dim>3</dim>
				</port>
			</input>
			<output>
				<port id="2" precision="FP32" names="331">
					<dim>96</dim>
				</port>
			</output>
		</layer>
		<layer id="206" name="Constant_533" type="Const" version="opset1">
			<data element_type="i64" shape="1" offset="8252" size="8"/>
			<rt_info>
				<attribute name="fused_names" version="0" value="Constant_533"/>
			</rt_info>
			<output>
				<port id="0" precision="I64">
					<dim>1</dim>
				</port>
			</output>
		</layer>
		<layer id="207" name="353" type="Unsqueeze" version="opset1">
			<rt_info>
				<attribute name="fused_names" version="0" value="353"/>
			</rt_info>
			<input>
				<port id="0" precision="FP32">
					<dim>96</dim>
				</port>
				<port id="1" precision="I64">
					<dim>1</dim>
				</port>
			</input>
			<output>
				<port id="2" precision="FP32" names="353">
					<dim>96</dim>
					<dim>1</dim>
				</port>
			</output>
		</layer>
		<layer id="208" name="Constant_535" type="Const" version="opset1">
			<data element_type="i64" shape="1" offset="8260" size="8"/>
			<rt_info>
				<attribute name="fused_names" version="0" value="Constant_535"/>
			</rt_info>
			<output>
				<port id="0" precision="I64">
					<dim>1</dim>
				</port>
			</output>
		</layer>
		<layer id="209" name="354" type="Unsqueeze" version="opset1">
			<rt_info>
				<attribute name="fused_names" version="0" value="354"/>
			</rt_info>
			<input>
				<port id="0" precision="FP32">
					<dim>96</dim>
					<dim>1</dim>
				</port>
				<port id="1" precision="I64">
					<dim>1</dim>
				</port>
			</input>
			<output>
				<port id="2" precision="FP32" names="354">
					<dim>96</dim>
					<dim>1</dim>
					<dim>1</dim>
				</port>
			</output>
		</layer>
		<layer id="210" name="355" type="Subtract" version="opset1">
			<data auto_broadcast="numpy"/>
			<rt_info>
				<attribute name="fused_names" version="0" value="355"/>
			</rt_info>
			<input>
				<port id="0" precision="FP32">
					<dim>1</dim>
					<dim>96</dim>
					<dim>184</dim>
					<dim>328</dim>
				</port>
				<port id="1" precision="FP32">
					<dim>96</dim>
					<dim>1</dim>
					<dim>1</dim>
				</port>
			</input>
			<output>
				<port id="2" precision="FP32" names="355">
					<dim>1</dim>
					<dim>96</dim>
					<dim>184</dim>
					<dim>328</dim>
				</port>
			</output>
		</layer>
		<layer id="211" name="356" type="Multiply" version="opset1">
			<data auto_broadcast="numpy"/>
			<rt_info>
				<attribute name="fused_names" version="0" value="356"/>
			</rt_info>
			<input>
				<port id="0" precision="FP32">
					<dim>1</dim>
					<dim>96</dim>
					<dim>1</dim>
					<dim>1</dim>
				</port>
				<port id="1" precision="FP32">
					<dim>1</dim>
					<dim>96</dim>
					<dim>184</dim>
					<dim>328</dim>
				</port>
			</input>
			<output>
				<port id="2" precision="FP32" names="356">
					<dim>1</dim>
					<dim>96</dim>
					<dim>184</dim>
					<dim>328</dim>
				</port>
			</output>
		</layer>
		<layer id="212" name="Constant_6381_compressed" type="Const" version="opset1">
			<data element_type="f16" shape="1, 1, 1" offset="8268" size="2"/>
			<output>
				<port id="0" precision="FP16">
					<dim>1</dim>
					<dim>1</dim>
					<dim>1</dim>
				</port>
			</output>
		</layer>
		<layer id="213" name="Constant_6381" type="Convert" version="opset1">
			<data destination_type="f32"/>
			<rt_info>
				<attribute name="decompression" version="0"/>
			</rt_info>
			<input>
				<port id="0" precision="FP16">
					<dim>1</dim>
					<dim>1</dim>
					<dim>1</dim>
				</port>
			</input>
			<output>
				<port id="1" precision="FP32">
					<dim>1</dim>
					<dim>1</dim>
					<dim>1</dim>
				</port>
			</output>
		</layer>
		<layer id="214" name="332" type="Multiply" version="opset1">
			<data auto_broadcast="numpy"/>
			<rt_info>
				<attribute name="fused_names" version="0" value="332"/>
			</rt_info>
			<input>
				<port id="0" precision="FP32">
					<dim>1</dim>
					<dim>96</dim>
					<dim>184</dim>
					<dim>328</dim>
				</port>
				<port id="1" precision="FP32">
					<dim>1</dim>
					<dim>96</dim>
					<dim>184</dim>
					<dim>328</dim>
				</port>
			</input>
			<output>
				<port id="2" precision="FP32" names="332">
					<dim>1</dim>
					<dim>96</dim>
					<dim>184</dim>
					<dim>328</dim>
				</port>
			</output>
		</layer>
		<layer id="215" name="Constant_513" type="Const" version="opset1">
			<data element_type="i64" shape="3" offset="8228" size="24"/>
			<rt_info>
				<attribute name="fused_names" version="0" value="Constant_513"/>
			</rt_info>
			<output>
				<port id="0" precision="I64">
					<dim>3</dim>
				</port>
			</output>
		</layer>
		<layer id="216" name="333" type="ReduceMean" version="opset1">
			<data keep_dims="false"/>
			<rt_info>
				<attribute name="fused_names" version="0" value="333"/>
			</rt_info>
			<input>
				<port id="0" precision="FP32">
					<dim>1</dim>
					<dim>96</dim>
					<dim>184</dim>
					<dim>328</dim>
				</port>
				<port id="1" precision="I64">
					<dim>3</dim>
				</port>
			</input>
			<output>
				<port id="2" precision="FP32" names="333">
					<dim>96</dim>
				</port>
			</output>
		</layer>
		<layer id="217" name="Constant_515" type="Const" version="opset1">
			<data element_type="i64" shape="3" offset="8228" size="24"/>
			<rt_info>
				<attribute name="fused_names" version="0" value="Constant_515"/>
			</rt_info>
			<output>
				<port id="0" precision="I64">
					<dim>3</dim>
				</port>
			</output>
		</layer>
		<layer id="218" name="334" type="ReduceMean" version="opset1">
			<data keep_dims="false"/>
			<rt_info>
				<attribute name="fused_names" version="0" value="334"/>
			</rt_info>
			<input>
				<port id="0" precision="FP32">
					<dim>1</dim>
					<dim>96</dim>
					<dim>184</dim>
					<dim>328</dim>
				</port>
				<port id="1" precision="I64">
					<dim>3</dim>
				</port>
			</input>
			<output>
				<port id="2" precision="FP32" names="334">
					<dim>96</dim>
				</port>
			</output>
		</layer>
		<layer id="219" name="335" type="Multiply" version="opset1">
			<data auto_broadcast="numpy"/>
			<rt_info>
				<attribute name="fused_names" version="0" value="335"/>
			</rt_info>
			<input>
				<port id="0" precision="FP32">
					<dim>96</dim>
				</port>
				<port id="1" precision="FP32">
					<dim>96</dim>
				</port>
			</input>
			<output>
				<port id="2" precision="FP32" names="335">
					<dim>96</dim>
				</port>
			</output>
		</layer>
		<layer id="220" name="336" type="Subtract" version="opset1">
			<data auto_broadcast="numpy"/>
			<rt_info>
				<attribute name="fused_names" version="0" value="336"/>
			</rt_info>
			<input>
				<port id="0" precision="FP32">
					<dim>96</dim>
				</port>
				<port id="1" precision="FP32">
					<dim>96</dim>
				</port>
			</input>
			<output>
				<port id="2" precision="FP32" names="336">
					<dim>96</dim>
				</port>
			</output>
		</layer>
		<layer id="221" name="337" type="Abs" version="opset1">
			<rt_info>
				<attribute name="fused_names" version="0" value="337"/>
			</rt_info>
			<input>
				<port id="0" precision="FP32">
					<dim>96</dim>
				</port>
			</input>
			<output>
				<port id="1" precision="FP32" names="337">
					<dim>96</dim>
				</port>
			</output>
		</layer>
		<layer id="222" name="338" type="Sqrt" version="opset1">
			<rt_info>
				<attribute name="fused_names" version="0" value="338"/>
			</rt_info>
			<input>
				<port id="0" precision="FP32">
					<dim>96</dim>
				</port>
			</input>
			<output>
				<port id="1" precision="FP32" names="338">
					<dim>96</dim>
				</port>
			</output>
		</layer>
		<layer id="223" name="Constant_6379_compressed" type="Const" version="opset1">
			<data element_type="f16" shape="1" offset="8270" size="2"/>
			<output>
				<port id="0" precision="FP16">
					<dim>1</dim>
				</port>
			</output>
		</layer>
		<layer id="224" name="Constant_6379" type="Convert" version="opset1">
			<data destination_type="f32"/>
			<rt_info>
				<attribute name="decompression" version="0"/>
			</rt_info>
			<input>
				<port id="0" precision="FP16">
					<dim>1</dim>
				</port>
			</input>
			<output>
				<port id="1" precision="FP32">
					<dim>1</dim>
				</port>
			</output>
		</layer>
		<layer id="225" name="341" type="Power" version="opset1">
			<data auto_broadcast="numpy"/>
			<rt_info>
				<attribute name="fused_names" version="0" value="341"/>
			</rt_info>
			<input>
				<port id="0" precision="FP32">
					<dim>96</dim>
				</port>
				<port id="1" precision="FP32">
					<dim>1</dim>
				</port>
			</input>
			<output>
				<port id="2" precision="FP32" names="341">
					<dim>96</dim>
				</port>
			</output>
		</layer>
		<layer id="226" name="Constant_522" type="Const" version="opset1">
			<data element_type="i64" shape="1" offset="8252" size="8"/>
			<rt_info>
				<attribute name="fused_names" version="0" value="Constant_522"/>
			</rt_info>
			<output>
				<port id="0" precision="I64">
					<dim>1</dim>
				</port>
			</output>
		</layer>
		<layer id="227" name="342" type="Unsqueeze" version="opset1">
			<rt_info>
				<attribute name="fused_names" version="0" value="342"/>
			</rt_info>
			<input>
				<port id="0" precision="FP32">
					<dim>96</dim>
				</port>
				<port id="1" precision="I64">
					<dim>1</dim>
				</port>
			</input>
			<output>
				<port id="2" precision="FP32" names="342">
					<dim>96</dim>
					<dim>1</dim>
				</port>
			</output>
		</layer>
		<layer id="228" name="Constant_524" type="Const" version="opset1">
			<data element_type="i64" shape="1" offset="8260" size="8"/>
			<rt_info>
				<attribute name="fused_names" version="0" value="Constant_524"/>
			</rt_info>
			<output>
				<port id="0" precision="I64">
					<dim>1</dim>
				</port>
			</output>
		</layer>
		<layer id="229" name="343" type="Unsqueeze" version="opset1">
			<rt_info>
				<attribute name="fused_names" version="0" value="343"/>
			</rt_info>
			<input>
				<port id="0" precision="FP32">
					<dim>96</dim>
					<dim>1</dim>
				</port>
				<port id="1" precision="I64">
					<dim>1</dim>
				</port>
			</input>
			<output>
				<port id="2" precision="FP32" names="343">
					<dim>96</dim>
					<dim>1</dim>
					<dim>1</dim>
				</port>
			</output>
		</layer>
		<layer id="230" name="Constant_6380_compressed" type="Const" version="opset1">
			<data element_type="f16" shape="1, 1, 1" offset="8272" size="2"/>
			<output>
				<port id="0" precision="FP16">
					<dim>1</dim>
					<dim>1</dim>
					<dim>1</dim>
				</port>
			</output>
		</layer>
		<layer id="231" name="Constant_6380" type="Convert" version="opset1">
			<data destination_type="f32"/>
			<rt_info>
				<attribute name="decompression" version="0"/>
			</rt_info>
			<input>
				<port id="0" precision="FP16">
					<dim>1</dim>
					<dim>1</dim>
					<dim>1</dim>
				</port>
			</input>
			<output>
				<port id="1" precision="FP32">
					<dim>1</dim>
					<dim>1</dim>
					<dim>1</dim>
				</port>
			</output>
		</layer>
		<layer id="232" name="345" type="Add" version="opset1">
			<data auto_broadcast="numpy"/>
			<rt_info>
				<attribute name="fused_names" version="0" value="345"/>
			</rt_info>
			<input>
				<port id="0" precision="FP32">
					<dim>96</dim>
					<dim>1</dim>
					<dim>1</dim>
				</port>
				<port id="1" precision="FP32">
					<dim>1</dim>
					<dim>1</dim>
					<dim>1</dim>
				</port>
			</input>
			<output>
				<port id="2" precision="FP32" names="345">
					<dim>96</dim>
					<dim>1</dim>
					<dim>1</dim>
				</port>
			</output>
		</layer>
		<layer id="233" name="346" type="Sqrt" version="opset1">
			<rt_info>
				<attribute name="fused_names" version="0" value="346"/>
			</rt_info>
			<input>
				<port id="0" precision="FP32">
					<dim>96</dim>
					<dim>1</dim>
					<dim>1</dim>
				</port>
			</input>
			<output>
				<port id="1" precision="FP32" names="346">
					<dim>96</dim>
					<dim>1</dim>
					<dim>1</dim>
				</port>
			</output>
		</layer>
		<layer id="234" name="348" type="Divide" version="opset1">
			<data auto_broadcast="numpy" m_pythondiv="true"/>
			<rt_info>
				<attribute name="fused_names" version="0" value="348, 350"/>
			</rt_info>
			<input>
				<port id="0" precision="FP32">
					<dim>1</dim>
					<dim>1</dim>
					<dim>1</dim>
				</port>
				<port id="1" precision="FP32">
					<dim>96</dim>
					<dim>1</dim>
					<dim>1</dim>
				</port>
			</input>
			<output>
				<port id="2" precision="FP32" names="348,350">
					<dim>96</dim>
					<dim>1</dim>
					<dim>1</dim>
				</port>
			</output>
		</layer>
		<layer id="235" name="357" type="Multiply" version="opset1">
			<data auto_broadcast="numpy"/>
			<rt_info>
				<attribute name="fused_names" version="0" value="357"/>
			</rt_info>
			<input>
				<port id="0" precision="FP32">
					<dim>1</dim>
					<dim>96</dim>
					<dim>184</dim>
					<dim>328</dim>
				</port>
				<port id="1" precision="FP32">
					<dim>96</dim>
					<dim>1</dim>
					<dim>1</dim>
				</port>
			</input>
			<output>
				<port id="2" precision="FP32" names="357">
					<dim>1</dim>
					<dim>96</dim>
					<dim>184</dim>
					<dim>328</dim>
				</port>
			</output>
		</layer>
		<layer id="236" name="Constant_6382_compressed" type="Const" version="opset1">
			<data element_type="f16" shape="1, 96, 1, 1" offset="15026" size="192"/>
			<output>
				<port id="0" precision="FP16">
					<dim>1</dim>
					<dim>96</dim>
					<dim>1</dim>
					<dim>1</dim>
				</port>
			</output>
		</layer>
		<layer id="237" name="Constant_6382" type="Convert" version="opset1">
			<data destination_type="f32"/>
			<rt_info>
				<attribute name="decompression" version="0"/>
			</rt_info>
			<input>
				<port id="0" precision="FP16">
					<dim>1</dim>
					<dim>96</dim>
					<dim>1</dim>
					<dim>1</dim>
				</port>
			</input>
			<output>
				<port id="1" precision="FP32">
					<dim>1</dim>
					<dim>96</dim>
					<dim>1</dim>
					<dim>1</dim>
				</port>
			</output>
		</layer>
		<layer id="238" name="360" type="Add" version="opset1">
			<data auto_broadcast="numpy"/>
			<rt_info>
				<attribute name="fused_names" version="0" value="360"/>
			</rt_info>
			<input>
				<port id="0" precision="FP32">
					<dim>1</dim>
					<dim>96</dim>
					<dim>184</dim>
					<dim>328</dim>
				</port>
				<port id="1" precision="FP32">
					<dim>1</dim>
					<dim>96</dim>
					<dim>1</dim>
					<dim>1</dim>
				</port>
			</input>
			<output>
				<port id="2" precision="FP32" names="360">
					<dim>1</dim>
					<dim>96</dim>
					<dim>184</dim>
					<dim>328</dim>
				</port>
			</output>
		</layer>
		<layer id="239" name="363" type="Clamp" version="opset1">
			<data min="0" max="6"/>
			<rt_info>
				<attribute name="fused_names" version="0" value="363, Maximum_543"/>
			</rt_info>
			<input>
				<port id="0" precision="FP32">
					<dim>1</dim>
					<dim>96</dim>
					<dim>184</dim>
					<dim>328</dim>
				</port>
			</input>
			<output>
				<port id="1" precision="FP32" names="363">
					<dim>1</dim>
					<dim>96</dim>
					<dim>184</dim>
					<dim>328</dim>
				</port>
			</output>
		</layer>
		<layer id="240" name="impl.module.fpn.features.2.conv.6.weight_compressed" type="Const" version="opset1">
			<data element_type="f16" shape="24, 96, 1, 1" offset="15218" size="4608"/>
			<output>
				<port id="0" precision="FP16">
					<dim>24</dim>
					<dim>96</dim>
					<dim>1</dim>
					<dim>1</dim>
				</port>
			</output>
		</layer>
		<layer id="241" name="impl.module.fpn.features.2.conv.6.weight" type="Convert" version="opset1">
			<data destination_type="f32"/>
			<rt_info>
				<attribute name="decompression" version="0"/>
				<attribute name="fused_names" version="0" value="impl.module.fpn.features.2.conv.6.weight"/>
			</rt_info>
			<input>
				<port id="0" precision="FP16">
					<dim>24</dim>
					<dim>96</dim>
					<dim>1</dim>
					<dim>1</dim>
				</port>
			</input>
			<output>
				<port id="1" precision="FP32" names="impl.module.fpn.features.2.conv.6.weight">
					<dim>24</dim>
					<dim>96</dim>
					<dim>1</dim>
					<dim>1</dim>
				</port>
			</output>
		</layer>
		<layer id="242" name="364" type="Convolution" version="opset1">
			<data strides="1, 1" dilations="1, 1" pads_begin="0, 0" pads_end="0, 0" auto_pad="explicit"/>
			<rt_info>
				<attribute name="fused_names" version="0" value="364"/>
			</rt_info>
			<input>
				<port id="0" precision="FP32">
					<dim>1</dim>
					<dim>96</dim>
					<dim>184</dim>
					<dim>328</dim>
				</port>
				<port id="1" precision="FP32">
					<dim>24</dim>
					<dim>96</dim>
					<dim>1</dim>
					<dim>1</dim>
				</port>
			</input>
			<output>
				<port id="2" precision="FP32" names="364">
					<dim>1</dim>
					<dim>24</dim>
					<dim>184</dim>
					<dim>328</dim>
				</port>
			</output>
		</layer>
		<layer id="243" name="Constant_547" type="Const" version="opset1">
			<data element_type="i64" shape="3" offset="8228" size="24"/>
			<rt_info>
				<attribute name="fused_names" version="0" value="Constant_547"/>
			</rt_info>
			<output>
				<port id="0" precision="I64">
					<dim>3</dim>
				</port>
			</output>
		</layer>
		<layer id="244" name="365" type="ReduceMean" version="opset1">
			<data keep_dims="false"/>
			<rt_info>
				<attribute name="fused_names" version="0" value="365"/>
			</rt_info>
			<input>
				<port id="0" precision="FP32">
					<dim>1</dim>
					<dim>24</dim>
					<dim>184</dim>
					<dim>328</dim>
				</port>
				<port id="1" precision="I64">
					<dim>3</dim>
				</port>
			</input>
			<output>
				<port id="2" precision="FP32" names="365">
					<dim>24</dim>
				</port>
			</output>
		</layer>
		<layer id="245" name="Constant_570" type="Const" version="opset1">
			<data element_type="i64" shape="1" offset="8252" size="8"/>
			<rt_info>
				<attribute name="fused_names" version="0" value="Constant_570"/>
			</rt_info>
			<output>
				<port id="0" precision="I64">
					<dim>1</dim>
				</port>
			</output>
		</layer>
		<layer id="246" name="387" type="Unsqueeze" version="opset1">
			<rt_info>
				<attribute name="fused_names" version="0" value="387"/>
			</rt_info>
			<input>
				<port id="0" precision="FP32">
					<dim>24</dim>
				</port>
				<port id="1" precision="I64">
					<dim>1</dim>
				</port>
			</input>
			<output>
				<port id="2" precision="FP32" names="387">
					<dim>24</dim>
					<dim>1</dim>
				</port>
			</output>
		</layer>
		<layer id="247" name="Constant_572" type="Const" version="opset1">
			<data element_type="i64" shape="1" offset="8260" size="8"/>
			<rt_info>
				<attribute name="fused_names" version="0" value="Constant_572"/>
			</rt_info>
			<output>
				<port id="0" precision="I64">
					<dim>1</dim>
				</port>
			</output>
		</layer>
		<layer id="248" name="388" type="Unsqueeze" version="opset1">
			<rt_info>
				<attribute name="fused_names" version="0" value="388"/>
			</rt_info>
			<input>
				<port id="0" precision="FP32">
					<dim>24</dim>
					<dim>1</dim>
				</port>
				<port id="1" precision="I64">
					<dim>1</dim>
				</port>
			</input>
			<output>
				<port id="2" precision="FP32" names="388">
					<dim>24</dim>
					<dim>1</dim>
					<dim>1</dim>
				</port>
			</output>
		</layer>
		<layer id="249" name="389" type="Subtract" version="opset1">
			<data auto_broadcast="numpy"/>
			<rt_info>
				<attribute name="fused_names" version="0" value="389"/>
			</rt_info>
			<input>
				<port id="0" precision="FP32">
					<dim>1</dim>
					<dim>24</dim>
					<dim>184</dim>
					<dim>328</dim>
				</port>
				<port id="1" precision="FP32">
					<dim>24</dim>
					<dim>1</dim>
					<dim>1</dim>
				</port>
			</input>
			<output>
				<port id="2" precision="FP32" names="389">
					<dim>1</dim>
					<dim>24</dim>
					<dim>184</dim>
					<dim>328</dim>
				</port>
			</output>
		</layer>
		<layer id="250" name="390" type="Multiply" version="opset1">
			<data auto_broadcast="numpy"/>
			<rt_info>
				<attribute name="fused_names" version="0" value="390"/>
			</rt_info>
			<input>
				<port id="0" precision="FP32">
					<dim>1</dim>
					<dim>24</dim>
					<dim>1</dim>
					<dim>1</dim>
				</port>
				<port id="1" precision="FP32">
					<dim>1</dim>
					<dim>24</dim>
					<dim>184</dim>
					<dim>328</dim>
				</port>
			</input>
			<output>
				<port id="2" precision="FP32" names="390">
					<dim>1</dim>
					<dim>24</dim>
					<dim>184</dim>
					<dim>328</dim>
				</port>
			</output>
		</layer>
		<layer id="251" name="Constant_6386_compressed" type="Const" version="opset1">
			<data element_type="f16" shape="1, 1, 1" offset="8268" size="2"/>
			<output>
				<port id="0" precision="FP16">
					<dim>1</dim>
					<dim>1</dim>
					<dim>1</dim>
				</port>
			</output>
		</layer>
		<layer id="252" name="Constant_6386" type="Convert" version="opset1">
			<data destination_type="f32"/>
			<rt_info>
				<attribute name="decompression" version="0"/>
			</rt_info>
			<input>
				<port id="0" precision="FP16">
					<dim>1</dim>
					<dim>1</dim>
					<dim>1</dim>
				</port>
			</input>
			<output>
				<port id="1" precision="FP32">
					<dim>1</dim>
					<dim>1</dim>
					<dim>1</dim>
				</port>
			</output>
		</layer>
		<layer id="253" name="366" type="Multiply" version="opset1">
			<data auto_broadcast="numpy"/>
			<rt_info>
				<attribute name="fused_names" version="0" value="366"/>
			</rt_info>
			<input>
				<port id="0" precision="FP32">
					<dim>1</dim>
					<dim>24</dim>
					<dim>184</dim>
					<dim>328</dim>
				</port>
				<port id="1" precision="FP32">
					<dim>1</dim>
					<dim>24</dim>
					<dim>184</dim>
					<dim>328</dim>
				</port>
			</input>
			<output>
				<port id="2" precision="FP32" names="366">
					<dim>1</dim>
					<dim>24</dim>
					<dim>184</dim>
					<dim>328</dim>
				</port>
			</output>
		</layer>
		<layer id="254" name="Constant_550" type="Const" version="opset1">
			<data element_type="i64" shape="3" offset="8228" size="24"/>
			<rt_info>
				<attribute name="fused_names" version="0" value="Constant_550"/>
			</rt_info>
			<output>
				<port id="0" precision="I64">
					<dim>3</dim>
				</port>
			</output>
		</layer>
		<layer id="255" name="367" type="ReduceMean" version="opset1">
			<data keep_dims="false"/>
			<rt_info>
				<attribute name="fused_names" version="0" value="367"/>
			</rt_info>
			<input>
				<port id="0" precision="FP32">
					<dim>1</dim>
					<dim>24</dim>
					<dim>184</dim>
					<dim>328</dim>
				</port>
				<port id="1" precision="I64">
					<dim>3</dim>
				</port>
			</input>
			<output>
				<port id="2" precision="FP32" names="367">
					<dim>24</dim>
				</port>
			</output>
		</layer>
		<layer id="256" name="Constant_552" type="Const" version="opset1">
			<data element_type="i64" shape="3" offset="8228" size="24"/>
			<rt_info>
				<attribute name="fused_names" version="0" value="Constant_552"/>
			</rt_info>
			<output>
				<port id="0" precision="I64">
					<dim>3</dim>
				</port>
			</output>
		</layer>
		<layer id="257" name="368" type="ReduceMean" version="opset1">
			<data keep_dims="false"/>
			<rt_info>
				<attribute name="fused_names" version="0" value="368"/>
			</rt_info>
			<input>
				<port id="0" precision="FP32">
					<dim>1</dim>
					<dim>24</dim>
					<dim>184</dim>
					<dim>328</dim>
				</port>
				<port id="1" precision="I64">
					<dim>3</dim>
				</port>
			</input>
			<output>
				<port id="2" precision="FP32" names="368">
					<dim>24</dim>
				</port>
			</output>
		</layer>
		<layer id="258" name="369" type="Multiply" version="opset1">
			<data auto_broadcast="numpy"/>
			<rt_info>
				<attribute name="fused_names" version="0" value="369"/>
			</rt_info>
			<input>
				<port id="0" precision="FP32">
					<dim>24</dim>
				</port>
				<port id="1" precision="FP32">
					<dim>24</dim>
				</port>
			</input>
			<output>
				<port id="2" precision="FP32" names="369">
					<dim>24</dim>
				</port>
			</output>
		</layer>
		<layer id="259" name="370" type="Subtract" version="opset1">
			<data auto_broadcast="numpy"/>
			<rt_info>
				<attribute name="fused_names" version="0" value="370"/>
			</rt_info>
			<input>
				<port id="0" precision="FP32">
					<dim>24</dim>
				</port>
				<port id="1" precision="FP32">
					<dim>24</dim>
				</port>
			</input>
			<output>
				<port id="2" precision="FP32" names="370">
					<dim>24</dim>
				</port>
			</output>
		</layer>
		<layer id="260" name="371" type="Abs" version="opset1">
			<rt_info>
				<attribute name="fused_names" version="0" value="371"/>
			</rt_info>
			<input>
				<port id="0" precision="FP32">
					<dim>24</dim>
				</port>
			</input>
			<output>
				<port id="1" precision="FP32" names="371">
					<dim>24</dim>
				</port>
			</output>
		</layer>
		<layer id="261" name="372" type="Sqrt" version="opset1">
			<rt_info>
				<attribute name="fused_names" version="0" value="372"/>
			</rt_info>
			<input>
				<port id="0" precision="FP32">
					<dim>24</dim>
				</port>
			</input>
			<output>
				<port id="1" precision="FP32" names="372">
					<dim>24</dim>
				</port>
			</output>
		</layer>
		<layer id="262" name="Constant_6384_compressed" type="Const" version="opset1">
			<data element_type="f16" shape="1" offset="8270" size="2"/>
			<output>
				<port id="0" precision="FP16">
					<dim>1</dim>
				</port>
			</output>
		</layer>
		<layer id="263" name="Constant_6384" type="Convert" version="opset1">
			<data destination_type="f32"/>
			<rt_info>
				<attribute name="decompression" version="0"/>
			</rt_info>
			<input>
				<port id="0" precision="FP16">
					<dim>1</dim>
				</port>
			</input>
			<output>
				<port id="1" precision="FP32">
					<dim>1</dim>
				</port>
			</output>
		</layer>
		<layer id="264" name="375" type="Power" version="opset1">
			<data auto_broadcast="numpy"/>
			<rt_info>
				<attribute name="fused_names" version="0" value="375"/>
			</rt_info>
			<input>
				<port id="0" precision="FP32">
					<dim>24</dim>
				</port>
				<port id="1" precision="FP32">
					<dim>1</dim>
				</port>
			</input>
			<output>
				<port id="2" precision="FP32" names="375">
					<dim>24</dim>
				</port>
			</output>
		</layer>
		<layer id="265" name="Constant_559" type="Const" version="opset1">
			<data element_type="i64" shape="1" offset="8252" size="8"/>
			<rt_info>
				<attribute name="fused_names" version="0" value="Constant_559"/>
			</rt_info>
			<output>
				<port id="0" precision="I64">
					<dim>1</dim>
				</port>
			</output>
		</layer>
		<layer id="266" name="376" type="Unsqueeze" version="opset1">
			<rt_info>
				<attribute name="fused_names" version="0" value="376"/>
			</rt_info>
			<input>
				<port id="0" precision="FP32">
					<dim>24</dim>
				</port>
				<port id="1" precision="I64">
					<dim>1</dim>
				</port>
			</input>
			<output>
				<port id="2" precision="FP32" names="376">
					<dim>24</dim>
					<dim>1</dim>
				</port>
			</output>
		</layer>
		<layer id="267" name="Constant_561" type="Const" version="opset1">
			<data element_type="i64" shape="1" offset="8260" size="8"/>
			<rt_info>
				<attribute name="fused_names" version="0" value="Constant_561"/>
			</rt_info>
			<output>
				<port id="0" precision="I64">
					<dim>1</dim>
				</port>
			</output>
		</layer>
		<layer id="268" name="377" type="Unsqueeze" version="opset1">
			<rt_info>
				<attribute name="fused_names" version="0" value="377"/>
			</rt_info>
			<input>
				<port id="0" precision="FP32">
					<dim>24</dim>
					<dim>1</dim>
				</port>
				<port id="1" precision="I64">
					<dim>1</dim>
				</port>
			</input>
			<output>
				<port id="2" precision="FP32" names="377">
					<dim>24</dim>
					<dim>1</dim>
					<dim>1</dim>
				</port>
			</output>
		</layer>
		<layer id="269" name="Constant_6385_compressed" type="Const" version="opset1">
			<data element_type="f16" shape="1, 1, 1" offset="8272" size="2"/>
			<output>
				<port id="0" precision="FP16">
					<dim>1</dim>
					<dim>1</dim>
					<dim>1</dim>
				</port>
			</output>
		</layer>
		<layer id="270" name="Constant_6385" type="Convert" version="opset1">
			<data destination_type="f32"/>
			<rt_info>
				<attribute name="decompression" version="0"/>
			</rt_info>
			<input>
				<port id="0" precision="FP16">
					<dim>1</dim>
					<dim>1</dim>
					<dim>1</dim>
				</port>
			</input>
			<output>
				<port id="1" precision="FP32">
					<dim>1</dim>
					<dim>1</dim>
					<dim>1</dim>
				</port>
			</output>
		</layer>
		<layer id="271" name="379" type="Add" version="opset1">
			<data auto_broadcast="numpy"/>
			<rt_info>
				<attribute name="fused_names" version="0" value="379"/>
			</rt_info>
			<input>
				<port id="0" precision="FP32">
					<dim>24</dim>
					<dim>1</dim>
					<dim>1</dim>
				</port>
				<port id="1" precision="FP32">
					<dim>1</dim>
					<dim>1</dim>
					<dim>1</dim>
				</port>
			</input>
			<output>
				<port id="2" precision="FP32" names="379">
					<dim>24</dim>
					<dim>1</dim>
					<dim>1</dim>
				</port>
			</output>
		</layer>
		<layer id="272" name="380" type="Sqrt" version="opset1">
			<rt_info>
				<attribute name="fused_names" version="0" value="380"/>
			</rt_info>
			<input>
				<port id="0" precision="FP32">
					<dim>24</dim>
					<dim>1</dim>
					<dim>1</dim>
				</port>
			</input>
			<output>
				<port id="1" precision="FP32" names="380">
					<dim>24</dim>
					<dim>1</dim>
					<dim>1</dim>
				</port>
			</output>
		</layer>
		<layer id="273" name="382" type="Divide" version="opset1">
			<data auto_broadcast="numpy" m_pythondiv="true"/>
			<rt_info>
				<attribute name="fused_names" version="0" value="382, 384"/>
			</rt_info>
			<input>
				<port id="0" precision="FP32">
					<dim>1</dim>
					<dim>1</dim>
					<dim>1</dim>
				</port>
				<port id="1" precision="FP32">
					<dim>24</dim>
					<dim>1</dim>
					<dim>1</dim>
				</port>
			</input>
			<output>
				<port id="2" precision="FP32" names="382,384">
					<dim>24</dim>
					<dim>1</dim>
					<dim>1</dim>
				</port>
			</output>
		</layer>
		<layer id="274" name="391" type="Multiply" version="opset1">
			<data auto_broadcast="numpy"/>
			<rt_info>
				<attribute name="fused_names" version="0" value="391"/>
			</rt_info>
			<input>
				<port id="0" precision="FP32">
					<dim>1</dim>
					<dim>24</dim>
					<dim>184</dim>
					<dim>328</dim>
				</port>
				<port id="1" precision="FP32">
					<dim>24</dim>
					<dim>1</dim>
					<dim>1</dim>
				</port>
			</input>
			<output>
				<port id="2" precision="FP32" names="391">
					<dim>1</dim>
					<dim>24</dim>
					<dim>184</dim>
					<dim>328</dim>
				</port>
			</output>
		</layer>
		<layer id="275" name="Constant_6387_compressed" type="Const" version="opset1">
			<data element_type="f16" shape="1, 24, 1, 1" offset="19826" size="48"/>
			<output>
				<port id="0" precision="FP16">
					<dim>1</dim>
					<dim>24</dim>
					<dim>1</dim>
					<dim>1</dim>
				</port>
			</output>
		</layer>
		<layer id="276" name="Constant_6387" type="Convert" version="opset1">
			<data destination_type="f32"/>
			<rt_info>
				<attribute name="decompression" version="0"/>
			</rt_info>
			<input>
				<port id="0" precision="FP16">
					<dim>1</dim>
					<dim>24</dim>
					<dim>1</dim>
					<dim>1</dim>
				</port>
			</input>
			<output>
				<port id="1" precision="FP32">
					<dim>1</dim>
					<dim>24</dim>
					<dim>1</dim>
					<dim>1</dim>
				</port>
			</output>
		</layer>
		<layer id="277" name="394" type="Add" version="opset1">
			<data auto_broadcast="numpy"/>
			<rt_info>
				<attribute name="fused_names" version="0" value="394"/>
			</rt_info>
			<input>
				<port id="0" precision="FP32">
					<dim>1</dim>
					<dim>24</dim>
					<dim>184</dim>
					<dim>328</dim>
				</port>
				<port id="1" precision="FP32">
					<dim>1</dim>
					<dim>24</dim>
					<dim>1</dim>
					<dim>1</dim>
				</port>
			</input>
			<output>
				<port id="2" precision="FP32" names="394">
					<dim>1</dim>
					<dim>24</dim>
					<dim>184</dim>
					<dim>328</dim>
				</port>
			</output>
		</layer>
		<layer id="278" name="Constant_6398_compressed" type="Const" version="opset1">
			<data element_type="f16" shape="1, 24, 1, 1" offset="19874" size="48"/>
			<output>
				<port id="0" precision="FP16">
					<dim>1</dim>
					<dim>24</dim>
					<dim>1</dim>
					<dim>1</dim>
				</port>
			</output>
		</layer>
		<layer id="279" name="Constant_6398" type="Convert" version="opset1">
			<data destination_type="f32"/>
			<rt_info>
				<attribute name="decompression" version="0"/>
			</rt_info>
			<input>
				<port id="0" precision="FP16">
					<dim>1</dim>
					<dim>24</dim>
					<dim>1</dim>
					<dim>1</dim>
				</port>
			</input>
			<output>
				<port id="1" precision="FP32">
					<dim>1</dim>
					<dim>24</dim>
					<dim>1</dim>
					<dim>1</dim>
				</port>
			</output>
		</layer>
		<layer id="280" name="Constant_6393_compressed" type="Const" version="opset1">
			<data element_type="f16" shape="1, 144, 1, 1" offset="19922" size="288"/>
			<output>
				<port id="0" precision="FP16">
					<dim>1</dim>
					<dim>144</dim>
					<dim>1</dim>
					<dim>1</dim>
				</port>
			</output>
		</layer>
		<layer id="281" name="Constant_6393" type="Convert" version="opset1">
			<data destination_type="f32"/>
			<rt_info>
				<attribute name="decompression" version="0"/>
			</rt_info>
			<input>
				<port id="0" precision="FP16">
					<dim>1</dim>
					<dim>144</dim>
					<dim>1</dim>
					<dim>1</dim>
				</port>
			</input>
			<output>
				<port id="1" precision="FP32">
					<dim>1</dim>
					<dim>144</dim>
					<dim>1</dim>
					<dim>1</dim>
				</port>
			</output>
		</layer>
		<layer id="282" name="Constant_6388_compressed" type="Const" version="opset1">
			<data element_type="f16" shape="1, 144, 1, 1" offset="20210" size="288"/>
			<output>
				<port id="0" precision="FP16">
					<dim>1</dim>
					<dim>144</dim>
					<dim>1</dim>
					<dim>1</dim>
				</port>
			</output>
		</layer>
		<layer id="283" name="Constant_6388" type="Convert" version="opset1">
			<data destination_type="f32"/>
			<rt_info>
				<attribute name="decompression" version="0"/>
			</rt_info>
			<input>
				<port id="0" precision="FP16">
					<dim>1</dim>
					<dim>144</dim>
					<dim>1</dim>
					<dim>1</dim>
				</port>
			</input>
			<output>
				<port id="1" precision="FP32">
					<dim>1</dim>
					<dim>144</dim>
					<dim>1</dim>
					<dim>1</dim>
				</port>
			</output>
		</layer>
		<layer id="284" name="impl.module.fpn.features.3.conv.0.weight_compressed" type="Const" version="opset1">
			<data element_type="f16" shape="144, 24, 1, 1" offset="20498" size="6912"/>
			<output>
				<port id="0" precision="FP16">
					<dim>144</dim>
					<dim>24</dim>
					<dim>1</dim>
					<dim>1</dim>
				</port>
			</output>
		</layer>
		<layer id="285" name="impl.module.fpn.features.3.conv.0.weight" type="Convert" version="opset1">
			<data destination_type="f32"/>
			<rt_info>
				<attribute name="decompression" version="0"/>
				<attribute name="fused_names" version="0" value="impl.module.fpn.features.3.conv.0.weight"/>
			</rt_info>
			<input>
				<port id="0" precision="FP16">
					<dim>144</dim>
					<dim>24</dim>
					<dim>1</dim>
					<dim>1</dim>
				</port>
			</input>
			<output>
				<port id="1" precision="FP32" names="impl.module.fpn.features.3.conv.0.weight">
					<dim>144</dim>
					<dim>24</dim>
					<dim>1</dim>
					<dim>1</dim>
				</port>
			</output>
		</layer>
		<layer id="286" name="395" type="Convolution" version="opset1">
			<data strides="1, 1" dilations="1, 1" pads_begin="0, 0" pads_end="0, 0" auto_pad="explicit"/>
			<rt_info>
				<attribute name="fused_names" version="0" value="395"/>
			</rt_info>
			<input>
				<port id="0" precision="FP32">
					<dim>1</dim>
					<dim>24</dim>
					<dim>184</dim>
					<dim>328</dim>
				</port>
				<port id="1" precision="FP32">
					<dim>144</dim>
					<dim>24</dim>
					<dim>1</dim>
					<dim>1</dim>
				</port>
			</input>
			<output>
				<port id="2" precision="FP32" names="395">
					<dim>1</dim>
					<dim>144</dim>
					<dim>184</dim>
					<dim>328</dim>
				</port>
			</output>
		</layer>
		<layer id="287" name="Constant_580" type="Const" version="opset1">
			<data element_type="i64" shape="3" offset="8228" size="24"/>
			<rt_info>
				<attribute name="fused_names" version="0" value="Constant_580"/>
			</rt_info>
			<output>
				<port id="0" precision="I64">
					<dim>3</dim>
				</port>
			</output>
		</layer>
		<layer id="288" name="396" type="ReduceMean" version="opset1">
			<data keep_dims="false"/>
			<rt_info>
				<attribute name="fused_names" version="0" value="396"/>
			</rt_info>
			<input>
				<port id="0" precision="FP32">
					<dim>1</dim>
					<dim>144</dim>
					<dim>184</dim>
					<dim>328</dim>
				</port>
				<port id="1" precision="I64">
					<dim>3</dim>
				</port>
			</input>
			<output>
				<port id="2" precision="FP32" names="396">
					<dim>144</dim>
				</port>
			</output>
		</layer>
		<layer id="289" name="Constant_603" type="Const" version="opset1">
			<data element_type="i64" shape="1" offset="8252" size="8"/>
			<rt_info>
				<attribute name="fused_names" version="0" value="Constant_603"/>
			</rt_info>
			<output>
				<port id="0" precision="I64">
					<dim>1</dim>
				</port>
			</output>
		</layer>
		<layer id="290" name="418" type="Unsqueeze" version="opset1">
			<rt_info>
				<attribute name="fused_names" version="0" value="418"/>
			</rt_info>
			<input>
				<port id="0" precision="FP32">
					<dim>144</dim>
				</port>
				<port id="1" precision="I64">
					<dim>1</dim>
				</port>
			</input>
			<output>
				<port id="2" precision="FP32" names="418">
					<dim>144</dim>
					<dim>1</dim>
				</port>
			</output>
		</layer>
		<layer id="291" name="Constant_605" type="Const" version="opset1">
			<data element_type="i64" shape="1" offset="8260" size="8"/>
			<rt_info>
				<attribute name="fused_names" version="0" value="Constant_605"/>
			</rt_info>
			<output>
				<port id="0" precision="I64">
					<dim>1</dim>
				</port>
			</output>
		</layer>
		<layer id="292" name="419" type="Unsqueeze" version="opset1">
			<rt_info>
				<attribute name="fused_names" version="0" value="419"/>
			</rt_info>
			<input>
				<port id="0" precision="FP32">
					<dim>144</dim>
					<dim>1</dim>
				</port>
				<port id="1" precision="I64">
					<dim>1</dim>
				</port>
			</input>
			<output>
				<port id="2" precision="FP32" names="419">
					<dim>144</dim>
					<dim>1</dim>
					<dim>1</dim>
				</port>
			</output>
		</layer>
		<layer id="293" name="420" type="Subtract" version="opset1">
			<data auto_broadcast="numpy"/>
			<rt_info>
				<attribute name="fused_names" version="0" value="420"/>
			</rt_info>
			<input>
				<port id="0" precision="FP32">
					<dim>1</dim>
					<dim>144</dim>
					<dim>184</dim>
					<dim>328</dim>
				</port>
				<port id="1" precision="FP32">
					<dim>144</dim>
					<dim>1</dim>
					<dim>1</dim>
				</port>
			</input>
			<output>
				<port id="2" precision="FP32" names="420">
					<dim>1</dim>
					<dim>144</dim>
					<dim>184</dim>
					<dim>328</dim>
				</port>
			</output>
		</layer>
		<layer id="294" name="421" type="Multiply" version="opset1">
			<data auto_broadcast="numpy"/>
			<rt_info>
				<attribute name="fused_names" version="0" value="421"/>
			</rt_info>
			<input>
				<port id="0" precision="FP32">
					<dim>1</dim>
					<dim>144</dim>
					<dim>1</dim>
					<dim>1</dim>
				</port>
				<port id="1" precision="FP32">
					<dim>1</dim>
					<dim>144</dim>
					<dim>184</dim>
					<dim>328</dim>
				</port>
			</input>
			<output>
				<port id="2" precision="FP32" names="421">
					<dim>1</dim>
					<dim>144</dim>
					<dim>184</dim>
					<dim>328</dim>
				</port>
			</output>
		</layer>
		<layer id="295" name="Constant_6391_compressed" type="Const" version="opset1">
			<data element_type="f16" shape="1, 1, 1" offset="8268" size="2"/>
			<output>
				<port id="0" precision="FP16">
					<dim>1</dim>
					<dim>1</dim>
					<dim>1</dim>
				</port>
			</output>
		</layer>
		<layer id="296" name="Constant_6391" type="Convert" version="opset1">
			<data destination_type="f32"/>
			<rt_info>
				<attribute name="decompression" version="0"/>
			</rt_info>
			<input>
				<port id="0" precision="FP16">
					<dim>1</dim>
					<dim>1</dim>
					<dim>1</dim>
				</port>
			</input>
			<output>
				<port id="1" precision="FP32">
					<dim>1</dim>
					<dim>1</dim>
					<dim>1</dim>
				</port>
			</output>
		</layer>
		<layer id="297" name="397" type="Multiply" version="opset1">
			<data auto_broadcast="numpy"/>
			<rt_info>
				<attribute name="fused_names" version="0" value="397"/>
			</rt_info>
			<input>
				<port id="0" precision="FP32">
					<dim>1</dim>
					<dim>144</dim>
					<dim>184</dim>
					<dim>328</dim>
				</port>
				<port id="1" precision="FP32">
					<dim>1</dim>
					<dim>144</dim>
					<dim>184</dim>
					<dim>328</dim>
				</port>
			</input>
			<output>
				<port id="2" precision="FP32" names="397">
					<dim>1</dim>
					<dim>144</dim>
					<dim>184</dim>
					<dim>328</dim>
				</port>
			</output>
		</layer>
		<layer id="298" name="Constant_583" type="Const" version="opset1">
			<data element_type="i64" shape="3" offset="8228" size="24"/>
			<rt_info>
				<attribute name="fused_names" version="0" value="Constant_583"/>
			</rt_info>
			<output>
				<port id="0" precision="I64">
					<dim>3</dim>
				</port>
			</output>
		</layer>
		<layer id="299" name="398" type="ReduceMean" version="opset1">
			<data keep_dims="false"/>
			<rt_info>
				<attribute name="fused_names" version="0" value="398"/>
			</rt_info>
			<input>
				<port id="0" precision="FP32">
					<dim>1</dim>
					<dim>144</dim>
					<dim>184</dim>
					<dim>328</dim>
				</port>
				<port id="1" precision="I64">
					<dim>3</dim>
				</port>
			</input>
			<output>
				<port id="2" precision="FP32" names="398">
					<dim>144</dim>
				</port>
			</output>
		</layer>
		<layer id="300" name="Constant_585" type="Const" version="opset1">
			<data element_type="i64" shape="3" offset="8228" size="24"/>
			<rt_info>
				<attribute name="fused_names" version="0" value="Constant_585"/>
			</rt_info>
			<output>
				<port id="0" precision="I64">
					<dim>3</dim>
				</port>
			</output>
		</layer>
		<layer id="301" name="399" type="ReduceMean" version="opset1">
			<data keep_dims="false"/>
			<rt_info>
				<attribute name="fused_names" version="0" value="399"/>
			</rt_info>
			<input>
				<port id="0" precision="FP32">
					<dim>1</dim>
					<dim>144</dim>
					<dim>184</dim>
					<dim>328</dim>
				</port>
				<port id="1" precision="I64">
					<dim>3</dim>
				</port>
			</input>
			<output>
				<port id="2" precision="FP32" names="399">
					<dim>144</dim>
				</port>
			</output>
		</layer>
		<layer id="302" name="400" type="Multiply" version="opset1">
			<data auto_broadcast="numpy"/>
			<rt_info>
				<attribute name="fused_names" version="0" value="400"/>
			</rt_info>
			<input>
				<port id="0" precision="FP32">
					<dim>144</dim>
				</port>
				<port id="1" precision="FP32">
					<dim>144</dim>
				</port>
			</input>
			<output>
				<port id="2" precision="FP32" names="400">
					<dim>144</dim>
				</port>
			</output>
		</layer>
		<layer id="303" name="401" type="Subtract" version="opset1">
			<data auto_broadcast="numpy"/>
			<rt_info>
				<attribute name="fused_names" version="0" value="401"/>
			</rt_info>
			<input>
				<port id="0" precision="FP32">
					<dim>144</dim>
				</port>
				<port id="1" precision="FP32">
					<dim>144</dim>
				</port>
			</input>
			<output>
				<port id="2" precision="FP32" names="401">
					<dim>144</dim>
				</port>
			</output>
		</layer>
		<layer id="304" name="402" type="Abs" version="opset1">
			<rt_info>
				<attribute name="fused_names" version="0" value="402"/>
			</rt_info>
			<input>
				<port id="0" precision="FP32">
					<dim>144</dim>
				</port>
			</input>
			<output>
				<port id="1" precision="FP32" names="402">
					<dim>144</dim>
				</port>
			</output>
		</layer>
		<layer id="305" name="403" type="Sqrt" version="opset1">
			<rt_info>
				<attribute name="fused_names" version="0" value="403"/>
			</rt_info>
			<input>
				<port id="0" precision="FP32">
					<dim>144</dim>
				</port>
			</input>
			<output>
				<port id="1" precision="FP32" names="403">
					<dim>144</dim>
				</port>
			</output>
		</layer>
		<layer id="306" name="Constant_6389_compressed" type="Const" version="opset1">
			<data element_type="f16" shape="1" offset="8270" size="2"/>
			<output>
				<port id="0" precision="FP16">
					<dim>1</dim>
				</port>
			</output>
		</layer>
		<layer id="307" name="Constant_6389" type="Convert" version="opset1">
			<data destination_type="f32"/>
			<rt_info>
				<attribute name="decompression" version="0"/>
			</rt_info>
			<input>
				<port id="0" precision="FP16">
					<dim>1</dim>
				</port>
			</input>
			<output>
				<port id="1" precision="FP32">
					<dim>1</dim>
				</port>
			</output>
		</layer>
		<layer id="308" name="406" type="Power" version="opset1">
			<data auto_broadcast="numpy"/>
			<rt_info>
				<attribute name="fused_names" version="0" value="406"/>
			</rt_info>
			<input>
				<port id="0" precision="FP32">
					<dim>144</dim>
				</port>
				<port id="1" precision="FP32">
					<dim>1</dim>
				</port>
			</input>
			<output>
				<port id="2" precision="FP32" names="406">
					<dim>144</dim>
				</port>
			</output>
		</layer>
		<layer id="309" name="Constant_592" type="Const" version="opset1">
			<data element_type="i64" shape="1" offset="8252" size="8"/>
			<rt_info>
				<attribute name="fused_names" version="0" value="Constant_592"/>
			</rt_info>
			<output>
				<port id="0" precision="I64">
					<dim>1</dim>
				</port>
			</output>
		</layer>
		<layer id="310" name="407" type="Unsqueeze" version="opset1">
			<rt_info>
				<attribute name="fused_names" version="0" value="407"/>
			</rt_info>
			<input>
				<port id="0" precision="FP32">
					<dim>144</dim>
				</port>
				<port id="1" precision="I64">
					<dim>1</dim>
				</port>
			</input>
			<output>
				<port id="2" precision="FP32" names="407">
					<dim>144</dim>
					<dim>1</dim>
				</port>
			</output>
		</layer>
		<layer id="311" name="Constant_594" type="Const" version="opset1">
			<data element_type="i64" shape="1" offset="8260" size="8"/>
			<rt_info>
				<attribute name="fused_names" version="0" value="Constant_594"/>
			</rt_info>
			<output>
				<port id="0" precision="I64">
					<dim>1</dim>
				</port>
			</output>
		</layer>
		<layer id="312" name="408" type="Unsqueeze" version="opset1">
			<rt_info>
				<attribute name="fused_names" version="0" value="408"/>
			</rt_info>
			<input>
				<port id="0" precision="FP32">
					<dim>144</dim>
					<dim>1</dim>
				</port>
				<port id="1" precision="I64">
					<dim>1</dim>
				</port>
			</input>
			<output>
				<port id="2" precision="FP32" names="408">
					<dim>144</dim>
					<dim>1</dim>
					<dim>1</dim>
				</port>
			</output>
		</layer>
		<layer id="313" name="Constant_6390_compressed" type="Const" version="opset1">
			<data element_type="f16" shape="1, 1, 1" offset="8272" size="2"/>
			<output>
				<port id="0" precision="FP16">
					<dim>1</dim>
					<dim>1</dim>
					<dim>1</dim>
				</port>
			</output>
		</layer>
		<layer id="314" name="Constant_6390" type="Convert" version="opset1">
			<data destination_type="f32"/>
			<rt_info>
				<attribute name="decompression" version="0"/>
			</rt_info>
			<input>
				<port id="0" precision="FP16">
					<dim>1</dim>
					<dim>1</dim>
					<dim>1</dim>
				</port>
			</input>
			<output>
				<port id="1" precision="FP32">
					<dim>1</dim>
					<dim>1</dim>
					<dim>1</dim>
				</port>
			</output>
		</layer>
		<layer id="315" name="410" type="Add" version="opset1">
			<data auto_broadcast="numpy"/>
			<rt_info>
				<attribute name="fused_names" version="0" value="410"/>
			</rt_info>
			<input>
				<port id="0" precision="FP32">
					<dim>144</dim>
					<dim>1</dim>
					<dim>1</dim>
				</port>
				<port id="1" precision="FP32">
					<dim>1</dim>
					<dim>1</dim>
					<dim>1</dim>
				</port>
			</input>
			<output>
				<port id="2" precision="FP32" names="410">
					<dim>144</dim>
					<dim>1</dim>
					<dim>1</dim>
				</port>
			</output>
		</layer>
		<layer id="316" name="411" type="Sqrt" version="opset1">
			<rt_info>
				<attribute name="fused_names" version="0" value="411"/>
			</rt_info>
			<input>
				<port id="0" precision="FP32">
					<dim>144</dim>
					<dim>1</dim>
					<dim>1</dim>
				</port>
			</input>
			<output>
				<port id="1" precision="FP32" names="411">
					<dim>144</dim>
					<dim>1</dim>
					<dim>1</dim>
				</port>
			</output>
		</layer>
		<layer id="317" name="413" type="Divide" version="opset1">
			<data auto_broadcast="numpy" m_pythondiv="true"/>
			<rt_info>
				<attribute name="fused_names" version="0" value="413, 415"/>
			</rt_info>
			<input>
				<port id="0" precision="FP32">
					<dim>1</dim>
					<dim>1</dim>
					<dim>1</dim>
				</port>
				<port id="1" precision="FP32">
					<dim>144</dim>
					<dim>1</dim>
					<dim>1</dim>
				</port>
			</input>
			<output>
				<port id="2" precision="FP32" names="413,415">
					<dim>144</dim>
					<dim>1</dim>
					<dim>1</dim>
				</port>
			</output>
		</layer>
		<layer id="318" name="422" type="Multiply" version="opset1">
			<data auto_broadcast="numpy"/>
			<rt_info>
				<attribute name="fused_names" version="0" value="422"/>
			</rt_info>
			<input>
				<port id="0" precision="FP32">
					<dim>1</dim>
					<dim>144</dim>
					<dim>184</dim>
					<dim>328</dim>
				</port>
				<port id="1" precision="FP32">
					<dim>144</dim>
					<dim>1</dim>
					<dim>1</dim>
				</port>
			</input>
			<output>
				<port id="2" precision="FP32" names="422">
					<dim>1</dim>
					<dim>144</dim>
					<dim>184</dim>
					<dim>328</dim>
				</port>
			</output>
		</layer>
		<layer id="319" name="Constant_6392_compressed" type="Const" version="opset1">
			<data element_type="f16" shape="1, 144, 1, 1" offset="27410" size="288"/>
			<output>
				<port id="0" precision="FP16">
					<dim>1</dim>
					<dim>144</dim>
					<dim>1</dim>
					<dim>1</dim>
				</port>
			</output>
		</layer>
		<layer id="320" name="Constant_6392" type="Convert" version="opset1">
			<data destination_type="f32"/>
			<rt_info>
				<attribute name="decompression" version="0"/>
			</rt_info>
			<input>
				<port id="0" precision="FP16">
					<dim>1</dim>
					<dim>144</dim>
					<dim>1</dim>
					<dim>1</dim>
				</port>
			</input>
			<output>
				<port id="1" precision="FP32">
					<dim>1</dim>
					<dim>144</dim>
					<dim>1</dim>
					<dim>1</dim>
				</port>
			</output>
		</layer>
		<layer id="321" name="425" type="Add" version="opset1">
			<data auto_broadcast="numpy"/>
			<rt_info>
				<attribute name="fused_names" version="0" value="425"/>
			</rt_info>
			<input>
				<port id="0" precision="FP32">
					<dim>1</dim>
					<dim>144</dim>
					<dim>184</dim>
					<dim>328</dim>
				</port>
				<port id="1" precision="FP32">
					<dim>1</dim>
					<dim>144</dim>
					<dim>1</dim>
					<dim>1</dim>
				</port>
			</input>
			<output>
				<port id="2" precision="FP32" names="425">
					<dim>1</dim>
					<dim>144</dim>
					<dim>184</dim>
					<dim>328</dim>
				</port>
			</output>
		</layer>
		<layer id="322" name="428" type="Clamp" version="opset1">
			<data min="0" max="6"/>
			<rt_info>
				<attribute name="fused_names" version="0" value="428, Maximum_613"/>
			</rt_info>
			<input>
				<port id="0" precision="FP32">
					<dim>1</dim>
					<dim>144</dim>
					<dim>184</dim>
					<dim>328</dim>
				</port>
			</input>
			<output>
				<port id="1" precision="FP32" names="428">
					<dim>1</dim>
					<dim>144</dim>
					<dim>184</dim>
					<dim>328</dim>
				</port>
			</output>
		</layer>
		<layer id="323" name="Reshape_623_compressed" type="Const" version="opset1">
			<data element_type="f16" shape="144, 1, 1, 3, 3" offset="27698" size="2592"/>
			<output>
				<port id="0" precision="FP16">
					<dim>144</dim>
					<dim>1</dim>
					<dim>1</dim>
					<dim>3</dim>
					<dim>3</dim>
				</port>
			</output>
		</layer>
		<layer id="324" name="Reshape_623" type="Convert" version="opset1">
			<data destination_type="f32"/>
			<rt_info>
				<attribute name="decompression" version="0"/>
			</rt_info>
			<input>
				<port id="0" precision="FP16">
					<dim>144</dim>
					<dim>1</dim>
					<dim>1</dim>
					<dim>3</dim>
					<dim>3</dim>
				</port>
			</input>
			<output>
				<port id="1" precision="FP32">
					<dim>144</dim>
					<dim>1</dim>
					<dim>1</dim>
					<dim>3</dim>
					<dim>3</dim>
				</port>
			</output>
		</layer>
		<layer id="325" name="429" type="GroupConvolution" version="opset1">
			<data strides="1, 1" pads_begin="1, 1" pads_end="1, 1" dilations="1, 1" auto_pad="explicit"/>
			<rt_info>
				<attribute name="fused_names" version="0" value="429, Reshape_623"/>
			</rt_info>
			<input>
				<port id="0" precision="FP32">
					<dim>1</dim>
					<dim>144</dim>
					<dim>184</dim>
					<dim>328</dim>
				</port>
				<port id="1" precision="FP32">
					<dim>144</dim>
					<dim>1</dim>
					<dim>1</dim>
					<dim>3</dim>
					<dim>3</dim>
				</port>
			</input>
			<output>
				<port id="2" precision="FP32" names="429">
					<dim>1</dim>
					<dim>144</dim>
					<dim>184</dim>
					<dim>328</dim>
				</port>
			</output>
		</layer>
		<layer id="326" name="Constant_690" type="Const" version="opset1">
			<data element_type="i64" shape="3" offset="8228" size="24"/>
			<rt_info>
				<attribute name="fused_names" version="0" value="Constant_690"/>
			</rt_info>
			<output>
				<port id="0" precision="I64">
					<dim>3</dim>
				</port>
			</output>
		</layer>
		<layer id="327" name="430" type="ReduceMean" version="opset1">
			<data keep_dims="false"/>
			<rt_info>
				<attribute name="fused_names" version="0" value="430"/>
			</rt_info>
			<input>
				<port id="0" precision="FP32">
					<dim>1</dim>
					<dim>144</dim>
					<dim>184</dim>
					<dim>328</dim>
				</port>
				<port id="1" precision="I64">
					<dim>3</dim>
				</port>
			</input>
			<output>
				<port id="2" precision="FP32" names="430">
					<dim>144</dim>
				</port>
			</output>
		</layer>
		<layer id="328" name="Constant_713" type="Const" version="opset1">
			<data element_type="i64" shape="1" offset="8252" size="8"/>
			<rt_info>
				<attribute name="fused_names" version="0" value="Constant_713"/>
			</rt_info>
			<output>
				<port id="0" precision="I64">
					<dim>1</dim>
				</port>
			</output>
		</layer>
		<layer id="329" name="452" type="Unsqueeze" version="opset1">
			<rt_info>
				<attribute name="fused_names" version="0" value="452"/>
			</rt_info>
			<input>
				<port id="0" precision="FP32">
					<dim>144</dim>
				</port>
				<port id="1" precision="I64">
					<dim>1</dim>
				</port>
			</input>
			<output>
				<port id="2" precision="FP32" names="452">
					<dim>144</dim>
					<dim>1</dim>
				</port>
			</output>
		</layer>
		<layer id="330" name="Constant_715" type="Const" version="opset1">
			<data element_type="i64" shape="1" offset="8260" size="8"/>
			<rt_info>
				<attribute name="fused_names" version="0" value="Constant_715"/>
			</rt_info>
			<output>
				<port id="0" precision="I64">
					<dim>1</dim>
				</port>
			</output>
		</layer>
		<layer id="331" name="453" type="Unsqueeze" version="opset1">
			<rt_info>
				<attribute name="fused_names" version="0" value="453"/>
			</rt_info>
			<input>
				<port id="0" precision="FP32">
					<dim>144</dim>
					<dim>1</dim>
				</port>
				<port id="1" precision="I64">
					<dim>1</dim>
				</port>
			</input>
			<output>
				<port id="2" precision="FP32" names="453">
					<dim>144</dim>
					<dim>1</dim>
					<dim>1</dim>
				</port>
			</output>
		</layer>
		<layer id="332" name="454" type="Subtract" version="opset1">
			<data auto_broadcast="numpy"/>
			<rt_info>
				<attribute name="fused_names" version="0" value="454"/>
			</rt_info>
			<input>
				<port id="0" precision="FP32">
					<dim>1</dim>
					<dim>144</dim>
					<dim>184</dim>
					<dim>328</dim>
				</port>
				<port id="1" precision="FP32">
					<dim>144</dim>
					<dim>1</dim>
					<dim>1</dim>
				</port>
			</input>
			<output>
				<port id="2" precision="FP32" names="454">
					<dim>1</dim>
					<dim>144</dim>
					<dim>184</dim>
					<dim>328</dim>
				</port>
			</output>
		</layer>
		<layer id="333" name="455" type="Multiply" version="opset1">
			<data auto_broadcast="numpy"/>
			<rt_info>
				<attribute name="fused_names" version="0" value="455"/>
			</rt_info>
			<input>
				<port id="0" precision="FP32">
					<dim>1</dim>
					<dim>144</dim>
					<dim>1</dim>
					<dim>1</dim>
				</port>
				<port id="1" precision="FP32">
					<dim>1</dim>
					<dim>144</dim>
					<dim>184</dim>
					<dim>328</dim>
				</port>
			</input>
			<output>
				<port id="2" precision="FP32" names="455">
					<dim>1</dim>
					<dim>144</dim>
					<dim>184</dim>
					<dim>328</dim>
				</port>
			</output>
		</layer>
		<layer id="334" name="Constant_6396_compressed" type="Const" version="opset1">
			<data element_type="f16" shape="1, 1, 1" offset="8268" size="2"/>
			<output>
				<port id="0" precision="FP16">
					<dim>1</dim>
					<dim>1</dim>
					<dim>1</dim>
				</port>
			</output>
		</layer>
		<layer id="335" name="Constant_6396" type="Convert" version="opset1">
			<data destination_type="f32"/>
			<rt_info>
				<attribute name="decompression" version="0"/>
			</rt_info>
			<input>
				<port id="0" precision="FP16">
					<dim>1</dim>
					<dim>1</dim>
					<dim>1</dim>
				</port>
			</input>
			<output>
				<port id="1" precision="FP32">
					<dim>1</dim>
					<dim>1</dim>
					<dim>1</dim>
				</port>
			</output>
		</layer>
		<layer id="336" name="431" type="Multiply" version="opset1">
			<data auto_broadcast="numpy"/>
			<rt_info>
				<attribute name="fused_names" version="0" value="431"/>
			</rt_info>
			<input>
				<port id="0" precision="FP32">
					<dim>1</dim>
					<dim>144</dim>
					<dim>184</dim>
					<dim>328</dim>
				</port>
				<port id="1" precision="FP32">
					<dim>1</dim>
					<dim>144</dim>
					<dim>184</dim>
					<dim>328</dim>
				</port>
			</input>
			<output>
				<port id="2" precision="FP32" names="431">
					<dim>1</dim>
					<dim>144</dim>
					<dim>184</dim>
					<dim>328</dim>
				</port>
			</output>
		</layer>
		<layer id="337" name="Constant_693" type="Const" version="opset1">
			<data element_type="i64" shape="3" offset="8228" size="24"/>
			<rt_info>
				<attribute name="fused_names" version="0" value="Constant_693"/>
			</rt_info>
			<output>
				<port id="0" precision="I64">
					<dim>3</dim>
				</port>
			</output>
		</layer>
		<layer id="338" name="432" type="ReduceMean" version="opset1">
			<data keep_dims="false"/>
			<rt_info>
				<attribute name="fused_names" version="0" value="432"/>
			</rt_info>
			<input>
				<port id="0" precision="FP32">
					<dim>1</dim>
					<dim>144</dim>
					<dim>184</dim>
					<dim>328</dim>
				</port>
				<port id="1" precision="I64">
					<dim>3</dim>
				</port>
			</input>
			<output>
				<port id="2" precision="FP32" names="432">
					<dim>144</dim>
				</port>
			</output>
		</layer>
		<layer id="339" name="Constant_695" type="Const" version="opset1">
			<data element_type="i64" shape="3" offset="8228" size="24"/>
			<rt_info>
				<attribute name="fused_names" version="0" value="Constant_695"/>
			</rt_info>
			<output>
				<port id="0" precision="I64">
					<dim>3</dim>
				</port>
			</output>
		</layer>
		<layer id="340" name="433" type="ReduceMean" version="opset1">
			<data keep_dims="false"/>
			<rt_info>
				<attribute name="fused_names" version="0" value="433"/>
			</rt_info>
			<input>
				<port id="0" precision="FP32">
					<dim>1</dim>
					<dim>144</dim>
…
		<edge from-layer="1413" from-port="2" to-layer="1415" to-port="0"/>
		<edge from-layer="1414" from-port="0" to-layer="1415" to-port="1"/>
		<edge from-layer="1415" from-port="2" to-layer="1417" to-port="0"/>
		<edge from-layer="1416" from-port="0" to-layer="1417" to-port="1"/>
		<edge from-layer="1417" from-port="2" to-layer="1418" to-port="1"/>
		<edge from-layer="1418" from-port="2" to-layer="1419" to-port="1"/>
		<edge from-layer="1419" from-port="2" to-layer="1443" to-port="0"/>
		<edge from-layer="1420" from-port="0" to-layer="1421" to-port="0"/>
		<edge from-layer="1421" from-port="1" to-layer="1442" to-port="0"/>
		<edge from-layer="1422" from-port="2" to-layer="1424" to-port="0"/>
		<edge from-layer="1423" from-port="0" to-layer="1424" to-port="1"/>
		<edge from-layer="1424" from-port="2" to-layer="1428" to-port="0"/>
		<edge from-layer="1425" from-port="0" to-layer="1426" to-port="1"/>
		<edge from-layer="1426" from-port="2" to-layer="1427" to-port="1"/>
		<edge from-layer="1426" from-port="2" to-layer="1427" to-port="0"/>
		<edge from-layer="1427" from-port="2" to-layer="1428" to-port="1"/>
		<edge from-layer="1428" from-port="2" to-layer="1429" to-port="0"/>
		<edge from-layer="1429" from-port="1" to-layer="1430" to-port="0"/>
		<edge from-layer="1430" from-port="1" to-layer="1433" to-port="0"/>
		<edge from-layer="1431" from-port="0" to-layer="1432" to-port="0"/>
		<edge from-layer="1432" from-port="1" to-layer="1433" to-port="1"/>
		<edge from-layer="1433" from-port="2" to-layer="1435" to-port="0"/>
		<edge from-layer="1434" from-port="0" to-layer="1435" to-port="1"/>
		<edge from-layer="1435" from-port="2" to-layer="1437" to-port="0"/>
		<edge from-layer="1436" from-port="0" to-layer="1437" to-port="1"/>
		<edge from-layer="1437" from-port="2" to-layer="1440" to-port="0"/>
		<edge from-layer="1438" from-port="0" to-layer="1439" to-port="0"/>
		<edge from-layer="1439" from-port="1" to-layer="1440" to-port="1"/>
		<edge from-layer="1440" from-port="2" to-layer="1441" to-port="0"/>
		<edge from-layer="1441" from-port="1" to-layer="1442" to-port="1"/>
		<edge from-layer="1442" from-port="2" to-layer="1443" to-port="1"/>
		<edge from-layer="1443" from-port="2" to-layer="1446" to-port="0"/>
		<edge from-layer="1444" from-port="0" to-layer="1445" to-port="0"/>
		<edge from-layer="1445" from-port="1" to-layer="1446" to-port="1"/>
		<edge from-layer="1446" from-port="2" to-layer="1447" to-port="0"/>
		<edge from-layer="1447" from-port="1" to-layer="1450" to-port="0"/>
		<edge from-layer="1448" from-port="0" to-layer="1449" to-port="0"/>
		<edge from-layer="1449" from-port="1" to-layer="1450" to-port="1"/>
		<edge from-layer="1450" from-port="2" to-layer="1452" to-port="0"/>
		<edge from-layer="1450" from-port="2" to-layer="1457" to-port="0"/>
		<edge from-layer="1450" from-port="2" to-layer="1465" to-port="0"/>
		<edge from-layer="1450" from-port="2" to-layer="1461" to-port="0"/>
		<edge from-layer="1450" from-port="2" to-layer="1461" to-port="1"/>
		<edge from-layer="1451" from-port="0" to-layer="1452" to-port="1"/>
		<edge from-layer="1452" from-port="2" to-layer="1454" to-port="0"/>
		<edge from-layer="1453" from-port="0" to-layer="1454" to-port="1"/>
		<edge from-layer="1454" from-port="2" to-layer="1456" to-port="0"/>
		<edge from-layer="1455" from-port="0" to-layer="1456" to-port="1"/>
		<edge from-layer="1456" from-port="2" to-layer="1457" to-port="1"/>
		<edge from-layer="1457" from-port="2" to-layer="1458" to-port="1"/>
		<edge from-layer="1458" from-port="2" to-layer="1482" to-port="0"/>
		<edge from-layer="1459" from-port="0" to-layer="1460" to-port="0"/>
		<edge from-layer="1460" from-port="1" to-layer="1481" to-port="0"/>
		<edge from-layer="1461" from-port="2" to-layer="1463" to-port="0"/>
		<edge from-layer="1462" from-port="0" to-layer="1463" to-port="1"/>
		<edge from-layer="1463" from-port="2" to-layer="1467" to-port="0"/>
		<edge from-layer="1464" from-port="0" to-layer="1465" to-port="1"/>
		<edge from-layer="1465" from-port="2" to-layer="1466" to-port="1"/>
		<edge from-layer="1465" from-port="2" to-layer="1466" to-port="0"/>
		<edge from-layer="1466" from-port="2" to-layer="1467" to-port="1"/>
		<edge from-layer="1467" from-port="2" to-layer="1468" to-port="0"/>
		<edge from-layer="1468" from-port="1" to-layer="1469" to-port="0"/>
		<edge from-layer="1469" from-port="1" to-layer="1472" to-port="0"/>
		<edge from-layer="1470" from-port="0" to-layer="1471" to-port="0"/>
		<edge from-layer="1471" from-port="1" to-layer="1472" to-port="1"/>
		<edge from-layer="1472" from-port="2" to-layer="1474" to-port="0"/>
		<edge from-layer="1473" from-port="0" to-layer="1474" to-port="1"/>
		<edge from-layer="1474" from-port="2" to-layer="1476" to-port="0"/>
		<edge from-layer="1475" from-port="0" to-layer="1476" to-port="1"/>
		<edge from-layer="1476" from-port="2" to-layer="1479" to-port="0"/>
		<edge from-layer="1477" from-port="0" to-layer="1478" to-port="0"/>
		<edge from-layer="1478" from-port="1" to-layer="1479" to-port="1"/>
		<edge from-layer="1479" from-port="2" to-layer="1480" to-port="0"/>
		<edge from-layer="1480" from-port="1" to-layer="1481" to-port="1"/>
		<edge from-layer="1481" from-port="2" to-layer="1482" to-port="1"/>
		<edge from-layer="1482" from-port="2" to-layer="1485" to-port="0"/>
		<edge from-layer="1483" from-port="0" to-layer="1484" to-port="0"/>
		<edge from-layer="1484" from-port="1" to-layer="1485" to-port="1"/>
		<edge from-layer="1485" from-port="2" to-layer="1486" to-port="1"/>
		<edge from-layer="1486" from-port="2" to-layer="1495" to-port="0"/>
		<edge from-layer="1486" from-port="2" to-layer="1609" to-port="0"/>
		<edge from-layer="1487" from-port="0" to-layer="1488" to-port="0"/>
		<edge from-layer="1488" from-port="1" to-layer="1581" to-port="0"/>
		<edge from-layer="1489" from-port="0" to-layer="1490" to-port="0"/>
		<edge from-layer="1490" from-port="1" to-layer="1542" to-port="0"/>
		<edge from-layer="1491" from-port="0" to-layer="1492" to-port="0"/>
		<edge from-layer="1492" from-port="1" to-layer="1503" to-port="0"/>
		<edge from-layer="1493" from-port="0" to-layer="1494" to-port="0"/>
		<edge from-layer="1494" from-port="1" to-layer="1495" to-port="1"/>
		<edge from-layer="1495" from-port="2" to-layer="1497" to-port="0"/>
		<edge from-layer="1495" from-port="2" to-layer="1510" to-port="0"/>
		<edge from-layer="1495" from-port="2" to-layer="1506" to-port="1"/>
		<edge from-layer="1495" from-port="2" to-layer="1502" to-port="0"/>
		<edge from-layer="1495" from-port="2" to-layer="1506" to-port="0"/>
		<edge from-layer="1496" from-port="0" to-layer="1497" to-port="1"/>
		<edge from-layer="1497" from-port="2" to-layer="1499" to-port="0"/>
		<edge from-layer="1498" from-port="0" to-layer="1499" to-port="1"/>
		<edge from-layer="1499" from-port="2" to-layer="1501" to-port="0"/>
		<edge from-layer="1500" from-port="0" to-layer="1501" to-port="1"/>
		<edge from-layer="1501" from-port="2" to-layer="1502" to-port="1"/>
		<edge from-layer="1502" from-port="2" to-layer="1503" to-port="1"/>
		<edge from-layer="1503" from-port="2" to-layer="1527" to-port="0"/>
		<edge from-layer="1504" from-port="0" to-layer="1505" to-port="0"/>
		<edge from-layer="1505" from-port="1" to-layer="1526" to-port="0"/>
		<edge from-layer="1506" from-port="2" to-layer="1508" to-port="0"/>
		<edge from-layer="1507" from-port="0" to-layer="1508" to-port="1"/>
		<edge from-layer="1508" from-port="2" to-layer="1512" to-port="0"/>
		<edge from-layer="1509" from-port="0" to-layer="1510" to-port="1"/>
		<edge from-layer="1510" from-port="2" to-layer="1511" to-port="1"/>
		<edge from-layer="1510" from-port="2" to-layer="1511" to-port="0"/>
		<edge from-layer="1511" from-port="2" to-layer="1512" to-port="1"/>
		<edge from-layer="1512" from-port="2" to-layer="1513" to-port="0"/>
		<edge from-layer="1513" from-port="1" to-layer="1514" to-port="0"/>
		<edge from-layer="1514" from-port="1" to-layer="1517" to-port="0"/>
		<edge from-layer="1515" from-port="0" to-layer="1516" to-port="0"/>
		<edge from-layer="1516" from-port="1" to-layer="1517" to-port="1"/>
		<edge from-layer="1517" from-port="2" to-layer="1519" to-port="0"/>
		<edge from-layer="1518" from-port="0" to-layer="1519" to-port="1"/>
		<edge from-layer="1519" from-port="2" to-layer="1521" to-port="0"/>
		<edge from-layer="1520" from-port="0" to-layer="1521" to-port="1"/>
		<edge from-layer="1521" from-port="2" to-layer="1524" to-port="0"/>
		<edge from-layer="1522" from-port="0" to-layer="1523" to-port="0"/>
		<edge from-layer="1523" from-port="1" to-layer="1524" to-port="1"/>
		<edge from-layer="1524" from-port="2" to-layer="1525" to-port="0"/>
		<edge from-layer="1525" from-port="1" to-layer="1526" to-port="1"/>
		<edge from-layer="1526" from-port="2" to-layer="1527" to-port="1"/>
		<edge from-layer="1527" from-port="2" to-layer="1530" to-port="0"/>
		<edge from-layer="1528" from-port="0" to-layer="1529" to-port="0"/>
		<edge from-layer="1529" from-port="1" to-layer="1530" to-port="1"/>
		<edge from-layer="1530" from-port="2" to-layer="1531" to-port="0"/>
		<edge from-layer="1531" from-port="1" to-layer="1534" to-port="0"/>
		<edge from-layer="1532" from-port="0" to-layer="1533" to-port="0"/>
		<edge from-layer="1533" from-port="1" to-layer="1534" to-port="1"/>
		<edge from-layer="1534" from-port="2" to-layer="1545" to-port="0"/>
		<edge from-layer="1534" from-port="2" to-layer="1545" to-port="1"/>
		<edge from-layer="1534" from-port="2" to-layer="1549" to-port="0"/>
		<edge from-layer="1534" from-port="2" to-layer="1536" to-port="0"/>
		<edge from-layer="1534" from-port="2" to-layer="1541" to-port="0"/>
		<edge from-layer="1535" from-port="0" to-layer="1536" to-port="1"/>
		<edge from-layer="1536" from-port="2" to-layer="1538" to-port="0"/>
		<edge from-layer="1537" from-port="0" to-layer="1538" to-port="1"/>
		<edge from-layer="1538" from-port="2" to-layer="1540" to-port="0"/>
		<edge from-layer="1539" from-port="0" to-layer="1540" to-port="1"/>
		<edge from-layer="1540" from-port="2" to-layer="1541" to-port="1"/>
		<edge from-layer="1541" from-port="2" to-layer="1542" to-port="1"/>
		<edge from-layer="1542" from-port="2" to-layer="1566" to-port="0"/>
		<edge from-layer="1543" from-port="0" to-layer="1544" to-port="0"/>
		<edge from-layer="1544" from-port="1" to-layer="1565" to-port="0"/>
		<edge from-layer="1545" from-port="2" to-layer="1547" to-port="0"/>
		<edge from-layer="1546" from-port="0" to-layer="1547" to-port="1"/>
		<edge from-layer="1547" from-port="2" to-layer="1551" to-port="0"/>
		<edge from-layer="1548" from-port="0" to-layer="1549" to-port="1"/>
		<edge from-layer="1549" from-port="2" to-layer="1550" to-port="0"/>
		<edge from-layer="1549" from-port="2" to-layer="1550" to-port="1"/>
		<edge from-layer="1550" from-port="2" to-layer="1551" to-port="1"/>
		<edge from-layer="1551" from-port="2" to-layer="1552" to-port="0"/>
		<edge from-layer="1552" from-port="1" to-layer="1553" to-port="0"/>
		<edge from-layer="1553" from-port="1" to-layer="1556" to-port="0"/>
		<edge from-layer="1554" from-port="0" to-layer="1555" to-port="0"/>
		<edge from-layer="1555" from-port="1" to-layer="1556" to-port="1"/>
		<edge from-layer="1556" from-port="2" to-layer="1558" to-port="0"/>
		<edge from-layer="1557" from-port="0" to-layer="1558" to-port="1"/>
		<edge from-layer="1558" from-port="2" to-layer="1560" to-port="0"/>
		<edge from-layer="1559" from-port="0" to-layer="1560" to-port="1"/>
		<edge from-layer="1560" from-port="2" to-layer="1563" to-port="0"/>
		<edge from-layer="1561" from-port="0" to-layer="1562" to-port="0"/>
		<edge from-layer="1562" from-port="1" to-layer="1563" to-port="1"/>
		<edge from-layer="1563" from-port="2" to-layer="1564" to-port="0"/>
		<edge from-layer="1564" from-port="1" to-layer="1565" to-port="1"/>
		<edge from-layer="1565" from-port="2" to-layer="1566" to-port="1"/>
		<edge from-layer="1566" from-port="2" to-layer="1569" to-port="0"/>
		<edge from-layer="1567" from-port="0" to-layer="1568" to-port="0"/>
		<edge from-layer="1568" from-port="1" to-layer="1569" to-port="1"/>
		<edge from-layer="1569" from-port="2" to-layer="1570" to-port="0"/>
		<edge from-layer="1570" from-port="1" to-layer="1573" to-port="0"/>
		<edge from-layer="1571" from-port="0" to-layer="1572" to-port="0"/>
		<edge from-layer="1572" from-port="1" to-layer="1573" to-port="1"/>
		<edge from-layer="1573" from-port="2" to-layer="1588" to-port="0"/>
		<edge from-layer="1573" from-port="2" to-layer="1580" to-port="0"/>
		<edge from-layer="1573" from-port="2" to-layer="1584" to-port="0"/>
		<edge from-layer="1573" from-port="2" to-layer="1584" to-port="1"/>
		<edge from-layer="1573" from-port="2" to-layer="1575" to-port="0"/>
		<edge from-layer="1574" from-port="0" to-layer="1575" to-port="1"/>
		<edge from-layer="1575" from-port="2" to-layer="1577" to-port="0"/>
		<edge from-layer="1576" from-port="0" to-layer="1577" to-port="1"/>
		<edge from-layer="1577" from-port="2" to-layer="1579" to-port="0"/>
		<edge from-layer="1578" from-port="0" to-layer="1579" to-port="1"/>
		<edge from-layer="1579" from-port="2" to-layer="1580" to-port="1"/>
		<edge from-layer="1580" from-port="2" to-layer="1581" to-port="1"/>
		<edge from-layer="1581" from-port="2" to-layer="1605" to-port="0"/>
		<edge from-layer="1582" from-port="0" to-layer="1583" to-port="0"/>
		<edge from-layer="1583" from-port="1" to-layer="1604" to-port="0"/>
		<edge from-layer="1584" from-port="2" to-layer="1586" to-port="0"/>
		<edge from-layer="1585" from-port="0" to-layer="1586" to-port="1"/>
		<edge from-layer="1586" from-port="2" to-layer="1590" to-port="0"/>
		<edge from-layer="1587" from-port="0" to-layer="1588" to-port="1"/>
		<edge from-layer="1588" from-port="2" to-layer="1589" to-port="0"/>
		<edge from-layer="1588" from-port="2" to-layer="1589" to-port="1"/>
		<edge from-layer="1589" from-port="2" to-layer="1590" to-port="1"/>
		<edge from-layer="1590" from-port="2" to-layer="1591" to-port="0"/>
		<edge from-layer="1591" from-port="1" to-layer="1592" to-port="0"/>
		<edge from-layer="1592" from-port="1" to-layer="1595" to-port="0"/>
		<edge from-layer="1593" from-port="0" to-layer="1594" to-port="0"/>
		<edge from-layer="1594" from-port="1" to-layer="1595" to-port="1"/>
		<edge from-layer="1595" from-port="2" to-layer="1597" to-port="0"/>
		<edge from-layer="1596" from-port="0" to-layer="1597" to-port="1"/>
		<edge from-layer="1597" from-port="2" to-layer="1599" to-port="0"/>
		<edge from-layer="1598" from-port="0" to-layer="1599" to-port="1"/>
		<edge from-layer="1599" from-port="2" to-layer="1602" to-port="0"/>
		<edge from-layer="1600" from-port="0" to-layer="1601" to-port="0"/>
		<edge from-layer="1601" from-port="1" to-layer="1602" to-port="1"/>
		<edge from-layer="1602" from-port="2" to-layer="1603" to-port="0"/>
		<edge from-layer="1603" from-port="1" to-layer="1604" to-port="1"/>
		<edge from-layer="1604" from-port="2" to-layer="1605" to-port="1"/>
		<edge from-layer="1605" from-port="2" to-layer="1608" to-port="0"/>
		<edge from-layer="1606" from-port="0" to-layer="1607" to-port="0"/>
		<edge from-layer="1607" from-port="1" to-layer="1608" to-port="1"/>
		<edge from-layer="1608" from-port="2" to-layer="1609" to-port="1"/>
		<edge from-layer="1609" from-port="2" to-layer="1612" to-port="0"/>
		<edge from-layer="1610" from-port="0" to-layer="1611" to-port="0"/>
		<edge from-layer="1611" from-port="1" to-layer="1612" to-port="1"/>
		<edge from-layer="1612" from-port="2" to-layer="1623" to-port="0"/>
		<edge from-layer="1612" from-port="2" to-layer="1627" to-port="0"/>
		<edge from-layer="1612" from-port="2" to-layer="1619" to-port="0"/>
		<edge from-layer="1612" from-port="2" to-layer="1614" to-port="0"/>
		<edge from-layer="1612" from-port="2" to-layer="1623" to-port="1"/>
		<edge from-layer="1613" from-port="0" to-layer="1614" to-port="1"/>
		<edge from-layer="1614" from-port="2" to-layer="1616" to-port="0"/>
		<edge from-layer="1615" from-port="0" to-layer="1616" to-port="1"/>
		<edge from-layer="1616" from-port="2" to-layer="1618" to-port="0"/>
		<edge from-layer="1617" from-port="0" to-layer="1618" to-port="1"/>
		<edge from-layer="1618" from-port="2" to-layer="1619" to-port="1"/>
		<edge from-layer="1619" from-port="2" to-layer="1620" to-port="1"/>
		<edge from-layer="1620" from-port="2" to-layer="1644" to-port="0"/>
		<edge from-layer="1621" from-port="0" to-layer="1622" to-port="0"/>
		<edge from-layer="1622" from-port="1" to-layer="1643" to-port="0"/>
		<edge from-layer="1623" from-port="2" to-layer="1625" to-port="0"/>
		<edge from-layer="1624" from-port="0" to-layer="1625" to-port="1"/>
		<edge from-layer="1625" from-port="2" to-layer="1629" to-port="0"/>
		<edge from-layer="1626" from-port="0" to-layer="1627" to-port="1"/>
		<edge from-layer="1627" from-port="2" to-layer="1628" to-port="1"/>
		<edge from-layer="1627" from-port="2" to-layer="1628" to-port="0"/>
		<edge from-layer="1628" from-port="2" to-layer="1629" to-port="1"/>
		<edge from-layer="1629" from-port="2" to-layer="1630" to-port="0"/>
		<edge from-layer="1630" from-port="1" to-layer="1631" to-port="0"/>
		<edge from-layer="1631" from-port="1" to-layer="1634" to-port="0"/>
		<edge from-layer="1632" from-port="0" to-layer="1633" to-port="0"/>
		<edge from-layer="1633" from-port="1" to-layer="1634" to-port="1"/>
		<edge from-layer="1634" from-port="2" to-layer="1636" to-port="0"/>
		<edge from-layer="1635" from-port="0" to-layer="1636" to-port="1"/>
		<edge from-layer="1636" from-port="2" to-layer="1638" to-port="0"/>
		<edge from-layer="1637" from-port="0" to-layer="1638" to-port="1"/>
		<edge from-layer="1638" from-port="2" to-layer="1641" to-port="0"/>
		<edge from-layer="1639" from-port="0" to-layer="1640" to-port="0"/>
		<edge from-layer="1640" from-port="1" to-layer="1641" to-port="1"/>
		<edge from-layer="1641" from-port="2" to-layer="1642" to-port="0"/>
		<edge from-layer="1642" from-port="1" to-layer="1643" to-port="1"/>
		<edge from-layer="1643" from-port="2" to-layer="1644" to-port="1"/>
		<edge from-layer="1644" from-port="2" to-layer="1647" to-port="0"/>
		<edge from-layer="1645" from-port="0" to-layer="1646" to-port="0"/>
		<edge from-layer="1646" from-port="1" to-layer="1647" to-port="1"/>
		<edge from-layer="1647" from-port="2" to-layer="1648" to-port="0"/>
		<edge from-layer="1648" from-port="1" to-layer="1651" to-port="0"/>
		<edge from-layer="1649" from-port="0" to-layer="1650" to-port="0"/>
		<edge from-layer="1650" from-port="1" to-layer="1651" to-port="1"/>
		<edge from-layer="1651" from-port="2" to-layer="1653" to-port="0"/>
		<edge from-layer="1651" from-port="2" to-layer="1658" to-port="0"/>
		<edge from-layer="1651" from-port="2" to-layer="1662" to-port="0"/>
		<edge from-layer="1651" from-port="2" to-layer="1662" to-port="1"/>
		<edge from-layer="1651" from-port="2" to-layer="1666" to-port="0"/>
		<edge from-layer="1652" from-port="0" to-layer="1653" to-port="1"/>
		<edge from-layer="1653" from-port="2" to-layer="1655" to-port="0"/>
		<edge from-layer="1654" from-port="0" to-layer="1655" to-port="1"/>
		<edge from-layer="1655" from-port="2" to-layer="1657" to-port="0"/>
		<edge from-layer="1656" from-port="0" to-layer="1657" to-port="1"/>
		<edge from-layer="1657" from-port="2" to-layer="1658" to-port="1"/>
		<edge from-layer="1658" from-port="2" to-layer="1659" to-port="1"/>
		<edge from-layer="1659" from-port="2" to-layer="1683" to-port="0"/>
		<edge from-layer="1660" from-port="0" to-layer="1661" to-port="0"/>
		<edge from-layer="1661" from-port="1" to-layer="1682" to-port="0"/>
		<edge from-layer="1662" from-port="2" to-layer="1664" to-port="0"/>
		<edge from-layer="1663" from-port="0" to-layer="1664" to-port="1"/>
		<edge from-layer="1664" from-port="2" to-layer="1668" to-port="0"/>
		<edge from-layer="1665" from-port="0" to-layer="1666" to-port="1"/>
		<edge from-layer="1666" from-port="2" to-layer="1667" to-port="1"/>
		<edge from-layer="1666" from-port="2" to-layer="1667" to-port="0"/>
		<edge from-layer="1667" from-port="2" to-layer="1668" to-port="1"/>
		<edge from-layer="1668" from-port="2" to-layer="1669" to-port="0"/>
		<edge from-layer="1669" from-port="1" to-layer="1670" to-port="0"/>
		<edge from-layer="1670" from-port="1" to-layer="1673" to-port="0"/>
		<edge from-layer="1671" from-port="0" to-layer="1672" to-port="0"/>
		<edge from-layer="1672" from-port="1" to-layer="1673" to-port="1"/>
		<edge from-layer="1673" from-port="2" to-layer="1675" to-port="0"/>
		<edge from-layer="1674" from-port="0" to-layer="1675" to-port="1"/>
		<edge from-layer="1675" from-port="2" to-layer="1677" to-port="0"/>
		<edge from-layer="1676" from-port="0" to-layer="1677" to-port="1"/>
		<edge from-layer="1677" from-port="2" to-layer="1680" to-port="0"/>
		<edge from-layer="1678" from-port="0" to-layer="1679" to-port="0"/>
		<edge from-layer="1679" from-port="1" to-layer="1680" to-port="1"/>
		<edge from-layer="1680" from-port="2" to-layer="1681" to-port="0"/>
		<edge from-layer="1681" from-port="1" to-layer="1682" to-port="1"/>
		<edge from-layer="1682" from-port="2" to-layer="1683" to-port="1"/>
		<edge from-layer="1683" from-port="2" to-layer="1686" to-port="0"/>
		<edge from-layer="1684" from-port="0" to-layer="1685" to-port="0"/>
		<edge from-layer="1685" from-port="1" to-layer="1686" to-port="1"/>
		<edge from-layer="1686" from-port="2" to-layer="1687" to-port="0"/>
		<edge from-layer="1687" from-port="1" to-layer="1690" to-port="0"/>
		<edge from-layer="1688" from-port="0" to-layer="1689" to-port="0"/>
		<edge from-layer="1689" from-port="1" to-layer="1690" to-port="1"/>
		<edge from-layer="1690" from-port="2" to-layer="1692" to-port="0"/>
		<edge from-layer="1690" from-port="2" to-layer="1701" to-port="1"/>
		<edge from-layer="1690" from-port="2" to-layer="1697" to-port="0"/>
		<edge from-layer="1690" from-port="2" to-layer="1705" to-port="0"/>
		<edge from-layer="1690" from-port="2" to-layer="1701" to-port="0"/>
		<edge from-layer="1691" from-port="0" to-layer="1692" to-port="1"/>
		<edge from-layer="1692" from-port="2" to-layer="1694" to-port="0"/>
		<edge from-layer="1693" from-port="0" to-layer="1694" to-port="1"/>
		<edge from-layer="1694" from-port="2" to-layer="1696" to-port="0"/>
		<edge from-layer="1695" from-port="0" to-layer="1696" to-port="1"/>
		<edge from-layer="1696" from-port="2" to-layer="1697" to-port="1"/>
		<edge from-layer="1697" from-port="2" to-layer="1698" to-port="1"/>
		<edge from-layer="1698" from-port="2" to-layer="1722" to-port="0"/>
		<edge from-layer="1699" from-port="0" to-layer="1700" to-port="0"/>
		<edge from-layer="1700" from-port="1" to-layer="1721" to-port="0"/>
		<edge from-layer="1701" from-port="2" to-layer="1703" to-port="0"/>
		<edge from-layer="1702" from-port="0" to-layer="1703" to-port="1"/>
		<edge from-layer="1703" from-port="2" to-layer="1707" to-port="0"/>
		<edge from-layer="1704" from-port="0" to-layer="1705" to-port="1"/>
		<edge from-layer="1705" from-port="2" to-layer="1706" to-port="0"/>
		<edge from-layer="1705" from-port="2" to-layer="1706" to-port="1"/>
		<edge from-layer="1706" from-port="2" to-layer="1707" to-port="1"/>
		<edge from-layer="1707" from-port="2" to-layer="1708" to-port="0"/>
		<edge from-layer="1708" from-port="1" to-layer="1709" to-port="0"/>
		<edge from-layer="1709" from-port="1" to-layer="1712" to-port="0"/>
		<edge from-layer="1710" from-port="0" to-layer="1711" to-port="0"/>
		<edge from-layer="1711" from-port="1" to-layer="1712" to-port="1"/>
		<edge from-layer="1712" from-port="2" to-layer="1714" to-port="0"/>
		<edge from-layer="1713" from-port="0" to-layer="1714" to-port="1"/>
		<edge from-layer="1714" from-port="2" to-layer="1716" to-port="0"/>
		<edge from-layer="1715" from-port="0" to-layer="1716" to-port="1"/>
		<edge from-layer="1716" from-port="2" to-layer="1719" to-port="0"/>
		<edge from-layer="1717" from-port="0" to-layer="1718" to-port="0"/>
		<edge from-layer="1718" from-port="1" to-layer="1719" to-port="1"/>
		<edge from-layer="1719" from-port="2" to-layer="1720" to-port="0"/>
		<edge from-layer="1720" from-port="1" to-layer="1721" to-port="1"/>
		<edge from-layer="1721" from-port="2" to-layer="1722" to-port="1"/>
		<edge from-layer="1722" from-port="2" to-layer="1725" to-port="0"/>
		<edge from-layer="1723" from-port="0" to-layer="1724" to-port="0"/>
		<edge from-layer="1724" from-port="1" to-layer="1725" to-port="1"/>
		<edge from-layer="1725" from-port="2" to-layer="1848" to-port="0"/>
		<edge from-layer="1725" from-port="2" to-layer="1734" to-port="0"/>
		<edge from-layer="1726" from-port="0" to-layer="1727" to-port="0"/>
		<edge from-layer="1727" from-port="1" to-layer="1820" to-port="0"/>
		<edge from-layer="1728" from-port="0" to-layer="1729" to-port="0"/>
		<edge from-layer="1729" from-port="1" to-layer="1781" to-port="0"/>
		<edge from-layer="1730" from-port="0" to-layer="1731" to-port="0"/>
		<edge from-layer="1731" from-port="1" to-layer="1742" to-port="0"/>
		<edge from-layer="1732" from-port="0" to-layer="1733" to-port="0"/>
		<edge from-layer="1733" from-port="1" to-layer="1734" to-port="1"/>
		<edge from-layer="1734" from-port="2" to-layer="1745" to-port="0"/>
		<edge from-layer="1734" from-port="2" to-layer="1749" to-port="0"/>
		<edge from-layer="1734" from-port="2" to-layer="1745" to-port="1"/>
		<edge from-layer="1734" from-port="2" to-layer="1736" to-port="0"/>
		<edge from-layer="1734" from-port="2" to-layer="1741" to-port="0"/>
		<edge from-layer="1735" from-port="0" to-layer="1736" to-port="1"/>
		<edge from-layer="1736" from-port="2" to-layer="1738" to-port="0"/>
		<edge from-layer="1737" from-port="0" to-layer="1738" to-port="1"/>
		<edge from-layer="1738" from-port="2" to-layer="1740" to-port="0"/>
		<edge from-layer="1739" from-port="0" to-layer="1740" to-port="1"/>
		<edge from-layer="1740" from-port="2" to-layer="1741" to-port="1"/>
		<edge from-layer="1741" from-port="2" to-layer="1742" to-port="1"/>
		<edge from-layer="1742" from-port="2" to-layer="1766" to-port="0"/>
		<edge from-layer="1743" from-port="0" to-layer="1744" to-port="0"/>
		<edge from-layer="1744" from-port="1" to-layer="1765" to-port="0"/>
		<edge from-layer="1745" from-port="2" to-layer="1747" to-port="0"/>
		<edge from-layer="1746" from-port="0" to-layer="1747" to-port="1"/>
		<edge from-layer="1747" from-port="2" to-layer="1751" to-port="0"/>
		<edge from-layer="1748" from-port="0" to-layer="1749" to-port="1"/>
		<edge from-layer="1749" from-port="2" to-layer="1750" to-port="1"/>
		<edge from-layer="1749" from-port="2" to-layer="1750" to-port="0"/>
		<edge from-layer="1750" from-port="2" to-layer="1751" to-port="1"/>
		<edge from-layer="1751" from-port="2" to-layer="1752" to-port="0"/>
		<edge from-layer="1752" from-port="1" to-layer="1753" to-port="0"/>
		<edge from-layer="1753" from-port="1" to-layer="1756" to-port="0"/>
		<edge from-layer="1754" from-port="0" to-layer="1755" to-port="0"/>
		<edge from-layer="1755" from-port="1" to-layer="1756" to-port="1"/>
		<edge from-layer="1756" from-port="2" to-layer="1758" to-port="0"/>
		<edge from-layer="1757" from-port="0" to-layer="1758" to-port="1"/>
		<edge from-layer="1758" from-port="2" to-layer="1760" to-port="0"/>
		<edge from-layer="1759" from-port="0" to-layer="1760" to-port="1"/>
		<edge from-layer="1760" from-port="2" to-layer="1763" to-port="0"/>
		<edge from-layer="1761" from-port="0" to-layer="1762" to-port="0"/>
		<edge from-layer="1762" from-port="1" to-layer="1763" to-port="1"/>
		<edge from-layer="1763" from-port="2" to-layer="1764" to-port="0"/>
		<edge from-layer="1764" from-port="1" to-layer="1765" to-port="1"/>
		<edge from-layer="1765" from-port="2" to-layer="1766" to-port="1"/>
		<edge from-layer="1766" from-port="2" to-layer="1769" to-port="0"/>
		<edge from-layer="1767" from-port="0" to-layer="1768" to-port="0"/>
		<edge from-layer="1768" from-port="1" to-layer="1769" to-port="1"/>
		<edge from-layer="1769" from-port="2" to-layer="1770" to-port="0"/>
		<edge from-layer="1770" from-port="1" to-layer="1773" to-port="0"/>
		<edge from-layer="1771" from-port="0" to-layer="1772" to-port="0"/>
		<edge from-layer="1772" from-port="1" to-layer="1773" to-port="1"/>
		<edge from-layer="1773" from-port="2" to-layer="1775" to-port="0"/>
		<edge from-layer="1773" from-port="2" to-layer="1788" to-port="0"/>
		<edge from-layer="1773" from-port="2" to-layer="1780" to-port="0"/>
		<edge from-layer="1773" from-port="2" to-layer="1784" to-port="0"/>
		<edge from-layer="1773" from-port="2" to-layer="1784" to-port="1"/>
		<edge from-layer="1774" from-port="0" to-layer="1775" to-port="1"/>
		<edge from-layer="1775" from-port="2" to-layer="1777" to-port="0"/>
		<edge from-layer="1776" from-port="0" to-layer="1777" to-port="1"/>
		<edge from-layer="1777" from-port="2" to-layer="1779" to-port="0"/>
		<edge from-layer="1778" from-port="0" to-layer="1779" to-port="1"/>
		<edge from-layer="1779" from-port="2" to-layer="1780" to-port="1"/>
		<edge from-layer="1780" from-port="2" to-layer="1781" to-port="1"/>
		<edge from-layer="1781" from-port="2" to-layer="1805" to-port="0"/>
		<edge from-layer="1782" from-port="0" to-layer="1783" to-port="0"/>
		<edge from-layer="1783" from-port="1" to-layer="1804" to-port="0"/>
		<edge from-layer="1784" from-port="2" to-layer="1786" to-port="0"/>
		<edge from-layer="1785" from-port="0" to-layer="1786" to-port="1"/>
		<edge from-layer="1786" from-port="2" to-layer="1790" to-port="0"/>
		<edge from-layer="1787" from-port="0" to-layer="1788" to-port="1"/>
		<edge from-layer="1788" from-port="2" to-layer="1789" to-port="0"/>
		<edge from-layer="1788" from-port="2" to-layer="1789" to-port="1"/>
		<edge from-layer="1789" from-port="2" to-layer="1790" to-port="1"/>
		<edge from-layer="1790" from-port="2" to-layer="1791" to-port="0"/>
		<edge from-layer="1791" from-port="1" to-layer="1792" to-port="0"/>
		<edge from-layer="1792" from-port="1" to-layer="1795" to-port="0"/>
		<edge from-layer="1793" from-port="0" to-layer="1794" to-port="0"/>
		<edge from-layer="1794" from-port="1" to-layer="1795" to-port="1"/>
		<edge from-layer="1795" from-port="2" to-layer="1797" to-port="0"/>
		<edge from-layer="1796" from-port="0" to-layer="1797" to-port="1"/>
		<edge from-layer="1797" from-port="2" to-layer="1799" to-port="0"/>
		<edge from-layer="1798" from-port="0" to-layer="1799" to-port="1"/>
		<edge from-layer="1799" from-port="2" to-layer="1802" to-port="0"/>
		<edge from-layer="1800" from-port="0" to-layer="1801" to-port="0"/>
		<edge from-layer="1801" from-port="1" to-layer="1802" to-port="1"/>
		<edge from-layer="1802" from-port="2" to-layer="1803" to-port="0"/>
		<edge from-layer="1803" from-port="1" to-layer="1804" to-port="1"/>
		<edge from-layer="1804" from-port="2" to-layer="1805" to-port="1"/>
		<edge from-layer="1805" from-port="2" to-layer="1808" to-port="0"/>
		<edge from-layer="1806" from-port="0" to-layer="1807" to-port="0"/>
		<edge from-layer="1807" from-port="1" to-layer="1808" to-port="1"/>
		<edge from-layer="1808" from-port="2" to-layer="1809" to-port="0"/>
		<edge from-layer="1809" from-port="1" to-layer="1812" to-port="0"/>
		<edge from-layer="1810" from-port="0" to-layer="1811" to-port="0"/>
		<edge from-layer="1811" from-port="1" to-layer="1812" to-port="1"/>
		<edge from-layer="1812" from-port="2" to-layer="1814" to-port="0"/>
		<edge from-layer="1812" from-port="2" to-layer="1823" to-port="1"/>
		<edge from-layer="1812" from-port="2" to-layer="1819" to-port="0"/>
		<edge from-layer="1812" from-port="2" to-layer="1827" to-port="0"/>
		<edge from-layer="1812" from-port="2" to-layer="1823" to-port="0"/>
		<edge from-layer="1813" from-port="0" to-layer="1814" to-port="1"/>
		<edge from-layer="1814" from-port="2" to-layer="1816" to-port="0"/>
		<edge from-layer="1815" from-port="0" to-layer="1816" to-port="1"/>
		<edge from-layer="1816" from-port="2" to-layer="1818" to-port="0"/>
		<edge from-layer="1817" from-port="0" to-layer="1818" to-port="1"/>
		<edge from-layer="1818" from-port="2" to-layer="1819" to-port="1"/>
		<edge from-layer="1819" from-port="2" to-layer="1820" to-port="1"/>
		<edge from-layer="1820" from-port="2" to-layer="1844" to-port="0"/>
		<edge from-layer="1821" from-port="0" to-layer="1822" to-port="0"/>
		<edge from-layer="1822" from-port="1" to-layer="1843" to-port="0"/>
		<edge from-layer="1823" from-port="2" to-layer="1825" to-port="0"/>
		<edge from-layer="1824" from-port="0" to-layer="1825" to-port="1"/>
		<edge from-layer="1825" from-port="2" to-layer="1829" to-port="0"/>
		<edge from-layer="1826" from-port="0" to-layer="1827" to-port="1"/>
		<edge from-layer="1827" from-port="2" to-layer="1828" to-port="0"/>
		<edge from-layer="1827" from-port="2" to-layer="1828" to-port="1"/>
		<edge from-layer="1828" from-port="2" to-layer="1829" to-port="1"/>
		<edge from-layer="1829" from-port="2" to-layer="1830" to-port="0"/>
		<edge from-layer="1830" from-port="1" to-layer="1831" to-port="0"/>
		<edge from-layer="1831" from-port="1" to-layer="1834" to-port="0"/>
		<edge from-layer="1832" from-port="0" to-layer="1833" to-port="0"/>
		<edge from-layer="1833" from-port="1" to-layer="1834" to-port="1"/>
		<edge from-layer="1834" from-port="2" to-layer="1836" to-port="0"/>
		<edge from-layer="1835" from-port="0" to-layer="1836" to-port="1"/>
		<edge from-layer="1836" from-port="2" to-layer="1838" to-port="0"/>
		<edge from-layer="1837" from-port="0" to-layer="1838" to-port="1"/>
		<edge from-layer="1838" from-port="2" to-layer="1841" to-port="0"/>
		<edge from-layer="1839" from-port="0" to-layer="1840" to-port="0"/>
		<edge from-layer="1840" from-port="1" to-layer="1841" to-port="1"/>
		<edge from-layer="1841" from-port="2" to-layer="1842" to-port="0"/>
		<edge from-layer="1842" from-port="1" to-layer="1843" to-port="1"/>
		<edge from-layer="1843" from-port="2" to-layer="1844" to-port="1"/>
		<edge from-layer="1844" from-port="2" to-layer="1847" to-port="0"/>
		<edge from-layer="1845" from-port="0" to-layer="1846" to-port="0"/>
		<edge from-layer="1846" from-port="1" to-layer="1847" to-port="1"/>
		<edge from-layer="1847" from-port="2" to-layer="1848" to-port="1"/>
		<edge from-layer="1848" from-port="2" to-layer="1851" to-port="0"/>
		<edge from-layer="1849" from-port="0" to-layer="1850" to-port="0"/>
		<edge from-layer="1850" from-port="1" to-layer="1851" to-port="1"/>
		<edge from-layer="1851" from-port="2" to-layer="1869" to-port="0"/>
		<edge from-layer="1851" from-port="2" to-layer="1854" to-port="0"/>
		<edge from-layer="1851" from-port="2" to-layer="1874" to-port="0"/>
		<edge from-layer="1852" from-port="0" to-layer="1853" to-port="0"/>
		<edge from-layer="1853" from-port="1" to-layer="1854" to-port="1"/>
		<edge from-layer="1854" from-port="2" to-layer="1855" to-port="0"/>
		<edge from-layer="1855" from-port="1" to-layer="1858" to-port="0"/>
		<edge from-layer="1856" from-port="0" to-layer="1857" to-port="0"/>
		<edge from-layer="1857" from-port="1" to-layer="1858" to-port="1"/>
		<edge from-layer="1858" from-port="2" to-layer="1859" to-port="0"/>
		<edge from-layer="1859" from-port="1" to-layer="1860" to-port="0"/>
		<edge from-layer="1859" from-port="1" to-layer="1865" to-port="0"/>
		<edge from-layer="1860" from-port="1" to-layer="1861" to-port="0"/>
		<edge from-layer="1861" from-port="1" to-layer="1863" to-port="0"/>
		<edge from-layer="1862" from-port="0" to-layer="1863" to-port="1"/>
		<edge from-layer="1862" from-port="0" to-layer="1865" to-port="2"/>
		<edge from-layer="1863" from-port="2" to-layer="1864" to-port="0"/>
		<edge from-layer="1864" from-port="1" to-layer="1865" to-port="1"/>
		<edge from-layer="1865" from-port="3" to-layer="1965" to-port="0"/>
		<edge from-layer="1866" from-port="0" to-layer="1867" to-port="0"/>
		<edge from-layer="1867" from-port="1" to-layer="1868" to-port="1"/>
		<edge from-layer="1868" from-port="2" to-layer="1875" to-port="0"/>
		<edge from-layer="1869" from-port="1" to-layer="1870" to-port="0"/>
		<edge from-layer="1870" from-port="1" to-layer="1872" to-port="0"/>
		<edge from-layer="1871" from-port="0" to-layer="1872" to-port="1"/>
		<edge from-layer="1871" from-port="0" to-layer="1874" to-port="2"/>
		<edge from-layer="1872" from-port="2" to-layer="1873" to-port="0"/>
		<edge from-layer="1873" from-port="1" to-layer="1874" to-port="1"/>
		<edge from-layer="1874" from-port="3" to-layer="1875" to-port="1"/>
		<edge from-layer="1875" from-port="2" to-layer="1878" to-port="0"/>
		<edge from-layer="1876" from-port="0" to-layer="1877" to-port="0"/>
		<edge from-layer="1877" from-port="1" to-layer="1878" to-port="1"/>
		<edge from-layer="1878" from-port="2" to-layer="1881" to-port="0"/>
		<edge from-layer="1879" from-port="0" to-layer="1880" to-port="0"/>
		<edge from-layer="1880" from-port="1" to-layer="1881" to-port="1"/>
		<edge from-layer="1881" from-port="2" to-layer="1883" to-port="0"/>
		<edge from-layer="1882" from-port="0" to-layer="1883" to-port="1"/>
		<edge from-layer="1883" from-port="2" to-layer="1884" to-port="0"/>
		<edge from-layer="1884" from-port="1" to-layer="1887" to-port="0"/>
		<edge from-layer="1884" from-port="1" to-layer="1902" to-port="0"/>
		<edge from-layer="1884" from-port="1" to-layer="1907" to-port="0"/>
		<edge from-layer="1885" from-port="0" to-layer="1886" to-port="0"/>
		<edge from-layer="1886" from-port="1" to-layer="1887" to-port="1"/>
		<edge from-layer="1887" from-port="2" to-layer="1888" to-port="0"/>
		<edge from-layer="1888" from-port="1" to-layer="1891" to-port="0"/>
		<edge from-layer="1889" from-port="0" to-layer="1890" to-port="0"/>
		<edge from-layer="1890" from-port="1" to-layer="1891" to-port="1"/>
		<edge from-layer="1891" from-port="2" to-layer="1892" to-port="0"/>
		<edge from-layer="1892" from-port="1" to-layer="1893" to-port="0"/>
		<edge from-layer="1892" from-port="1" to-layer="1898" to-port="0"/>
		<edge from-layer="1893" from-port="1" to-layer="1894" to-port="0"/>
		<edge from-layer="1894" from-port="1" to-layer="1896" to-port="0"/>
		<edge from-layer="1895" from-port="0" to-layer="1896" to-port="1"/>
		<edge from-layer="1895" from-port="0" to-layer="1898" to-port="2"/>
		<edge from-layer="1896" from-port="2" to-layer="1897" to-port="0"/>
		<edge from-layer="1897" from-port="1" to-layer="1898" to-port="1"/>
		<edge from-layer="1898" from-port="3" to-layer="1965" to-port="1"/>
		<edge from-layer="1899" from-port="0" to-layer="1900" to-port="0"/>
		<edge from-layer="1900" from-port="1" to-layer="1901" to-port="1"/>
		<edge from-layer="1901" from-port="2" to-layer="1908" to-port="0"/>
		<edge from-layer="1902" from-port="1" to-layer="1903" to-port="0"/>
		<edge from-layer="1903" from-port="1" to-layer="1905" to-port="0"/>
		<edge from-layer="1904" from-port="0" to-layer="1907" to-port="2"/>
		<edge from-layer="1904" from-port="0" to-layer="1905" to-port="1"/>
		<edge from-layer="1905" from-port="2" to-layer="1906" to-port="0"/>
		<edge from-layer="1906" from-port="1" to-layer="1907" to-port="1"/>
		<edge from-layer="1907" from-port="3" to-layer="1908" to-port="1"/>
		<edge from-layer="1908" from-port="2" to-layer="1911" to-port="0"/>
		<edge from-layer="1909" from-port="0" to-layer="1910" to-port="0"/>
		<edge from-layer="1910" from-port="1" to-layer="1911" to-port="1"/>
		<edge from-layer="1911" from-port="2" to-layer="1914" to-port="0"/>
		<edge from-layer="1912" from-port="0" to-layer="1913" to-port="0"/>
		<edge from-layer="1913" from-port="1" to-layer="1914" to-port="1"/>
		<edge from-layer="1914" from-port="2" to-layer="1916" to-port="0"/>
		<edge from-layer="1915" from-port="0" to-layer="1916" to-port="1"/>
		<edge from-layer="1916" from-port="2" to-layer="1917" to-port="0"/>
		<edge from-layer="1917" from-port="1" to-layer="1920" to-port="0"/>
		<edge from-layer="1917" from-port="1" to-layer="1940" to-port="0"/>
		<edge from-layer="1917" from-port="1" to-layer="1935" to-port="0"/>
		<edge from-layer="1918" from-port="0" to-layer="1919" to-port="0"/>
		<edge from-layer="1919" from-port="1" to-layer="1920" to-port="1"/>
		<edge from-layer="1920" from-port="2" to-layer="1921" to-port="0"/>
		<edge from-layer="1921" from-port="1" to-layer="1924" to-port="0"/>
		<edge from-layer="1922" from-port="0" to-layer="1923" to-port="0"/>
		<edge from-layer="1923" from-port="1" to-layer="1924" to-port="1"/>
		<edge from-layer="1924" from-port="2" to-layer="1925" to-port="0"/>
		<edge from-layer="1925" from-port="1" to-layer="1926" to-port="0"/>
		<edge from-layer="1925" from-port="1" to-layer="1931" to-port="0"/>
		<edge from-layer="1926" from-port="1" to-layer="1927" to-port="0"/>
		<edge from-layer="1927" from-port="1" to-layer="1929" to-port="0"/>
		<edge from-layer="1928" from-port="0" to-layer="1929" to-port="1"/>
		<edge from-layer="1928" from-port="0" to-layer="1931" to-port="2"/>
		<edge from-layer="1929" from-port="2" to-layer="1930" to-port="0"/>
		<edge from-layer="1930" from-port="1" to-layer="1931" to-port="1"/>
		<edge from-layer="1931" from-port="3" to-layer="1965" to-port="2"/>
		<edge from-layer="1932" from-port="0" to-layer="1933" to-port="0"/>
		<edge from-layer="1933" from-port="1" to-layer="1934" to-port="1"/>
		<edge from-layer="1934" from-port="2" to-layer="1941" to-port="0"/>
		<edge from-layer="1935" from-port="1" to-layer="1936" to-port="0"/>
		<edge from-layer="1936" from-port="1" to-layer="1938" to-port="0"/>
		<edge from-layer="1937" from-port="0" to-layer="1938" to-port="1"/>
		<edge from-layer="1937" from-port="0" to-layer="1940" to-port="2"/>
		<edge from-layer="1938" from-port="2" to-layer="1939" to-port="0"/>
		<edge from-layer="1939" from-port="1" to-layer="1940" to-port="1"/>
		<edge from-layer="1940" from-port="3" to-layer="1941" to-port="1"/>
		<edge from-layer="1941" from-port="2" to-layer="1944" to-port="0"/>
		<edge from-layer="1942" from-port="0" to-layer="1943" to-port="0"/>
		<edge from-layer="1943" from-port="1" to-layer="1944" to-port="1"/>
		<edge from-layer="1944" from-port="2" to-layer="1947" to-port="0"/>
		<edge from-layer="1945" from-port="0" to-layer="1946" to-port="0"/>
		<edge from-layer="1946" from-port="1" to-layer="1947" to-port="1"/>
		<edge from-layer="1947" from-port="2" to-layer="1949" to-port="0"/>
		<edge from-layer="1948" from-port="0" to-layer="1949" to-port="1"/>
		<edge from-layer="1949" from-port="2" to-layer="1950" to-port="0"/>
		<edge from-layer="1950" from-port="1" to-layer="1953" to-port="0"/>
		<edge from-layer="1951" from-port="0" to-layer="1952" to-port="0"/>
		<edge from-layer="1952" from-port="1" to-layer="1953" to-port="1"/>
		<edge from-layer="1953" from-port="2" to-layer="1954" to-port="0"/>
		<edge from-layer="1954" from-port="1" to-layer="1957" to-port="0"/>
		<edge from-layer="1955" from-port="0" to-layer="1956" to-port="0"/>
		<edge from-layer="1956" from-port="1" to-layer="1957" to-port="1"/>
		<edge from-layer="1957" from-port="2" to-layer="1958" to-port="0"/>
		<edge from-layer="1958" from-port="1" to-layer="1959" to-port="0"/>
		<edge from-layer="1958" from-port="1" to-layer="1964" to-port="0"/>
		<edge from-layer="1959" from-port="1" to-layer="1960" to-port="0"/>
		<edge from-layer="1960" from-port="1" to-layer="1962" to-port="0"/>
		<edge from-layer="1961" from-port="0" to-layer="1962" to-port="1"/>
		<edge from-layer="1961" from-port="0" to-layer="1964" to-port="2"/>
		<edge from-layer="1962" from-port="2" to-layer="1963" to-port="0"/>
		<edge from-layer="1963" from-port="1" to-layer="1964" to-port="1"/>
		<edge from-layer="1964" from-port="3" to-layer="1965" to-port="3"/>
		<edge from-layer="1965" from-port="4" to-layer="1968" to-port="0"/>
		<edge from-layer="1966" from-port="0" to-layer="1967" to-port="0"/>
		<edge from-layer="1967" from-port="1" to-layer="1968" to-port="1"/>
		<edge from-layer="1968" from-port="2" to-layer="1971" to-port="0"/>
		<edge from-layer="1969" from-port="0" to-layer="1970" to-port="0"/>
		<edge from-layer="1970" from-port="1" to-layer="1971" to-port="1"/>
		<edge from-layer="1971" from-port="2" to-layer="1973" to-port="0"/>
		<edge from-layer="1972" from-port="0" to-layer="1973" to-port="1"/>
		<edge from-layer="1973" from-port="2" to-layer="1974" to-port="0"/>
		<edge from-layer="1974" from-port="1" to-layer="1975" to-port="0"/>
		<edge from-layer="1974" from-port="1" to-layer="1980" to-port="0"/>
		<edge from-layer="1975" from-port="1" to-layer="1976" to-port="0"/>
		<edge from-layer="1976" from-port="1" to-layer="1978" to-port="0"/>
		<edge from-layer="1977" from-port="0" to-layer="1978" to-port="1"/>
		<edge from-layer="1977" from-port="0" to-layer="1980" to-port="2"/>
		<edge from-layer="1978" from-port="2" to-layer="1979" to-port="0"/>
		<edge from-layer="1979" from-port="1" to-layer="1980" to-port="1"/>
		<edge from-layer="1980" from-port="3" to-layer="1984" to-port="0"/>
		<edge from-layer="1981" from-port="0" to-layer="1982" to-port="0"/>
		<edge from-layer="1982" from-port="1" to-layer="1983" to-port="1"/>
		<edge from-layer="1983" from-port="2" to-layer="1984" to-port="1"/>
		<edge from-layer="1984" from-port="2" to-layer="1987" to-port="0"/>
		<edge from-layer="1985" from-port="0" to-layer="1986" to-port="0"/>
		<edge from-layer="1986" from-port="1" to-layer="1987" to-port="1"/>
		<edge from-layer="1987" from-port="2" to-layer="1990" to-port="0"/>
		<edge from-layer="1988" from-port="0" to-layer="1989" to-port="0"/>
		<edge from-layer="1989" from-port="1" to-layer="1990" to-port="1"/>
		<edge from-layer="1990" from-port="2" to-layer="1992" to-port="0"/>
		<edge from-layer="1991" from-port="0" to-layer="1992" to-port="1"/>
		<edge from-layer="1992" from-port="2" to-layer="1993" to-port="0"/>
		<edge from-layer="1993" from-port="1" to-layer="1994" to-port="0"/>
		<edge from-layer="1993" from-port="1" to-layer="1999" to-port="0"/>
		<edge from-layer="1994" from-port="1" to-layer="1995" to-port="0"/>
		<edge from-layer="1995" from-port="1" to-layer="1997" to-port="0"/>
		<edge from-layer="1996" from-port="0" to-layer="1997" to-port="1"/>
		<edge from-layer="1996" from-port="0" to-layer="1999" to-port="2"/>
		<edge from-layer="1997" from-port="2" to-layer="1998" to-port="0"/>
		<edge from-layer="1998" from-port="1" to-layer="1999" to-port="1"/>
		<edge from-layer="1999" from-port="3" to-layer="2002" to-port="0"/>
		<edge from-layer="2000" from-port="0" to-layer="2001" to-port="0"/>
		<edge from-layer="2001" from-port="1" to-layer="2002" to-port="1"/>
		<edge from-layer="2002" from-port="2" to-layer="2005" to-port="0"/>
		<edge from-layer="2003" from-port="0" to-layer="2004" to-port="0"/>
		<edge from-layer="2004" from-port="1" to-layer="2005" to-port="1"/>
		<edge from-layer="2005" from-port="2" to-layer="2006" to-port="0"/>
		<edge from-layer="2006" from-port="1" to-layer="2007" to-port="0"/>
		<edge from-layer="2007" from-port="2" to-layer="2008" to-port="0"/>
		<edge from-layer="2008" from-port="1" to-layer="2011" to-port="0"/>
		<edge from-layer="2009" from-port="0" to-layer="2010" to-port="0"/>
		<edge from-layer="2010" from-port="1" to-layer="2011" to-port="1"/>
		<edge from-layer="2011" from-port="2" to-layer="2014" to-port="0"/>
		<edge from-layer="2012" from-port="0" to-layer="2013" to-port="0"/>
		<edge from-layer="2013" from-port="1" to-layer="2014" to-port="1"/>
		<edge from-layer="2014" from-port="2" to-layer="2017" to-port="0"/>
		<edge from-layer="2015" from-port="0" to-layer="2017" to-port="1"/>
		<edge from-layer="2016" from-port="0" to-layer="2017" to-port="2"/>
		<edge from-layer="2017" from-port="3" to-layer="2018" to-port="0"/>
	</edges>
	<meta_data>
		<MO_version value="2022.1.0-7009-19bdd019745-refs/pull/1012/head"/>
		<Runtime_version value="2022.1.0-7009-19bdd019745-refs/pull/1012/head"/>
		<legacy_path value="False"/>
		<cli_parameters>
			<caffe_parser_path value="DIR"/>
			<compress_fp16 value="True"/>
			<data_type value="FP32"/>
			<disable_nhwc_to_nchw value="False"/>
			<disable_omitting_optional value="False"/>
			<disable_resnet_optimization value="False"/>
			<disable_weights_compression value="False"/>
			<enable_concat_optimization value="False"/>
			<enable_flattening_nested_params value="False"/>
			<enable_ssd_gluoncv value="False"/>
			<extensions value="DIR"/>
			<framework value="onnx"/>
			<freeze_placeholder_with_value value="{}"/>
			<input value="blur_image"/>
			<input_model value="DIR\deblurgan-v2.onnx"/>
			<input_model_is_text value="False"/>
			<input_shape value="[1, 3, 736, 1312]"/>
			<k value="DIR\CustomLayersMapping.xml"/>
			<layout value="blur_image(NCHW)"/>
			<layout_values value="{'blur_image': {'source_layout': 'NCHW', 'target_layout': None, 'is_input': True}}"/>
			<legacy_mxnet_model value="False"/>
			<log_level value="ERROR"/>
			<mean_scale_values value="{'blur_image': {'mean': array([127.5]), 'scale': array([127.5])}}"/>
			<mean_values value="blur_image[127.5]"/>
			<model_name value="deblurgan-v2"/>
			<output value="['deblur_image']"/>
			<output_dir value="DIR"/>
			<placeholder_data_types value="{}"/>
			<placeholder_shapes value="{'blur_image': (1, 3, 736, 1312)}"/>
			<progress value="False"/>
			<remove_memory value="False"/>
			<remove_output_softmax value="False"/>
			<reverse_input_channels value="True"/>
			<save_params_from_nd value="False"/>
			<scale_values value="blur_image[127.5]"/>
			<silent value="False"/>
			<source_layout value="()"/>
			<static_shape value="False"/>
			<stream_output value="False"/>
			<target_layout value="()"/>
			<transform value=""/>
			<use_legacy_frontend value="False"/>
			<use_new_frontend value="False"/>
			<unset unset_cli_parameters="batch, counts, disable_fusing, finegrain_fusing, input_checkpoint, input_meta_graph, input_proto, input_symbol, mean_file, mean_file_offsets, nd_prefix_name, pretrained_model_name, saved_model_dir, saved_model_tags, scale, tensorboard_logdir, tensorflow_custom_layer_libraries, tensorflow_custom_operations_config_update, tensorflow_object_detection_api_pipeline_config, tensorflow_use_custom_operations_config, transformations_config"/>
		</cli_parameters>
	</meta_data>
</net>
