<?xml version="1.0" ?>
<net name="person-vehicle-bike-detection-2003" version="10">
	<layers>
		<layer id="0" name="image" type="Parameter" version="opset1">
			<data element_type="f32" shape="1, 3, 480, 864"/>
			<output>
				<port id="0" precision="FP32">
					<dim>1</dim>
					<dim>3</dim>
					<dim>480</dim>
					<dim>864</dim>
				</port>
			</output>
		</layer>
		<layer id="1" name="799" type="Const" version="opset1">
			<data element_type="f32" offset="0" shape="1, 3, 4" size="48"/>
			<output>
				<port id="0" names="799" precision="FP32">
					<dim>1</dim>
					<dim>3</dim>
					<dim>4</dim>
				</port>
			</output>
		</layer>
		<layer id="2" name="ConstantOfShape_383/Broadcast/FillValue" type="Const" version="opset1">
			<data element_type="i64" offset="48" shape="1" size="8"/>
			<output>
				<port id="0" precision="I64">
					<dim>1</dim>
				</port>
			</output>
		</layer>
		<layer id="3" name="image/scale_copy" type="Const" version="opset1">
			<data element_type="f32" offset="56" shape="32, 3, 3, 3" size="3456"/>
			<output>
				<port id="0" names="backbone.features.init_block.conv.weight" precision="FP32">
					<dim>32</dim>
					<dim>3</dim>
					<dim>3</dim>
					<dim>3</dim>
				</port>
			</output>
		</layer>
		<layer id="4" name="Conv_6" type="Convolution" version="opset1">
			<data auto_pad="explicit" dilations="1, 1" pads_begin="1, 1" pads_end="1, 1" strides="2, 2"/>
			<input>
				<port id="0" precision="FP32">
					<dim>1</dim>
					<dim>3</dim>
					<dim>480</dim>
					<dim>864</dim>
				</port>
				<port id="1" precision="FP32">
					<dim>32</dim>
					<dim>3</dim>
					<dim>3</dim>
					<dim>3</dim>
				</port>
			</input>
			<output>
				<port id="2" precision="FP32">
					<dim>1</dim>
					<dim>32</dim>
					<dim>240</dim>
					<dim>432</dim>
				</port>
			</output>
		</layer>
		<layer id="5" name="data_add_47057" type="Const" version="opset1">
			<data element_type="f32" offset="3512" shape="1, 32, 1, 1" size="128"/>
			<output>
				<port id="0" precision="FP32">
					<dim>1</dim>
					<dim>32</dim>
					<dim>1</dim>
					<dim>1</dim>
				</port>
			</output>
		</layer>
		<layer id="6" name="BatchNormalization_7/variance/Fused_Add_" type="Add" version="opset1">
			<data auto_broadcast="numpy"/>
			<input>
				<port id="0" precision="FP32">
					<dim>1</dim>
					<dim>32</dim>
					<dim>240</dim>
					<dim>432</dim>
				</port>
				<port id="1" precision="FP32">
					<dim>1</dim>
					<dim>32</dim>
					<dim>1</dim>
					<dim>1</dim>
				</port>
			</input>
			<output>
				<port id="2" names="371" precision="FP32">
					<dim>1</dim>
					<dim>32</dim>
					<dim>240</dim>
					<dim>432</dim>
				</port>
			</output>
		</layer>
		<layer id="7" name="Clip_8" type="Clamp" version="opset1">
			<data max="6" min="0"/>
			<input>
				<port id="0" precision="FP32">
					<dim>1</dim>
					<dim>32</dim>
					<dim>240</dim>
					<dim>432</dim>
				</port>
			</input>
			<output>
				<port id="1" names="372" precision="FP32">
					<dim>1</dim>
					<dim>32</dim>
					<dim>240</dim>
					<dim>432</dim>
				</port>
			</output>
		</layer>
		<layer id="8" name="BatchNormalization_10/mean/Fused_Mul__copy" type="Const" version="opset1">
			<data element_type="f32" offset="3640" shape="32, 32, 1, 1" size="4096"/>
			<output>
				<port id="0" names="backbone.features.stage1.unit1.conv1.conv.weight" precision="FP32">
					<dim>32</dim>
					<dim>32</dim>
					<dim>1</dim>
					<dim>1</dim>
				</port>
			</output>
		</layer>
		<layer id="9" name="Conv_9" type="Convolution" version="opset1">
			<data auto_pad="explicit" dilations="1, 1" pads_begin="0, 0" pads_end="0, 0" strides="1, 1"/>
			<input>
				<port id="0" precision="FP32">
					<dim>1</dim>
					<dim>32</dim>
					<dim>240</dim>
					<dim>432</dim>
				</port>
				<port id="1" precision="FP32">
					<dim>32</dim>
					<dim>32</dim>
					<dim>1</dim>
					<dim>1</dim>
				</port>
			</input>
			<output>
				<port id="2" precision="FP32">
					<dim>1</dim>
					<dim>32</dim>
					<dim>240</dim>
					<dim>432</dim>
				</port>
			</output>
		</layer>
		<layer id="10" name="data_add_4706047065" type="Const" version="opset1">
			<data element_type="f32" offset="7736" shape="1, 32, 1, 1" size="128"/>
			<output>
				<port id="0" precision="FP32">
					<dim>1</dim>
					<dim>32</dim>
					<dim>1</dim>
					<dim>1</dim>
				</port>
			</output>
		</layer>
		<layer id="11" name="BatchNormalization_10/variance/Fused_Add_" type="Add" version="opset1">
			<data auto_broadcast="numpy"/>
			<input>
				<port id="0" precision="FP32">
					<dim>1</dim>
					<dim>32</dim>
					<dim>240</dim>
					<dim>432</dim>
				</port>
				<port id="1" precision="FP32">
					<dim>1</dim>
					<dim>32</dim>
					<dim>1</dim>
					<dim>1</dim>
				</port>
			</input>
			<output>
				<port id="2" names="374" precision="FP32">
					<dim>1</dim>
					<dim>32</dim>
					<dim>240</dim>
					<dim>432</dim>
				</port>
			</output>
		</layer>
		<layer id="12" name="Clip_11" type="Clamp" version="opset1">
			<data max="6" min="0"/>
			<input>
				<port id="0" precision="FP32">
					<dim>1</dim>
					<dim>32</dim>
					<dim>240</dim>
					<dim>432</dim>
				</port>
			</input>
			<output>
				<port id="1" names="375" precision="FP32">
					<dim>1</dim>
					<dim>32</dim>
					<dim>240</dim>
					<dim>432</dim>
				</port>
			</output>
		</layer>
		<layer id="13" name="BatchNormalization_13/mean/Fused_Mul__copy" type="Const" version="opset1">
			<data element_type="f32" offset="7864" shape="32, 1, 1, 3, 3" size="1152"/>
			<output>
				<port id="0" names="backbone.features.stage1.unit1.conv2.conv.weight" precision="FP32">
					<dim>32</dim>
					<dim>1</dim>
					<dim>1</dim>
					<dim>3</dim>
					<dim>3</dim>
				</port>
			</output>
		</layer>
		<layer id="14" name="Conv_12" type="GroupConvolution" version="opset1">
			<data auto_pad="explicit" dilations="1, 1" pads_begin="1, 1" pads_end="1, 1" strides="1, 1"/>
			<input>
				<port id="0" precision="FP32">
					<dim>1</dim>
					<dim>32</dim>
					<dim>240</dim>
					<dim>432</dim>
				</port>
				<port id="1" precision="FP32">
					<dim>32</dim>
					<dim>1</dim>
					<dim>1</dim>
					<dim>3</dim>
					<dim>3</dim>
				</port>
			</input>
			<output>
				<port id="2" precision="FP32">
					<dim>1</dim>
					<dim>32</dim>
					<dim>240</dim>
					<dim>432</dim>
				</port>
			</output>
		</layer>
		<layer id="15" name="data_add_4706847073" type="Const" version="opset1">
			<data element_type="f32" offset="9016" shape="1, 32, 1, 1" size="128"/>
			<output>
				<port id="0" precision="FP32">
					<dim>1</dim>
					<dim>32</dim>
					<dim>1</dim>
					<dim>1</dim>
				</port>
			</output>
		</layer>
		<layer id="16" name="BatchNormalization_13/variance/Fused_Add_" type="Add" version="opset1">
			<data auto_broadcast="numpy"/>
			<input>
				<port id="0" precision="FP32">
					<dim>1</dim>
					<dim>32</dim>
					<dim>240</dim>
					<dim>432</dim>
				</port>
				<port id="1" precision="FP32">
					<dim>1</dim>
					<dim>32</dim>
					<dim>1</dim>
					<dim>1</dim>
				</port>
			</input>
			<output>
				<port id="2" names="377" precision="FP32">
					<dim>1</dim>
					<dim>32</dim>
					<dim>240</dim>
					<dim>432</dim>
				</port>
			</output>
		</layer>
		<layer id="17" name="Clip_14" type="Clamp" version="opset1">
			<data max="6" min="0"/>
			<input>
				<port id="0" precision="FP32">
					<dim>1</dim>
					<dim>32</dim>
					<dim>240</dim>
					<dim>432</dim>
				</port>
			</input>
			<output>
				<port id="1" names="378" precision="FP32">
					<dim>1</dim>
					<dim>32</dim>
					<dim>240</dim>
					<dim>432</dim>
				</port>
			</output>
		</layer>
		<layer id="18" name="BatchNormalization_16/mean/Fused_Mul__copy" type="Const" version="opset1">
			<data element_type="f32" offset="9144" shape="16, 32, 1, 1" size="2048"/>
			<output>
				<port id="0" names="backbone.features.stage1.unit1.conv3.conv.weight" precision="FP32">
					<dim>16</dim>
					<dim>32</dim>
					<dim>1</dim>
					<dim>1</dim>
				</port>
			</output>
		</layer>
		<layer id="19" name="Conv_15" type="Convolution" version="opset1">
			<data auto_pad="explicit" dilations="1, 1" pads_begin="0, 0" pads_end="0, 0" strides="1, 1"/>
			<input>
				<port id="0" precision="FP32">
					<dim>1</dim>
					<dim>32</dim>
					<dim>240</dim>
					<dim>432</dim>
				</port>
				<port id="1" precision="FP32">
					<dim>16</dim>
					<dim>32</dim>
					<dim>1</dim>
					<dim>1</dim>
				</port>
			</input>
			<output>
				<port id="2" precision="FP32">
					<dim>1</dim>
					<dim>16</dim>
					<dim>240</dim>
					<dim>432</dim>
				</port>
			</output>
		</layer>
		<layer id="20" name="data_add_4707647081" type="Const" version="opset1">
			<data element_type="f32" offset="11192" shape="1, 16, 1, 1" size="64"/>
			<output>
				<port id="0" precision="FP32">
					<dim>1</dim>
					<dim>16</dim>
					<dim>1</dim>
					<dim>1</dim>
				</port>
			</output>
		</layer>
		<layer id="21" name="BatchNormalization_16/variance/Fused_Add_" type="Add" version="opset1">
			<data auto_broadcast="numpy"/>
			<input>
				<port id="0" precision="FP32">
					<dim>1</dim>
					<dim>16</dim>
					<dim>240</dim>
					<dim>432</dim>
				</port>
				<port id="1" precision="FP32">
					<dim>1</dim>
					<dim>16</dim>
					<dim>1</dim>
					<dim>1</dim>
				</port>
			</input>
			<output>
				<port id="2" names="380" precision="FP32">
					<dim>1</dim>
					<dim>16</dim>
					<dim>240</dim>
					<dim>432</dim>
				</port>
			</output>
		</layer>
		<layer id="22" name="BatchNormalization_18/mean/Fused_Mul__copy" type="Const" version="opset1">
			<data element_type="f32" offset="11256" shape="96, 16, 1, 1" size="6144"/>
			<output>
				<port id="0" names="backbone.features.stage2.unit1.conv1.conv.weight" precision="FP32">
					<dim>96</dim>
					<dim>16</dim>
					<dim>1</dim>
					<dim>1</dim>
				</port>
			</output>
		</layer>
		<layer id="23" name="Conv_17" type="Convolution" version="opset1">
			<data auto_pad="explicit" dilations="1, 1" pads_begin="0, 0" pads_end="0, 0" strides="1, 1"/>
			<input>
				<port id="0" precision="FP32">
					<dim>1</dim>
					<dim>16</dim>
					<dim>240</dim>
					<dim>432</dim>
				</port>
				<port id="1" precision="FP32">
					<dim>96</dim>
					<dim>16</dim>
					<dim>1</dim>
					<dim>1</dim>
				</port>
			</input>
			<output>
				<port id="2" precision="FP32">
					<dim>1</dim>
					<dim>96</dim>
					<dim>240</dim>
					<dim>432</dim>
				</port>
			</output>
		</layer>
		<layer id="24" name="data_add_4708447089" type="Const" version="opset1">
			<data element_type="f32" offset="17400" shape="1, 96, 1, 1" size="384"/>
			<output>
				<port id="0" precision="FP32">
					<dim>1</dim>
					<dim>96</dim>
					<dim>1</dim>
					<dim>1</dim>
				</port>
			</output>
		</layer>
		<layer id="25" name="BatchNormalization_18/variance/Fused_Add_" type="Add" version="opset1">
			<data auto_broadcast="numpy"/>
			<input>
				<port id="0" precision="FP32">
					<dim>1</dim>
					<dim>96</dim>
					<dim>240</dim>
					<dim>432</dim>
				</port>
				<port id="1" precision="FP32">
					<dim>1</dim>
					<dim>96</dim>
					<dim>1</dim>
					<dim>1</dim>
				</port>
			</input>
			<output>
				<port id="2" names="382" precision="FP32">
					<dim>1</dim>
					<dim>96</dim>
					<dim>240</dim>
					<dim>432</dim>
				</port>
			</output>
		</layer>
		<layer id="26" name="Clip_19" type="Clamp" version="opset1">
			<data max="6" min="0"/>
			<input>
				<port id="0" precision="FP32">
					<dim>1</dim>
					<dim>96</dim>
					<dim>240</dim>
					<dim>432</dim>
				</port>
			</input>
			<output>
				<port id="1" names="383" precision="FP32">
					<dim>1</dim>
					<dim>96</dim>
					<dim>240</dim>
					<dim>432</dim>
				</port>
			</output>
		</layer>
		<layer id="27" name="BatchNormalization_21/mean/Fused_Mul__copy" type="Const" version="opset1">
			<data element_type="f32" offset="17784" shape="96, 1, 1, 3, 3" size="3456"/>
			<output>
				<port id="0" names="backbone.features.stage2.unit1.conv2.conv.weight" precision="FP32">
					<dim>96</dim>
					<dim>1</dim>
					<dim>1</dim>
					<dim>3</dim>
					<dim>3</dim>
				</port>
			</output>
		</layer>
		<layer id="28" name="Conv_20" type="GroupConvolution" version="opset1">
			<data auto_pad="explicit" dilations="1, 1" pads_begin="1, 1" pads_end="1, 1" strides="2, 2"/>
			<input>
				<port id="0" precision="FP32">
					<dim>1</dim>
					<dim>96</dim>
					<dim>240</dim>
					<dim>432</dim>
				</port>
				<port id="1" precision="FP32">
					<dim>96</dim>
					<dim>1</dim>
					<dim>1</dim>
					<dim>3</dim>
					<dim>3</dim>
				</port>
			</input>
			<output>
				<port id="2" precision="FP32">
					<dim>1</dim>
					<dim>96</dim>
					<dim>120</dim>
					<dim>216</dim>
				</port>
			</output>
		</layer>
		<layer id="29" name="data_add_4709247097" type="Const" version="opset1">
			<data element_type="f32" offset="21240" shape="1, 96, 1, 1" size="384"/>
			<output>
				<port id="0" precision="FP32">
					<dim>1</dim>
					<dim>96</dim>
					<dim>1</dim>
					<dim>1</dim>
				</port>
			</output>
		</layer>
		<layer id="30" name="BatchNormalization_21/variance/Fused_Add_" type="Add" version="opset1">
			<data auto_broadcast="numpy"/>
			<input>
				<port id="0" precision="FP32">
					<dim>1</dim>
					<dim>96</dim>
					<dim>120</dim>
					<dim>216</dim>
				</port>
				<port id="1" precision="FP32">
					<dim>1</dim>
					<dim>96</dim>
					<dim>1</dim>
					<dim>1</dim>
				</port>
			</input>
			<output>
				<port id="2" names="385" precision="FP32">
					<dim>1</dim>
					<dim>96</dim>
					<dim>120</dim>
					<dim>216</dim>
				</port>
			</output>
		</layer>
		<layer id="31" name="Clip_22" type="Clamp" version="opset1">
			<data max="6" min="0"/>
			<input>
				<port id="0" precision="FP32">
					<dim>1</dim>
					<dim>96</dim>
					<dim>120</dim>
					<dim>216</dim>
				</port>
			</input>
			<output>
				<port id="1" names="386" precision="FP32">
					<dim>1</dim>
					<dim>96</dim>
					<dim>120</dim>
					<dim>216</dim>
				</port>
			</output>
		</layer>
		<layer id="32" name="BatchNormalization_24/mean/Fused_Mul__copy" type="Const" version="opset1">
			<data element_type="f32" offset="21624" shape="24, 96, 1, 1" size="9216"/>
			<output>
				<port id="0" names="backbone.features.stage2.unit1.conv3.conv.weight" precision="FP32">
					<dim>24</dim>
					<dim>96</dim>
					<dim>1</dim>
					<dim>1</dim>
				</port>
			</output>
		</layer>
		<layer id="33" name="Conv_23" type="Convolution" version="opset1">
			<data auto_pad="explicit" dilations="1, 1" pads_begin="0, 0" pads_end="0, 0" strides="1, 1"/>
			<input>
				<port id="0" precision="FP32">
					<dim>1</dim>
					<dim>96</dim>
					<dim>120</dim>
					<dim>216</dim>
				</port>
				<port id="1" precision="FP32">
					<dim>24</dim>
					<dim>96</dim>
					<dim>1</dim>
					<dim>1</dim>
				</port>
			</input>
			<output>
				<port id="2" precision="FP32">
					<dim>1</dim>
					<dim>24</dim>
					<dim>120</dim>
					<dim>216</dim>
				</port>
			</output>
		</layer>
		<layer id="34" name="data_add_4710047105" type="Const" version="opset1">
			<data element_type="f32" offset="30840" shape="1, 24, 1, 1" size="96"/>
			<output>
				<port id="0" precision="FP32">
					<dim>1</dim>
					<dim>24</dim>
					<dim>1</dim>
					<dim>1</dim>
				</port>
			</output>
		</layer>
		<layer id="35" name="BatchNormalization_24/variance/Fused_Add_" type="Add" version="opset1">
			<data auto_broadcast="numpy"/>
			<input>
				<port id="0" precision="FP32">
					<dim>1</dim>
					<dim>24</dim>
					<dim>120</dim>
					<dim>216</dim>
				</port>
				<port id="1" precision="FP32">
					<dim>1</dim>
					<dim>24</dim>
					<dim>1</dim>
					<dim>1</dim>
				</port>
			</input>
			<output>
				<port id="2" names="388" precision="FP32">
					<dim>1</dim>
					<dim>24</dim>
					<dim>120</dim>
					<dim>216</dim>
				</port>
			</output>
		</layer>
		<layer id="36" name="BatchNormalization_26/mean/Fused_Mul__copy" type="Const" version="opset1">
			<data element_type="f32" offset="30936" shape="144, 24, 1, 1" size="13824"/>
			<output>
				<port id="0" names="backbone.features.stage2.unit2.conv1.conv.weight" precision="FP32">
					<dim>144</dim>
					<dim>24</dim>
					<dim>1</dim>
					<dim>1</dim>
				</port>
			</output>
		</layer>
		<layer id="37" name="Conv_25" type="Convolution" version="opset1">
			<data auto_pad="explicit" dilations="1, 1" pads_begin="0, 0" pads_end="0, 0" strides="1, 1"/>
			<input>
				<port id="0" precision="FP32">
					<dim>1</dim>
					<dim>24</dim>
					<dim>120</dim>
					<dim>216</dim>
				</port>
				<port id="1" precision="FP32">
					<dim>144</dim>
					<dim>24</dim>
					<dim>1</dim>
					<dim>1</dim>
				</port>
			</input>
			<output>
				<port id="2" precision="FP32">
					<dim>1</dim>
					<dim>144</dim>
					<dim>120</dim>
					<dim>216</dim>
				</port>
			</output>
		</layer>
		<layer id="38" name="data_add_4710847113" type="Const" version="opset1">
			<data element_type="f32" offset="44760" shape="1, 144, 1, 1" size="576"/>
			<output>
				<port id="0" precision="FP32">
					<dim>1</dim>
					<dim>144</dim>
					<dim>1</dim>
					<dim>1</dim>
				</port>
			</output>
		</layer>
		<layer id="39" name="BatchNormalization_26/variance/Fused_Add_" type="Add" version="opset1">
			<data auto_broadcast="numpy"/>
			<input>
				<port id="0" precision="FP32">
					<dim>1</dim>
					<dim>144</dim>
					<dim>120</dim>
					<dim>216</dim>
				</port>
				<port id="1" precision="FP32">
					<dim>1</dim>
					<dim>144</dim>
					<dim>1</dim>
					<dim>1</dim>
				</port>
			</input>
			<output>
				<port id="2" names="390" precision="FP32">
					<dim>1</dim>
					<dim>144</dim>
					<dim>120</dim>
					<dim>216</dim>
				</port>
			</output>
		</layer>
		<layer id="40" name="Clip_27" type="Clamp" version="opset1">
			<data max="6" min="0"/>
			<input>
				<port id="0" precision="FP32">
					<dim>1</dim>
					<dim>144</dim>
					<dim>120</dim>
					<dim>216</dim>
				</port>
			</input>
			<output>
				<port id="1" names="391" precision="FP32">
					<dim>1</dim>
					<dim>144</dim>
					<dim>120</dim>
					<dim>216</dim>
				</port>
			</output>
		</layer>
		<layer id="41" name="BatchNormalization_29/mean/Fused_Mul__copy" type="Const" version="opset1">
			<data element_type="f32" offset="45336" shape="144, 1, 1, 3, 3" size="5184"/>
			<output>
				<port id="0" names="backbone.features.stage2.unit2.conv2.conv.weight" precision="FP32">
					<dim>144</dim>
					<dim>1</dim>
					<dim>1</dim>
					<dim>3</dim>
					<dim>3</dim>
				</port>
			</output>
		</layer>
		<layer id="42" name="Conv_28" type="GroupConvolution" version="opset1">
			<data auto_pad="explicit" dilations="1, 1" pads_begin="1, 1" pads_end="1, 1" strides="1, 1"/>
			<input>
				<port id="0" precision="FP32">
					<dim>1</dim>
					<dim>144</dim>
					<dim>120</dim>
					<dim>216</dim>
				</port>
				<port id="1" precision="FP32">
					<dim>144</dim>
					<dim>1</dim>
					<dim>1</dim>
					<dim>3</dim>
					<dim>3</dim>
				</port>
			</input>
			<output>
				<port id="2" precision="FP32">
					<dim>1</dim>
					<dim>144</dim>
					<dim>120</dim>
					<dim>216</dim>
				</port>
			</output>
		</layer>
		<layer id="43" name="data_add_4711647121" type="Const" version="opset1">
			<data element_type="f32" offset="50520" shape="1, 144, 1, 1" size="576"/>
			<output>
				<port id="0" precision="FP32">
					<dim>1</dim>
					<dim>144</dim>
					<dim>1</dim>
					<dim>1</dim>
				</port>
			</output>
		</layer>
		<layer id="44" name="BatchNormalization_29/variance/Fused_Add_" type="Add" version="opset1">
			<data auto_broadcast="numpy"/>
			<input>
				<port id="0" precision="FP32">
					<dim>1</dim>
					<dim>144</dim>
					<dim>120</dim>
					<dim>216</dim>
				</port>
				<port id="1" precision="FP32">
					<dim>1</dim>
					<dim>144</dim>
					<dim>1</dim>
					<dim>1</dim>
				</port>
			</input>
			<output>
				<port id="2" names="393" precision="FP32">
					<dim>1</dim>
					<dim>144</dim>
					<dim>120</dim>
					<dim>216</dim>
				</port>
			</output>
		</layer>
		<layer id="45" name="Clip_30" type="Clamp" version="opset1">
			<data max="6" min="0"/>
			<input>
				<port id="0" precision="FP32">
					<dim>1</dim>
					<dim>144</dim>
					<dim>120</dim>
					<dim>216</dim>
				</port>
			</input>
			<output>
				<port id="1" names="394" precision="FP32">
					<dim>1</dim>
					<dim>144</dim>
					<dim>120</dim>
					<dim>216</dim>
				</port>
			</output>
		</layer>
		<layer id="46" name="BatchNormalization_32/mean/Fused_Mul__copy" type="Const" version="opset1">
			<data element_type="f32" offset="51096" shape="24, 144, 1, 1" size="13824"/>
			<output>
				<port id="0" names="backbone.features.stage2.unit2.conv3.conv.weight" precision="FP32">
					<dim>24</dim>
					<dim>144</dim>
					<dim>1</dim>
					<dim>1</dim>
				</port>
			</output>
		</layer>
		<layer id="47" name="Conv_31" type="Convolution" version="opset1">
			<data auto_pad="explicit" dilations="1, 1" pads_begin="0, 0" pads_end="0, 0" strides="1, 1"/>
			<input>
				<port id="0" precision="FP32">
					<dim>1</dim>
					<dim>144</dim>
					<dim>120</dim>
					<dim>216</dim>
				</port>
				<port id="1" precision="FP32">
					<dim>24</dim>
					<dim>144</dim>
					<dim>1</dim>
					<dim>1</dim>
				</port>
			</input>
			<output>
				<port id="2" precision="FP32">
					<dim>1</dim>
					<dim>24</dim>
					<dim>120</dim>
					<dim>216</dim>
				</port>
			</output>
		</layer>
		<layer id="48" name="data_add_4712447129" type="Const" version="opset1">
			<data element_type="f32" offset="64920" shape="1, 24, 1, 1" size="96"/>
			<output>
				<port id="0" precision="FP32">
					<dim>1</dim>
					<dim>24</dim>
					<dim>1</dim>
					<dim>1</dim>
				</port>
			</output>
		</layer>
		<layer id="49" name="BatchNormalization_32/variance/Fused_Add_" type="Add" version="opset1">
			<data auto_broadcast="numpy"/>
			<input>
				<port id="0" precision="FP32">
					<dim>1</dim>
					<dim>24</dim>
					<dim>120</dim>
					<dim>216</dim>
				</port>
				<port id="1" precision="FP32">
					<dim>1</dim>
					<dim>24</dim>
					<dim>1</dim>
					<dim>1</dim>
				</port>
			</input>
			<output>
				<port id="2" names="396" precision="FP32">
					<dim>1</dim>
					<dim>24</dim>
					<dim>120</dim>
					<dim>216</dim>
				</port>
			</output>
		</layer>
		<layer id="50" name="Add_33" type="Add" version="opset1">
			<data auto_broadcast="numpy"/>
			<input>
				<port id="0" precision="FP32">
					<dim>1</dim>
					<dim>24</dim>
					<dim>120</dim>
					<dim>216</dim>
				</port>
				<port id="1" precision="FP32">
					<dim>1</dim>
					<dim>24</dim>
					<dim>120</dim>
					<dim>216</dim>
				</port>
			</input>
			<output>
				<port id="2" names="397" precision="FP32">
					<dim>1</dim>
					<dim>24</dim>
					<dim>120</dim>
					<dim>216</dim>
				</port>
			</output>
		</layer>
		<layer id="51" name="BatchNormalization_35/mean/Fused_Mul__copy" type="Const" version="opset1">
			<data element_type="f32" offset="65016" shape="144, 24, 1, 1" size="13824"/>
			<output>
				<port id="0" names="backbone.features.stage3.unit1.conv1.conv.weight" precision="FP32">
					<dim>144</dim>
					<dim>24</dim>
					<dim>1</dim>
					<dim>1</dim>
				</port>
			</output>
		</layer>
		<layer id="52" name="Conv_34" type="Convolution" version="opset1">
			<data auto_pad="explicit" dilations="1, 1" pads_begin="0, 0" pads_end="0, 0" strides="1, 1"/>
			<input>
				<port id="0" precision="FP32">
					<dim>1</dim>
					<dim>24</dim>
					<dim>120</dim>
					<dim>216</dim>
				</port>
				<port id="1" precision="FP32">
					<dim>144</dim>
					<dim>24</dim>
					<dim>1</dim>
					<dim>1</dim>
				</port>
			</input>
			<output>
				<port id="2" precision="FP32">
					<dim>1</dim>
					<dim>144</dim>
					<dim>120</dim>
					<dim>216</dim>
				</port>
			</output>
		</layer>
		<layer id="53" name="data_add_4713247137" type="Const" version="opset1">
			<data element_type="f32" offset="78840" shape="1, 144, 1, 1" size="576"/>
			<output>
				<port id="0" precision="FP32">
					<dim>1</dim>
					<dim>144</dim>
					<dim>1</dim>
					<dim>1</dim>
				</port>
			</output>
		</layer>
		<layer id="54" name="BatchNormalization_35/variance/Fused_Add_" type="Add" version="opset1">
			<data auto_broadcast="numpy"/>
			<input>
				<port id="0" precision="FP32">
					<dim>1</dim>
					<dim>144</dim>
					<dim>120</dim>
					<dim>216</dim>
				</port>
				<port id="1" precision="FP32">
					<dim>1</dim>
					<dim>144</dim>
					<dim>1</dim>
					<dim>1</dim>
				</port>
			</input>
			<output>
				<port id="2" names="399" precision="FP32">
					<dim>1</dim>
					<dim>144</dim>
					<dim>120</dim>
					<dim>216</dim>
				</port>
			</output>
		</layer>
		<layer id="55" name="Clip_36" type="Clamp" version="opset1">
			<data max="6" min="0"/>
			<input>
				<port id="0" precision="FP32">
					<dim>1</dim>
					<dim>144</dim>
					<dim>120</dim>
					<dim>216</dim>
				</port>
			</input>
			<output>
				<port id="1" names="400" precision="FP32">
					<dim>1</dim>
					<dim>144</dim>
					<dim>120</dim>
					<dim>216</dim>
				</port>
			</output>
		</layer>
		<layer id="56" name="BatchNormalization_38/mean/Fused_Mul__copy" type="Const" version="opset1">
			<data element_type="f32" offset="79416" shape="144, 1, 1, 3, 3" size="5184"/>
			<output>
				<port id="0" names="backbone.features.stage3.unit1.conv2.conv.weight" precision="FP32">
					<dim>144</dim>
					<dim>1</dim>
					<dim>1</dim>
					<dim>3</dim>
					<dim>3</dim>
				</port>
			</output>
		</layer>
		<layer id="57" name="Conv_37" type="GroupConvolution" version="opset1">
			<data auto_pad="explicit" dilations="1, 1" pads_begin="1, 1" pads_end="1, 1" strides="2, 2"/>
			<input>
				<port id="0" precision="FP32">
					<dim>1</dim>
					<dim>144</dim>
					<dim>120</dim>
					<dim>216</dim>
				</port>
				<port id="1" precision="FP32">
					<dim>144</dim>
					<dim>1</dim>
					<dim>1</dim>
					<dim>3</dim>
					<dim>3</dim>
				</port>
			</input>
			<output>
				<port id="2" precision="FP32">
					<dim>1</dim>
					<dim>144</dim>
					<dim>60</dim>
					<dim>108</dim>
				</port>
			</output>
		</layer>
		<layer id="58" name="data_add_4714047145" type="Const" version="opset1">
			<data element_type="f32" offset="84600" shape="1, 144, 1, 1" size="576"/>
			<output>
				<port id="0" precision="FP32">
					<dim>1</dim>
					<dim>144</dim>
					<dim>1</dim>
					<dim>1</dim>
				</port>
			</output>
		</layer>
		<layer id="59" name="BatchNormalization_38/variance/Fused_Add_" type="Add" version="opset1">
			<data auto_broadcast="numpy"/>
			<input>
				<port id="0" precision="FP32">
					<dim>1</dim>
					<dim>144</dim>
					<dim>60</dim>
					<dim>108</dim>
				</port>
				<port id="1" precision="FP32">
					<dim>1</dim>
					<dim>144</dim>
					<dim>1</dim>
					<dim>1</dim>
				</port>
			</input>
			<output>
				<port id="2" names="402" precision="FP32">
					<dim>1</dim>
					<dim>144</dim>
					<dim>60</dim>
					<dim>108</dim>
				</port>
			</output>
		</layer>
		<layer id="60" name="Clip_39" type="Clamp" version="opset1">
			<data max="6" min="0"/>
			<input>
				<port id="0" precision="FP32">
					<dim>1</dim>
					<dim>144</dim>
					<dim>60</dim>
					<dim>108</dim>
				</port>
			</input>
			<output>
				<port id="1" names="403" precision="FP32">
					<dim>1</dim>
					<dim>144</dim>
					<dim>60</dim>
					<dim>108</dim>
				</port>
			</output>
		</layer>
		<layer id="61" name="BatchNormalization_41/mean/Fused_Mul__copy" type="Const" version="opset1">
			<data element_type="f32" offset="85176" shape="32, 144, 1, 1" size="18432"/>
			<output>
				<port id="0" names="backbone.features.stage3.unit1.conv3.conv.weight" precision="FP32">
					<dim>32</dim>
					<dim>144</dim>
					<dim>1</dim>
					<dim>1</dim>
				</port>
			</output>
		</layer>
		<layer id="62" name="Conv_40" type="Convolution" version="opset1">
			<data auto_pad="explicit" dilations="1, 1" pads_begin="0, 0" pads_end="0, 0" strides="1, 1"/>
			<input>
				<port id="0" precision="FP32">
					<dim>1</dim>
					<dim>144</dim>
					<dim>60</dim>
					<dim>108</dim>
				</port>
				<port id="1" precision="FP32">
					<dim>32</dim>
					<dim>144</dim>
					<dim>1</dim>
					<dim>1</dim>
				</port>
			</input>
			<output>
				<port id="2" precision="FP32">
					<dim>1</dim>
					<dim>32</dim>
					<dim>60</dim>
					<dim>108</dim>
				</port>
			</output>
		</layer>
		<layer id="63" name="data_add_4714847153" type="Const" version="opset1">
			<data element_type="f32" offset="103608" shape="1, 32, 1, 1" size="128"/>
			<output>
				<port id="0" precision="FP32">
					<dim>1</dim>
					<dim>32</dim>
					<dim>1</dim>
					<dim>1</dim>
				</port>
			</output>
		</layer>
		<layer id="64" name="BatchNormalization_41/variance/Fused_Add_" type="Add" version="opset1">
			<data auto_broadcast="numpy"/>
			<input>
				<port id="0" precision="FP32">
					<dim>1</dim>
					<dim>32</dim>
					<dim>60</dim>
					<dim>108</dim>
				</port>
				<port id="1" precision="FP32">
					<dim>1</dim>
					<dim>32</dim>
					<dim>1</dim>
					<dim>1</dim>
				</port>
			</input>
			<output>
				<port id="2" names="405" precision="FP32">
					<dim>1</dim>
					<dim>32</dim>
					<dim>60</dim>
					<dim>108</dim>
				</port>
			</output>
		</layer>
		<layer id="65" name="BatchNormalization_43/mean/Fused_Mul__copy" type="Const" version="opset1">
			<data element_type="f32" offset="103736" shape="192, 32, 1, 1" size="24576"/>
			<output>
				<port id="0" names="backbone.features.stage3.unit2.conv1.conv.weight" precision="FP32">
					<dim>192</dim>
					<dim>32</dim>
					<dim>1</dim>
					<dim>1</dim>
				</port>
			</output>
		</layer>
		<layer id="66" name="Conv_42" type="Convolution" version="opset1">
			<data auto_pad="explicit" dilations="1, 1" pads_begin="0, 0" pads_end="0, 0" strides="1, 1"/>
			<input>
				<port id="0" precision="FP32">
					<dim>1</dim>
					<dim>32</dim>
					<dim>60</dim>
					<dim>108</dim>
				</port>
				<port id="1" precision="FP32">
					<dim>192</dim>
					<dim>32</dim>
					<dim>1</dim>
					<dim>1</dim>
				</port>
			</input>
			<output>
				<port id="2" precision="FP32">
					<dim>1</dim>
					<dim>192</dim>
					<dim>60</dim>
					<dim>108</dim>
				</port>
			</output>
		</layer>
		<layer id="67" name="data_add_4715647161" type="Const" version="opset1">
			<data element_type="f32" offset="128312" shape="1, 192, 1, 1" size="768"/>
			<output>
				<port id="0" precision="FP32">
					<dim>1</dim>
					<dim>192</dim>
					<dim>1</dim>
					<dim>1</dim>
				</port>
			</output>
		</layer>
		<layer id="68" name="BatchNormalization_43/variance/Fused_Add_" type="Add" version="opset1">
			<data auto_broadcast="numpy"/>
			<input>
				<port id="0" precision="FP32">
					<dim>1</dim>
					<dim>192</dim>
					<dim>60</dim>
					<dim>108</dim>
				</port>
				<port id="1" precision="FP32">
					<dim>1</dim>
					<dim>192</dim>
					<dim>1</dim>
					<dim>1</dim>
				</port>
			</input>
			<output>
				<port id="2" names="407" precision="FP32">
					<dim>1</dim>
					<dim>192</dim>
					<dim>60</dim>
					<dim>108</dim>
				</port>
			</output>
		</layer>
		<layer id="69" name="Clip_44" type="Clamp" version="opset1">
			<data max="6" min="0"/>
			<input>
				<port id="0" precision="FP32">
					<dim>1</dim>
					<dim>192</dim>
					<dim>60</dim>
					<dim>108</dim>
				</port>
			</input>
			<output>
				<port id="1" names="408" precision="FP32">
					<dim>1</dim>
					<dim>192</dim>
					<dim>60</dim>
					<dim>108</dim>
				</port>
			</output>
		</layer>
		<layer id="70" name="BatchNormalization_46/mean/Fused_Mul__copy" type="Const" version="opset1">
			<data element_type="f32" offset="129080" shape="192, 1, 1, 3, 3" size="6912"/>
			<output>
				<port id="0" names="backbone.features.stage3.unit2.conv2.conv.weight" precision="FP32">
					<dim>192</dim>
					<dim>1</dim>
					<dim>1</dim>
					<dim>3</dim>
					<dim>3</dim>
				</port>
			</output>
		</layer>
		<layer id="71" name="Conv_45" type="GroupConvolution" version="opset1">
			<data auto_pad="explicit" dilations="1, 1" pads_begin="1, 1" pads_end="1, 1" strides="1, 1"/>
			<input>
				<port id="0" precision="FP32">
					<dim>1</dim>
					<dim>192</dim>
					<dim>60</dim>
					<dim>108</dim>
				</port>
				<port id="1" precision="FP32">
					<dim>192</dim>
					<dim>1</dim>
					<dim>1</dim>
					<dim>3</dim>
					<dim>3</dim>
				</port>
			</input>
			<output>
				<port id="2" precision="FP32">
					<dim>1</dim>
					<dim>192</dim>
					<dim>60</dim>
					<dim>108</dim>
				</port>
			</output>
		</layer>
		<layer id="72" name="data_add_4716447169" type="Const" version="opset1">
			<data element_type="f32" offset="135992" shape="1, 192, 1, 1" size="768"/>
			<output>
				<port id="0" precision="FP32">
					<dim>1</dim>
					<dim>192</dim>
					<dim>1</dim>
					<dim>1</dim>
				</port>
			</output>
		</layer>
		<layer id="73" name="BatchNormalization_46/variance/Fused_Add_" type="Add" version="opset1">
			<data auto_broadcast="numpy"/>
			<input>
				<port id="0" precision="FP32">
					<dim>1</dim>
					<dim>192</dim>
					<dim>60</dim>
					<dim>108</dim>
				</port>
				<port id="1" precision="FP32">
					<dim>1</dim>
					<dim>192</dim>
					<dim>1</dim>
					<dim>1</dim>
				</port>
			</input>
			<output>
				<port id="2" names="410" precision="FP32">
					<dim>1</dim>
					<dim>192</dim>
					<dim>60</dim>
					<dim>108</dim>
				</port>
			</output>
		</layer>
		<layer id="74" name="Clip_47" type="Clamp" version="opset1">
			<data max="6" min="0"/>
			<input>
				<port id="0" precision="FP32">
					<dim>1</dim>
					<dim>192</dim>
					<dim>60</dim>
					<dim>108</dim>
				</port>
			</input>
			<output>
				<port id="1" names="411" precision="FP32">
					<dim>1</dim>
					<dim>192</dim>
					<dim>60</dim>
					<dim>108</dim>
				</port>
			</output>
		</layer>
		<layer id="75" name="BatchNormalization_49/mean/Fused_Mul__copy" type="Const" version="opset1">
			<data element_type="f32" offset="136760" shape="32, 192, 1, 1" size="24576"/>
			<output>
				<port id="0" names="backbone.features.stage3.unit2.conv3.conv.weight" precision="FP32">
					<dim>32</dim>
					<dim>192</dim>
					<dim>1</dim>
					<dim>1</dim>
				</port>
			</output>
		</layer>
		<layer id="76" name="Conv_48" type="Convolution" version="opset1">
			<data auto_pad="explicit" dilations="1, 1" pads_begin="0, 0" pads_end="0, 0" strides="1, 1"/>
			<input>
				<port id="0" precision="FP32">
					<dim>1</dim>
					<dim>192</dim>
					<dim>60</dim>
					<dim>108</dim>
				</port>
				<port id="1" precision="FP32">
					<dim>32</dim>
					<dim>192</dim>
					<dim>1</dim>
					<dim>1</dim>
				</port>
			</input>
			<output>
				<port id="2" precision="FP32">
					<dim>1</dim>
					<dim>32</dim>
					<dim>60</dim>
					<dim>108</dim>
				</port>
			</output>
		</layer>
		<layer id="77" name="data_add_4717247177" type="Const" version="opset1">
			<data element_type="f32" offset="161336" shape="1, 32, 1, 1" size="128"/>
			<output>
				<port id="0" precision="FP32">
					<dim>1</dim>
					<dim>32</dim>
					<dim>1</dim>
					<dim>1</dim>
				</port>
			</output>
		</layer>
		<layer id="78" name="BatchNormalization_49/variance/Fused_Add_" type="Add" version="opset1">
			<data auto_broadcast="numpy"/>
			<input>
				<port id="0" precision="FP32">
					<dim>1</dim>
					<dim>32</dim>
					<dim>60</dim>
					<dim>108</dim>
				</port>
				<port id="1" precision="FP32">
					<dim>1</dim>
					<dim>32</dim>
					<dim>1</dim>
					<dim>1</dim>
				</port>
			</input>
			<output>
				<port id="2" names="413" precision="FP32">
					<dim>1</dim>
					<dim>32</dim>
					<dim>60</dim>
					<dim>108</dim>
				</port>
			</output>
		</layer>
		<layer id="79" name="Add_50" type="Add" version="opset1">
			<data auto_broadcast="numpy"/>
			<input>
				<port id="0" precision="FP32">
					<dim>1</dim>
					<dim>32</dim>
					<dim>60</dim>
					<dim>108</dim>
				</port>
				<port id="1" precision="FP32">
					<dim>1</dim>
					<dim>32</dim>
					<dim>60</dim>
					<dim>108</dim>
				</port>
			</input>
			<output>
				<port id="2" names="414" precision="FP32">
					<dim>1</dim>
					<dim>32</dim>
					<dim>60</dim>
					<dim>108</dim>
				</port>
			</output>
		</layer>
		<layer id="80" name="BatchNormalization_52/mean/Fused_Mul__copy" type="Const" version="opset1">
			<data element_type="f32" offset="161464" shape="192, 32, 1, 1" size="24576"/>
			<output>
				<port id="0" names="backbone.features.stage3.unit3.conv1.conv.weight" precision="FP32">
					<dim>192</dim>
					<dim>32</dim>
					<dim>1</dim>
					<dim>1</dim>
				</port>
			</output>
		</layer>
		<layer id="81" name="Conv_51" type="Convolution" version="opset1">
			<data auto_pad="explicit" dilations="1, 1" pads_begin="0, 0" pads_end="0, 0" strides="1, 1"/>
			<input>
				<port id="0" precision="FP32">
					<dim>1</dim>
					<dim>32</dim>
					<dim>60</dim>
					<dim>108</dim>
				</port>
				<port id="1" precision="FP32">
					<dim>192</dim>
					<dim>32</dim>
					<dim>1</dim>
					<dim>1</dim>
				</port>
			</input>
			<output>
				<port id="2" precision="FP32">
					<dim>1</dim>
					<dim>192</dim>
					<dim>60</dim>
					<dim>108</dim>
				</port>
			</output>
		</layer>
		<layer id="82" name="data_add_4718047185" type="Const" version="opset1">
			<data element_type="f32" offset="186040" shape="1, 192, 1, 1" size="768"/>
			<output>
				<port id="0" precision="FP32">
					<dim>1</dim>
					<dim>192</dim>
					<dim>1</dim>
					<dim>1</dim>
				</port>
			</output>
		</layer>
		<layer id="83" name="BatchNormalization_52/variance/Fused_Add_" type="Add" version="opset1">
			<data auto_broadcast="numpy"/>
			<input>
				<port id="0" precision="FP32">
					<dim>1</dim>
					<dim>192</dim>
					<dim>60</dim>
					<dim>108</dim>
				</port>
				<port id="1" precision="FP32">
					<dim>1</dim>
					<dim>192</dim>
					<dim>1</dim>
					<dim>1</dim>
				</port>
			</input>
			<output>
				<port id="2" names="416" precision="FP32">
					<dim>1</dim>
					<dim>192</dim>
					<dim>60</dim>
					<dim>108</dim>
				</port>
			</output>
		</layer>
		<layer id="84" name="Clip_53" type="Clamp" version="opset1">
			<data max="6" min="0"/>
			<input>
				<port id="0" precision="FP32">
					<dim>1</dim>
					<dim>192</dim>
					<dim>60</dim>
					<dim>108</dim>
				</port>
			</input>
			<output>
				<port id="1" names="417" precision="FP32">
					<dim>1</dim>
					<dim>192</dim>
					<dim>60</dim>
					<dim>108</dim>
				</port>
			</output>
		</layer>
		<layer id="85" name="BatchNormalization_55/mean/Fused_Mul__copy" type="Const" version="opset1">
			<data element_type="f32" offset="186808" shape="192, 1, 1, 3, 3" size="6912"/>
			<output>
				<port id="0" names="backbone.features.stage3.unit3.conv2.conv.weight" precision="FP32">
					<dim>192</dim>
					<dim>1</dim>
					<dim>1</dim>
					<dim>3</dim>
					<dim>3</dim>
				</port>
			</output>
		</layer>
		<layer id="86" name="Conv_54" type="GroupConvolution" version="opset1">
			<data auto_pad="explicit" dilations="1, 1" pads_begin="1, 1" pads_end="1, 1" strides="1, 1"/>
			<input>
				<port id="0" precision="FP32">
					<dim>1</dim>
					<dim>192</dim>
					<dim>60</dim>
					<dim>108</dim>
				</port>
				<port id="1" precision="FP32">
					<dim>192</dim>
					<dim>1</dim>
					<dim>1</dim>
					<dim>3</dim>
					<dim>3</dim>
				</port>
			</input>
			<output>
				<port id="2" precision="FP32">
					<dim>1</dim>
					<dim>192</dim>
					<dim>60</dim>
					<dim>108</dim>
				</port>
			</output>
		</layer>
		<layer id="87" name="data_add_4718847193" type="Const" version="opset1">
			<data element_type="f32" offset="193720" shape="1, 192, 1, 1" size="768"/>
			<output>
				<port id="0" precision="FP32">
					<dim>1</dim>
					<dim>192</dim>
					<dim>1</dim>
					<dim>1</dim>
				</port>
			</output>
		</layer>
		<layer id="88" name="BatchNormalization_55/variance/Fused_Add_" type="Add" version="opset1">
			<data auto_broadcast="numpy"/>
			<input>
				<port id="0" precision="FP32">
					<dim>1</dim>
					<dim>192</dim>
					<dim>60</dim>
					<dim>108</dim>
				</port>
				<port id="1" precision="FP32">
					<dim>1</dim>
					<dim>192</dim>
					<dim>1</dim>
					<dim>1</dim>
				</port>
			</input>
			<output>
				<port id="2" names="419" precision="FP32">
					<dim>1</dim>
					<dim>192</dim>
					<dim>60</dim>
					<dim>108</dim>
				</port>
			</output>
		</layer>
		<layer id="89" name="Clip_56" type="Clamp" version="opset1">
			<data max="6" min="0"/>
			<input>
				<port id="0" precision="FP32">
					<dim>1</dim>
					<dim>192</dim>
					<dim>60</dim>
					<dim>108</dim>
				</port>
			</input>
			<output>
				<port id="1" names="420" precision="FP32">
					<dim>1</dim>
					<dim>192</dim>
					<dim>60</dim>
					<dim>108</dim>
				</port>
			</output>
		</layer>
		<layer id="90" name="BatchNormalization_58/mean/Fused_Mul__copy" type="Const" version="opset1">
			<data element_type="f32" offset="194488" shape="32, 192, 1, 1" size="24576"/>
			<output>
				<port id="0" names="backbone.features.stage3.unit3.conv3.conv.weight" precision="FP32">
					<dim>32</dim>
					<dim>192</dim>
					<dim>1</dim>
					<dim>1</dim>
				</port>
			</output>
		</layer>
		<layer id="91" name="Conv_57" type="Convolution" version="opset1">
			<data auto_pad="explicit" dilations="1, 1" pads_begin="0, 0" pads_end="0, 0" strides="1, 1"/>
			<input>
				<port id="0" precision="FP32">
					<dim>1</dim>
					<dim>192</dim>
					<dim>60</dim>
					<dim>108</dim>
				</port>
				<port id="1" precision="FP32">
					<dim>32</dim>
					<dim>192</dim>
					<dim>1</dim>
					<dim>1</dim>
				</port>
			</input>
			<output>
				<port id="2" precision="FP32">
					<dim>1</dim>
					<dim>32</dim>
					<dim>60</dim>
					<dim>108</dim>
				</port>
			</output>
		</layer>
		<layer id="92" name="data_add_4719647201" type="Const" version="opset1">
			<data element_type="f32" offset="219064" shape="1, 32, 1, 1" size="128"/>
			<output>
				<port id="0" precision="FP32">
					<dim>1</dim>
					<dim>32</dim>
					<dim>1</dim>
					<dim>1</dim>
				</port>
			</output>
		</layer>
		<layer id="93" name="BatchNormalization_58/variance/Fused_Add_" type="Add" version="opset1">
			<data auto_broadcast="numpy"/>
			<input>
				<port id="0" precision="FP32">
					<dim>1</dim>
					<dim>32</dim>
					<dim>60</dim>
					<dim>108</dim>
				</port>
				<port id="1" precision="FP32">
					<dim>1</dim>
					<dim>32</dim>
					<dim>1</dim>
					<dim>1</dim>
				</port>
			</input>
			<output>
				<port id="2" names="422" precision="FP32">
					<dim>1</dim>
					<dim>32</dim>
					<dim>60</dim>
					<dim>108</dim>
				</port>
			</output>
		</layer>
		<layer id="94" name="Add_59" type="Add" version="opset1">
			<data auto_broadcast="numpy"/>
			<input>
				<port id="0" precision="FP32">
					<dim>1</dim>
					<dim>32</dim>
					<dim>60</dim>
					<dim>108</dim>
				</port>
				<port id="1" precision="FP32">
					<dim>1</dim>
					<dim>32</dim>
					<dim>60</dim>
					<dim>108</dim>
				</port>
			</input>
			<output>
				<port id="2" names="423" precision="FP32">
					<dim>1</dim>
					<dim>32</dim>
					<dim>60</dim>
					<dim>108</dim>
				</port>
			</output>
		</layer>
		<layer id="95" name="neck.lateral_convs.0.conv.weight" type="Const" version="opset1">
			<data element_type="f32" offset="219192" shape="32, 32, 1, 1" size="4096"/>
			<output>
				<port id="0" names="neck.lateral_convs.0.conv.weight" precision="FP32">
					<dim>32</dim>
					<dim>32</dim>
					<dim>1</dim>
					<dim>1</dim>
				</port>
			</output>
		</layer>
		<layer id="96" name="Conv_155/WithoutBiases" type="Convolution" version="opset1">
			<data auto_pad="explicit" dilations="1, 1" pads_begin="0, 0" pads_end="0, 0" strides="1, 1"/>
			<input>
				<port id="0" precision="FP32">
					<dim>1</dim>
					<dim>32</dim>
					<dim>60</dim>
					<dim>108</dim>
				</port>
				<port id="1" precision="FP32">
					<dim>32</dim>
					<dim>32</dim>
					<dim>1</dim>
					<dim>1</dim>
				</port>
			</input>
			<output>
				<port id="2" precision="FP32">
					<dim>1</dim>
					<dim>32</dim>
					<dim>60</dim>
					<dim>108</dim>
				</port>
			</output>
		</layer>
		<layer id="97" name="Conv_155/Dims28399" type="Const" version="opset1">
			<data element_type="f32" offset="223288" shape="1, 32, 1, 1" size="128"/>
			<output>
				<port id="0" precision="FP32">
					<dim>1</dim>
					<dim>32</dim>
					<dim>1</dim>
					<dim>1</dim>
				</port>
			</output>
		</layer>
		<layer id="98" name="Conv_155" type="Add" version="opset1">
			<data auto_broadcast="numpy"/>
			<input>
				<port id="0" precision="FP32">
					<dim>1</dim>
					<dim>32</dim>
					<dim>60</dim>
					<dim>108</dim>
				</port>
				<port id="1" precision="FP32">
					<dim>1</dim>
					<dim>32</dim>
					<dim>1</dim>
					<dim>1</dim>
				</port>
			</input>
			<output>
				<port id="2" names="519" precision="FP32">
					<dim>1</dim>
					<dim>32</dim>
					<dim>60</dim>
					<dim>108</dim>
				</port>
			</output>
		</layer>
		<layer id="99" name="BatchNormalization_61/mean/Fused_Mul__copy" type="Const" version="opset1">
			<data element_type="f32" offset="223416" shape="192, 32, 1, 1" size="24576"/>
			<output>
				<port id="0" names="backbone.features.stage4.unit1.conv1.conv.weight" precision="FP32">
					<dim>192</dim>
					<dim>32</dim>
					<dim>1</dim>
					<dim>1</dim>
				</port>
			</output>
		</layer>
		<layer id="100" name="Conv_60" type="Convolution" version="opset1">
			<data auto_pad="explicit" dilations="1, 1" pads_begin="0, 0" pads_end="0, 0" strides="1, 1"/>
			<input>
				<port id="0" precision="FP32">
					<dim>1</dim>
					<dim>32</dim>
					<dim>60</dim>
					<dim>108</dim>
				</port>
				<port id="1" precision="FP32">
					<dim>192</dim>
					<dim>32</dim>
					<dim>1</dim>
					<dim>1</dim>
				</port>
			</input>
			<output>
				<port id="2" precision="FP32">
					<dim>1</dim>
					<dim>192</dim>
					<dim>60</dim>
					<dim>108</dim>
				</port>
			</output>
		</layer>
		<layer id="101" name="data_add_4720447209" type="Const" version="opset1">
			<data element_type="f32" offset="247992" shape="1, 192, 1, 1" size="768"/>
			<output>
				<port id="0" precision="FP32">
					<dim>1</dim>
					<dim>192</dim>
					<dim>1</dim>
					<dim>1</dim>
				</port>
			</output>
		</layer>
		<layer id="102" name="BatchNormalization_61/variance/Fused_Add_" type="Add" version="opset1">
			<data auto_broadcast="numpy"/>
			<input>
				<port id="0" precision="FP32">
					<dim>1</dim>
					<dim>192</dim>
					<dim>60</dim>
					<dim>108</dim>
				</port>
				<port id="1" precision="FP32">
					<dim>1</dim>
					<dim>192</dim>
					<dim>1</dim>
					<dim>1</dim>
				</port>
			</input>
			<output>
				<port id="2" names="425" precision="FP32">
					<dim>1</dim>
					<dim>192</dim>
					<dim>60</dim>
					<dim>108</dim>
				</port>
			</output>
		</layer>
		<layer id="103" name="Clip_62" type="Clamp" version="opset1">
			<data max="6" min="0"/>
			<input>
				<port id="0" precision="FP32">
					<dim>1</dim>
					<dim>192</dim>
					<dim>60</dim>
					<dim>108</dim>
				</port>
			</input>
			<output>
				<port id="1" names="426" precision="FP32">
					<dim>1</dim>
					<dim>192</dim>
					<dim>60</dim>
					<dim>108</dim>
				</port>
			</output>
		</layer>
		<layer id="104" name="BatchNormalization_64/mean/Fused_Mul__copy" type="Const" version="opset1">
			<data element_type="f32" offset="248760" shape="192, 1, 1, 3, 3" size="6912"/>
			<output>
				<port id="0" names="backbone.features.stage4.unit1.conv2.conv.weight" precision="FP32">
					<dim>192</dim>
					<dim>1</dim>
					<dim>1</dim>
					<dim>3</dim>
					<dim>3</dim>
				</port>
			</output>
		</layer>
		<layer id="105" name="Conv_63" type="GroupConvolution" version="opset1">
			<data auto_pad="explicit" dilations="1, 1" pads_begin="1, 1" pads_end="1, 1" strides="2, 2"/>
			<input>
				<port id="0" precision="FP32">
					<dim>1</dim>
					<dim>192</dim>
					<dim>60</dim>
					<dim>108</dim>
				</port>
				<port id="1" precision="FP32">
					<dim>192</dim>
					<dim>1</dim>
					<dim>1</dim>
					<dim>3</dim>
					<dim>3</dim>
				</port>
			</input>
			<output>
				<port id="2" precision="FP32">
					<dim>1</dim>
					<dim>192</dim>
					<dim>30</dim>
					<dim>54</dim>
				</port>
			</output>
		</layer>
		<layer id="106" name="data_add_4721247217" type="Const" version="opset1">
			<data element_type="f32" offset="255672" shape="1, 192, 1, 1" size="768"/>
			<output>
				<port id="0" precision="FP32">
					<dim>1</dim>
					<dim>192</dim>
					<dim>1</dim>
					<dim>1</dim>
				</port>
			</output>
		</layer>
		<layer id="107" name="BatchNormalization_64/variance/Fused_Add_" type="Add" version="opset1">
			<data auto_broadcast="numpy"/>
			<input>
				<port id="0" precision="FP32">
					<dim>1</dim>
					<dim>192</dim>
					<dim>30</dim>
					<dim>54</dim>
				</port>
				<port id="1" precision="FP32">
					<dim>1</dim>
					<dim>192</dim>
					<dim>1</dim>
					<dim>1</dim>
				</port>
			</input>
			<output>
				<port id="2" names="428" precision="FP32">
					<dim>1</dim>
					<dim>192</dim>
					<dim>30</dim>
					<dim>54</dim>
				</port>
			</output>
		</layer>
		<layer id="108" name="Clip_65" type="Clamp" version="opset1">
			<data max="6" min="0"/>
			<input>
				<port id="0" precision="FP32">
					<dim>1</dim>
					<dim>192</dim>
					<dim>30</dim>
					<dim>54</dim>
				</port>
			</input>
			<output>
				<port id="1" names="429" precision="FP32">
					<dim>1</dim>
					<dim>192</dim>
					<dim>30</dim>
					<dim>54</dim>
				</port>
			</output>
		</layer>
		<layer id="109" name="BatchNormalization_67/mean/Fused_Mul__copy" type="Const" version="opset1">
			<data element_type="f32" offset="256440" shape="64, 192, 1, 1" size="49152"/>
			<output>
				<port id="0" names="backbone.features.stage4.unit1.conv3.conv.weight" precision="FP32">
					<dim>64</dim>
					<dim>192</dim>
					<dim>1</dim>
					<dim>1</dim>
				</port>
			</output>
		</layer>
		<layer id="110" name="Conv_66" type="Convolution" version="opset1">
			<data auto_pad="explicit" dilations="1, 1" pads_begin="0, 0" pads_end="0, 0" strides="1, 1"/>
			<input>
				<port id="0" precision="FP32">
					<dim>1</dim>
					<dim>192</dim>
					<dim>30</dim>
					<dim>54</dim>
				</port>
				<port id="1" precision="FP32">
					<dim>64</dim>
					<dim>192</dim>
					<dim>1</dim>
					<dim>1</dim>
				</port>
			</input>
			<output>
				<port id="2" precision="FP32">
					<dim>1</dim>
					<dim>64</dim>
					<dim>30</dim>
					<dim>54</dim>
				</port>
			</output>
		</layer>
		<layer id="111" name="data_add_4722047225" type="Const" version="opset1">
			<data element_type="f32" offset="305592" shape="1, 64, 1, 1" size="256"/>
			<output>
				<port id="0" precision="FP32">
					<dim>1</dim>
					<dim>64</dim>
					<dim>1</dim>
					<dim>1</dim>
				</port>
			</output>
		</layer>
		<layer id="112" name="BatchNormalization_67/variance/Fused_Add_" type="Add" version="opset1">
			<data auto_broadcast="numpy"/>
			<input>
				<port id="0" precision="FP32">
					<dim>1</dim>
					<dim>64</dim>
					<dim>30</dim>
					<dim>54</dim>
				</port>
				<port id="1" precision="FP32">
					<dim>1</dim>
					<dim>64</dim>
					<dim>1</dim>
					<dim>1</dim>
				</port>
			</input>
			<output>
				<port id="2" names="431" precision="FP32">
					<dim>1</dim>
					<dim>64</dim>
					<dim>30</dim>
					<dim>54</dim>
				</port>
			</output>
		</layer>
		<layer id="113" name="BatchNormalization_69/mean/Fused_Mul__copy" type="Const" version="opset1">
			<data element_type="f32" offset="305848" shape="384, 64, 1, 1" size="98304"/>
			<output>
				<port id="0" names="backbone.features.stage4.unit2.conv1.conv.weight" precision="FP32">
					<dim>384</dim>
					<dim>64</dim>
					<dim>1</dim>
					<dim>1</dim>
				</port>
			</output>
		</layer>
		<layer id="114" name="Conv_68" type="Convolution" version="opset1">
			<data auto_pad="explicit" dilations="1, 1" pads_begin="0, 0" pads_end="0, 0" strides="1, 1"/>
			<input>
				<port id="0" precision="FP32">
					<dim>1</dim>
					<dim>64</dim>
					<dim>30</dim>
					<dim>54</dim>
				</port>
				<port id="1" precision="FP32">
					<dim>384</dim>
					<dim>64</dim>
					<dim>1</dim>
					<dim>1</dim>
				</port>
			</input>
			<output>
				<port id="2" precision="FP32">
					<dim>1</dim>
					<dim>384</dim>
					<dim>30</dim>
					<dim>54</dim>
				</port>
			</output>
		</layer>
		<layer id="115" name="data_add_4722847233" type="Const" version="opset1">
			<data element_type="f32" offset="404152" shape="1, 384, 1, 1" size="1536"/>
			<output>
				<port id="0" precision="FP32">
					<dim>1</dim>
					<dim>384</dim>
					<dim>1</dim>
					<dim>1</dim>
				</port>
			</output>
		</layer>
		<layer id="116" name="BatchNormalization_69/variance/Fused_Add_" type="Add" version="opset1">
			<data auto_broadcast="numpy"/>
			<input>
				<port id="0" precision="FP32">
					<dim>1</dim>
					<dim>384</dim>
					<dim>30</dim>
					<dim>54</dim>
				</port>
				<port id="1" precision="FP32">
					<dim>1</dim>
					<dim>384</dim>
					<dim>1</dim>
					<dim>1</dim>
				</port>
			</input>
			<output>
				<port id="2" names="433" precision="FP32">
					<dim>1</dim>
					<dim>384</dim>
					<dim>30</dim>
					<dim>54</dim>
				</port>
			</output>
		</layer>
		<layer id="117" name="Clip_70" type="Clamp" version="opset1">
			<data max="6" min="0"/>
			<input>
				<port id="0" precision="FP32">
					<dim>1</dim>
					<dim>384</dim>
					<dim>30</dim>
					<dim>54</dim>
				</port>
			</input>
			<output>
				<port id="1" names="434" precision="FP32">
					<dim>1</dim>
					<dim>384</dim>
					<dim>30</dim>
					<dim>54</dim>
				</port>
			</output>
		</layer>
		<layer id="118" name="BatchNormalization_72/mean/Fused_Mul__copy" type="Const" version="opset1">
			<data element_type="f32" offset="405688" shape="384, 1, 1, 3, 3" size="13824"/>
			<output>
				<port id="0" names="backbone.features.stage4.unit2.conv2.conv.weight" precision="FP32">
					<dim>384</dim>
					<dim>1</dim>
					<dim>1</dim>
					<dim>3</dim>
					<dim>3</dim>
				</port>
			</output>
		</layer>
		<layer id="119" name="Conv_71" type="GroupConvolution" version="opset1">
			<data auto_pad="explicit" dilations="1, 1" pads_begin="1, 1" pads_end="1, 1" strides="1, 1"/>
			<input>
				<port id="0" precision="FP32">
					<dim>1</dim>
					<dim>384</dim>
					<dim>30</dim>
					<dim>54</dim>
				</port>
				<port id="1" precision="FP32">
					<dim>384</dim>
					<dim>1</dim>
					<dim>1</dim>
					<dim>3</dim>
					<dim>3</dim>
				</port>
			</input>
			<output>
				<port id="2" precision="FP32">
					<dim>1</dim>
					<dim>384</dim>
					<dim>30</dim>
					<dim>54</dim>
				</port>
			</output>
		</layer>
		<layer id="120" name="data_add_4723647241" type="Const" version="opset1">
			<data element_type="f32" offset="419512" shape="1, 384, 1, 1" size="1536"/>
			<output>
				<port id="0" precision="FP32">
					<dim>1</dim>
					<dim>384</dim>
					<dim>1</dim>
					<dim>1</dim>
				</port>
			</output>
		</layer>
		<layer id="121" name="BatchNormalization_72/variance/Fused_Add_" type="Add" version="opset1">
			<data auto_broadcast="numpy"/>
			<input>
				<port id="0" precision="FP32">
					<dim>1</dim>
					<dim>384</dim>
					<dim>30</dim>
					<dim>54</dim>
				</port>
				<port id="1" precision="FP32">
					<dim>1</dim>
					<dim>384</dim>
					<dim>1</dim>
					<dim>1</dim>
				</port>
			</input>
			<output>
				<port id="2" names="436" precision="FP32">
					<dim>1</dim>
					<dim>384</dim>
					<dim>30</dim>
					<dim>54</dim>
				</port>
			</output>
		</layer>
		<layer id="122" name="Clip_73" type="Clamp" version="opset1">
			<data max="6" min="0"/>
			<input>
				<port id="0" precision="FP32">
					<dim>1</dim>
					<dim>384</dim>
					<dim>30</dim>
					<dim>54</dim>
				</port>
			</input>
			<output>
				<port id="1" names="437" precision="FP32">
					<dim>1</dim>
					<dim>384</dim>
					<dim>30</dim>
					<dim>54</dim>
				</port>
			</output>
		</layer>
		<layer id="123" name="BatchNormalization_75/mean/Fused_Mul__copy" type="Const" version="opset1">
			<data element_type="f32" offset="421048" shape="64, 384, 1, 1" size="98304"/>
			<output>
				<port id="0" names="backbone.features.stage4.unit2.conv3.conv.weight" precision="FP32">
					<dim>64</dim>
					<dim>384</dim>
					<dim>1</dim>
					<dim>1</dim>
				</port>
			</output>
		</layer>
		<layer id="124" name="Conv_74" type="Convolution" version="opset1">
			<data auto_pad="explicit" dilations="1, 1" pads_begin="0, 0" pads_end="0, 0" strides="1, 1"/>
			<input>
				<port id="0" precision="FP32">
					<dim>1</dim>
					<dim>384</dim>
					<dim>30</dim>
					<dim>54</dim>
				</port>
				<port id="1" precision="FP32">
					<dim>64</dim>
					<dim>384</dim>
					<dim>1</dim>
					<dim>1</dim>
				</port>
			</input>
			<output>
				<port id="2" precision="FP32">
					<dim>1</dim>
					<dim>64</dim>
					<dim>30</dim>
					<dim>54</dim>
				</port>
			</output>
		</layer>
		<layer id="125" name="data_add_4724447249" type="Const" version="opset1">
			<data element_type="f32" offset="519352" shape="1, 64, 1, 1" size="256"/>
			<output>
				<port id="0" precision="FP32">
					<dim>1</dim>
					<dim>64</dim>
					<dim>1</dim>
					<dim>1</dim>
				</port>
			</output>
		</layer>
		<layer id="126" name="BatchNormalization_75/variance/Fused_Add_" type="Add" version="opset1">
			<data auto_broadcast="numpy"/>
			<input>
				<port id="0" precision="FP32">
					<dim>1</dim>
					<dim>64</dim>
					<dim>30</dim>
					<dim>54</dim>
				</port>
				<port id="1" precision="FP32">
					<dim>1</dim>
					<dim>64</dim>
					<dim>1</dim>
					<dim>1</dim>
				</port>
			</input>
			<output>
				<port id="2" names="439" precision="FP32">
					<dim>1</dim>
					<dim>64</dim>
					<dim>30</dim>
					<dim>54</dim>
				</port>
			</output>
		</layer>
		<layer id="127" name="Add_76" type="Add" version="opset1">
			<data auto_broadcast="numpy"/>
			<input>
				<port id="0" precision="FP32">
					<dim>1</dim>
					<dim>64</dim>
					<dim>30</dim>
					<dim>54</dim>
				</port>
				<port id="1" precision="FP32">
					<dim>1</dim>
					<dim>64</dim>
					<dim>30</dim>
					<dim>54</dim>
				</port>
			</input>
			<output>
				<port id="2" names="440" precision="FP32">
					<dim>1</dim>
					<dim>64</dim>
					<dim>30</dim>
					<dim>54</dim>
				</port>
			</output>
		</layer>
		<layer id="128" name="BatchNormalization_78/mean/Fused_Mul__copy" type="Const" version="opset1">
			<data element_type="f32" offset="519608" shape="384, 64, 1, 1" size="98304"/>
			<output>
				<port id="0" names="backbone.features.stage4.unit3.conv1.conv.weight" precision="FP32">
					<dim>384</dim>
					<dim>64</dim>
					<dim>1</dim>
					<dim>1</dim>
				</port>
			</output>
		</layer>
		<layer id="129" name="Conv_77" type="Convolution" version="opset1">
			<data auto_pad="explicit" dilations="1, 1" pads_begin="0, 0" pads_end="0, 0" strides="1, 1"/>
			<input>
				<port id="0" precision="FP32">
					<dim>1</dim>
					<dim>64</dim>
					<dim>30</dim>
					<dim>54</dim>
				</port>
				<port id="1" precision="FP32">
					<dim>384</dim>
					<dim>64</dim>
					<dim>1</dim>
					<dim>1</dim>
				</port>
			</input>
			<output>
				<port id="2" precision="FP32">
					<dim>1</dim>
					<dim>384</dim>
					<dim>30</dim>
					<dim>54</dim>
				</port>
			</output>
		</layer>
		<layer id="130" name="data_add_4725247257" type="Const" version="opset1">
			<data element_type="f32" offset="617912" shape="1, 384, 1, 1" size="1536"/>
			<output>
				<port id="0" precision="FP32">
					<dim>1</dim>
					<dim>384</dim>
					<dim>1</dim>
					<dim>1</dim>
				</port>
			</output>
		</layer>
		<layer id="131" name="BatchNormalization_78/variance/Fused_Add_" type="Add" version="opset1">
			<data auto_broadcast="numpy"/>
			<input>
				<port id="0" precision="FP32">
					<dim>1</dim>
					<dim>384</dim>
					<dim>30</dim>
					<dim>54</dim>
				</port>
				<port id="1" precision="FP32">
					<dim>1</dim>
					<dim>384</dim>
					<dim>1</dim>
					<dim>1</dim>
				</port>
			</input>
			<output>
				<port id="2" names="442" precision="FP32">
					<dim>1</dim>
					<dim>384</dim>
					<dim>30</dim>
					<dim>54</dim>
				</port>
			</output>
		</layer>
		<layer id="132" name="Clip_79" type="Clamp" version="opset1">
			<data max="6" min="0"/>
			<input>
				<port id="0" precision="FP32">
					<dim>1</dim>
					<dim>384</dim>
					<dim>30</dim>
					<dim>54</dim>
				</port>
			</input>
			<output>
				<port id="1" names="443" precision="FP32">
					<dim>1</dim>
					<dim>384</dim>
					<dim>30</dim>
					<dim>54</dim>
				</port>
			</output>
		</layer>
		<layer id="133" name="BatchNormalization_81/mean/Fused_Mul__copy" type="Const" version="opset1">
			<data element_type="f32" offset="619448" shape="384, 1, 1, 3, 3" size="13824"/>
			<output>
				<port id="0" names="backbone.features.stage4.unit3.conv2.conv.weight" precision="FP32">
					<dim>384</dim>
					<dim>1</dim>
					<dim>1</dim>
					<dim>3</dim>
					<dim>3</dim>
				</port>
			</output>
		</layer>
		<layer id="134" name="Conv_80" type="GroupConvolution" version="opset1">
			<data auto_pad="explicit" dilations="1, 1" pads_begin="1, 1" pads_end="1, 1" strides="1, 1"/>
			<input>
				<port id="0" precision="FP32">
					<dim>1</dim>
					<dim>384</dim>
					<dim>30</dim>
					<dim>54</dim>
				</port>
				<port id="1" precision="FP32">
					<dim>384</dim>
					<dim>1</dim>
					<dim>1</dim>
					<dim>3</dim>
					<dim>3</dim>
				</port>
			</input>
			<output>
				<port id="2" precision="FP32">
					<dim>1</dim>
					<dim>384</dim>
					<dim>30</dim>
					<dim>54</dim>
				</port>
			</output>
		</layer>
		<layer id="135" name="data_add_4726047265" type="Const" version="opset1">
			<data element_type="f32" offset="633272" shape="1, 384, 1, 1" size="1536"/>
			<output>
				<port id="0" precision="FP32">
					<dim>1</dim>
					<dim>384</dim>
					<dim>1</dim>
					<dim>1</dim>
				</port>
			</output>
		</layer>
		<layer id="136" name="BatchNormalization_81/variance/Fused_Add_" type="Add" version="opset1">
			<data auto_broadcast="numpy"/>
			<input>
				<port id="0" precision="FP32">
					<dim>1</dim>
					<dim>384</dim>
					<dim>30</dim>
					<dim>54</dim>
				</port>
				<port id="1" precision="FP32">
					<dim>1</dim>
					<dim>384</dim>
					<dim>1</dim>
					<dim>1</dim>
				</port>
			</input>
			<output>
				<port id="2" names="445" precision="FP32">
					<dim>1</dim>
					<dim>384</dim>
					<dim>30</dim>
					<dim>54</dim>
				</port>
			</output>
		</layer>
		<layer id="137" name="Clip_82" type="Clamp" version="opset1">
			<data max="6" min="0"/>
			<input>
				<port id="0" precision="FP32">
					<dim>1</dim>
					<dim>384</dim>
					<dim>30</dim>
					<dim>54</dim>
				</port>
			</input>
			<output>
				<port id="1" names="446" precision="FP32">
					<dim>1</dim>
					<dim>384</dim>
					<dim>30</dim>
					<dim>54</dim>
				</port>
			</output>
		</layer>
		<layer id="138" name="BatchNormalization_84/mean/Fused_Mul__copy" type="Const" version="opset1">
			<data element_type="f32" offset="634808" shape="64, 384, 1, 1" size="98304"/>
			<output>
				<port id="0" names="backbone.features.stage4.unit3.conv3.conv.weight" precision="FP32">
					<dim>64</dim>
					<dim>384</dim>
					<dim>1</dim>
					<dim>1</dim>
				</port>
			</output>
		</layer>
		<layer id="139" name="Conv_83" type="Convolution" version="opset1">
			<data auto_pad="explicit" dilations="1, 1" pads_begin="0, 0" pads_end="0, 0" strides="1, 1"/>
			<input>
				<port id="0" precision="FP32">
					<dim>1</dim>
					<dim>384</dim>
					<dim>30</dim>
					<dim>54</dim>
				</port>
				<port id="1" precision="FP32">
					<dim>64</dim>
					<dim>384</dim>
					<dim>1</dim>
					<dim>1</dim>
				</port>
			</input>
			<output>
				<port id="2" precision="FP32">
					<dim>1</dim>
					<dim>64</dim>
					<dim>30</dim>
					<dim>54</dim>
				</port>
			</output>
		</layer>
		<layer id="140" name="data_add_4726847273" type="Const" version="opset1">
			<data element_type="f32" offset="733112" shape="1, 64, 1, 1" size="256"/>
			<output>
				<port id="0" precision="FP32">
					<dim>1</dim>
					<dim>64</dim>
					<dim>1</dim>
					<dim>1</dim>
				</port>
			</output>
		</layer>
		<layer id="141" name="BatchNormalization_84/variance/Fused_Add_" type="Add" version="opset1">
			<data auto_broadcast="numpy"/>
			<input>
				<port id="0" precision="FP32">
					<dim>1</dim>
					<dim>64</dim>
					<dim>30</dim>
					<dim>54</dim>
				</port>
				<port id="1" precision="FP32">
					<dim>1</dim>
					<dim>64</dim>
					<dim>1</dim>
					<dim>1</dim>
				</port>
			</input>
			<output>
				<port id="2" names="448" precision="FP32">
					<dim>1</dim>
					<dim>64</dim>
					<dim>30</dim>
					<dim>54</dim>
				</port>
			</output>
		</layer>
		<layer id="142" name="Add_85" type="Add" version="opset1">
			<data auto_broadcast="numpy"/>
			<input>
				<port id="0" precision="FP32">
					<dim>1</dim>
					<dim>64</dim>
					<dim>30</dim>
					<dim>54</dim>
				</port>
				<port id="1" precision="FP32">
					<dim>1</dim>
					<dim>64</dim>
					<dim>30</dim>
					<dim>54</dim>
				</port>
			</input>
			<output>
				<port id="2" names="449" precision="FP32">
					<dim>1</dim>
					<dim>64</dim>
					<dim>30</dim>
					<dim>54</dim>
				</port>
			</output>
		</layer>
		<layer id="143" name="BatchNormalization_87/mean/Fused_Mul__copy" type="Const" version="opset1">
			<data element_type="f32" offset="733368" shape="384, 64, 1, 1" size="98304"/>
			<output>
				<port id="0" names="backbone.features.stage4.unit4.conv1.conv.weight" precision="FP32">
					<dim>384</dim>
					<dim>64</dim>
					<dim>1</dim>
					<dim>1</dim>
				</port>
			</output>
		</layer>
		<layer id="144" name="Conv_86" type="Convolution" version="opset1">
			<data auto_pad="explicit" dilations="1, 1" pads_begin="0, 0" pads_end="0, 0" strides="1, 1"/>
			<input>
				<port id="0" precision="FP32">
					<dim>1</dim>
					<dim>64</dim>
					<dim>30</dim>
					<dim>54</dim>
				</port>
				<port id="1" precision="FP32">
					<dim>384</dim>
					<dim>64</dim>
					<dim>1</dim>
					<dim>1</dim>
				</port>
			</input>
			<output>
				<port id="2" precision="FP32">
					<dim>1</dim>
					<dim>384</dim>
					<dim>30</dim>
					<dim>54</dim>
				</port>
			</output>
		</layer>
		<layer id="145" name="data_add_4727647281" type="Const" version="opset1">
			<data element_type="f32" offset="831672" shape="1, 384, 1, 1" size="1536"/>
			<output>
				<port id="0" precision="FP32">
					<dim>1</dim>
					<dim>384</dim>
					<dim>1</dim>
					<dim>1</dim>
				</port>
			</output>
		</layer>
		<layer id="146" name="BatchNormalization_87/variance/Fused_Add_" type="Add" version="opset1">
			<data auto_broadcast="numpy"/>
			<input>
				<port id="0" precision="FP32">
					<dim>1</dim>
					<dim>384</dim>
					<dim>30</dim>
					<dim>54</dim>
				</port>
				<port id="1" precision="FP32">
					<dim>1</dim>
					<dim>384</dim>
					<dim>1</dim>
					<dim>1</dim>
				</port>
			</input>
			<output>
				<port id="2" names="451" precision="FP32">
					<dim>1</dim>
					<dim>384</dim>
					<dim>30</dim>
					<dim>54</dim>
				</port>
			</output>
		</layer>
		<layer id="147" name="Clip_88" type="Clamp" version="opset1">
			<data max="6" min="0"/>
			<input>
				<port id="0" precision="FP32">
					<dim>1</dim>
					<dim>384</dim>
					<dim>30</dim>
					<dim>54</dim>
				</port>
			</input>
			<output>
				<port id="1" names="452" precision="FP32">
					<dim>1</dim>
					<dim>384</dim>
					<dim>30</dim>
					<dim>54</dim>
				</port>
			</output>
		</layer>
		<layer id="148" name="BatchNormalization_90/mean/Fused_Mul__copy" type="Const" version="opset1">
			<data element_type="f32" offset="833208" shape="384, 1, 1, 3, 3" size="13824"/>
			<output>
				<port id="0" names="backbone.features.stage4.unit4.conv2.conv.weight" precision="FP32">
					<dim>384</dim>
					<dim>1</dim>
					<dim>1</dim>
					<dim>3</dim>
					<dim>3</dim>
				</port>
			</output>
		</layer>
		<layer id="149" name="Conv_89" type="GroupConvolution" version="opset1">
			<data auto_pad="explicit" dilations="1, 1" pads_begin="1, 1" pads_end="1, 1" strides="1, 1"/>
			<input>
				<port id="0" precision="FP32">
					<dim>1</dim>
					<dim>384</dim>
					<dim>30</dim>
					<dim>54</dim>
				</port>
				<port id="1" precision="FP32">
					<dim>384</dim>
					<dim>1</dim>
					<dim>1</dim>
					<dim>3</dim>
					<dim>3</dim>
				</port>
			</input>
			<output>
				<port id="2" precision="FP32">
					<dim>1</dim>
					<dim>384</dim>
					<dim>30</dim>
					<dim>54</dim>
				</port>
			</output>
		</layer>
		<layer id="150" name="data_add_4728447289" type="Const" version="opset1">
			<data element_type="f32" offset="847032" shape="1, 384, 1, 1" size="1536"/>
			<output>
				<port id="0" precision="FP32">
					<dim>1</dim>
					<dim>384</dim>
					<dim>1</dim>
					<dim>1</dim>
				</port>
			</output>
		</layer>
		<layer id="151" name="BatchNormalization_90/variance/Fused_Add_" type="Add" version="opset1">
			<data auto_broadcast="numpy"/>
			<input>
				<port id="0" precision="FP32">
					<dim>1</dim>
					<dim>384</dim>
					<dim>30</dim>
					<dim>54</dim>
				</port>
				<port id="1" precision="FP32">
					<dim>1</dim>
					<dim>384</dim>
					<dim>1</dim>
					<dim>1</dim>
				</port>
			</input>
			<output>
				<port id="2" names="454" precision="FP32">
					<dim>1</dim>
					<dim>384</dim>
					<dim>30</dim>
					<dim>54</dim>
				</port>
			</output>
		</layer>
		<layer id="152" name="Clip_91" type="Clamp" version="opset1">
			<data max="6" min="0"/>
			<input>
				<port id="0" precision="FP32">
					<dim>1</dim>
					<dim>384</dim>
					<dim>30</dim>
					<dim>54</dim>
				</port>
			</input>
			<output>
				<port id="1" names="455" precision="FP32">
					<dim>1</dim>
					<dim>384</dim>
					<dim>30</dim>
					<dim>54</dim>
				</port>
			</output>
		</layer>
		<layer id="153" name="BatchNormalization_93/mean/Fused_Mul__copy" type="Const" version="opset1">
			<data element_type="f32" offset="848568" shape="64, 384, 1, 1" size="98304"/>
			<output>
				<port id="0" names="backbone.features.stage4.unit4.conv3.conv.weight" precision="FP32">
					<dim>64</dim>
					<dim>384</dim>
					<dim>1</dim>
					<dim>1</dim>
				</port>
			</output>
		</layer>
		<layer id="154" name="Conv_92" type="Convolution" version="opset1">
			<data auto_pad="explicit" dilations="1, 1" pads_begin="0, 0" pads_end="0, 0" strides="1, 1"/>
			<input>
				<port id="0" precision="FP32">
					<dim>1</dim>
					<dim>384</dim>
					<dim>30</dim>
					<dim>54</dim>
				</port>
				<port id="1" precision="FP32">
					<dim>64</dim>
					<dim>384</dim>
					<dim>1</dim>
					<dim>1</dim>
				</port>
			</input>
			<output>
				<port id="2" precision="FP32">
					<dim>1</dim>
					<dim>64</dim>
					<dim>30</dim>
					<dim>54</dim>
				</port>
			</output>
		</layer>
		<layer id="155" name="data_add_4729247297" type="Const" version="opset1">
			<data element_type="f32" offset="946872" shape="1, 64, 1, 1" size="256"/>
			<output>
				<port id="0" precision="FP32">
					<dim>1</dim>
					<dim>64</dim>
					<dim>1</dim>
					<dim>1</dim>
				</port>
			</output>
		</layer>
		<layer id="156" name="BatchNormalization_93/variance/Fused_Add_" type="Add" version="opset1">
			<data auto_broadcast="numpy"/>
			<input>
				<port id="0" precision="FP32">
					<dim>1</dim>
					<dim>64</dim>
					<dim>30</dim>
					<dim>54</dim>
				</port>
				<port id="1" precision="FP32">
					<dim>1</dim>
					<dim>64</dim>
					<dim>1</dim>
					<dim>1</dim>
				</port>
			</input>
			<output>
				<port id="2" names="457" precision="FP32">
					<dim>1</dim>
					<dim>64</dim>
					<dim>30</dim>
					<dim>54</dim>
				</port>
			</output>
		</layer>
		<layer id="157" name="Add_94" type="Add" version="opset1">
			<data auto_broadcast="numpy"/>
			<input>
				<port id="0" precision="FP32">
					<dim>1</dim>
					<dim>64</dim>
					<dim>30</dim>
					<dim>54</dim>
				</port>
				<port id="1" precision="FP32">
					<dim>1</dim>
					<dim>64</dim>
					<dim>30</dim>
					<dim>54</dim>
				</port>
			</input>
			<output>
				<port id="2" names="458" precision="FP32">
					<dim>1</dim>
					<dim>64</dim>
					<dim>30</dim>
					<dim>54</dim>
				</port>
			</output>
		</layer>
		<layer id="158" name="BatchNormalization_96/mean/Fused_Mul__copy" type="Const" version="opset1">
			<data element_type="f32" offset="947128" shape="384, 64, 1, 1" size="98304"/>
			<output>
				<port id="0" names="backbone.features.stage4.unit5.conv1.conv.weight" precision="FP32">
					<dim>384</dim>
					<dim>64</dim>
					<dim>1</dim>
					<dim>1</dim>
				</port>
			</output>
		</layer>
		<layer id="159" name="Conv_95" type="Convolution" version="opset1">
			<data auto_pad="explicit" dilations="1, 1" pads_begin="0, 0" pads_end="0, 0" strides="1, 1"/>
			<input>
				<port id="0" precision="FP32">
					<dim>1</dim>
					<dim>64</dim>
					<dim>30</dim>
					<dim>54</dim>
				</port>
				<port id="1" precision="FP32">
					<dim>384</dim>
					<dim>64</dim>
					<dim>1</dim>
					<dim>1</dim>
				</port>
			</input>
			<output>
				<port id="2" precision="FP32">
					<dim>1</dim>
					<dim>384</dim>
					<dim>30</dim>
					<dim>54</dim>
				</port>
			</output>
		</layer>
		<layer id="160" name="data_add_4730047305" type="Const" version="opset1">
			<data element_type="f32" offset="1045432" shape="1, 384, 1, 1" size="1536"/>
			<output>
				<port id="0" precision="FP32">
					<dim>1</dim>
					<dim>384</dim>
					<dim>1</dim>
					<dim>1</dim>
				</port>
			</output>
		</layer>
		<layer id="161" name="BatchNormalization_96/variance/Fused_Add_" type="Add" version="opset1">
			<data auto_broadcast="numpy"/>
			<input>
				<port id="0" precision="FP32">
					<dim>1</dim>
					<dim>384</dim>
					<dim>30</dim>
					<dim>54</dim>
				</port>
				<port id="1" precision="FP32">
					<dim>1</dim>
					<dim>384</dim>
					<dim>1</dim>
					<dim>1</dim>
				</port>
			</input>
			<output>
				<port id="2" names="460" precision="FP32">
					<dim>1</dim>
					<dim>384</dim>
					<dim>30</dim>
					<dim>54</dim>
				</port>
			</output>
		</layer>
		<layer id="162" name="Clip_97" type="Clamp" version="opset1">
			<data max="6" min="0"/>
			<input>
				<port id="0" precision="FP32">
					<dim>1</dim>
					<dim>384</dim>
					<dim>30</dim>
					<dim>54</dim>
				</port>
			</input>
			<output>
				<port id="1" names="461" precision="FP32">
					<dim>1</dim>
					<dim>384</dim>
					<dim>30</dim>
					<dim>54</dim>
				</port>
			</output>
		</layer>
		<layer id="163" name="BatchNormalization_99/mean/Fused_Mul__copy" type="Const" version="opset1">
			<data element_type="f32" offset="1046968" shape="384, 1, 1, 3, 3" size="13824"/>
			<output>
				<port id="0" names="backbone.features.stage4.unit5.conv2.conv.weight" precision="FP32">
					<dim>384</dim>
					<dim>1</dim>
					<dim>1</dim>
					<dim>3</dim>
					<dim>3</dim>
				</port>
			</output>
		</layer>
		<layer id="164" name="Conv_98" type="GroupConvolution" version="opset1">
			<data auto_pad="explicit" dilations="1, 1" pads_begin="1, 1" pads_end="1, 1" strides="1, 1"/>
			<input>
				<port id="0" precision="FP32">
					<dim>1</dim>
					<dim>384</dim>
					<dim>30</dim>
					<dim>54</dim>
				</port>
				<port id="1" precision="FP32">
					<dim>384</dim>
					<dim>1</dim>
					<dim>1</dim>
					<dim>3</dim>
					<dim>3</dim>
				</port>
			</input>
			<output>
				<port id="2" precision="FP32">
					<dim>1</dim>
					<dim>384</dim>
					<dim>30</dim>
					<dim>54</dim>
				</port>
			</output>
		</layer>
		<layer id="165" name="data_add_4730847313" type="Const" version="opset1">
			<data element_type="f32" offset="1060792" shape="1, 384, 1, 1" size="1536"/>
			<output>
				<port id="0" precision="FP32">
					<dim>1</dim>
					<dim>384</dim>
					<dim>1</dim>
					<dim>1</dim>
				</port>
			</output>
		</layer>
		<layer id="166" name="BatchNormalization_99/variance/Fused_Add_" type="Add" version="opset1">
			<data auto_broadcast="numpy"/>
			<input>
				<port id="0" precision="FP32">
					<dim>1</dim>
					<dim>384</dim>
					<dim>30</dim>
					<dim>54</dim>
				</port>
				<port id="1" precision="FP32">
					<dim>1</dim>
					<dim>384</dim>
					<dim>1</dim>
					<dim>1</dim>
				</port>
			</input>
			<output>
				<port id="2" names="463" precision="FP32">
					<dim>1</dim>
					<dim>384</dim>
					<dim>30</dim>
					<dim>54</dim>
				</port>
			</output>
		</layer>
		<layer id="167" name="Clip_100" type="Clamp" version="opset1">
			<data max="6" min="0"/>
			<input>
				<port id="0" precision="FP32">
					<dim>1</dim>
					<dim>384</dim>
					<dim>30</dim>
					<dim>54</dim>
				</port>
			</input>
			<output>
				<port id="1" names="464" precision="FP32">
					<dim>1</dim>
					<dim>384</dim>
					<dim>30</dim>
					<dim>54</dim>
				</port>
			</output>
		</layer>
		<layer id="168" name="BatchNormalization_102/mean/Fused_Mul__copy" type="Const" version="opset1">
			<data element_type="f32" offset="1062328" shape="96, 384, 1, 1" size="147456"/>
			<output>
				<port id="0" names="backbone.features.stage4.unit5.conv3.conv.weight" precision="FP32">
					<dim>96</dim>
					<dim>384</dim>
					<dim>1</dim>
					<dim>1</dim>
				</port>
			</output>
		</layer>
		<layer id="169" name="Conv_101" type="Convolution" version="opset1">
			<data auto_pad="explicit" dilations="1, 1" pads_begin="0, 0" pads_end="0, 0" strides="1, 1"/>
			<input>
				<port id="0" precision="FP32">
					<dim>1</dim>
					<dim>384</dim>
					<dim>30</dim>
					<dim>54</dim>
				</port>
				<port id="1" precision="FP32">
					<dim>96</dim>
					<dim>384</dim>
					<dim>1</dim>
					<dim>1</dim>
				</port>
			</input>
			<output>
				<port id="2" precision="FP32">
					<dim>1</dim>
					<dim>96</dim>
					<dim>30</dim>
					<dim>54</dim>
				</port>
			</output>
		</layer>
		<layer id="170" name="data_add_4731647321" type="Const" version="opset1">
			<data element_type="f32" offset="1209784" shape="1, 96, 1, 1" size="384"/>
			<output>
				<port id="0" precision="FP32">
					<dim>1</dim>
					<dim>96</dim>
					<dim>1</dim>
					<dim>1</dim>
				</port>
			</output>
		</layer>
		<layer id="171" name="BatchNormalization_102/variance/Fused_Add_" type="Add" version="opset1">
			<data auto_broadcast="numpy"/>
			<input>
				<port id="0" precision="FP32">
					<dim>1</dim>
					<dim>96</dim>
					<dim>30</dim>
					<dim>54</dim>
				</port>
				<port id="1" precision="FP32">
					<dim>1</dim>
					<dim>96</dim>
					<dim>1</dim>
					<dim>1</dim>
				</port>
			</input>
			<output>
				<port id="2" names="466" precision="FP32">
					<dim>1</dim>
					<dim>96</dim>
					<dim>30</dim>
					<dim>54</dim>
				</port>
			</output>
		</layer>
		<layer id="172" name="BatchNormalization_104/mean/Fused_Mul__copy" type="Const" version="opset1">
			<data element_type="f32" offset="1210168" shape="576, 96, 1, 1" size="221184"/>
			<output>
				<port id="0" names="backbone.features.stage4.unit6.conv1.conv.weight" precision="FP32">
					<dim>576</dim>
					<dim>96</dim>
					<dim>1</dim>
					<dim>1</dim>
				</port>
			</output>
		</layer>
		<layer id="173" name="Conv_103" type="Convolution" version="opset1">
			<data auto_pad="explicit" dilations="1, 1" pads_begin="0, 0" pads_end="0, 0" strides="1, 1"/>
			<input>
				<port id="0" precision="FP32">
					<dim>1</dim>
					<dim>96</dim>
					<dim>30</dim>
					<dim>54</dim>
				</port>
				<port id="1" precision="FP32">
					<dim>576</dim>
					<dim>96</dim>
					<dim>1</dim>
					<dim>1</dim>
				</port>
			</input>
			<output>
				<port id="2" precision="FP32">
					<dim>1</dim>
					<dim>576</dim>
					<dim>30</dim>
					<dim>54</dim>
				</port>
			</output>
		</layer>
		<layer id="174" name="data_add_4732447329" type="Const" version="opset1">
			<data element_type="f32" offset="1431352" shape="1, 576, 1, 1" size="2304"/>
			<output>
				<port id="0" precision="FP32">
					<dim>1</dim>
					<dim>576</dim>
					<dim>1</dim>
					<dim>1</dim>
				</port>
			</output>
		</layer>
		<layer id="175" name="BatchNormalization_104/variance/Fused_Add_" type="Add" version="opset1">
			<data auto_broadcast="numpy"/>
			<input>
				<port id="0" precision="FP32">
					<dim>1</dim>
					<dim>576</dim>
					<dim>30</dim>
					<dim>54</dim>
				</port>
				<port id="1" precision="FP32">
					<dim>1</dim>
					<dim>576</dim>
					<dim>1</dim>
					<dim>1</dim>
				</port>
			</input>
			<output>
				<port id="2" names="468" precision="FP32">
					<dim>1</dim>
					<dim>576</dim>
					<dim>30</dim>
					<dim>54</dim>
				</port>
			</output>
		</layer>
		<layer id="176" name="Clip_105" type="Clamp" version="opset1">
			<data max="6" min="0"/>
			<input>
				<port id="0" precision="FP32">
					<dim>1</dim>
					<dim>576</dim>
					<dim>30</dim>
					<dim>54</dim>
				</port>
			</input>
			<output>
				<port id="1" names="469" precision="FP32">
					<dim>1</dim>
					<dim>576</dim>
					<dim>30</dim>
					<dim>54</dim>
				</port>
			</output>
		</layer>
		<layer id="177" name="BatchNormalization_107/mean/Fused_Mul__copy" type="Const" version="opset1">
			<data element_type="f32" offset="1433656" shape="576, 1, 1, 3, 3" size="20736"/>
			<output>
				<port id="0" names="backbone.features.stage4.unit6.conv2.conv.weight" precision="FP32">
					<dim>576</dim>
					<dim>1</dim>
					<dim>1</dim>
					<dim>3</dim>
					<dim>3</dim>
				</port>
			</output>
		</layer>
		<layer id="178" name="Conv_106" type="GroupConvolution" version="opset1">
			<data auto_pad="explicit" dilations="1, 1" pads_begin="1, 1" pads_end="1, 1" strides="1, 1"/>
			<input>
				<port id="0" precision="FP32">
					<dim>1</dim>
					<dim>576</dim>
					<dim>30</dim>
					<dim>54</dim>
				</port>
				<port id="1" precision="FP32">
					<dim>576</dim>
					<dim>1</dim>
					<dim>1</dim>
					<dim>3</dim>
					<dim>3</dim>
				</port>
			</input>
			<output>
				<port id="2" precision="FP32">
					<dim>1</dim>
					<dim>576</dim>
					<dim>30</dim>
					<dim>54</dim>
				</port>
			</output>
		</layer>
		<layer id="179" name="data_add_4733247337" type="Const" version="opset1">
			<data element_type="f32" offset="1454392" shape="1, 576, 1, 1" size="2304"/>
			<output>
				<port id="0" precision="FP32">
					<dim>1</dim>
					<dim>576</dim>
					<dim>1</dim>
					<dim>1</dim>
				</port>
			</output>
		</layer>
		<layer id="180" name="BatchNormalization_107/variance/Fused_Add_" type="Add" version="opset1">
			<data auto_broadcast="numpy"/>
			<input>
				<port id="0" precision="FP32">
					<dim>1</dim>
					<dim>576</dim>
					<dim>30</dim>
					<dim>54</dim>
				</port>
				<port id="1" precision="FP32">
					<dim>1</dim>
					<dim>576</dim>
					<dim>1</dim>
					<dim>1</dim>
				</port>
			</input>
			<output>
				<port id="2" names="471" precision="FP32">
					<dim>1</dim>
					<dim>576</dim>
					<dim>30</dim>
					<dim>54</dim>
				</port>
			</output>
		</layer>
		<layer id="181" name="Clip_108" type="Clamp" version="opset1">
			<data max="6" min="0"/>
			<input>
				<port id="0" precision="FP32">
					<dim>1</dim>
					<dim>576</dim>
					<dim>30</dim>
					<dim>54</dim>
				</port>
			</input>
			<output>
				<port id="1" names="472" precision="FP32">
					<dim>1</dim>
					<dim>576</dim>
					<dim>30</dim>
					<dim>54</dim>
				</port>
			</output>
		</layer>
		<layer id="182" name="BatchNormalization_110/mean/Fused_Mul__copy" type="Const" version="opset1">
			<data element_type="f32" offset="1456696" shape="96, 576, 1, 1" size="221184"/>
			<output>
				<port id="0" names="backbone.features.stage4.unit6.conv3.conv.weight" precision="FP32">
					<dim>96</dim>
					<dim>576</dim>
					<dim>1</dim>
					<dim>1</dim>
				</port>
			</output>
		</layer>
		<layer id="183" name="Conv_109" type="Convolution" version="opset1">
			<data auto_pad="explicit" dilations="1, 1" pads_begin="0, 0" pads_end="0, 0" strides="1, 1"/>
			<input>
				<port id="0" precision="FP32">
					<dim>1</dim>
					<dim>576</dim>
					<dim>30</dim>
					<dim>54</dim>
				</port>
				<port id="1" precision="FP32">
					<dim>96</dim>
					<dim>576</dim>
					<dim>1</dim>
					<dim>1</dim>
				</port>
			</input>
			<output>
				<port id="2" precision="FP32">
					<dim>1</dim>
					<dim>96</dim>
					<dim>30</dim>
					<dim>54</dim>
				</port>
			</output>
		</layer>
		<layer id="184" name="data_add_4734047345" type="Const" version="opset1">
			<data element_type="f32" offset="1677880" shape="1, 96, 1, 1" size="384"/>
			<output>
				<port id="0" precision="FP32">
					<dim>1</dim>
					<dim>96</dim>
					<dim>1</dim>
					<dim>1</dim>
				</port>
			</output>
		</layer>
		<layer id="185" name="BatchNormalization_110/variance/Fused_Add_" type="Add" version="opset1">
			<data auto_broadcast="numpy"/>
			<input>
				<port id="0" precision="FP32">
					<dim>1</dim>
					<dim>96</dim>
					<dim>30</dim>
					<dim>54</dim>
				</port>
				<port id="1" precision="FP32">
					<dim>1</dim>
					<dim>96</dim>
					<dim>1</dim>
					<dim>1</dim>
				</port>
			</input>
			<output>
				<port id="2" names="474" precision="FP32">
					<dim>1</dim>
					<dim>96</dim>
					<dim>30</dim>
					<dim>54</dim>
				</port>
			</output>
		</layer>
		<layer id="186" name="Add_111" type="Add" version="opset1">
			<data auto_broadcast="numpy"/>
			<input>
				<port id="0" precision="FP32">
					<dim>1</dim>
					<dim>96</dim>
					<dim>30</dim>
					<dim>54</dim>
				</port>
				<port id="1" precision="FP32">
					<dim>1</dim>
					<dim>96</dim>
					<dim>30</dim>
					<dim>54</dim>
				</port>
			</input>
			<output>
				<port id="2" names="475" precision="FP32">
					<dim>1</dim>
					<dim>96</dim>
					<dim>30</dim>
					<dim>54</dim>
				</port>
			</output>
		</layer>
		<layer id="187" name="BatchNormalization_113/mean/Fused_Mul__copy" type="Const" version="opset1">
			<data element_type="f32" offset="1678264" shape="576, 96, 1, 1" size="221184"/>
			<output>
				<port id="0" names="backbone.features.stage4.unit7.conv1.conv.weight" precision="FP32">
					<dim>576</dim>
					<dim>96</dim>
					<dim>1</dim>
					<dim>1</dim>
				</port>
			</output>
		</layer>
		<layer id="188" name="Conv_112" type="Convolution" version="opset1">
			<data auto_pad="explicit" dilations="1, 1" pads_begin="0, 0" pads_end="0, 0" strides="1, 1"/>
			<input>
				<port id="0" precision="FP32">
					<dim>1</dim>
					<dim>96</dim>
					<dim>30</dim>
					<dim>54</dim>
				</port>
				<port id="1" precision="FP32">
					<dim>576</dim>
					<dim>96</dim>
					<dim>1</dim>
					<dim>1</dim>
				</port>
			</input>
			<output>
				<port id="2" precision="FP32">
					<dim>1</dim>
					<dim>576</dim>
					<dim>30</dim>
					<dim>54</dim>
				</port>
			</output>
		</layer>
		<layer id="189" name="data_add_4734847353" type="Const" version="opset1">
			<data element_type="f32" offset="1899448" shape="1, 576, 1, 1" size="2304"/>
			<output>
				<port id="0" precision="FP32">
					<dim>1</dim>
					<dim>576</dim>
					<dim>1</dim>
					<dim>1</dim>
				</port>
			</output>
		</layer>
		<layer id="190" name="BatchNormalization_113/variance/Fused_Add_" type="Add" version="opset1">
			<data auto_broadcast="numpy"/>
			<input>
				<port id="0" precision="FP32">
					<dim>1</dim>
					<dim>576</dim>
					<dim>30</dim>
					<dim>54</dim>
				</port>
				<port id="1" precision="FP32">
					<dim>1</dim>
					<dim>576</dim>
					<dim>1</dim>
					<dim>1</dim>
				</port>
			</input>
			<output>
				<port id="2" names="477" precision="FP32">
					<dim>1</dim>
					<dim>576</dim>
					<dim>30</dim>
					<dim>54</dim>
				</port>
			</output>
		</layer>
		<layer id="191" name="Clip_114" type="Clamp" version="opset1">
			<data max="6" min="0"/>
			<input>
				<port id="0" precision="FP32">
					<dim>1</dim>
					<dim>576</dim>
					<dim>30</dim>
					<dim>54</dim>
				</port>
			</input>
			<output>
				<port id="1" names="478" precision="FP32">
					<dim>1</dim>
					<dim>576</dim>
					<dim>30</dim>
					<dim>54</dim>
				</port>
			</output>
		</layer>
		<layer id="192" name="BatchNormalization_116/mean/Fused_Mul__copy" type="Const" version="opset1">
			<data element_type="f32" offset="1901752" shape="576, 1, 1, 3, 3" size="20736"/>
			<output>
				<port id="0" names="backbone.features.stage4.unit7.conv2.conv.weight" precision="FP32">
					<dim>576</dim>
					<dim>1</dim>
					<dim>1</dim>
					<dim>3</dim>
					<dim>3</dim>
				</port>
			</output>
		</layer>
		<layer id="193" name="Conv_115" type="GroupConvolution" version="opset1">
			<data auto_pad="explicit" dilations="1, 1" pads_begin="1, 1" pads_end="1, 1" strides="1, 1"/>
			<input>
				<port id="0" precision="FP32">
					<dim>1</dim>
					<dim>576</dim>
					<dim>30</dim>
					<dim>54</dim>
				</port>
				<port id="1" precision="FP32">
					<dim>576</dim>
					<dim>1</dim>
					<dim>1</dim>
					<dim>3</dim>
					<dim>3</dim>
				</port>
			</input>
			<output>
				<port id="2" precision="FP32">
					<dim>1</dim>
					<dim>576</dim>
					<dim>30</dim>
					<dim>54</dim>
				</port>
			</output>
		</layer>
		<layer id="194" name="data_add_4735647361" type="Const" version="opset1">
			<data element_type="f32" offset="1922488" shape="1, 576, 1, 1" size="2304"/>
			<output>
				<port id="0" precision="FP32">
					<dim>1</dim>
					<dim>576</dim>
					<dim>1</dim>
					<dim>1</dim>
				</port>
			</output>
		</layer>
		<layer id="195" name="BatchNormalization_116/variance/Fused_Add_" type="Add" version="opset1">
			<data auto_broadcast="numpy"/>
			<input>
				<port id="0" precision="FP32">
					<dim>1</dim>
					<dim>576</dim>
					<dim>30</dim>
					<dim>54</dim>
				</port>
				<port id="1" precision="FP32">
					<dim>1</dim>
					<dim>576</dim>
					<dim>1</dim>
					<dim>1</dim>
				</port>
			</input>
			<output>
				<port id="2" names="480" precision="FP32">
					<dim>1</dim>
					<dim>576</dim>
					<dim>30</dim>
					<dim>54</dim>
				</port>
			</output>
		</layer>
		<layer id="196" name="Clip_117" type="Clamp" version="opset1">
			<data max="6" min="0"/>
			<input>
				<port id="0" precision="FP32">
					<dim>1</dim>
					<dim>576</dim>
					<dim>30</dim>
					<dim>54</dim>
				</port>
			</input>
			<output>
				<port id="1" names="481" precision="FP32">
					<dim>1</dim>
					<dim>576</dim>
					<dim>30</dim>
					<dim>54</dim>
				</port>
			</output>
		</layer>
		<layer id="197" name="BatchNormalization_119/mean/Fused_Mul__copy" type="Const" version="opset1">
			<data element_type="f32" offset="1924792" shape="96, 576, 1, 1" size="221184"/>
			<output>
				<port id="0" names="backbone.features.stage4.unit7.conv3.conv.weight" precision="FP32">
					<dim>96</dim>
					<dim>576</dim>
					<dim>1</dim>
					<dim>1</dim>
				</port>
			</output>
		</layer>
		<layer id="198" name="Conv_118" type="Convolution" version="opset1">
			<data auto_pad="explicit" dilations="1, 1" pads_begin="0, 0" pads_end="0, 0" strides="1, 1"/>
			<input>
				<port id="0" precision="FP32">
					<dim>1</dim>
					<dim>576</dim>
					<dim>30</dim>
					<dim>54</dim>
				</port>
				<port id="1" precision="FP32">
					<dim>96</dim>
					<dim>576</dim>
					<dim>1</dim>
					<dim>1</dim>
				</port>
			</input>
			<output>
				<port id="2" precision="FP32">
					<dim>1</dim>
					<dim>96</dim>
					<dim>30</dim>
					<dim>54</dim>
				</port>
			</output>
		</layer>
		<layer id="199" name="data_add_4736447369" type="Const" version="opset1">
			<data element_type="f32" offset="2145976" shape="1, 96, 1, 1" size="384"/>
			<output>
				<port id="0" precision="FP32">
					<dim>1</dim>
					<dim>96</dim>
					<dim>1</dim>
					<dim>1</dim>
				</port>
			</output>
		</layer>
		<layer id="200" name="BatchNormalization_119/variance/Fused_Add_" type="Add" version="opset1">
			<data auto_broadcast="numpy"/>
			<input>
				<port id="0" precision="FP32">
					<dim>1</dim>
					<dim>96</dim>
					<dim>30</dim>
					<dim>54</dim>
				</port>
				<port id="1" precision="FP32">
					<dim>1</dim>
					<dim>96</dim>
					<dim>1</dim>
					<dim>1</dim>
				</port>
			</input>
			<output>
				<port id="2" names="483" precision="FP32">
					<dim>1</dim>
					<dim>96</dim>
					<dim>30</dim>
					<dim>54</dim>
				</port>
			</output>
		</layer>
		<layer id="201" name="Add_120" type="Add" version="opset1">
			<data auto_broadcast="numpy"/>
			<input>
				<port id="0" precision="FP32">
					<dim>1</dim>
					<dim>96</dim>
					<dim>30</dim>
					<dim>54</dim>
				</port>
				<port id="1" precision="FP32">
					<dim>1</dim>
					<dim>96</dim>
					<dim>30</dim>
					<dim>54</dim>
				</port>
			</input>
			<output>
				<port id="2" names="484" precision="FP32">
					<dim>1</dim>
					<dim>96</dim>
					<dim>30</dim>
					<dim>54</dim>
				</port>
			</output>
		</layer>
		<layer id="202" name="neck.lateral_convs.1.conv.weight" type="Const" version="opset1">
			<data element_type="f32" offset="2146360" shape="32, 96, 1, 1" size="12288"/>
			<output>
				<port id="0" names="neck.lateral_convs.1.conv.weight" precision="FP32">
					<dim>32</dim>
					<dim>96</dim>
					<dim>1</dim>
					<dim>1</dim>
				</port>
			</output>
		</layer>
		<layer id="203" name="Conv_156/WithoutBiases" type="Convolution" version="opset1">
			<data auto_pad="explicit" dilations="1, 1" pads_begin="0, 0" pads_end="0, 0" strides="1, 1"/>
			<input>
				<port id="0" precision="FP32">
					<dim>1</dim>
					<dim>96</dim>
					<dim>30</dim>
					<dim>54</dim>
				</port>
				<port id="1" precision="FP32">
					<dim>32</dim>
					<dim>96</dim>
					<dim>1</dim>
					<dim>1</dim>
				</port>
			</input>
			<output>
				<port id="2" precision="FP32">
					<dim>1</dim>
					<dim>32</dim>
					<dim>30</dim>
					<dim>54</dim>
				</port>
			</output>
		</layer>
		<layer id="204" name="Conv_156/Dims28387" type="Const" version="opset1">
			<data element_type="f32" offset="2158648" shape="1, 32, 1, 1" size="128"/>
			<output>
				<port id="0" precision="FP32">
					<dim>1</dim>
					<dim>32</dim>
					<dim>1</dim>
					<dim>1</dim>
				</port>
			</output>
		</layer>
		<layer id="205" name="Conv_156" type="Add" version="opset1">
			<data auto_broadcast="numpy"/>
			<input>
				<port id="0" precision="FP32">
					<dim>1</dim>
					<dim>32</dim>
					<dim>30</dim>
					<dim>54</dim>
				</port>
				<port id="1" precision="FP32">
					<dim>1</dim>
					<dim>32</dim>
					<dim>1</dim>
					<dim>1</dim>
				</port>
			</input>
			<output>
				<port id="2" names="520" precision="FP32">
					<dim>1</dim>
					<dim>32</dim>
					<dim>30</dim>
					<dim>54</dim>
				</port>
			</output>
		</layer>
		<layer id="206" name="BatchNormalization_122/mean/Fused_Mul__copy" type="Const" version="opset1">
			<data element_type="f32" offset="2158776" shape="576, 96, 1, 1" size="221184"/>
			<output>
				<port id="0" names="backbone.features.stage5.unit1.conv1.conv.weight" precision="FP32">
					<dim>576</dim>
					<dim>96</dim>
					<dim>1</dim>
					<dim>1</dim>
				</port>
			</output>
		</layer>
		<layer id="207" name="Conv_121" type="Convolution" version="opset1">
			<data auto_pad="explicit" dilations="1, 1" pads_begin="0, 0" pads_end="0, 0" strides="1, 1"/>
			<input>
				<port id="0" precision="FP32">
					<dim>1</dim>
					<dim>96</dim>
					<dim>30</dim>
					<dim>54</dim>
				</port>
				<port id="1" precision="FP32">
					<dim>576</dim>
					<dim>96</dim>
					<dim>1</dim>
					<dim>1</dim>
				</port>
			</input>
			<output>
				<port id="2" precision="FP32">
					<dim>1</dim>
					<dim>576</dim>
					<dim>30</dim>
					<dim>54</dim>
				</port>
			</output>
		</layer>
		<layer id="208" name="data_add_4737247377" type="Const" version="opset1">
			<data element_type="f32" offset="2379960" shape="1, 576, 1, 1" size="2304"/>
			<output>
				<port id="0" precision="FP32">
					<dim>1</dim>
					<dim>576</dim>
					<dim>1</dim>
					<dim>1</dim>
				</port>
			</output>
		</layer>
		<layer id="209" name="BatchNormalization_122/variance/Fused_Add_" type="Add" version="opset1">
			<data auto_broadcast="numpy"/>
			<input>
				<port id="0" precision="FP32">
					<dim>1</dim>
					<dim>576</dim>
					<dim>30</dim>
					<dim>54</dim>
				</port>
				<port id="1" precision="FP32">
					<dim>1</dim>
					<dim>576</dim>
					<dim>1</dim>
					<dim>1</dim>
				</port>
			</input>
			<output>
				<port id="2" names="486" precision="FP32">
					<dim>1</dim>
					<dim>576</dim>
					<dim>30</dim>
					<dim>54</dim>
				</port>
			</output>
		</layer>
		<layer id="210" name="Clip_123" type="Clamp" version="opset1">
			<data max="6" min="0"/>
			<input>
				<port id="0" precision="FP32">
					<dim>1</dim>
					<dim>576</dim>
					<dim>30</dim>
					<dim>54</dim>
				</port>
			</input>
			<output>
				<port id="1" names="487" precision="FP32">
					<dim>1</dim>
					<dim>576</dim>
					<dim>30</dim>
					<dim>54</dim>
				</port>
			</output>
		</layer>
		<layer id="211" name="BatchNormalization_125/mean/Fused_Mul__copy" type="Const" version="opset1">
			<data element_type="f32" offset="2382264" shape="576, 1, 1, 3, 3" size="20736"/>
			<output>
				<port id="0" names="backbone.features.stage5.unit1.conv2.conv.weight" precision="FP32">
					<dim>576</dim>
					<dim>1</dim>
					<dim>1</dim>
					<dim>3</dim>
					<dim>3</dim>
				</port>
			</output>
		</layer>
		<layer id="212" name="Conv_124" type="GroupConvolution" version="opset1">
			<data auto_pad="explicit" dilations="1, 1" pads_begin="1, 1" pads_end="1, 1" strides="2, 2"/>
			<input>
				<port id="0" precision="FP32">
					<dim>1</dim>
					<dim>576</dim>
					<dim>30</dim>
					<dim>54</dim>
				</port>
				<port id="1" precision="FP32">
					<dim>576</dim>
					<dim>1</dim>
					<dim>1</dim>
					<dim>3</dim>
					<dim>3</dim>
				</port>
			</input>
			<output>
				<port id="2" precision="FP32">
					<dim>1</dim>
					<dim>576</dim>
					<dim>15</dim>
					<dim>27</dim>
				</port>
			</output>
		</layer>
		<layer id="213" name="data_add_4738047385" type="Const" version="opset1">
			<data element_type="f32" offset="2403000" shape="1, 576, 1, 1" size="2304"/>
			<output>
				<port id="0" precision="FP32">
					<dim>1</dim>
					<dim>576</dim>
					<dim>1</dim>
					<dim>1</dim>
				</port>
			</output>
		</layer>
		<layer id="214" name="BatchNormalization_125/variance/Fused_Add_" type="Add" version="opset1">
			<data auto_broadcast="numpy"/>
			<input>
				<port id="0" precision="FP32">
					<dim>1</dim>
					<dim>576</dim>
					<dim>15</dim>
					<dim>27</dim>
				</port>
				<port id="1" precision="FP32">
					<dim>1</dim>
					<dim>576</dim>
					<dim>1</dim>
					<dim>1</dim>
				</port>
			</input>
			<output>
				<port id="2" names="489" precision="FP32">
					<dim>1</dim>
					<dim>576</dim>
					<dim>15</dim>
					<dim>27</dim>
				</port>
			</output>
		</layer>
		<layer id="215" name="Clip_126" type="Clamp" version="opset1">
			<data max="6" min="0"/>
			<input>
				<port id="0" precision="FP32">
					<dim>1</dim>
					<dim>576</dim>
					<dim>15</dim>
					<dim>27</dim>
				</port>
			</input>
			<output>
				<port id="1" names="490" precision="FP32">
					<dim>1</dim>
					<dim>576</dim>
					<dim>15</dim>
					<dim>27</dim>
				</port>
			</output>
		</layer>
		<layer id="216" name="BatchNormalization_128/mean/Fused_Mul__copy" type="Const" version="opset1">
			<data element_type="f32" offset="2405304" shape="160, 576, 1, 1" size="368640"/>
			<output>
				<port id="0" names="backbone.features.stage5.unit1.conv3.conv.weight" precision="FP32">
					<dim>160</dim>
					<dim>576</dim>
					<dim>1</dim>
					<dim>1</dim>
				</port>
			</output>
		</layer>
		<layer id="217" name="Conv_127" type="Convolution" version="opset1">
			<data auto_pad="explicit" dilations="1, 1" pads_begin="0, 0" pads_end="0, 0" strides="1, 1"/>
			<input>
				<port id="0" precision="FP32">
					<dim>1</dim>
					<dim>576</dim>
					<dim>15</dim>
					<dim>27</dim>
				</port>
				<port id="1" precision="FP32">
					<dim>160</dim>
					<dim>576</dim>
					<dim>1</dim>
					<dim>1</dim>
				</port>
			</input>
			<output>
				<port id="2" precision="FP32">
					<dim>1</dim>
					<dim>160</dim>
					<dim>15</dim>
					<dim>27</dim>
				</port>
			</output>
		</layer>
		<layer id="218" name="data_add_4738847393" type="Const" version="opset1">
			<data element_type="f32" offset="2773944" shape="1, 160, 1, 1" size="640"/>
			<output>
				<port id="0" precision="FP32">
					<dim>1</dim>
					<dim>160</dim>
					<dim>1</dim>
					<dim>1</dim>
				</port>
			</output>
		</layer>
		<layer id="219" name="BatchNormalization_128/variance/Fused_Add_" type="Add" version="opset1">
			<data auto_broadcast="numpy"/>
			<input>
				<port id="0" precision="FP32">
					<dim>1</dim>
					<dim>160</dim>
					<dim>15</dim>
					<dim>27</dim>
				</port>
				<port id="1" precision="FP32">
					<dim>1</dim>
					<dim>160</dim>
					<dim>1</dim>
					<dim>1</dim>
				</port>
			</input>
			<output>
				<port id="2" names="492" precision="FP32">
					<dim>1</dim>
					<dim>160</dim>
					<dim>15</dim>
					<dim>27</dim>
				</port>
			</output>
		</layer>
		<layer id="220" name="BatchNormalization_130/mean/Fused_Mul__copy" type="Const" version="opset1">
			<data element_type="f32" offset="2774584" shape="960, 160, 1, 1" size="614400"/>
			<output>
				<port id="0" names="backbone.features.stage5.unit2.conv1.conv.weight" precision="FP32">
					<dim>960</dim>
					<dim>160</dim>
					<dim>1</dim>
					<dim>1</dim>
				</port>
			</output>
		</layer>
		<layer id="221" name="Conv_129" type="Convolution" version="opset1">
			<data auto_pad="explicit" dilations="1, 1" pads_begin="0, 0" pads_end="0, 0" strides="1, 1"/>
			<input>
				<port id="0" precision="FP32">
					<dim>1</dim>
					<dim>160</dim>
					<dim>15</dim>
					<dim>27</dim>
				</port>
				<port id="1" precision="FP32">
					<dim>960</dim>
					<dim>160</dim>
					<dim>1</dim>
					<dim>1</dim>
				</port>
			</input>
			<output>
				<port id="2" precision="FP32">
					<dim>1</dim>
					<dim>960</dim>
					<dim>15</dim>
					<dim>27</dim>
				</port>
			</output>
		</layer>
		<layer id="222" name="data_add_4739647401" type="Const" version="opset1">
			<data element_type="f32" offset="3388984" shape="1, 960, 1, 1" size="3840"/>
			<output>
				<port id="0" precision="FP32">
					<dim>1</dim>
					<dim>960</dim>
					<dim>1</dim>
					<dim>1</dim>
				</port>
			</output>
		</layer>
		<layer id="223" name="BatchNormalization_130/variance/Fused_Add_" type="Add" version="opset1">
			<data auto_broadcast="numpy"/>
			<input>
				<port id="0" precision="FP32">
					<dim>1</dim>
					<dim>960</dim>
					<dim>15</dim>
					<dim>27</dim>
				</port>
				<port id="1" precision="FP32">
					<dim>1</dim>
					<dim>960</dim>
					<dim>1</dim>
					<dim>1</dim>
				</port>
			</input>
			<output>
				<port id="2" names="494" precision="FP32">
					<dim>1</dim>
					<dim>960</dim>
					<dim>15</dim>
					<dim>27</dim>
				</port>
			</output>
		</layer>
		<layer id="224" name="Clip_131" type="Clamp" version="opset1">
			<data max="6" min="0"/>
			<input>
				<port id="0" precision="FP32">
					<dim>1</dim>
					<dim>960</dim>
					<dim>15</dim>
					<dim>27</dim>
				</port>
			</input>
			<output>
				<port id="1" names="495" precision="FP32">
					<dim>1</dim>
					<dim>960</dim>
					<dim>15</dim>
					<dim>27</dim>
				</port>
			</output>
		</layer>
		<layer id="225" name="BatchNormalization_133/mean/Fused_Mul__copy" type="Const" version="opset1">
			<data element_type="f32" offset="3392824" shape="960, 1, 1, 3, 3" size="34560"/>
			<output>
				<port id="0" names="backbone.features.stage5.unit2.conv2.conv.weight" precision="FP32">
					<dim>960</dim>
					<dim>1</dim>
					<dim>1</dim>
					<dim>3</dim>
					<dim>3</dim>
				</port>
			</output>
		</layer>
		<layer id="226" name="Conv_132" type="GroupConvolution" version="opset1">
			<data auto_pad="explicit" dilations="1, 1" pads_begin="1, 1" pads_end="1, 1" strides="1, 1"/>
			<input>
				<port id="0" precision="FP32">
					<dim>1</dim>
					<dim>960</dim>
					<dim>15</dim>
					<dim>27</dim>
				</port>
				<port id="1" precision="FP32">
					<dim>960</dim>
					<dim>1</dim>
					<dim>1</dim>
					<dim>3</dim>
					<dim>3</dim>
				</port>
			</input>
			<output>
				<port id="2" precision="FP32">
					<dim>1</dim>
					<dim>960</dim>
					<dim>15</dim>
					<dim>27</dim>
				</port>
			</output>
		</layer>
		<layer id="227" name="data_add_4740447409" type="Const" version="opset1">
			<data element_type="f32" offset="3427384" shape="1, 960, 1, 1" size="3840"/>
			<output>
				<port id="0" precision="FP32">
					<dim>1</dim>
					<dim>960</dim>
					<dim>1</dim>
					<dim>1</dim>
				</port>
			</output>
		</layer>
		<layer id="228" name="BatchNormalization_133/variance/Fused_Add_" type="Add" version="opset1">
			<data auto_broadcast="numpy"/>
			<input>
				<port id="0" precision="FP32">
					<dim>1</dim>
					<dim>960</dim>
					<dim>15</dim>
					<dim>27</dim>
				</port>
				<port id="1" precision="FP32">
					<dim>1</dim>
					<dim>960</dim>
					<dim>1</dim>
					<dim>1</dim>
				</port>
			</input>
			<output>
				<port id="2" names="497" precision="FP32">
					<dim>1</dim>
					<dim>960</dim>
					<dim>15</dim>
					<dim>27</dim>
				</port>
			</output>
		</layer>
		<layer id="229" name="Clip_134" type="Clamp" version="opset1">
			<data max="6" min="0"/>
			<input>
				<port id="0" precision="FP32">
					<dim>1</dim>
					<dim>960</dim>
					<dim>15</dim>
					<dim>27</dim>
				</port>
			</input>
			<output>
				<port id="1" names="498" precision="FP32">
					<dim>1</dim>
					<dim>960</dim>
					<dim>15</dim>
					<dim>27</dim>
				</port>
			</output>
		</layer>
		<layer id="230" name="BatchNormalization_136/mean/Fused_Mul__copy" type="Const" version="opset1">
			<data element_type="f32" offset="3431224" shape="160, 960, 1, 1" size="614400"/>
			<output>
				<port id="0" names="backbone.features.stage5.unit2.conv3.conv.weight" precision="FP32">
					<dim>160</dim>
					<dim>960</dim>
					<dim>1</dim>
					<dim>1</dim>
				</port>
			</output>
		</layer>
		<layer id="231" name="Conv_135" type="Convolution" version="opset1">
			<data auto_pad="explicit" dilations="1, 1" pads_begin="0, 0" pads_end="0, 0" strides="1, 1"/>
			<input>
				<port id="0" precision="FP32">
					<dim>1</dim>
					<dim>960</dim>
					<dim>15</dim>
					<dim>27</dim>
				</port>
				<port id="1" precision="FP32">
					<dim>160</dim>
					<dim>960</dim>
					<dim>1</dim>
					<dim>1</dim>
				</port>
			</input>
			<output>
				<port id="2" precision="FP32">
					<dim>1</dim>
					<dim>160</dim>
					<dim>15</dim>
					<dim>27</dim>
				</port>
			</output>
		</layer>
		<layer id="232" name="data_add_4741247417" type="Const" version="opset1">
			<data element_type="f32" offset="4045624" shape="1, 160, 1, 1" size="640"/>
			<output>
				<port id="0" precision="FP32">
					<dim>1</dim>
					<dim>160</dim>
					<dim>1</dim>
					<dim>1</dim>
				</port>
			</output>
		</layer>
		<layer id="233" name="BatchNormalization_136/variance/Fused_Add_" type="Add" version="opset1">
			<data auto_broadcast="numpy"/>
			<input>
				<port id="0" precision="FP32">
					<dim>1</dim>
					<dim>160</dim>
					<dim>15</dim>
					<dim>27</dim>
				</port>
				<port id="1" precision="FP32">
					<dim>1</dim>
					<dim>160</dim>
					<dim>1</dim>
					<dim>1</dim>
				</port>
			</input>
			<output>
				<port id="2" names="500" precision="FP32">
					<dim>1</dim>
					<dim>160</dim>
					<dim>15</dim>
					<dim>27</dim>
				</port>
			</output>
		</layer>
		<layer id="234" name="Add_137" type="Add" version="opset1">
			<data auto_broadcast="numpy"/>
			<input>
				<port id="0" precision="FP32">
					<dim>1</dim>
					<dim>160</dim>
					<dim>15</dim>
					<dim>27</dim>
				</port>
				<port id="1" precision="FP32">
					<dim>1</dim>
					<dim>160</dim>
					<dim>15</dim>
					<dim>27</dim>
				</port>
			</input>
			<output>
				<port id="2" names="501" precision="FP32">
					<dim>1</dim>
					<dim>160</dim>
					<dim>15</dim>
					<dim>27</dim>
				</port>
			</output>
		</layer>
		<layer id="235" name="BatchNormalization_139/mean/Fused_Mul__copy" type="Const" version="opset1">
			<data element_type="f32" offset="4046264" shape="960, 160, 1, 1" size="614400"/>
			<output>
				<port id="0" names="backbone.features.stage5.unit3.conv1.conv.weight" precision="FP32">
					<dim>960</dim>
					<dim>160</dim>
					<dim>1</dim>
					<dim>1</dim>
				</port>
			</output>
		</layer>
		<layer id="236" name="Conv_138" type="Convolution" version="opset1">
			<data auto_pad="explicit" dilations="1, 1" pads_begin="0, 0" pads_end="0, 0" strides="1, 1"/>
			<input>
				<port id="0" precision="FP32">
					<dim>1</dim>
					<dim>160</dim>
					<dim>15</dim>
					<dim>27</dim>
				</port>
				<port id="1" precision="FP32">
					<dim>960</dim>
					<dim>160</dim>
					<dim>1</dim>
					<dim>1</dim>
				</port>
			</input>
			<output>
				<port id="2" precision="FP32">
					<dim>1</dim>
					<dim>960</dim>
					<dim>15</dim>
					<dim>27</dim>
				</port>
			</output>
		</layer>
		<layer id="237" name="data_add_4742047425" type="Const" version="opset1">
			<data element_type="f32" offset="4660664" shape="1, 960, 1, 1" size="3840"/>
			<output>
				<port id="0" precision="FP32">
					<dim>1</dim>
					<dim>960</dim>
					<dim>1</dim>
					<dim>1</dim>
				</port>
			</output>
		</layer>
		<layer id="238" name="BatchNormalization_139/variance/Fused_Add_" type="Add" version="opset1">
			<data auto_broadcast="numpy"/>
			<input>
				<port id="0" precision="FP32">
					<dim>1</dim>
					<dim>960</dim>
					<dim>15</dim>
					<dim>27</dim>
				</port>
				<port id="1" precision="FP32">
					<dim>1</dim>
					<dim>960</dim>
					<dim>1</dim>
					<dim>1</dim>
				</port>
			</input>
			<output>
				<port id="2" names="503" precision="FP32">
					<dim>1</dim>
					<dim>960</dim>
					<dim>15</dim>
					<dim>27</dim>
				</port>
			</output>
		</layer>
		<layer id="239" name="Clip_140" type="Clamp" version="opset1">
			<data max="6" min="0"/>
			<input>
				<port id="0" precision="FP32">
					<dim>1</dim>
					<dim>960</dim>
					<dim>15</dim>
					<dim>27</dim>
				</port>
			</input>
			<output>
				<port id="1" names="504" precision="FP32">
					<dim>1</dim>
					<dim>960</dim>
					<dim>15</dim>
					<dim>27</dim>
				</port>
			</output>
		</layer>
		<layer id="240" name="BatchNormalization_142/mean/Fused_Mul__copy" type="Const" version="opset1">
			<data element_type="f32" offset="4664504" shape="960, 1, 1, 3, 3" size="34560"/>
			<output>
				<port id="0" names="backbone.features.stage5.unit3.conv2.conv.weight" precision="FP32">
					<dim>960</dim>
					<dim>1</dim>
					<dim>1</dim>
					<dim>3</dim>
					<dim>3</dim>
				</port>
			</output>
		</layer>
		<layer id="241" name="Conv_141" type="GroupConvolution" version="opset1">
			<data auto_pad="explicit" dilations="1, 1" pads_begin="1, 1" pads_end="1, 1" strides="1, 1"/>
			<input>
				<port id="0" precision="FP32">
					<dim>1</dim>
					<dim>960</dim>
					<dim>15</dim>
					<dim>27</dim>
				</port>
				<port id="1" precision="FP32">
					<dim>960</dim>
					<dim>1</dim>
					<dim>1</dim>
					<dim>3</dim>
					<dim>3</dim>
				</port>
			</input>
			<output>
				<port id="2" precision="FP32">
					<dim>1</dim>
					<dim>960</dim>
					<dim>15</dim>
					<dim>27</dim>
				</port>
			</output>
		</layer>
		<layer id="242" name="data_add_4742847433" type="Const" version="opset1">
			<data element_type="f32" offset="4699064" shape="1, 960, 1, 1" size="3840"/>
			<output>
				<port id="0" precision="FP32">
					<dim>1</dim>
					<dim>960</dim>
					<dim>1</dim>
					<dim>1</dim>
				</port>
			</output>
		</layer>
		<layer id="243" name="BatchNormalization_142/variance/Fused_Add_" type="Add" version="opset1">
			<data auto_broadcast="numpy"/>
			<input>
				<port id="0" precision="FP32">
					<dim>1</dim>
					<dim>960</dim>
					<dim>15</dim>
					<dim>27</dim>
				</port>
				<port id="1" precision="FP32">
					<dim>1</dim>
					<dim>960</dim>
					<dim>1</dim>
					<dim>1</dim>
				</port>
			</input>
			<output>
				<port id="2" names="506" precision="FP32">
					<dim>1</dim>
					<dim>960</dim>
					<dim>15</dim>
					<dim>27</dim>
				</port>
			</output>
		</layer>
		<layer id="244" name="Clip_143" type="Clamp" version="opset1">
			<data max="6" min="0"/>
			<input>
				<port id="0" precision="FP32">
					<dim>1</dim>
					<dim>960</dim>
					<dim>15</dim>
					<dim>27</dim>
				</port>
			</input>
			<output>
				<port id="1" names="507" precision="FP32">
					<dim>1</dim>
					<dim>960</dim>
					<dim>15</dim>
					<dim>27</dim>
				</port>
			</output>
		</layer>
		<layer id="245" name="BatchNormalization_145/mean/Fused_Mul__copy" type="Const" version="opset1">
			<data element_type="f32" offset="4702904" shape="160, 960, 1, 1" size="614400"/>
			<output>
				<port id="0" names="backbone.features.stage5.unit3.conv3.conv.weight" precision="FP32">
					<dim>160</dim>
					<dim>960</dim>
					<dim>1</dim>
					<dim>1</dim>
				</port>
			</output>
		</layer>
		<layer id="246" name="Conv_144" type="Convolution" version="opset1">
			<data auto_pad="explicit" dilations="1, 1" pads_begin="0, 0" pads_end="0, 0" strides="1, 1"/>
			<input>
				<port id="0" precision="FP32">
					<dim>1</dim>
					<dim>960</dim>
					<dim>15</dim>
					<dim>27</dim>
				</port>
				<port id="1" precision="FP32">
					<dim>160</dim>
					<dim>960</dim>
					<dim>1</dim>
					<dim>1</dim>
				</port>
			</input>
			<output>
				<port id="2" precision="FP32">
					<dim>1</dim>
					<dim>160</dim>
					<dim>15</dim>
					<dim>27</dim>
				</port>
			</output>
		</layer>
		<layer id="247" name="data_add_4743647441" type="Const" version="opset1">
			<data element_type="f32" offset="5317304" shape="1, 160, 1, 1" size="640"/>
			<output>
				<port id="0" precision="FP32">
					<dim>1</dim>
					<dim>160</dim>
					<dim>1</dim>
					<dim>1</dim>
				</port>
			</output>
		</layer>
		<layer id="248" name="BatchNormalization_145/variance/Fused_Add_" type="Add" version="opset1">
			<data auto_broadcast="numpy"/>
			<input>
				<port id="0" precision="FP32">
					<dim>1</dim>
					<dim>160</dim>
					<dim>15</dim>
					<dim>27</dim>
				</port>
				<port id="1" precision="FP32">
					<dim>1</dim>
					<dim>160</dim>
					<dim>1</dim>
					<dim>1</dim>
				</port>
			</input>
			<output>
				<port id="2" names="509" precision="FP32">
					<dim>1</dim>
					<dim>160</dim>
					<dim>15</dim>
					<dim>27</dim>
				</port>
			</output>
		</layer>
		<layer id="249" name="Add_146" type="Add" version="opset1">
			<data auto_broadcast="numpy"/>
			<input>
				<port id="0" precision="FP32">
					<dim>1</dim>
					<dim>160</dim>
					<dim>15</dim>
					<dim>27</dim>
				</port>
				<port id="1" precision="FP32">
					<dim>1</dim>
					<dim>160</dim>
					<dim>15</dim>
					<dim>27</dim>
				</port>
			</input>
			<output>
				<port id="2" names="510" precision="FP32">
					<dim>1</dim>
					<dim>160</dim>
					<dim>15</dim>
					<dim>27</dim>
				</port>
			</output>
		</layer>
		<layer id="250" name="BatchNormalization_148/mean/Fused_Mul__copy" type="Const" version="opset1">
			<data element_type="f32" offset="5317944" shape="960, 160, 1, 1" size="614400"/>
			<output>
				<port id="0" names="backbone.features.stage5.unit4.conv1.conv.weight" precision="FP32">
					<dim>960</dim>
					<dim>160</dim>
					<dim>1</dim>
					<dim>1</dim>
				</port>
			</output>
		</layer>
		<layer id="251" name="Conv_147" type="Convolution" version="opset1">
			<data auto_pad="explicit" dilations="1, 1" pads_begin="0, 0" pads_end="0, 0" strides="1, 1"/>
			<input>
				<port id="0" precision="FP32">
					<dim>1</dim>
					<dim>160</dim>
					<dim>15</dim>
					<dim>27</dim>
				</port>
				<port id="1" precision="FP32">
					<dim>960</dim>
					<dim>160</dim>
					<dim>1</dim>
					<dim>1</dim>
				</port>
			</input>
			<output>
				<port id="2" precision="FP32">
					<dim>1</dim>
					<dim>960</dim>
					<dim>15</dim>
					<dim>27</dim>
				</port>
			</output>
		</layer>
		<layer id="252" name="data_add_4744447449" type="Const" version="opset1">
			<data element_type="f32" offset="5932344" shape="1, 960, 1, 1" size="3840"/>
			<output>
				<port id="0" precision="FP32">
					<dim>1</dim>
					<dim>960</dim>
					<dim>1</dim>
					<dim>1</dim>
				</port>
			</output>
		</layer>
		<layer id="253" name="BatchNormalization_148/variance/Fused_Add_" type="Add" version="opset1">
			<data auto_broadcast="numpy"/>
			<input>
				<port id="0" precision="FP32">
					<dim>1</dim>
					<dim>960</dim>
					<dim>15</dim>
					<dim>27</dim>
				</port>
				<port id="1" precision="FP32">
					<dim>1</dim>
					<dim>960</dim>
					<dim>1</dim>
					<dim>1</dim>
				</port>
			</input>
			<output>
				<port id="2" names="512" precision="FP32">
					<dim>1</dim>
					<dim>960</dim>
					<dim>15</dim>
					<dim>27</dim>
				</port>
			</output>
		</layer>
		<layer id="254" name="Clip_149" type="Clamp" version="opset1">
			<data max="6" min="0"/>
			<input>
				<port id="0" precision="FP32">
					<dim>1</dim>
					<dim>960</dim>
					<dim>15</dim>
					<dim>27</dim>
				</port>
			</input>
			<output>
				<port id="1" names="513" precision="FP32">
					<dim>1</dim>
					<dim>960</dim>
					<dim>15</dim>
					<dim>27</dim>
				</port>
			</output>
		</layer>
		<layer id="255" name="BatchNormalization_151/mean/Fused_Mul__copy" type="Const" version="opset1">
			<data element_type="f32" offset="5936184" shape="960, 1, 1, 3, 3" size="34560"/>
			<output>
				<port id="0" names="backbone.features.stage5.unit4.conv2.conv.weight" precision="FP32">
					<dim>960</dim>
					<dim>1</dim>
					<dim>1</dim>
					<dim>3</dim>
					<dim>3</dim>
				</port>
			</output>
		</layer>
		<layer id="256" name="Conv_150" type="GroupConvolution" version="opset1">
			<data auto_pad="explicit" dilations="1, 1" pads_begin="1, 1" pads_end="1, 1" strides="1, 1"/>
			<input>
				<port id="0" precision="FP32">
					<dim>1</dim>
					<dim>960</dim>
					<dim>15</dim>
					<dim>27</dim>
				</port>
				<port id="1" precision="FP32">
					<dim>960</dim>
					<dim>1</dim>
					<dim>1</dim>
					<dim>3</dim>
					<dim>3</dim>
				</port>
			</input>
			<output>
				<port id="2" precision="FP32">
					<dim>1</dim>
					<dim>960</dim>
					<dim>15</dim>
					<dim>27</dim>
				</port>
			</output>
		</layer>
		<layer id="257" name="data_add_4745247457" type="Const" version="opset1">
			<data element_type="f32" offset="5970744" shape="1, 960, 1, 1" size="3840"/>
			<output>
				<port id="0" precision="FP32">
					<dim>1</dim>
					<dim>960</dim>
					<dim>1</dim>
					<dim>1</dim>
				</port>
			</output>
		</layer>
		<layer id="258" name="BatchNormalization_151/variance/Fused_Add_" type="Add" version="opset1">
			<data auto_broadcast="numpy"/>
			<input>
				<port id="0" precision="FP32">
					<dim>1</dim>
					<dim>960</dim>
					<dim>15</dim>
					<dim>27</dim>
				</port>
				<port id="1" precision="FP32">
					<dim>1</dim>
					<dim>960</dim>
					<dim>1</dim>
					<dim>1</dim>
				</port>
			</input>
			<output>
				<port id="2" names="515" precision="FP32">
					<dim>1</dim>
					<dim>960</dim>
					<dim>15</dim>
					<dim>27</dim>
				</port>
			</output>
		</layer>
		<layer id="259" name="Clip_152" type="Clamp" version="opset1">
			<data max="6" min="0"/>
			<input>
				<port id="0" precision="FP32">
					<dim>1</dim>
					<dim>960</dim>
					<dim>15</dim>
					<dim>27</dim>
				</port>
			</input>
			<output>
				<port id="1" names="516" precision="FP32">
					<dim>1</dim>
					<dim>960</dim>
					<dim>15</dim>
					<dim>27</dim>
				</port>
			</output>
		</layer>
		<layer id="260" name="BatchNormalization_154/mean/Fused_Mul__copy" type="Const" version="opset1">
			<data element_type="f32" offset="5974584" shape="320, 960, 1, 1" size="1228800"/>
			<output>
				<port id="0" names="backbone.features.stage5.unit4.conv3.conv.weight" precision="FP32">
					<dim>320</dim>
					<dim>960</dim>
					<dim>1</dim>
					<dim>1</dim>
				</port>
			</output>
		</layer>
		<layer id="261" name="Conv_153" type="Convolution" version="opset1">
			<data auto_pad="explicit" dilations="1, 1" pads_begin="0, 0" pads_end="0, 0" strides="1, 1"/>
			<input>
				<port id="0" precision="FP32">
					<dim>1</dim>
					<dim>960</dim>
					<dim>15</dim>
					<dim>27</dim>
				</port>
				<port id="1" precision="FP32">
					<dim>320</dim>
					<dim>960</dim>
					<dim>1</dim>
					<dim>1</dim>
				</port>
			</input>
			<output>
				<port id="2" precision="FP32">
					<dim>1</dim>
					<dim>320</dim>
					<dim>15</dim>
					<dim>27</dim>
				</port>
			</output>
		</layer>
		<layer id="262" name="data_add_4746047465" type="Const" version="opset1">
			<data element_type="f32" offset="7203384" shape="1, 320, 1, 1" size="1280"/>
			<output>
				<port id="0" precision="FP32">
					<dim>1</dim>
					<dim>320</dim>
					<dim>1</dim>
					<dim>1</dim>
				</port>
			</output>
		</layer>
		<layer id="263" name="BatchNormalization_154/variance/Fused_Add_" type="Add" version="opset1">
			<data auto_broadcast="numpy"/>
			<input>
				<port id="0" precision="FP32">
					<dim>1</dim>
					<dim>320</dim>
					<dim>15</dim>
					<dim>27</dim>
				</port>
				<port id="1" precision="FP32">
					<dim>1</dim>
					<dim>320</dim>
					<dim>1</dim>
					<dim>1</dim>
				</port>
			</input>
			<output>
				<port id="2" names="518" precision="FP32">
					<dim>1</dim>
					<dim>320</dim>
					<dim>15</dim>
					<dim>27</dim>
				</port>
			</output>
		</layer>
		<layer id="264" name="neck.lateral_convs.2.conv.weight" type="Const" version="opset1">
			<data element_type="f32" offset="7204664" shape="32, 320, 1, 1" size="40960"/>
			<output>
				<port id="0" names="neck.lateral_convs.2.conv.weight" precision="FP32">
					<dim>32</dim>
					<dim>320</dim>
					<dim>1</dim>
					<dim>1</dim>
				</port>
			</output>
		</layer>
		<layer id="265" name="Conv_157/WithoutBiases" type="Convolution" version="opset1">
			<data auto_pad="explicit" dilations="1, 1" pads_begin="0, 0" pads_end="0, 0" strides="1, 1"/>
			<input>
				<port id="0" precision="FP32">
					<dim>1</dim>
					<dim>320</dim>
					<dim>15</dim>
					<dim>27</dim>
				</port>
				<port id="1" precision="FP32">
					<dim>32</dim>
					<dim>320</dim>
					<dim>1</dim>
					<dim>1</dim>
				</port>
			</input>
			<output>
				<port id="2" precision="FP32">
					<dim>1</dim>
					<dim>32</dim>
					<dim>15</dim>
					<dim>27</dim>
				</port>
			</output>
		</layer>
		<layer id="266" name="Conv_157/Dims28333" type="Const" version="opset1">
			<data element_type="f32" offset="7245624" shape="1, 32, 1, 1" size="128"/>
			<output>
				<port id="0" precision="FP32">
					<dim>1</dim>
					<dim>32</dim>
					<dim>1</dim>
					<dim>1</dim>
				</port>
			</output>
		</layer>
		<layer id="267" name="Conv_157" type="Add" version="opset1">
			<data auto_broadcast="numpy"/>
			<input>
				<port id="0" precision="FP32">
					<dim>1</dim>
					<dim>32</dim>
					<dim>15</dim>
					<dim>27</dim>
				</port>
				<port id="1" precision="FP32">
					<dim>1</dim>
					<dim>32</dim>
					<dim>1</dim>
					<dim>1</dim>
				</port>
			</input>
			<output>
				<port id="2" names="521" precision="FP32">
					<dim>1</dim>
					<dim>32</dim>
					<dim>15</dim>
					<dim>27</dim>
				</port>
			</output>
		</layer>
		<layer id="268" name="Resize_177/ShapeOf" type="ShapeOf" version="opset3">
			<data output_type="i64"/>
			<input>
				<port id="0" precision="FP32">
					<dim>1</dim>
					<dim>32</dim>
					<dim>15</dim>
					<dim>27</dim>
				</port>
			</input>
			<output>
				<port id="1" precision="I64">
					<dim>4</dim>
				</port>
			</output>
		</layer>
		<layer id="269" name="2725" type="Convert" version="opset1">
			<data destination_type="f32"/>
			<input>
				<port id="0" precision="I64">
					<dim>4</dim>
				</port>
			</input>
			<output>
				<port id="1" precision="FP32">
					<dim>4</dim>
				</port>
			</output>
		</layer>
		<layer id="270" name="531" type="Const" version="opset1">
			<data element_type="f32" offset="7245752" shape="2" size="8"/>
			<output>
				<port id="0" names="531" precision="FP32">
					<dim>2</dim>
				</port>
			</output>
		</layer>
		<layer id="271" name="Shape_158" type="ShapeOf" version="opset3">
			<data output_type="i64"/>
			<input>
				<port id="0" precision="FP32">
					<dim>1</dim>
					<dim>32</dim>
					<dim>30</dim>
					<dim>54</dim>
				</port>
			</input>
			<output>
				<port id="1" names="522" precision="I64">
					<dim>4</dim>
				</port>
			</output>
		</layer>
		<layer id="272" name="523" type="Const" version="opset1">
			<data element_type="i32" offset="7245760" shape="" size="4"/>
			<output>
				<port id="0" names="523" precision="I32"/>
			</output>
		</layer>
		<layer id="273" name="Gather_160/axis" type="Const" version="opset1">
			<data element_type="i64" offset="7245764" shape="" size="8"/>
			<output>
				<port id="0" precision="I64"/>
			</output>
		</layer>
		<layer id="274" name="Gather_1603284" type="Gather" version="opset7">
			<data batch_dims="0"/>
			<input>
				<port id="0" precision="I64">
					<dim>4</dim>
				</port>
				<port id="1" precision="I32"/>
				<port id="2" precision="I64"/>
			</input>
			<output>
				<port id="3" names="524" precision="I64"/>
			</output>
		</layer>
		<layer id="275" name="Unsqueeze_164/Dims" type="Const" version="opset1">
			<data element_type="i64" offset="7245764" shape="1" size="8"/>
			<output>
				<port id="0" precision="I64">
					<dim>1</dim>
				</port>
			</output>
		</layer>
		<layer id="276" name="Unsqueeze_164/Unsqueeze" type="Unsqueeze" version="opset1">
			<input>
				<port id="0" precision="I64"/>
				<port id="1" precision="I64">
					<dim>1</dim>
				</port>
			</input>
			<output>
				<port id="2" names="528" precision="I64">
					<dim>1</dim>
				</port>
			</output>
		</layer>
		<layer id="277" name="Shape_161" type="ShapeOf" version="opset3">
			<data output_type="i64"/>
			<input>
				<port id="0" precision="FP32">
					<dim>1</dim>
					<dim>32</dim>
					<dim>30</dim>
					<dim>54</dim>
				</port>
			</input>
			<output>
				<port id="1" names="525" precision="I64">
					<dim>4</dim>
				</port>
			</output>
		</layer>
		<layer id="278" name="526" type="Const" version="opset1">
			<data element_type="i32" offset="7245772" shape="" size="4"/>
			<output>
				<port id="0" names="526" precision="I32"/>
			</output>
		</layer>
		<layer id="279" name="Gather_163/axis" type="Const" version="opset1">
			<data element_type="i64" offset="7245764" shape="" size="8"/>
			<output>
				<port id="0" precision="I64"/>
			</output>
		</layer>
		<layer id="280" name="Gather_1633294" type="Gather" version="opset7">
			<data batch_dims="0"/>
			<input>
				<port id="0" precision="I64">
					<dim>4</dim>
				</port>
				<port id="1" precision="I32"/>
				<port id="2" precision="I64"/>
			</input>
			<output>
				<port id="3" names="527" precision="I64"/>
			</output>
		</layer>
		<layer id="281" name="Unsqueeze_165/Dims" type="Const" version="opset1">
			<data element_type="i64" offset="7245764" shape="1" size="8"/>
			<output>
				<port id="0" precision="I64">
					<dim>1</dim>
				</port>
			</output>
		</layer>
		<layer id="282" name="Unsqueeze_165/Unsqueeze" type="Unsqueeze" version="opset1">
			<input>
				<port id="0" precision="I64"/>
				<port id="1" precision="I64">
					<dim>1</dim>
				</port>
			</input>
			<output>
				<port id="2" names="529" precision="I64">
					<dim>1</dim>
				</port>
			</output>
		</layer>
		<layer id="283" name="Concat_166" type="Concat" version="opset1">
			<data axis="0"/>
			<input>
				<port id="0" precision="I64">
					<dim>1</dim>
				</port>
				<port id="1" precision="I64">
					<dim>1</dim>
				</port>
			</input>
			<output>
				<port id="2" names="530" precision="I64">
					<dim>2</dim>
				</port>
			</output>
		</layer>
		<layer id="284" name="Cast_168" type="Convert" version="opset1">
			<data destination_type="f32"/>
			<input>
				<port id="0" precision="I64">
					<dim>2</dim>
				</port>
			</input>
			<output>
				<port id="1" names="532" precision="FP32">
					<dim>2</dim>
				</port>
			</output>
		</layer>
		<layer id="285" name="Shape_169" type="ShapeOf" version="opset3">
			<data output_type="i64"/>
			<input>
				<port id="0" precision="FP32">
					<dim>1</dim>
					<dim>32</dim>
					<dim>15</dim>
					<dim>27</dim>
				</port>
			</input>
			<output>
				<port id="1" names="533" precision="I64">
					<dim>4</dim>
				</port>
			</output>
		</layer>
		<layer id="286" name="Slice_173/Concat30058105869" type="Const" version="opset1">
			<data element_type="i64" offset="7245776" shape="1" size="8"/>
			<output>
				<port id="0" precision="I64">
					<dim>1</dim>
				</port>
			</output>
		</layer>
		<layer id="287" name="Slice_173/Concat3004830059106262" type="Const" version="opset1">
			<data element_type="i64" offset="7245784" shape="1" size="8"/>
			<output>
				<port id="0" precision="I64">
					<dim>1</dim>
				</port>
			</output>
		</layer>
		<layer id="288" name="Slice_173/Strides30060107207" type="Const" version="opset1">
			<data element_type="i64" offset="48" shape="1" size="8"/>
			<output>
				<port id="0" precision="I64">
					<dim>1</dim>
				</port>
			</output>
		</layer>
		<layer id="289" name="Slice_173" type="StridedSlice" version="opset1">
			<data begin_mask="0" ellipsis_mask="0" end_mask="0" new_axis_mask="0" shrink_axis_mask="0"/>
			<input>
				<port id="0" precision="I64">
					<dim>4</dim>
				</port>
				<port id="1" precision="I64">
					<dim>1</dim>
				</port>
				<port id="2" precision="I64">
					<dim>1</dim>
				</port>
				<port id="3" precision="I64">
					<dim>1</dim>
				</port>
			</input>
			<output>
				<port id="4" names="537" precision="I64">
					<dim>2</dim>
				</port>
			</output>
		</layer>
		<layer id="290" name="Cast_174" type="Convert" version="opset1">
			<data destination_type="f32"/>
			<input>
				<port id="0" precision="I64">
					<dim>2</dim>
				</port>
			</input>
			<output>
				<port id="1" names="538" precision="FP32">
					<dim>2</dim>
				</port>
			</output>
		</layer>
		<layer id="291" name="Div_175" type="Divide" version="opset1">
			<data auto_broadcast="numpy" m_pythondiv="true"/>
			<input>
				<port id="0" precision="FP32">
					<dim>2</dim>
				</port>
				<port id="1" precision="FP32">
					<dim>2</dim>
				</port>
			</input>
			<output>
				<port id="2" names="539" precision="FP32">
					<dim>2</dim>
				</port>
			</output>
		</layer>
		<layer id="292" name="Concat_176" type="Concat" version="opset1">
			<data axis="0"/>
			<input>
				<port id="0" precision="FP32">
					<dim>2</dim>
				</port>
				<port id="1" precision="FP32">
					<dim>2</dim>
				</port>
			</input>
			<output>
				<port id="2" names="540" precision="FP32">
					<dim>4</dim>
				</port>
			</output>
		</layer>
		<layer id="293" name="Resize_177/Add_input_port_1/value" type="Const" version="opset1">
			<data element_type="f32" offset="7245792" shape="1" size="4"/>
			<output>
				<port id="0" precision="FP32">
					<dim>1</dim>
				</port>
			</output>
		</layer>
		<layer id="294" name="Resize_177/Add" type="Add" version="opset1">
			<data auto_broadcast="numpy"/>
			<input>
				<port id="0" precision="FP32">
					<dim>4</dim>
				</port>
				<port id="1" precision="FP32">
					<dim>1</dim>
				</port>
			</input>
			<output>
				<port id="2" precision="FP32">
					<dim>4</dim>
				</port>
			</output>
		</layer>
		<layer id="295" name="Resize_177/Mul" type="Multiply" version="opset1">
			<data auto_broadcast="numpy"/>
			<input>
				<port id="0" precision="FP32">
					<dim>4</dim>
				</port>
				<port id="1" precision="FP32">
					<dim>4</dim>
				</port>
			</input>
			<output>
				<port id="2" precision="FP32">
					<dim>4</dim>
				</port>
			</output>
		</layer>
		<layer id="296" name="Resize_177/Floor" type="Floor" version="opset1">
			<input>
				<port id="0" precision="FP32">
					<dim>4</dim>
				</port>
			</input>
			<output>
				<port id="1" precision="FP32">
					<dim>4</dim>
				</port>
			</output>
		</layer>
		<layer id="297" name="2728" type="Convert" version="opset1">
			<data destination_type="i64"/>
			<input>
				<port id="0" precision="FP32">
					<dim>4</dim>
				</port>
			</input>
			<output>
				<port id="1" precision="I64">
					<dim>4</dim>
				</port>
			</output>
		</layer>
		<layer id="298" name="Resize_177/sizes_ss_input_port_1/value" type="Const" version="opset1">
			<data element_type="i64" offset="7245776" shape="1" size="8"/>
			<output>
				<port id="0" precision="I64">
					<dim>1</dim>
				</port>
			</output>
		</layer>
		<layer id="299" name="Resize_177/sizes_ss_input_port_2/value" type="Const" version="opset1">
			<data element_type="i64" offset="7245764" shape="1" size="8"/>
			<output>
				<port id="0" precision="I64">
					<dim>1</dim>
				</port>
			</output>
		</layer>
		<layer id="300" name="Resize_177/sizes_ss_input_port_3/value" type="Const" version="opset1">
			<data element_type="i64" offset="48" shape="1" size="8"/>
			<output>
				<port id="0" precision="I64">
					<dim>1</dim>
				</port>
			</output>
		</layer>
		<layer id="301" name="Resize_177/sizes_ss" type="StridedSlice" version="opset1">
			<data begin_mask="0" ellipsis_mask="0" end_mask="1" new_axis_mask="0" shrink_axis_mask="0"/>
			<input>
				<port id="0" precision="I64">
					<dim>4</dim>
				</port>
				<port id="1" precision="I64">
					<dim>1</dim>
				</port>
				<port id="2" precision="I64">
					<dim>1</dim>
				</port>
				<port id="3" precision="I64">
					<dim>1</dim>
				</port>
			</input>
			<output>
				<port id="4" precision="I64">
					<dim>2</dim>
				</port>
			</output>
		</layer>
		<layer id="302" name="Resize_177/scales_ss_input_port_1/value" type="Const" version="opset1">
			<data element_type="i64" offset="7245776" shape="1" size="8"/>
			<output>
				<port id="0" precision="I64">
					<dim>1</dim>
				</port>
			</output>
		</layer>
		<layer id="303" name="Resize_177/scales_ss_input_port_2/value" type="Const" version="opset1">
			<data element_type="i64" offset="7245764" shape="1" size="8"/>
			<output>
				<port id="0" precision="I64">
					<dim>1</dim>
				</port>
			</output>
		</layer>
		<layer id="304" name="Resize_177/scales_ss_input_port_3/value" type="Const" version="opset1">
			<data element_type="i64" offset="48" shape="1" size="8"/>
			<output>
				<port id="0" precision="I64">
					<dim>1</dim>
				</port>
			</output>
		</layer>
		<layer id="305" name="Resize_177/scales_ss" type="StridedSlice" version="opset1">
			<data begin_mask="0" ellipsis_mask="0" end_mask="1" new_axis_mask="0" shrink_axis_mask="0"/>
			<input>
				<port id="0" precision="FP32">
					<dim>4</dim>
				</port>
				<port id="1" precision="I64">
					<dim>1</dim>
				</port>
				<port id="2" precision="I64">
					<dim>1</dim>
				</port>
				<port id="3" precision="I64">
					<dim>1</dim>
				</port>
			</input>
			<output>
				<port id="4" precision="FP32">
					<dim>2</dim>
				</port>
			</output>
		</layer>
		<layer id="306" name="Resize_177/axes_input_port_0/value" type="Const" version="opset1">
			<data element_type="i64" offset="7245776" shape="" size="8"/>
			<output>
				<port id="0" precision="I64"/>
			</output>
		</layer>
		<layer id="307" name="Resize_177/max_axes/shape_of" type="ShapeOf" version="opset3">
			<data output_type="i64"/>
			<input>
				<port id="0" precision="FP32">
					<dim>1</dim>
					<dim>32</dim>
					<dim>15</dim>
					<dim>27</dim>
				</port>
			</input>
			<output>
				<port id="1" precision="I64">
					<dim>4</dim>
				</port>
			</output>
		</layer>
		<layer id="308" name="Resize_177/max_axes/rank_of" type="ShapeOf" version="opset3">
			<data output_type="i64"/>
			<input>
				<port id="0" precision="I64">
					<dim>4</dim>
				</port>
			</input>
			<output>
				<port id="1" precision="I64">
					<dim>1</dim>
				</port>
			</output>
		</layer>
		<layer id="309" name="Resize_177/max_axes/0d_rank_of/value" type="Const" version="opset1">
			<data element_type="i64" offset="7245764" shape="1" size="8"/>
			<output>
				<port id="0" precision="I64">
					<dim>1</dim>
				</port>
			</output>
		</layer>
		<layer id="310" name="Resize_177/max_axes" type="Squeeze" version="opset1">
			<input>
				<port id="0" precision="I64">
					<dim>1</dim>
				</port>
				<port id="1" precision="I64">
					<dim>1</dim>
				</port>
			</input>
			<output>
				<port id="2" precision="I64"/>
			</output>
		</layer>
		<layer id="311" name="Resize_177/axes_input_port_2/value" type="Const" version="opset1">
			<data element_type="i64" offset="48" shape="" size="8"/>
			<output>
				<port id="0" precision="I64"/>
			</output>
		</layer>
		<layer id="312" name="Resize_177/axes" type="Range" version="opset4">
			<data output_type="i64"/>
			<input>
				<port id="0" precision="I64"/>
				<port id="1" precision="I64"/>
				<port id="2" precision="I64"/>
			</input>
			<output>
				<port id="3" precision="I64">
					<dim>2</dim>
				</port>
			</output>
		</layer>
		<layer id="313" name="Resize_177" type="Interpolate" version="opset4">
			<data antialias="false" coordinate_transformation_mode="asymmetric" cube_coeff="-0.75" mode="nearest" nearest_mode="simple" pads_begin="0, 0, 0, 0" pads_end="0, 0, 0, 0" shape_calculation_mode="scales"/>
			<input>
				<port id="0" precision="FP32">
					<dim>1</dim>
					<dim>32</dim>
					<dim>15</dim>
					<dim>27</dim>
				</port>
				<port id="1" precision="I64">
					<dim>2</dim>
				</port>
				<port id="2" precision="FP32">
					<dim>2</dim>
				</port>
				<port id="3" precision="I64">
					<dim>2</dim>
				</port>
			</input>
			<output>
				<port id="4" names="541" precision="FP32">
					<dim>1</dim>
					<dim>32</dim>
					<dim>30</dim>
					<dim>54</dim>
				</port>
			</output>
		</layer>
		<layer id="314" name="Add_178" type="Add" version="opset1">
			<data auto_broadcast="numpy"/>
			<input>
				<port id="0" precision="FP32">
					<dim>1</dim>
					<dim>32</dim>
					<dim>30</dim>
					<dim>54</dim>
				</port>
				<port id="1" precision="FP32">
					<dim>1</dim>
					<dim>32</dim>
					<dim>30</dim>
					<dim>54</dim>
				</port>
			</input>
			<output>
				<port id="2" names="542" precision="FP32">
					<dim>1</dim>
					<dim>32</dim>
					<dim>30</dim>
					<dim>54</dim>
				</port>
			</output>
		</layer>
		<layer id="315" name="Resize_198/ShapeOf" type="ShapeOf" version="opset3">
			<data output_type="i64"/>
			<input>
				<port id="0" precision="FP32">
					<dim>1</dim>
					<dim>32</dim>
					<dim>30</dim>
					<dim>54</dim>
				</port>
			</input>
			<output>
				<port id="1" precision="I64">
					<dim>4</dim>
				</port>
			</output>
		</layer>
		<layer id="316" name="2745" type="Convert" version="opset1">
			<data destination_type="f32"/>
			<input>
				<port id="0" precision="I64">
					<dim>4</dim>
				</port>
			</input>
			<output>
				<port id="1" precision="FP32">
					<dim>4</dim>
				</port>
			</output>
		</layer>
		<layer id="317" name="552" type="Const" version="opset1">
			<data element_type="f32" offset="7245752" shape="2" size="8"/>
			<output>
				<port id="0" names="552" precision="FP32">
					<dim>2</dim>
				</port>
			</output>
		</layer>
		<layer id="318" name="Shape_179" type="ShapeOf" version="opset3">
			<data output_type="i64"/>
			<input>
				<port id="0" precision="FP32">
					<dim>1</dim>
					<dim>32</dim>
					<dim>60</dim>
					<dim>108</dim>
				</port>
			</input>
			<output>
				<port id="1" names="543" precision="I64">
					<dim>4</dim>
				</port>
			</output>
		</layer>
		<layer id="319" name="544" type="Const" version="opset1">
			<data element_type="i32" offset="7245760" shape="" size="4"/>
			<output>
				<port id="0" names="544" precision="I32"/>
			</output>
		</layer>
		<layer id="320" name="Gather_181/axis" type="Const" version="opset1">
			<data element_type="i64" offset="7245764" shape="" size="8"/>
			<output>
				<port id="0" precision="I64"/>
			</output>
		</layer>
		<layer id="321" name="Gather_1813470" type="Gather" version="opset7">
			<data batch_dims="0"/>
			<input>
				<port id="0" precision="I64">
					<dim>4</dim>
				</port>
				<port id="1" precision="I32"/>
				<port id="2" precision="I64"/>
			</input>
			<output>
				<port id="3" names="545" precision="I64"/>
			</output>
		</layer>
		<layer id="322" name="Unsqueeze_185/Dims" type="Const" version="opset1">
			<data element_type="i64" offset="7245764" shape="1" size="8"/>
			<output>
				<port id="0" precision="I64">
					<dim>1</dim>
				</port>
			</output>
		</layer>
		<layer id="323" name="Unsqueeze_185/Unsqueeze" type="Unsqueeze" version="opset1">
			<input>
				<port id="0" precision="I64"/>
				<port id="1" precision="I64">
					<dim>1</dim>
				</port>
			</input>
			<output>
				<port id="2" names="549" precision="I64">
					<dim>1</dim>
				</port>
			</output>
		</layer>
		<layer id="324" name="Shape_182" type="ShapeOf" version="opset3">
			<data output_type="i64"/>
			<input>
				<port id="0" precision="FP32">
					<dim>1</dim>
					<dim>32</dim>
					<dim>60</dim>
					<dim>108</dim>
				</port>
			</input>
			<output>
				<port id="1" names="546" precision="I64">
					<dim>4</dim>
				</port>
			</output>
		</layer>
		<layer id="325" name="547" type="Const" version="opset1">
			<data element_type="i32" offset="7245772" shape="" size="4"/>
			<output>
				<port id="0" names="547" precision="I32"/>
			</output>
		</layer>
		<layer id="326" name="Gather_184/axis" type="Const" version="opset1">
			<data element_type="i64" offset="7245764" shape="" size="8"/>
			<output>
				<port id="0" precision="I64"/>
			</output>
		</layer>
		<layer id="327" name="Gather_1843424" type="Gather" version="opset7">
			<data batch_dims="0"/>
			<input>
				<port id="0" precision="I64">
					<dim>4</dim>
				</port>
				<port id="1" precision="I32"/>
				<port id="2" precision="I64"/>
			</input>
			<output>
				<port id="3" names="548" precision="I64"/>
			</output>
		</layer>
		<layer id="328" name="Unsqueeze_186/Dims" type="Const" version="opset1">
			<data element_type="i64" offset="7245764" shape="1" size="8"/>
			<output>
				<port id="0" precision="I64">
					<dim>1</dim>
				</port>
			</output>
		</layer>
		<layer id="329" name="Unsqueeze_186/Unsqueeze" type="Unsqueeze" version="opset1">
			<input>
				<port id="0" precision="I64"/>
				<port id="1" precision="I64">
					<dim>1</dim>
				</port>
			</input>
			<output>
				<port id="2" names="550" precision="I64">
					<dim>1</dim>
				</port>
			</output>
		</layer>
		<layer id="330" name="Concat_187" type="Concat" version="opset1">
			<data axis="0"/>
			<input>
				<port id="0" precision="I64">
					<dim>1</dim>
				</port>
				<port id="1" precision="I64">
					<dim>1</dim>
				</port>
			</input>
			<output>
				<port id="2" names="551" precision="I64">
					<dim>2</dim>
				</port>
			</output>
		</layer>
		<layer id="331" name="Cast_189" type="Convert" version="opset1">
			<data destination_type="f32"/>
			<input>
				<port id="0" precision="I64">
					<dim>2</dim>
				</port>
			</input>
			<output>
				<port id="1" names="553" precision="FP32">
					<dim>2</dim>
				</port>
			</output>
		</layer>
		<layer id="332" name="Shape_190" type="ShapeOf" version="opset3">
			<data output_type="i64"/>
			<input>
				<port id="0" precision="FP32">
					<dim>1</dim>
					<dim>32</dim>
					<dim>30</dim>
					<dim>54</dim>
				</port>
			</input>
			<output>
				<port id="1" names="554" precision="I64">
					<dim>4</dim>
				</port>
			</output>
		</layer>
		<layer id="333" name="Slice_194/Concat30094106361" type="Const" version="opset1">
			<data element_type="i64" offset="7245776" shape="1" size="8"/>
			<output>
				<port id="0" precision="I64">
					<dim>1</dim>
				</port>
			</output>
		</layer>
		<layer id="334" name="Slice_194/Concat3008430095108428" type="Const" version="opset1">
			<data element_type="i64" offset="7245784" shape="1" size="8"/>
			<output>
				<port id="0" precision="I64">
					<dim>1</dim>
				</port>
			</output>
		</layer>
		<layer id="335" name="Slice_194/Strides30096106868" type="Const" version="opset1">
			<data element_type="i64" offset="48" shape="1" size="8"/>
			<output>
				<port id="0" precision="I64">
					<dim>1</dim>
				</port>
			</output>
		</layer>
		<layer id="336" name="Slice_194" type="StridedSlice" version="opset1">
			<data begin_mask="0" ellipsis_mask="0" end_mask="0" new_axis_mask="0" shrink_axis_mask="0"/>
			<input>
				<port id="0" precision="I64">
					<dim>4</dim>
				</port>
				<port id="1" precision="I64">
					<dim>1</dim>
				</port>
				<port id="2" precision="I64">
					<dim>1</dim>
				</port>
				<port id="3" precision="I64">
					<dim>1</dim>
				</port>
			</input>
			<output>
				<port id="4" names="558" precision="I64">
					<dim>2</dim>
				</port>
			</output>
		</layer>
		<layer id="337" name="Cast_195" type="Convert" version="opset1">
			<data destination_type="f32"/>
			<input>
				<port id="0" precision="I64">
					<dim>2</dim>
				</port>
			</input>
			<output>
				<port id="1" names="559" precision="FP32">
					<dim>2</dim>
				</port>
			</output>
		</layer>
		<layer id="338" name="Div_196" type="Divide" version="opset1">
			<data auto_broadcast="numpy" m_pythondiv="true"/>
			<input>
				<port id="0" precision="FP32">
					<dim>2</dim>
				</port>
				<port id="1" precision="FP32">
					<dim>2</dim>
				</port>
			</input>
			<output>
				<port id="2" names="560" precision="FP32">
					<dim>2</dim>
				</port>
			</output>
		</layer>
		<layer id="339" name="Concat_197" type="Concat" version="opset1">
			<data axis="0"/>
			<input>
				<port id="0" precision="FP32">
					<dim>2</dim>
				</port>
				<port id="1" precision="FP32">
					<dim>2</dim>
				</port>
			</input>
			<output>
				<port id="2" names="561" precision="FP32">
					<dim>4</dim>
				</port>
			</output>
		</layer>
		<layer id="340" name="Resize_198/Add_input_port_1/value" type="Const" version="opset1">
			<data element_type="f32" offset="7245792" shape="1" size="4"/>
			<output>
				<port id="0" precision="FP32">
					<dim>1</dim>
				</port>
			</output>
		</layer>
		<layer id="341" name="Resize_198/Add" type="Add" version="opset1">
			<data auto_broadcast="numpy"/>
			<input>
				<port id="0" precision="FP32">
					<dim>4</dim>
				</port>
				<port id="1" precision="FP32">
					<dim>1</dim>
				</port>
			</input>
			<output>
				<port id="2" precision="FP32">
					<dim>4</dim>
				</port>
			</output>
		</layer>
		<layer id="342" name="Resize_198/Mul" type="Multiply" version="opset1">
			<data auto_broadcast="numpy"/>
			<input>
				<port id="0" precision="FP32">
					<dim>4</dim>
				</port>
				<port id="1" precision="FP32">
					<dim>4</dim>
				</port>
			</input>
			<output>
				<port id="2" precision="FP32">
					<dim>4</dim>
				</port>
			</output>
		</layer>
		<layer id="343" name="Resize_198/Floor" type="Floor" version="opset1">
			<input>
				<port id="0" precision="FP32">
					<dim>4</dim>
				</port>
			</input>
			<output>
				<port id="1" precision="FP32">
					<dim>4</dim>
				</port>
			</output>
		</layer>
		<layer id="344" name="2748" type="Convert" version="opset1">
			<data destination_type="i64"/>
			<input>
				<port id="0" precision="FP32">
					<dim>4</dim>
				</port>
			</input>
			<output>
				<port id="1" precision="I64">
					<dim>4</dim>
				</port>
			</output>
		</layer>
		<layer id="345" name="Resize_198/sizes_ss_input_port_1/value" type="Const" version="opset1">
			<data element_type="i64" offset="7245776" shape="1" size="8"/>
			<output>
				<port id="0" precision="I64">
					<dim>1</dim>
				</port>
			</output>
		</layer>
		<layer id="346" name="Resize_198/sizes_ss_input_port_2/value" type="Const" version="opset1">
			<data element_type="i64" offset="7245764" shape="1" size="8"/>
			<output>
				<port id="0" precision="I64">
					<dim>1</dim>
				</port>
			</output>
		</layer>
		<layer id="347" name="Resize_198/sizes_ss_input_port_3/value" type="Const" version="opset1">
			<data element_type="i64" offset="48" shape="1" size="8"/>
			<output>
				<port id="0" precision="I64">
					<dim>1</dim>
				</port>
			</output>
		</layer>
		<layer id="348" name="Resize_198/sizes_ss" type="StridedSlice" version="opset1">
			<data begin_mask="0" ellipsis_mask="0" end_mask="1" new_axis_mask="0" shrink_axis_mask="0"/>
			<input>
				<port id="0" precision="I64">
					<dim>4</dim>
				</port>
				<port id="1" precision="I64">
					<dim>1</dim>
				</port>
				<port id="2" precision="I64">
					<dim>1</dim>
				</port>
				<port id="3" precision="I64">
					<dim>1</dim>
				</port>
			</input>
			<output>
				<port id="4" precision="I64">
					<dim>2</dim>
				</port>
			</output>
		</layer>
		<layer id="349" name="Resize_198/scales_ss_input_port_1/value" type="Const" version="opset1">
			<data element_type="i64" offset="7245776" shape="1" size="8"/>
			<output>
				<port id="0" precision="I64">
					<dim>1</dim>
				</port>
			</output>
		</layer>
		<layer id="350" name="Resize_198/scales_ss_input_port_2/value" type="Const" version="opset1">
			<data element_type="i64" offset="7245764" shape="1" size="8"/>
			<output>
				<port id="0" precision="I64">
					<dim>1</dim>
				</port>
			</output>
		</layer>
		<layer id="351" name="Resize_198/scales_ss_input_port_3/value" type="Const" version="opset1">
			<data element_type="i64" offset="48" shape="1" size="8"/>
			<output>
…
		<edge from-layer="2413" from-port="2" to-layer="2414" to-port="0"/>
		<edge from-layer="2414" from-port="1" to-layer="2416" to-port="0"/>
		<edge from-layer="2415" from-port="0" to-layer="2416" to-port="1"/>
		<edge from-layer="2416" from-port="2" to-layer="2418" to-port="0"/>
		<edge from-layer="2417" from-port="0" to-layer="2418" to-port="1"/>
		<edge from-layer="2418" from-port="2" to-layer="2496" to-port="0"/>
		<edge from-layer="2418" from-port="2" to-layer="2448" to-port="0"/>
		<edge from-layer="2418" from-port="2" to-layer="2419" to-port="0"/>
		<edge from-layer="2419" from-port="1" to-layer="2422" to-port="0"/>
		<edge from-layer="2420" from-port="0" to-layer="2422" to-port="1"/>
		<edge from-layer="2421" from-port="0" to-layer="2422" to-port="2"/>
		<edge from-layer="2422" from-port="3" to-layer="2424" to-port="0"/>
		<edge from-layer="2423" from-port="0" to-layer="2424" to-port="1"/>
		<edge from-layer="2424" from-port="2" to-layer="2426" to-port="0"/>
		<edge from-layer="2425" from-port="0" to-layer="2426" to-port="1"/>
		<edge from-layer="2426" from-port="2" to-layer="2428" to-port="0"/>
		<edge from-layer="2427" from-port="0" to-layer="2428" to-port="1"/>
		<edge from-layer="2428" from-port="2" to-layer="2429" to-port="1"/>
		<edge from-layer="2429" from-port="2" to-layer="2430" to-port="0"/>
		<edge from-layer="2430" from-port="1" to-layer="2432" to-port="0"/>
		<edge from-layer="2431" from-port="0" to-layer="2432" to-port="1"/>
		<edge from-layer="2432" from-port="2" to-layer="2434" to-port="0"/>
		<edge from-layer="2433" from-port="0" to-layer="2434" to-port="1"/>
		<edge from-layer="2434" from-port="2" to-layer="2436" to-port="0"/>
		<edge from-layer="2435" from-port="0" to-layer="2436" to-port="1"/>
		<edge from-layer="2436" from-port="2" to-layer="2438" to-port="0"/>
		<edge from-layer="2437" from-port="0" to-layer="2438" to-port="1"/>
		<edge from-layer="2438" from-port="2" to-layer="2440" to-port="0"/>
		<edge from-layer="2439" from-port="0" to-layer="2440" to-port="1"/>
		<edge from-layer="2440" from-port="2" to-layer="2442" to-port="0"/>
		<edge from-layer="2441" from-port="0" to-layer="2442" to-port="1"/>
		<edge from-layer="2442" from-port="2" to-layer="2446" to-port="0"/>
		<edge from-layer="2442" from-port="2" to-layer="2444" to-port="0"/>
		<edge from-layer="2443" from-port="0" to-layer="2445" to-port="0"/>
		<edge from-layer="2444" from-port="1" to-layer="2473" to-port="1"/>
		<edge from-layer="2444" from-port="1" to-layer="2445" to-port="1"/>
		<edge from-layer="2445" from-port="2" to-layer="2446" to-port="1"/>
		<edge from-layer="2446" from-port="2" to-layer="2474" to-port="0"/>
		<edge from-layer="2447" from-port="0" to-layer="2458" to-port="0"/>
		<edge from-layer="2448" from-port="1" to-layer="2451" to-port="0"/>
		<edge from-layer="2449" from-port="0" to-layer="2451" to-port="1"/>
		<edge from-layer="2450" from-port="0" to-layer="2451" to-port="2"/>
		<edge from-layer="2451" from-port="3" to-layer="2453" to-port="0"/>
		<edge from-layer="2452" from-port="0" to-layer="2453" to-port="1"/>
		<edge from-layer="2453" from-port="2" to-layer="2455" to-port="0"/>
		<edge from-layer="2454" from-port="0" to-layer="2455" to-port="1"/>
		<edge from-layer="2455" from-port="2" to-layer="2457" to-port="0"/>
		<edge from-layer="2456" from-port="0" to-layer="2457" to-port="1"/>
		<edge from-layer="2457" from-port="2" to-layer="2458" to-port="1"/>
		<edge from-layer="2458" from-port="2" to-layer="2459" to-port="0"/>
		<edge from-layer="2459" from-port="1" to-layer="2461" to-port="0"/>
		<edge from-layer="2460" from-port="0" to-layer="2461" to-port="1"/>
		<edge from-layer="2461" from-port="2" to-layer="2463" to-port="0"/>
		<edge from-layer="2462" from-port="0" to-layer="2463" to-port="1"/>
		<edge from-layer="2463" from-port="2" to-layer="2465" to-port="0"/>
		<edge from-layer="2464" from-port="0" to-layer="2465" to-port="1"/>
		<edge from-layer="2465" from-port="2" to-layer="2467" to-port="0"/>
		<edge from-layer="2466" from-port="0" to-layer="2467" to-port="1"/>
		<edge from-layer="2467" from-port="2" to-layer="2469" to-port="0"/>
		<edge from-layer="2468" from-port="0" to-layer="2469" to-port="1"/>
		<edge from-layer="2469" from-port="2" to-layer="2471" to-port="0"/>
		<edge from-layer="2470" from-port="0" to-layer="2471" to-port="1"/>
		<edge from-layer="2471" from-port="2" to-layer="2479" to-port="0"/>
		<edge from-layer="2471" from-port="2" to-layer="2472" to-port="0"/>
		<edge from-layer="2472" from-port="1" to-layer="2478" to-port="0"/>
		<edge from-layer="2472" from-port="1" to-layer="2473" to-port="0"/>
		<edge from-layer="2473" from-port="2" to-layer="2480" to-port="1"/>
		<edge from-layer="2473" from-port="2" to-layer="2474" to-port="1"/>
		<edge from-layer="2474" from-port="2" to-layer="2484" to-port="0"/>
		<edge from-layer="2474" from-port="2" to-layer="2476" to-port="0"/>
		<edge from-layer="2475" from-port="0" to-layer="2476" to-port="1"/>
		<edge from-layer="2476" from-port="2" to-layer="2487" to-port="0"/>
		<edge from-layer="2477" from-port="0" to-layer="2478" to-port="1"/>
		<edge from-layer="2478" from-port="2" to-layer="2479" to-port="1"/>
		<edge from-layer="2479" from-port="2" to-layer="2480" to-port="0"/>
		<edge from-layer="2480" from-port="2" to-layer="2486" to-port="0"/>
		<edge from-layer="2480" from-port="2" to-layer="2482" to-port="0"/>
		<edge from-layer="2481" from-port="0" to-layer="2482" to-port="1"/>
		<edge from-layer="2482" from-port="2" to-layer="2487" to-port="1"/>
		<edge from-layer="2483" from-port="0" to-layer="2484" to-port="1"/>
		<edge from-layer="2484" from-port="2" to-layer="2487" to-port="2"/>
		<edge from-layer="2485" from-port="0" to-layer="2486" to-port="1"/>
		<edge from-layer="2486" from-port="2" to-layer="2487" to-port="3"/>
		<edge from-layer="2487" from-port="4" to-layer="2489" to-port="0"/>
		<edge from-layer="2488" from-port="0" to-layer="2489" to-port="1"/>
		<edge from-layer="2489" from-port="2" to-layer="2490" to-port="0"/>
		<edge from-layer="2490" from-port="1" to-layer="2491" to-port="1"/>
		<edge from-layer="2491" from-port="2" to-layer="2493" to-port="0"/>
		<edge from-layer="2492" from-port="0" to-layer="2493" to-port="1"/>
		<edge from-layer="2493" from-port="2" to-layer="2607" to-port="0"/>
		<edge from-layer="2494" from-port="0" to-layer="2496" to-port="1"/>
		<edge from-layer="2495" from-port="0" to-layer="2496" to-port="2"/>
		<edge from-layer="2496" from-port="3" to-layer="2498" to-port="0"/>
		<edge from-layer="2497" from-port="0" to-layer="2498" to-port="1"/>
		<edge from-layer="2498" from-port="2" to-layer="2500" to-port="0"/>
		<edge from-layer="2499" from-port="0" to-layer="2500" to-port="1"/>
		<edge from-layer="2500" from-port="2" to-layer="2501" to-port="0"/>
		<edge from-layer="2501" from-port="1" to-layer="2576" to-port="0"/>
		<edge from-layer="2501" from-port="1" to-layer="2862" to-port="0"/>
		<edge from-layer="2502" from-port="0" to-layer="2503" to-port="1"/>
		<edge from-layer="2503" from-port="2" to-layer="2505" to-port="0"/>
		<edge from-layer="2503" from-port="2" to-layer="2511" to-port="0"/>
		<edge from-layer="2504" from-port="0" to-layer="2510" to-port="0"/>
		<edge from-layer="2505" from-port="1" to-layer="2506" to-port="0"/>
		<edge from-layer="2506" from-port="1" to-layer="2508" to-port="0"/>
		<edge from-layer="2507" from-port="0" to-layer="2508" to-port="1"/>
		<edge from-layer="2508" from-port="2" to-layer="2510" to-port="1"/>
		<edge from-layer="2509" from-port="0" to-layer="2510" to-port="2"/>
		<edge from-layer="2510" from-port="3" to-layer="2511" to-port="1"/>
		<edge from-layer="2511" from-port="2" to-layer="2513" to-port="0"/>
		<edge from-layer="2512" from-port="0" to-layer="2513" to-port="1"/>
		<edge from-layer="2513" from-port="2" to-layer="2515" to-port="0"/>
		<edge from-layer="2514" from-port="0" to-layer="2515" to-port="1"/>
		<edge from-layer="2515" from-port="2" to-layer="2516" to-port="0"/>
		<edge from-layer="2516" from-port="1" to-layer="2518" to-port="0"/>
		<edge from-layer="2517" from-port="0" to-layer="2518" to-port="1"/>
		<edge from-layer="2518" from-port="2" to-layer="2520" to-port="0"/>
		<edge from-layer="2518" from-port="2" to-layer="2526" to-port="0"/>
		<edge from-layer="2519" from-port="0" to-layer="2525" to-port="0"/>
		<edge from-layer="2520" from-port="1" to-layer="2521" to-port="0"/>
		<edge from-layer="2521" from-port="1" to-layer="2523" to-port="0"/>
		<edge from-layer="2522" from-port="0" to-layer="2523" to-port="1"/>
		<edge from-layer="2523" from-port="2" to-layer="2525" to-port="1"/>
		<edge from-layer="2524" from-port="0" to-layer="2525" to-port="2"/>
		<edge from-layer="2525" from-port="3" to-layer="2526" to-port="1"/>
		<edge from-layer="2526" from-port="2" to-layer="2528" to-port="0"/>
		<edge from-layer="2527" from-port="0" to-layer="2528" to-port="1"/>
		<edge from-layer="2528" from-port="2" to-layer="2530" to-port="0"/>
		<edge from-layer="2529" from-port="0" to-layer="2530" to-port="1"/>
		<edge from-layer="2530" from-port="2" to-layer="2531" to-port="0"/>
		<edge from-layer="2531" from-port="1" to-layer="2533" to-port="0"/>
		<edge from-layer="2532" from-port="0" to-layer="2533" to-port="1"/>
		<edge from-layer="2533" from-port="2" to-layer="2535" to-port="0"/>
		<edge from-layer="2533" from-port="2" to-layer="2541" to-port="0"/>
		<edge from-layer="2534" from-port="0" to-layer="2540" to-port="0"/>
		<edge from-layer="2535" from-port="1" to-layer="2536" to-port="0"/>
		<edge from-layer="2536" from-port="1" to-layer="2538" to-port="0"/>
		<edge from-layer="2537" from-port="0" to-layer="2538" to-port="1"/>
		<edge from-layer="2538" from-port="2" to-layer="2540" to-port="1"/>
		<edge from-layer="2539" from-port="0" to-layer="2540" to-port="2"/>
		<edge from-layer="2540" from-port="3" to-layer="2541" to-port="1"/>
		<edge from-layer="2541" from-port="2" to-layer="2543" to-port="0"/>
		<edge from-layer="2542" from-port="0" to-layer="2543" to-port="1"/>
		<edge from-layer="2543" from-port="2" to-layer="2545" to-port="0"/>
		<edge from-layer="2544" from-port="0" to-layer="2545" to-port="1"/>
		<edge from-layer="2545" from-port="2" to-layer="2546" to-port="0"/>
		<edge from-layer="2546" from-port="1" to-layer="2548" to-port="0"/>
		<edge from-layer="2547" from-port="0" to-layer="2548" to-port="1"/>
		<edge from-layer="2548" from-port="2" to-layer="2556" to-port="0"/>
		<edge from-layer="2548" from-port="2" to-layer="2550" to-port="0"/>
		<edge from-layer="2549" from-port="0" to-layer="2555" to-port="0"/>
		<edge from-layer="2550" from-port="1" to-layer="2551" to-port="0"/>
		<edge from-layer="2551" from-port="1" to-layer="2553" to-port="0"/>
		<edge from-layer="2552" from-port="0" to-layer="2553" to-port="1"/>
		<edge from-layer="2553" from-port="2" to-layer="2555" to-port="1"/>
		<edge from-layer="2554" from-port="0" to-layer="2555" to-port="2"/>
		<edge from-layer="2555" from-port="3" to-layer="2556" to-port="1"/>
		<edge from-layer="2556" from-port="2" to-layer="2558" to-port="0"/>
		<edge from-layer="2557" from-port="0" to-layer="2558" to-port="1"/>
		<edge from-layer="2558" from-port="2" to-layer="2560" to-port="0"/>
		<edge from-layer="2559" from-port="0" to-layer="2560" to-port="1"/>
		<edge from-layer="2560" from-port="2" to-layer="2561" to-port="0"/>
		<edge from-layer="2561" from-port="1" to-layer="2620" to-port="0"/>
		<edge from-layer="2561" from-port="1" to-layer="2563" to-port="0"/>
		<edge from-layer="2562" from-port="0" to-layer="2563" to-port="1"/>
		<edge from-layer="2563" from-port="2" to-layer="2565" to-port="0"/>
		<edge from-layer="2564" from-port="0" to-layer="2565" to-port="1"/>
		<edge from-layer="2565" from-port="2" to-layer="2568" to-port="0"/>
		<edge from-layer="2566" from-port="0" to-layer="2568" to-port="1"/>
		<edge from-layer="2567" from-port="0" to-layer="2568" to-port="2"/>
		<edge from-layer="2568" from-port="3" to-layer="2570" to-port="0"/>
		<edge from-layer="2569" from-port="0" to-layer="2570" to-port="1"/>
		<edge from-layer="2570" from-port="2" to-layer="2572" to-port="0"/>
		<edge from-layer="2571" from-port="0" to-layer="2572" to-port="1"/>
		<edge from-layer="2572" from-port="2" to-layer="2573" to-port="0"/>
		<edge from-layer="2573" from-port="1" to-layer="2575" to-port="0"/>
		<edge from-layer="2573" from-port="1" to-layer="2878" to-port="0"/>
		<edge from-layer="2574" from-port="0" to-layer="2575" to-port="1"/>
		<edge from-layer="2575" from-port="2" to-layer="2576" to-port="1"/>
		<edge from-layer="2576" from-port="2" to-layer="2578" to-port="0"/>
		<edge from-layer="2577" from-port="0" to-layer="2578" to-port="1"/>
		<edge from-layer="2578" from-port="2" to-layer="2604" to-port="0"/>
		<edge from-layer="2578" from-port="2" to-layer="2580" to-port="0"/>
		<edge from-layer="2579" from-port="0" to-layer="2586" to-port="0"/>
		<edge from-layer="2580" from-port="1" to-layer="2583" to-port="0"/>
		<edge from-layer="2581" from-port="0" to-layer="2583" to-port="1"/>
		<edge from-layer="2582" from-port="0" to-layer="2583" to-port="2"/>
		<edge from-layer="2583" from-port="3" to-layer="2585" to-port="0"/>
		<edge from-layer="2584" from-port="0" to-layer="2585" to-port="1"/>
		<edge from-layer="2585" from-port="2" to-layer="2586" to-port="1"/>
		<edge from-layer="2586" from-port="2" to-layer="2587" to-port="0"/>
		<edge from-layer="2587" from-port="1" to-layer="2595" to-port="0"/>
		<edge from-layer="2587" from-port="1" to-layer="2589" to-port="0"/>
		<edge from-layer="2588" from-port="0" to-layer="2594" to-port="0"/>
		<edge from-layer="2589" from-port="1" to-layer="2590" to-port="0"/>
		<edge from-layer="2590" from-port="1" to-layer="2592" to-port="0"/>
		<edge from-layer="2591" from-port="0" to-layer="2592" to-port="1"/>
		<edge from-layer="2592" from-port="2" to-layer="2594" to-port="1"/>
		<edge from-layer="2593" from-port="0" to-layer="2594" to-port="2"/>
		<edge from-layer="2594" from-port="3" to-layer="2595" to-port="1"/>
		<edge from-layer="2595" from-port="2" to-layer="2596" to-port="0"/>
		<edge from-layer="2596" from-port="1" to-layer="2598" to-port="0"/>
		<edge from-layer="2597" from-port="0" to-layer="2598" to-port="1"/>
		<edge from-layer="2598" from-port="2" to-layer="2600" to-port="0"/>
		<edge from-layer="2599" from-port="0" to-layer="2600" to-port="1"/>
		<edge from-layer="2600" from-port="2" to-layer="2602" to-port="0"/>
		<edge from-layer="2601" from-port="0" to-layer="2602" to-port="1"/>
		<edge from-layer="2602" from-port="2" to-layer="2603" to-port="0"/>
		<edge from-layer="2603" from-port="1" to-layer="2604" to-port="1"/>
		<edge from-layer="2604" from-port="3" to-layer="2630" to-port="0"/>
		<edge from-layer="2604" from-port="3" to-layer="2860" to-port="0"/>
		<edge from-layer="2604" from-port="3" to-layer="2605" to-port="0"/>
		<edge from-layer="2604" from-port="3" to-layer="2876" to-port="0"/>
		<edge from-layer="2604" from-port="2" to-layer="3025" to-port="0"/>
		<edge from-layer="2605" from-port="1" to-layer="2607" to-port="1"/>
		<edge from-layer="2606" from-port="0" to-layer="2607" to-port="2"/>
		<edge from-layer="2607" from-port="3" to-layer="2737" to-port="0"/>
		<edge from-layer="2607" from-port="3" to-layer="2667" to-port="0"/>
		<edge from-layer="2607" from-port="3" to-layer="2734" to-port="0"/>
		<edge from-layer="2607" from-port="3" to-layer="2613" to-port="0"/>
		<edge from-layer="2607" from-port="3" to-layer="2720" to-port="0"/>
		<edge from-layer="2607" from-port="3" to-layer="2610" to-port="0"/>
		<edge from-layer="2607" from-port="3" to-layer="2670" to-port="0"/>
		<edge from-layer="2607" from-port="3" to-layer="2717" to-port="0"/>
		<edge from-layer="2608" from-port="0" to-layer="2610" to-port="1"/>
		<edge from-layer="2609" from-port="0" to-layer="2610" to-port="2"/>
		<edge from-layer="2610" from-port="3" to-layer="2614" to-port="0"/>
		<edge from-layer="2611" from-port="0" to-layer="2613" to-port="1"/>
		<edge from-layer="2612" from-port="0" to-layer="2613" to-port="2"/>
		<edge from-layer="2613" from-port="3" to-layer="2614" to-port="1"/>
		<edge from-layer="2614" from-port="2" to-layer="2616" to-port="0"/>
		<edge from-layer="2615" from-port="0" to-layer="2616" to-port="1"/>
		<edge from-layer="2616" from-port="2" to-layer="2618" to-port="0"/>
		<edge from-layer="2617" from-port="0" to-layer="2618" to-port="1"/>
		<edge from-layer="2618" from-port="2" to-layer="2664" to-port="0"/>
		<edge from-layer="2619" from-port="0" to-layer="2620" to-port="1"/>
		<edge from-layer="2620" from-port="2" to-layer="2622" to-port="0"/>
		<edge from-layer="2621" from-port="0" to-layer="2622" to-port="1"/>
		<edge from-layer="2622" from-port="2" to-layer="2625" to-port="0"/>
		<edge from-layer="2623" from-port="0" to-layer="2625" to-port="1"/>
		<edge from-layer="2624" from-port="0" to-layer="2625" to-port="2"/>
		<edge from-layer="2625" from-port="3" to-layer="2627" to-port="0"/>
		<edge from-layer="2626" from-port="0" to-layer="2627" to-port="1"/>
		<edge from-layer="2627" from-port="2" to-layer="2629" to-port="0"/>
		<edge from-layer="2628" from-port="0" to-layer="2629" to-port="1"/>
		<edge from-layer="2629" from-port="2" to-layer="2632" to-port="0"/>
		<edge from-layer="2630" from-port="1" to-layer="2632" to-port="1"/>
		<edge from-layer="2631" from-port="0" to-layer="2632" to-port="2"/>
		<edge from-layer="2632" from-port="3" to-layer="2635" to-port="0"/>
		<edge from-layer="2632" from-port="3" to-layer="2648" to-port="0"/>
		<edge from-layer="2632" from-port="3" to-layer="2645" to-port="0"/>
		<edge from-layer="2632" from-port="3" to-layer="2843" to-port="0"/>
		<edge from-layer="2633" from-port="0" to-layer="2644" to-port="0"/>
		<edge from-layer="2634" from-port="0" to-layer="2643" to-port="0"/>
		<edge from-layer="2635" from-port="1" to-layer="2638" to-port="0"/>
		<edge from-layer="2636" from-port="0" to-layer="2638" to-port="1"/>
		<edge from-layer="2637" from-port="0" to-layer="2638" to-port="2"/>
		<edge from-layer="2638" from-port="3" to-layer="2640" to-port="0"/>
		<edge from-layer="2639" from-port="0" to-layer="2640" to-port="1"/>
		<edge from-layer="2640" from-port="2" to-layer="2642" to-port="0"/>
		<edge from-layer="2641" from-port="0" to-layer="2642" to-port="1"/>
		<edge from-layer="2642" from-port="2" to-layer="2643" to-port="1"/>
		<edge from-layer="2643" from-port="2" to-layer="2644" to-port="1"/>
		<edge from-layer="2644" from-port="2" to-layer="2645" to-port="1"/>
		<edge from-layer="2645" from-port="2" to-layer="2658" to-port="0"/>
		<edge from-layer="2646" from-port="0" to-layer="2657" to-port="0"/>
		<edge from-layer="2647" from-port="0" to-layer="2656" to-port="0"/>
		<edge from-layer="2648" from-port="1" to-layer="2651" to-port="0"/>
		<edge from-layer="2649" from-port="0" to-layer="2651" to-port="1"/>
		<edge from-layer="2650" from-port="0" to-layer="2651" to-port="2"/>
		<edge from-layer="2651" from-port="3" to-layer="2653" to-port="0"/>
		<edge from-layer="2652" from-port="0" to-layer="2653" to-port="1"/>
		<edge from-layer="2653" from-port="2" to-layer="2655" to-port="0"/>
		<edge from-layer="2654" from-port="0" to-layer="2655" to-port="1"/>
		<edge from-layer="2655" from-port="2" to-layer="2656" to-port="1"/>
		<edge from-layer="2656" from-port="2" to-layer="2657" to-port="1"/>
		<edge from-layer="2657" from-port="2" to-layer="2658" to-port="1"/>
		<edge from-layer="2658" from-port="2" to-layer="2677" to-port="0"/>
		<edge from-layer="2658" from-port="2" to-layer="2744" to-port="0"/>
		<edge from-layer="2658" from-port="2" to-layer="2729" to-port="0"/>
		<edge from-layer="2658" from-port="2" to-layer="2662" to-port="0"/>
		<edge from-layer="2659" from-port="0" to-layer="2662" to-port="1"/>
		<edge from-layer="2660" from-port="0" to-layer="2662" to-port="2"/>
		<edge from-layer="2661" from-port="0" to-layer="2662" to-port="3"/>
		<edge from-layer="2662" from-port="4" to-layer="2681" to-port="1"/>
		<edge from-layer="2662" from-port="4" to-layer="2663" to-port="0"/>
		<edge from-layer="2663" from-port="1" to-layer="2664" to-port="1"/>
		<edge from-layer="2664" from-port="2" to-layer="2682" to-port="0"/>
		<edge from-layer="2665" from-port="0" to-layer="2667" to-port="1"/>
		<edge from-layer="2666" from-port="0" to-layer="2667" to-port="2"/>
		<edge from-layer="2667" from-port="3" to-layer="2671" to-port="0"/>
		<edge from-layer="2668" from-port="0" to-layer="2670" to-port="1"/>
		<edge from-layer="2669" from-port="0" to-layer="2670" to-port="2"/>
		<edge from-layer="2670" from-port="3" to-layer="2671" to-port="1"/>
		<edge from-layer="2671" from-port="2" to-layer="2673" to-port="0"/>
		<edge from-layer="2672" from-port="0" to-layer="2673" to-port="1"/>
		<edge from-layer="2673" from-port="2" to-layer="2680" to-port="0"/>
		<edge from-layer="2674" from-port="0" to-layer="2677" to-port="1"/>
		<edge from-layer="2675" from-port="0" to-layer="2677" to-port="2"/>
		<edge from-layer="2676" from-port="0" to-layer="2677" to-port="3"/>
		<edge from-layer="2677" from-port="4" to-layer="2678" to-port="0"/>
		<edge from-layer="2678" from-port="1" to-layer="2679" to-port="0"/>
		<edge from-layer="2678" from-port="1" to-layer="2683" to-port="0"/>
		<edge from-layer="2679" from-port="1" to-layer="2680" to-port="1"/>
		<edge from-layer="2680" from-port="2" to-layer="2681" to-port="0"/>
		<edge from-layer="2680" from-port="2" to-layer="2684" to-port="0"/>
		<edge from-layer="2681" from-port="2" to-layer="2682" to-port="1"/>
		<edge from-layer="2682" from-port="2" to-layer="2784" to-port="0"/>
		<edge from-layer="2682" from-port="2" to-layer="2687" to-port="0"/>
		<edge from-layer="2683" from-port="1" to-layer="2684" to-port="1"/>
		<edge from-layer="2684" from-port="2" to-layer="2783" to-port="0"/>
		<edge from-layer="2684" from-port="2" to-layer="2686" to-port="0"/>
		<edge from-layer="2685" from-port="0" to-layer="2686" to-port="1"/>
		<edge from-layer="2686" from-port="2" to-layer="2687" to-port="1"/>
		<edge from-layer="2687" from-port="2" to-layer="2689" to-port="0"/>
		<edge from-layer="2687" from-port="2" to-layer="2691" to-port="0"/>
		<edge from-layer="2688" from-port="0" to-layer="2689" to-port="1"/>
		<edge from-layer="2689" from-port="2" to-layer="2695" to-port="0"/>
		<edge from-layer="2690" from-port="0" to-layer="2692" to-port="0"/>
		<edge from-layer="2691" from-port="1" to-layer="2692" to-port="1"/>
		<edge from-layer="2692" from-port="2" to-layer="2694" to-port="0"/>
		<edge from-layer="2693" from-port="0" to-layer="2694" to-port="1"/>
		<edge from-layer="2694" from-port="2" to-layer="2695" to-port="1"/>
		<edge from-layer="2695" from-port="2" to-layer="2697" to-port="0"/>
		<edge from-layer="2696" from-port="0" to-layer="2697" to-port="1"/>
		<edge from-layer="2697" from-port="2" to-layer="2699" to-port="0"/>
		<edge from-layer="2697" from-port="2" to-layer="2706" to-port="0"/>
		<edge from-layer="2698" from-port="0" to-layer="2699" to-port="1"/>
		<edge from-layer="2699" from-port="2" to-layer="2710" to-port="0"/>
		<edge from-layer="2700" from-port="0" to-layer="2702" to-port="1"/>
		<edge from-layer="2701" from-port="0" to-layer="2702" to-port="2"/>
		<edge from-layer="2702" from-port="3" to-layer="2703" to-port="0"/>
		<edge from-layer="2703" from-port="1" to-layer="2705" to-port="0"/>
		<edge from-layer="2704" from-port="0" to-layer="2705" to-port="1"/>
		<edge from-layer="2705" from-port="2" to-layer="2707" to-port="0"/>
		<edge from-layer="2706" from-port="1" to-layer="2707" to-port="1"/>
		<edge from-layer="2707" from-port="2" to-layer="2709" to-port="0"/>
		<edge from-layer="2708" from-port="0" to-layer="2709" to-port="1"/>
		<edge from-layer="2709" from-port="2" to-layer="2710" to-port="1"/>
		<edge from-layer="2710" from-port="2" to-layer="2712" to-port="0"/>
		<edge from-layer="2711" from-port="0" to-layer="2712" to-port="1"/>
		<edge from-layer="2712" from-port="2" to-layer="2714" to-port="0"/>
		<edge from-layer="2713" from-port="0" to-layer="2714" to-port="1"/>
		<edge from-layer="2714" from-port="2" to-layer="2842" to-port="0"/>
		<edge from-layer="2715" from-port="0" to-layer="2717" to-port="1"/>
		<edge from-layer="2716" from-port="0" to-layer="2717" to-port="2"/>
		<edge from-layer="2717" from-port="3" to-layer="2721" to-port="0"/>
		<edge from-layer="2718" from-port="0" to-layer="2720" to-port="1"/>
		<edge from-layer="2719" from-port="0" to-layer="2720" to-port="2"/>
		<edge from-layer="2720" from-port="3" to-layer="2721" to-port="1"/>
		<edge from-layer="2721" from-port="2" to-layer="2723" to-port="0"/>
		<edge from-layer="2722" from-port="0" to-layer="2723" to-port="1"/>
		<edge from-layer="2723" from-port="2" to-layer="2725" to-port="0"/>
		<edge from-layer="2724" from-port="0" to-layer="2725" to-port="1"/>
		<edge from-layer="2725" from-port="2" to-layer="2731" to-port="0"/>
		<edge from-layer="2726" from-port="0" to-layer="2729" to-port="1"/>
		<edge from-layer="2727" from-port="0" to-layer="2729" to-port="2"/>
		<edge from-layer="2728" from-port="0" to-layer="2729" to-port="3"/>
		<edge from-layer="2729" from-port="4" to-layer="2748" to-port="1"/>
		<edge from-layer="2729" from-port="4" to-layer="2730" to-port="0"/>
		<edge from-layer="2730" from-port="1" to-layer="2731" to-port="1"/>
		<edge from-layer="2731" from-port="2" to-layer="2749" to-port="0"/>
		<edge from-layer="2732" from-port="0" to-layer="2734" to-port="1"/>
		<edge from-layer="2733" from-port="0" to-layer="2734" to-port="2"/>
		<edge from-layer="2734" from-port="3" to-layer="2738" to-port="0"/>
		<edge from-layer="2735" from-port="0" to-layer="2737" to-port="1"/>
		<edge from-layer="2736" from-port="0" to-layer="2737" to-port="2"/>
		<edge from-layer="2737" from-port="3" to-layer="2738" to-port="1"/>
		<edge from-layer="2738" from-port="2" to-layer="2740" to-port="0"/>
		<edge from-layer="2739" from-port="0" to-layer="2740" to-port="1"/>
		<edge from-layer="2740" from-port="2" to-layer="2747" to-port="0"/>
		<edge from-layer="2741" from-port="0" to-layer="2744" to-port="1"/>
		<edge from-layer="2742" from-port="0" to-layer="2744" to-port="2"/>
		<edge from-layer="2743" from-port="0" to-layer="2744" to-port="3"/>
		<edge from-layer="2744" from-port="4" to-layer="2745" to-port="0"/>
		<edge from-layer="2745" from-port="1" to-layer="2746" to-port="0"/>
		<edge from-layer="2745" from-port="1" to-layer="2750" to-port="0"/>
		<edge from-layer="2746" from-port="1" to-layer="2747" to-port="1"/>
		<edge from-layer="2747" from-port="2" to-layer="2751" to-port="0"/>
		<edge from-layer="2747" from-port="2" to-layer="2748" to-port="0"/>
		<edge from-layer="2748" from-port="2" to-layer="2749" to-port="1"/>
		<edge from-layer="2749" from-port="2" to-layer="2814" to-port="0"/>
		<edge from-layer="2749" from-port="2" to-layer="2754" to-port="0"/>
		<edge from-layer="2750" from-port="1" to-layer="2751" to-port="1"/>
		<edge from-layer="2751" from-port="2" to-layer="2753" to-port="0"/>
		<edge from-layer="2751" from-port="2" to-layer="2813" to-port="0"/>
		<edge from-layer="2752" from-port="0" to-layer="2753" to-port="1"/>
		<edge from-layer="2753" from-port="2" to-layer="2754" to-port="1"/>
		<edge from-layer="2754" from-port="2" to-layer="2756" to-port="0"/>
		<edge from-layer="2754" from-port="2" to-layer="2758" to-port="0"/>
		<edge from-layer="2755" from-port="0" to-layer="2756" to-port="1"/>
		<edge from-layer="2756" from-port="2" to-layer="2762" to-port="0"/>
		<edge from-layer="2757" from-port="0" to-layer="2759" to-port="0"/>
		<edge from-layer="2758" from-port="1" to-layer="2759" to-port="1"/>
		<edge from-layer="2759" from-port="2" to-layer="2761" to-port="0"/>
		<edge from-layer="2760" from-port="0" to-layer="2761" to-port="1"/>
		<edge from-layer="2761" from-port="2" to-layer="2762" to-port="1"/>
		<edge from-layer="2762" from-port="2" to-layer="2764" to-port="0"/>
		<edge from-layer="2763" from-port="0" to-layer="2764" to-port="1"/>
		<edge from-layer="2764" from-port="2" to-layer="2766" to-port="0"/>
		<edge from-layer="2764" from-port="2" to-layer="2773" to-port="0"/>
		<edge from-layer="2765" from-port="0" to-layer="2766" to-port="1"/>
		<edge from-layer="2766" from-port="2" to-layer="2777" to-port="0"/>
		<edge from-layer="2767" from-port="0" to-layer="2769" to-port="1"/>
		<edge from-layer="2768" from-port="0" to-layer="2769" to-port="2"/>
		<edge from-layer="2769" from-port="3" to-layer="2770" to-port="0"/>
		<edge from-layer="2770" from-port="1" to-layer="2772" to-port="0"/>
		<edge from-layer="2771" from-port="0" to-layer="2772" to-port="1"/>
		<edge from-layer="2772" from-port="2" to-layer="2774" to-port="0"/>
		<edge from-layer="2773" from-port="1" to-layer="2774" to-port="1"/>
		<edge from-layer="2774" from-port="2" to-layer="2776" to-port="0"/>
		<edge from-layer="2775" from-port="0" to-layer="2776" to-port="1"/>
		<edge from-layer="2776" from-port="2" to-layer="2777" to-port="1"/>
		<edge from-layer="2777" from-port="2" to-layer="2779" to-port="0"/>
		<edge from-layer="2778" from-port="0" to-layer="2779" to-port="1"/>
		<edge from-layer="2779" from-port="2" to-layer="2781" to-port="0"/>
		<edge from-layer="2780" from-port="0" to-layer="2781" to-port="1"/>
		<edge from-layer="2781" from-port="2" to-layer="2842" to-port="1"/>
		<edge from-layer="2782" from-port="0" to-layer="2783" to-port="1"/>
		<edge from-layer="2783" from-port="2" to-layer="2784" to-port="1"/>
		<edge from-layer="2784" from-port="2" to-layer="2786" to-port="0"/>
		<edge from-layer="2784" from-port="2" to-layer="2788" to-port="0"/>
		<edge from-layer="2785" from-port="0" to-layer="2786" to-port="1"/>
		<edge from-layer="2786" from-port="2" to-layer="2792" to-port="0"/>
		<edge from-layer="2787" from-port="0" to-layer="2789" to-port="0"/>
		<edge from-layer="2788" from-port="1" to-layer="2789" to-port="1"/>
		<edge from-layer="2789" from-port="2" to-layer="2791" to-port="0"/>
		<edge from-layer="2790" from-port="0" to-layer="2791" to-port="1"/>
		<edge from-layer="2791" from-port="2" to-layer="2792" to-port="1"/>
		<edge from-layer="2792" from-port="2" to-layer="2794" to-port="0"/>
		<edge from-layer="2793" from-port="0" to-layer="2794" to-port="1"/>
		<edge from-layer="2794" from-port="2" to-layer="2796" to-port="0"/>
		<edge from-layer="2794" from-port="2" to-layer="2803" to-port="0"/>
		<edge from-layer="2795" from-port="0" to-layer="2796" to-port="1"/>
		<edge from-layer="2796" from-port="2" to-layer="2807" to-port="0"/>
		<edge from-layer="2797" from-port="0" to-layer="2799" to-port="1"/>
		<edge from-layer="2798" from-port="0" to-layer="2799" to-port="2"/>
		<edge from-layer="2799" from-port="3" to-layer="2800" to-port="0"/>
		<edge from-layer="2800" from-port="1" to-layer="2802" to-port="0"/>
		<edge from-layer="2801" from-port="0" to-layer="2802" to-port="1"/>
		<edge from-layer="2802" from-port="2" to-layer="2804" to-port="0"/>
		<edge from-layer="2803" from-port="1" to-layer="2804" to-port="1"/>
		<edge from-layer="2804" from-port="2" to-layer="2806" to-port="0"/>
		<edge from-layer="2805" from-port="0" to-layer="2806" to-port="1"/>
		<edge from-layer="2806" from-port="2" to-layer="2807" to-port="1"/>
		<edge from-layer="2807" from-port="2" to-layer="2809" to-port="0"/>
		<edge from-layer="2808" from-port="0" to-layer="2809" to-port="1"/>
		<edge from-layer="2809" from-port="2" to-layer="2811" to-port="0"/>
		<edge from-layer="2810" from-port="0" to-layer="2811" to-port="1"/>
		<edge from-layer="2811" from-port="2" to-layer="2842" to-port="2"/>
		<edge from-layer="2812" from-port="0" to-layer="2813" to-port="1"/>
		<edge from-layer="2813" from-port="2" to-layer="2814" to-port="1"/>
		<edge from-layer="2814" from-port="2" to-layer="2818" to-port="0"/>
		<edge from-layer="2814" from-port="2" to-layer="2816" to-port="0"/>
		<edge from-layer="2815" from-port="0" to-layer="2816" to-port="1"/>
		<edge from-layer="2816" from-port="2" to-layer="2822" to-port="0"/>
		<edge from-layer="2817" from-port="0" to-layer="2819" to-port="0"/>
		<edge from-layer="2818" from-port="1" to-layer="2819" to-port="1"/>
		<edge from-layer="2819" from-port="2" to-layer="2821" to-port="0"/>
		<edge from-layer="2820" from-port="0" to-layer="2821" to-port="1"/>
		<edge from-layer="2821" from-port="2" to-layer="2822" to-port="1"/>
		<edge from-layer="2822" from-port="2" to-layer="2824" to-port="0"/>
		<edge from-layer="2823" from-port="0" to-layer="2824" to-port="1"/>
		<edge from-layer="2824" from-port="2" to-layer="2833" to-port="0"/>
		<edge from-layer="2824" from-port="2" to-layer="2826" to-port="0"/>
		<edge from-layer="2825" from-port="0" to-layer="2826" to-port="1"/>
		<edge from-layer="2826" from-port="2" to-layer="2837" to-port="0"/>
		<edge from-layer="2827" from-port="0" to-layer="2829" to-port="1"/>
		<edge from-layer="2828" from-port="0" to-layer="2829" to-port="2"/>
		<edge from-layer="2829" from-port="3" to-layer="2830" to-port="0"/>
		<edge from-layer="2830" from-port="1" to-layer="2832" to-port="0"/>
		<edge from-layer="2831" from-port="0" to-layer="2832" to-port="1"/>
		<edge from-layer="2832" from-port="2" to-layer="2834" to-port="0"/>
		<edge from-layer="2833" from-port="1" to-layer="2834" to-port="1"/>
		<edge from-layer="2834" from-port="2" to-layer="2836" to-port="0"/>
		<edge from-layer="2835" from-port="0" to-layer="2836" to-port="1"/>
		<edge from-layer="2836" from-port="2" to-layer="2837" to-port="1"/>
		<edge from-layer="2837" from-port="2" to-layer="2839" to-port="0"/>
		<edge from-layer="2838" from-port="0" to-layer="2839" to-port="1"/>
		<edge from-layer="2839" from-port="2" to-layer="2841" to-port="0"/>
		<edge from-layer="2840" from-port="0" to-layer="2841" to-port="1"/>
		<edge from-layer="2841" from-port="2" to-layer="2842" to-port="3"/>
		<edge from-layer="2842" from-port="4" to-layer="2844" to-port="0"/>
		<edge from-layer="2843" from-port="1" to-layer="2844" to-port="1"/>
		<edge from-layer="2844" from-port="2" to-layer="2845" to-port="4"/>
		<edge from-layer="2845" from-port="5" to-layer="2847" to-port="0"/>
		<edge from-layer="2846" from-port="0" to-layer="2847" to-port="1"/>
		<edge from-layer="2847" from-port="2" to-layer="2914" to-port="0"/>
		<edge from-layer="2848" from-port="1" to-layer="2850" to-port="1"/>
		<edge from-layer="2849" from-port="0" to-layer="2850" to-port="2"/>
		<edge from-layer="2850" from-port="3" to-layer="2863" to-port="0"/>
		<edge from-layer="2851" from-port="1" to-layer="2853" to-port="1"/>
		<edge from-layer="2852" from-port="0" to-layer="2853" to-port="2"/>
		<edge from-layer="2853" from-port="3" to-layer="2863" to-port="1"/>
		<edge from-layer="2854" from-port="1" to-layer="2856" to-port="1"/>
		<edge from-layer="2855" from-port="0" to-layer="2856" to-port="2"/>
		<edge from-layer="2856" from-port="3" to-layer="2863" to-port="2"/>
		<edge from-layer="2857" from-port="1" to-layer="2859" to-port="1"/>
		<edge from-layer="2858" from-port="0" to-layer="2859" to-port="2"/>
		<edge from-layer="2859" from-port="3" to-layer="2863" to-port="3"/>
		<edge from-layer="2860" from-port="1" to-layer="2862" to-port="1"/>
		<edge from-layer="2861" from-port="0" to-layer="2862" to-port="2"/>
		<edge from-layer="2862" from-port="3" to-layer="2863" to-port="4"/>
		<edge from-layer="2863" from-port="5" to-layer="2889" to-port="0"/>
		<edge from-layer="2863" from-port="5" to-layer="2891" to-port="0"/>
		<edge from-layer="2864" from-port="1" to-layer="2866" to-port="1"/>
		<edge from-layer="2865" from-port="0" to-layer="2866" to-port="2"/>
		<edge from-layer="2866" from-port="3" to-layer="2879" to-port="0"/>
		<edge from-layer="2867" from-port="1" to-layer="2869" to-port="1"/>
		<edge from-layer="2868" from-port="0" to-layer="2869" to-port="2"/>
		<edge from-layer="2869" from-port="3" to-layer="2879" to-port="1"/>
		<edge from-layer="2870" from-port="1" to-layer="2872" to-port="1"/>
		<edge from-layer="2871" from-port="0" to-layer="2872" to-port="2"/>
		<edge from-layer="2872" from-port="3" to-layer="2879" to-port="2"/>
		<edge from-layer="2873" from-port="1" to-layer="2875" to-port="1"/>
		<edge from-layer="2874" from-port="0" to-layer="2875" to-port="2"/>
		<edge from-layer="2875" from-port="3" to-layer="2879" to-port="3"/>
		<edge from-layer="2876" from-port="1" to-layer="2878" to-port="1"/>
		<edge from-layer="2877" from-port="0" to-layer="2878" to-port="2"/>
		<edge from-layer="2878" from-port="3" to-layer="2879" to-port="4"/>
		<edge from-layer="2879" from-port="5" to-layer="2880" to-port="0"/>
		<edge from-layer="2879" from-port="5" to-layer="2888" to-port="0"/>
		<edge from-layer="2880" from-port="1" to-layer="2883" to-port="0"/>
		<edge from-layer="2881" from-port="0" to-layer="2883" to-port="1"/>
		<edge from-layer="2882" from-port="0" to-layer="2883" to-port="2"/>
		<edge from-layer="2883" from-port="3" to-layer="2885" to-port="0"/>
		<edge from-layer="2884" from-port="0" to-layer="2885" to-port="1"/>
		<edge from-layer="2885" from-port="2" to-layer="2887" to-port="0"/>
		<edge from-layer="2886" from-port="0" to-layer="2887" to-port="1"/>
		<edge from-layer="2887" from-port="2" to-layer="2888" to-port="1"/>
		<edge from-layer="2888" from-port="2" to-layer="2890" to-port="0"/>
		<edge from-layer="2889" from-port="1" to-layer="2890" to-port="1"/>
		<edge from-layer="2890" from-port="2" to-layer="2891" to-port="1"/>
		<edge from-layer="2891" from-port="2" to-layer="2928" to-port="0"/>
		<edge from-layer="2891" from-port="2" to-layer="2950" to-port="0"/>
		<edge from-layer="2891" from-port="2" to-layer="2898" to-port="0"/>
		<edge from-layer="2891" from-port="2" to-layer="2892" to-port="0"/>
		<edge from-layer="2892" from-port="1" to-layer="2895" to-port="0"/>
		<edge from-layer="2893" from-port="0" to-layer="2895" to-port="1"/>
		<edge from-layer="2894" from-port="0" to-layer="2895" to-port="2"/>
		<edge from-layer="2895" from-port="3" to-layer="2897" to-port="0"/>
		<edge from-layer="2896" from-port="0" to-layer="2897" to-port="1"/>
		<edge from-layer="2897" from-port="2" to-layer="2905" to-port="0"/>
		<edge from-layer="2898" from-port="1" to-layer="2901" to-port="0"/>
		<edge from-layer="2899" from-port="0" to-layer="2901" to-port="1"/>
		<edge from-layer="2900" from-port="0" to-layer="2901" to-port="2"/>
		<edge from-layer="2901" from-port="3" to-layer="2903" to-port="0"/>
		<edge from-layer="2901" from-port="3" to-layer="2919" to-port="0"/>
		<edge from-layer="2902" from-port="0" to-layer="2903" to-port="1"/>
		<edge from-layer="2903" from-port="2" to-layer="2905" to-port="1"/>
		<edge from-layer="2904" from-port="0" to-layer="2905" to-port="2"/>
		<edge from-layer="2905" from-port="3" to-layer="2907" to-port="0"/>
		<edge from-layer="2906" from-port="0" to-layer="2907" to-port="1"/>
		<edge from-layer="2907" from-port="2" to-layer="2913" to-port="2"/>
		<edge from-layer="2907" from-port="2" to-layer="2912" to-port="0"/>
		<edge from-layer="2907" from-port="2" to-layer="2909" to-port="0"/>
		<edge from-layer="2908" from-port="0" to-layer="2910" to-port="0"/>
		<edge from-layer="2909" from-port="1" to-layer="2910" to-port="1"/>
		<edge from-layer="2910" from-port="2" to-layer="2913" to-port="1"/>
		<edge from-layer="2910" from-port="2" to-layer="2911" to-port="0"/>
		<edge from-layer="2911" from-port="1" to-layer="2912" to-port="1"/>
		<edge from-layer="2912" from-port="2" to-layer="2913" to-port="0"/>
		<edge from-layer="2913" from-port="3" to-layer="2914" to-port="1"/>
		<edge from-layer="2914" from-port="2" to-layer="2916" to-port="0"/>
		<edge from-layer="2915" from-port="0" to-layer="2916" to-port="1"/>
		<edge from-layer="2916" from-port="2" to-layer="2948" to-port="0"/>
		<edge from-layer="2916" from-port="2" to-layer="2940" to-port="0"/>
		<edge from-layer="2916" from-port="2" to-layer="2934" to-port="0"/>
		<edge from-layer="2916" from-port="2" to-layer="2991" to-port="0"/>
		<edge from-layer="2917" from-port="0" to-layer="2920" to-port="0"/>
		<edge from-layer="2918" from-port="0" to-layer="2919" to-port="1"/>
		<edge from-layer="2919" from-port="2" to-layer="2920" to-port="1"/>
		<edge from-layer="2920" from-port="2" to-layer="2921" to-port="0"/>
		<edge from-layer="2921" from-port="1" to-layer="2923" to-port="0"/>
		<edge from-layer="2922" from-port="0" to-layer="2923" to-port="1"/>
		<edge from-layer="2923" from-port="2" to-layer="2925" to-port="0"/>
		<edge from-layer="2924" from-port="0" to-layer="2925" to-port="1"/>
		<edge from-layer="2925" from-port="2" to-layer="2927" to-port="0"/>
		<edge from-layer="2926" from-port="0" to-layer="2927" to-port="1"/>
		<edge from-layer="2927" from-port="2" to-layer="2929" to-port="0"/>
		<edge from-layer="2928" from-port="1" to-layer="2929" to-port="1"/>
		<edge from-layer="2929" from-port="2" to-layer="2931" to-port="0"/>
		<edge from-layer="2930" from-port="0" to-layer="2931" to-port="1"/>
		<edge from-layer="2931" from-port="2" to-layer="2932" to-port="0"/>
		<edge from-layer="2931" from-port="2" to-layer="3006" to-port="0"/>
		<edge from-layer="2932" from-port="1" to-layer="2945" to-port="0"/>
		<edge from-layer="2933" from-port="0" to-layer="2939" to-port="0"/>
		<edge from-layer="2934" from-port="1" to-layer="2935" to-port="0"/>
		<edge from-layer="2935" from-port="1" to-layer="2937" to-port="0"/>
		<edge from-layer="2936" from-port="0" to-layer="2937" to-port="1"/>
		<edge from-layer="2937" from-port="2" to-layer="2939" to-port="1"/>
		<edge from-layer="2938" from-port="0" to-layer="2939" to-port="2"/>
		<edge from-layer="2939" from-port="3" to-layer="2940" to-port="1"/>
		<edge from-layer="2940" from-port="2" to-layer="2942" to-port="0"/>
		<edge from-layer="2941" from-port="0" to-layer="2942" to-port="1"/>
		<edge from-layer="2942" from-port="2" to-layer="2944" to-port="0"/>
		<edge from-layer="2943" from-port="0" to-layer="2944" to-port="1"/>
		<edge from-layer="2944" from-port="2" to-layer="2945" to-port="1"/>
		<edge from-layer="2945" from-port="2" to-layer="2947" to-port="0"/>
		<edge from-layer="2946" from-port="0" to-layer="2947" to-port="1"/>
		<edge from-layer="2947" from-port="2" to-layer="2948" to-port="1"/>
		<edge from-layer="2948" from-port="2" to-layer="2953" to-port="0"/>
		<edge from-layer="2949" from-port="0" to-layer="2950" to-port="1"/>
		<edge from-layer="2950" from-port="2" to-layer="2952" to-port="0"/>
		<edge from-layer="2951" from-port="0" to-layer="2952" to-port="1"/>
		<edge from-layer="2952" from-port="2" to-layer="2953" to-port="1"/>
		<edge from-layer="2953" from-port="2" to-layer="2956" to-port="0"/>
		<edge from-layer="2953" from-port="2" to-layer="2994" to-port="0"/>
		<edge from-layer="2954" from-port="0" to-layer="2956" to-port="1"/>
		<edge from-layer="2955" from-port="0" to-layer="2956" to-port="2"/>
		<edge from-layer="2956" from-port="3" to-layer="2958" to-port="0"/>
		<edge from-layer="2956" from-port="4" to-layer="2960" to-port="0"/>
		<edge from-layer="2957" from-port="0" to-layer="2958" to-port="1"/>
		<edge from-layer="2958" from-port="2" to-layer="2964" to-port="0"/>
		<edge from-layer="2959" from-port="0" to-layer="2960" to-port="1"/>
		<edge from-layer="2960" from-port="2" to-layer="2964" to-port="1"/>
		<edge from-layer="2960" from-port="2" to-layer="2972" to-port="0"/>
		<edge from-layer="2961" from-port="0" to-layer="2964" to-port="2"/>
		<edge from-layer="2962" from-port="0" to-layer="2964" to-port="3"/>
		<edge from-layer="2963" from-port="0" to-layer="2964" to-port="4"/>
		<edge from-layer="2964" from-port="5" to-layer="2968" to-port="0"/>
		<edge from-layer="2965" from-port="0" to-layer="2968" to-port="1"/>
		<edge from-layer="2966" from-port="0" to-layer="2968" to-port="2"/>
		<edge from-layer="2967" from-port="0" to-layer="2968" to-port="3"/>
		<edge from-layer="2968" from-port="4" to-layer="2970" to-port="0"/>
		<edge from-layer="2969" from-port="0" to-layer="2970" to-port="1"/>
		<edge from-layer="2970" from-port="2" to-layer="2973" to-port="0"/>
		<edge from-layer="2970" from-port="2" to-layer="2988" to-port="0"/>
		<edge from-layer="2971" from-port="0" to-layer="2972" to-port="1"/>
		<edge from-layer="2972" from-port="2" to-layer="2975" to-port="0"/>
		<edge from-layer="2973" from-port="1" to-layer="2975" to-port="1"/>
		<edge from-layer="2974" from-port="0" to-layer="2975" to-port="2"/>
		<edge from-layer="2975" from-port="3" to-layer="2985" to-port="0"/>
		<edge from-layer="2975" from-port="3" to-layer="2976" to-port="0"/>
		<edge from-layer="2976" from-port="1" to-layer="2979" to-port="0"/>
		<edge from-layer="2977" from-port="0" to-layer="2979" to-port="1"/>
		<edge from-layer="2978" from-port="0" to-layer="2979" to-port="2"/>
		<edge from-layer="2979" from-port="3" to-layer="2981" to-port="0"/>
		<edge from-layer="2980" from-port="0" to-layer="2981" to-port="1"/>
		<edge from-layer="2981" from-port="2" to-layer="2983" to-port="0"/>
		<edge from-layer="2982" from-port="0" to-layer="2983" to-port="1"/>
		<edge from-layer="2983" from-port="2" to-layer="2984" to-port="0"/>
		<edge from-layer="2984" from-port="1" to-layer="2985" to-port="1"/>
		<edge from-layer="2985" from-port="2" to-layer="3028" to-port="0"/>
		<edge from-layer="2985" from-port="3" to-layer="2986" to-port="0"/>
		<edge from-layer="2986" from-port="1" to-layer="2988" to-port="1"/>
		<edge from-layer="2987" from-port="0" to-layer="2988" to-port="2"/>
		<edge from-layer="2988" from-port="3" to-layer="2989" to-port="0"/>
		<edge from-layer="2988" from-port="3" to-layer="2992" to-port="0"/>
		<edge from-layer="2988" from-port="3" to-layer="3004" to-port="0"/>
		<edge from-layer="2989" from-port="1" to-layer="2991" to-port="1"/>
		<edge from-layer="2990" from-port="0" to-layer="2991" to-port="2"/>
		<edge from-layer="2991" from-port="3" to-layer="3003" to-port="0"/>
		<edge from-layer="2992" from-port="1" to-layer="2994" to-port="1"/>
		<edge from-layer="2993" from-port="0" to-layer="2994" to-port="2"/>
		<edge from-layer="2994" from-port="3" to-layer="2998" to-port="0"/>
		<edge from-layer="2995" from-port="0" to-layer="2998" to-port="1"/>
		<edge from-layer="2996" from-port="0" to-layer="2998" to-port="2"/>
		<edge from-layer="2997" from-port="0" to-layer="2998" to-port="3"/>
		<edge from-layer="2998" from-port="4" to-layer="3000" to-port="0"/>
		<edge from-layer="2999" from-port="0" to-layer="3000" to-port="1"/>
		<edge from-layer="3000" from-port="2" to-layer="3002" to-port="0"/>
		<edge from-layer="3001" from-port="0" to-layer="3002" to-port="1"/>
		<edge from-layer="3002" from-port="2" to-layer="3003" to-port="1"/>
		<edge from-layer="3003" from-port="2" to-layer="3010" to-port="0"/>
		<edge from-layer="3004" from-port="1" to-layer="3006" to-port="1"/>
		<edge from-layer="3005" from-port="0" to-layer="3006" to-port="2"/>
		<edge from-layer="3006" from-port="3" to-layer="3007" to-port="0"/>
		<edge from-layer="3007" from-port="1" to-layer="3009" to-port="0"/>
		<edge from-layer="3008" from-port="0" to-layer="3009" to-port="1"/>
		<edge from-layer="3009" from-port="2" to-layer="3010" to-port="1"/>
		<edge from-layer="3010" from-port="2" to-layer="3021" to-port="0"/>
		<edge from-layer="3010" from-port="2" to-layer="3013" to-port="0"/>
		<edge from-layer="3011" from-port="0" to-layer="3013" to-port="1"/>
		<edge from-layer="3012" from-port="0" to-layer="3013" to-port="2"/>
		<edge from-layer="3013" from-port="3" to-layer="3014" to-port="0"/>
		<edge from-layer="3014" from-port="1" to-layer="3016" to-port="0"/>
		<edge from-layer="3015" from-port="0" to-layer="3016" to-port="1"/>
		<edge from-layer="3016" from-port="2" to-layer="3017" to-port="0"/>
		<edge from-layer="3018" from-port="0" to-layer="3021" to-port="1"/>
		<edge from-layer="3019" from-port="0" to-layer="3021" to-port="2"/>
		<edge from-layer="3020" from-port="0" to-layer="3021" to-port="3"/>
		<edge from-layer="3021" from-port="4" to-layer="3022" to-port="0"/>
	</edges>
	<meta_data>
		<MO_version value="2021.4.0-3827-c5b65f2cb1d-releases/2021/4"/>
		<cli_parameters>
			<caffe_parser_path value="DIR"/>
			<data_type value="FP32"/>
			<disable_nhwc_to_nchw value="False"/>
			<disable_omitting_optional value="False"/>
			<disable_resnet_optimization value="False"/>
			<disable_weights_compression value="False"/>
			<enable_concat_optimization value="False"/>
			<enable_flattening_nested_params value="False"/>
			<enable_ssd_gluoncv value="False"/>
			<extensions value="DIR"/>
			<framework value="onnx"/>
			<freeze_placeholder_with_value value="{}"/>
			<generate_deprecated_IR_V7 value="False"/>
			<input value="image"/>
			<input_model value="DIR/model.onnx"/>
			<input_model_is_text value="False"/>
			<input_shape value="[1,3,480,864]"/>
			<k value="DIR/CustomLayersMapping.xml"/>
			<keep_shape_ops value="True"/>
			<legacy_ir_generation value="False"/>
			<legacy_mxnet_model value="False"/>
			<log_level value="ERROR"/>
			<mean_scale_values value="{'image': {'mean': None, 'scale': array([255.])}}"/>
			<mean_values value="()"/>
			<model_name value="person-vehicle-bike-detection-2003"/>
			<output value="['boxes', 'labels']"/>
			<output_dir value="DIR"/>
			<placeholder_data_types value="{}"/>
			<placeholder_shapes value="{'image': array([  1,   3, 480, 864])}"/>
			<progress value="False"/>
			<remove_memory value="False"/>
			<remove_output_softmax value="False"/>
			<reverse_input_channels value="True"/>
			<save_params_from_nd value="False"/>
			<scale_values value="image[255.0]"/>
			<silent value="False"/>
			<static_shape value="False"/>
			<stream_output value="False"/>
			<transform value=""/>
			<unset unset_cli_parameters="batch, counts, disable_fusing, disable_gfusing, finegrain_fusing, input_checkpoint, input_meta_graph, input_proto, input_symbol, mean_file, mean_file_offsets, move_to_preprocess, nd_prefix_name, pretrained_model_name, saved_model_dir, saved_model_tags, scale, tensorboard_logdir, tensorflow_custom_layer_libraries, tensorflow_custom_operations_config_update, tensorflow_object_detection_api_pipeline_config, tensorflow_use_custom_operations_config, transformations_config"/>
		</cli_parameters>
	</meta_data>
</net>
