<?xml version="1.0"?>
<net name="torch-jit-export" version="11">
	<layers>
		<layer id="0" name="image" type="Parameter" version="opset1">
			<data shape="1,3,768,1280" element_type="f32" />
			<rt_info>
				<attribute name="old_api_map_element_type" version="0" value="f16" />
			</rt_info>
			<output>
				<port id="0" precision="FP32" names="image">
					<dim>1</dim>
					<dim>3</dim>
					<dim>768</dim>
					<dim>1280</dim>
					<rt_info>
						<attribute name="layout" version="0" layout="[N,C,H,W]" />
					</rt_info>
				</port>
			</output>
		</layer>
		<layer id="1" name="732_compressed" type="Const" version="opset1">
			<data element_type="f16" shape="1, 3, 4" offset="0" size="24" />
			<output>
				<port id="0" precision="FP16">
					<dim>1</dim>
					<dim>3</dim>
					<dim>4</dim>
				</port>
			</output>
		</layer>
		<layer id="2" name="732" type="Convert" version="opset1">
			<data destination_type="f32" />
			<rt_info>
				<attribute name="decompression" version="0" />
			</rt_info>
			<input>
				<port id="0" precision="FP16">
					<dim>1</dim>
					<dim>3</dim>
					<dim>4</dim>
				</port>
			</input>
			<output>
				<port id="1" precision="FP32" names="732">
					<dim>1</dim>
					<dim>3</dim>
					<dim>4</dim>
				</port>
			</output>
		</layer>
		<layer id="3" name="1976" type="Const" version="opset1">
			<data element_type="i64" shape="" offset="24" size="8" />
			<output>
				<port id="0" precision="I64" names="1976" />
			</output>
		</layer>
		<layer id="4" name="Gather_59272_compressed" type="Const" version="opset1">
			<data element_type="f16" shape="1, 3, 1, 1" offset="32" size="6" />
			<output>
				<port id="0" precision="FP16">
					<dim>1</dim>
					<dim>3</dim>
					<dim>1</dim>
					<dim>1</dim>
				</port>
			</output>
		</layer>
		<layer id="5" name="Gather_59272" type="Convert" version="opset1">
			<data destination_type="f32" />
			<rt_info>
				<attribute name="decompression" version="0" />
			</rt_info>
			<input>
				<port id="0" precision="FP16">
					<dim>1</dim>
					<dim>3</dim>
					<dim>1</dim>
					<dim>1</dim>
				</port>
			</input>
			<output>
				<port id="1" precision="FP32">
					<dim>1</dim>
					<dim>3</dim>
					<dim>1</dim>
					<dim>1</dim>
				</port>
			</output>
		</layer>
		<layer id="6" name="Subtract_8983" type="Subtract" version="opset1">
			<data auto_broadcast="numpy" />
			<rt_info>
				<attribute name="preprocessing" version="0" />
			</rt_info>
			<input>
				<port id="0" precision="FP32">
					<dim>1</dim>
					<dim>3</dim>
					<dim>768</dim>
					<dim>1280</dim>
				</port>
				<port id="1" precision="FP32">
					<dim>1</dim>
					<dim>3</dim>
					<dim>1</dim>
					<dim>1</dim>
				</port>
			</input>
			<output>
				<port id="2" precision="FP32">
					<dim>1</dim>
					<dim>3</dim>
					<dim>768</dim>
					<dim>1280</dim>
				</port>
			</output>
		</layer>
		<layer id="7" name="Gather_59275_compressed" type="Const" version="opset1">
			<data element_type="f16" shape="1, 3, 1, 1" offset="38" size="6" />
			<output>
				<port id="0" precision="FP16">
					<dim>1</dim>
					<dim>3</dim>
					<dim>1</dim>
					<dim>1</dim>
				</port>
			</output>
		</layer>
		<layer id="8" name="Gather_59275" type="Convert" version="opset1">
			<data destination_type="f32" />
			<rt_info>
				<attribute name="decompression" version="0" />
			</rt_info>
			<input>
				<port id="0" precision="FP16">
					<dim>1</dim>
					<dim>3</dim>
					<dim>1</dim>
					<dim>1</dim>
				</port>
			</input>
			<output>
				<port id="1" precision="FP32">
					<dim>1</dim>
					<dim>3</dim>
					<dim>1</dim>
					<dim>1</dim>
				</port>
			</output>
		</layer>
		<layer id="9" name="Divide_8985" type="Multiply" version="opset1">
			<data auto_broadcast="numpy" />
			<rt_info>
				<attribute name="preprocessing" version="0" />
			</rt_info>
			<input>
				<port id="0" precision="FP32">
					<dim>1</dim>
					<dim>3</dim>
					<dim>768</dim>
					<dim>1280</dim>
				</port>
				<port id="1" precision="FP32">
					<dim>1</dim>
					<dim>3</dim>
					<dim>1</dim>
					<dim>1</dim>
				</port>
			</input>
			<output>
				<port id="2" precision="FP32">
					<dim>1</dim>
					<dim>3</dim>
					<dim>768</dim>
					<dim>1280</dim>
				</port>
			</output>
		</layer>
		<layer id="10" name="Gather_59278_compressed" type="Const" version="opset1">
			<data element_type="f16" shape="64, 3, 7, 7" offset="44" size="18816" />
			<output>
				<port id="0" precision="FP16">
					<dim>64</dim>
					<dim>3</dim>
					<dim>7</dim>
					<dim>7</dim>
				</port>
			</output>
		</layer>
		<layer id="11" name="Gather_59278" type="Convert" version="opset1">
			<data destination_type="f32" />
			<rt_info>
				<attribute name="decompression" version="0" />
			</rt_info>
			<input>
				<port id="0" precision="FP16">
					<dim>64</dim>
					<dim>3</dim>
					<dim>7</dim>
					<dim>7</dim>
				</port>
			</input>
			<output>
				<port id="1" precision="FP32">
					<dim>64</dim>
					<dim>3</dim>
					<dim>7</dim>
					<dim>7</dim>
				</port>
			</output>
		</layer>
		<layer id="12" name="Conv_6/WithoutBiases" type="Convolution" version="opset1">
			<data strides="2, 2" dilations="1, 1" pads_begin="3, 3" pads_end="3, 3" auto_pad="explicit" />
			<rt_info>
				<attribute name="preprocessing" version="0" />
			</rt_info>
			<input>
				<port id="0" precision="FP32">
					<dim>1</dim>
					<dim>3</dim>
					<dim>768</dim>
					<dim>1280</dim>
				</port>
				<port id="1" precision="FP32">
					<dim>64</dim>
					<dim>3</dim>
					<dim>7</dim>
					<dim>7</dim>
				</port>
			</input>
			<output>
				<port id="2" precision="FP32">
					<dim>1</dim>
					<dim>64</dim>
					<dim>384</dim>
					<dim>640</dim>
				</port>
			</output>
		</layer>
		<layer id="13" name="Reshape_536_compressed" type="Const" version="opset1">
			<data element_type="f16" shape="1, 64, 1, 1" offset="18860" size="128" />
			<output>
				<port id="0" precision="FP16">
					<dim>1</dim>
					<dim>64</dim>
					<dim>1</dim>
					<dim>1</dim>
				</port>
			</output>
		</layer>
		<layer id="14" name="Reshape_536" type="Convert" version="opset1">
			<data destination_type="f32" />
			<rt_info>
				<attribute name="decompression" version="0" />
			</rt_info>
			<input>
				<port id="0" precision="FP16">
					<dim>1</dim>
					<dim>64</dim>
					<dim>1</dim>
					<dim>1</dim>
				</port>
			</input>
			<output>
				<port id="1" precision="FP32">
					<dim>1</dim>
					<dim>64</dim>
					<dim>1</dim>
					<dim>1</dim>
				</port>
			</output>
		</layer>
		<layer id="15" name="Conv_6" type="Add" version="opset1">
			<data auto_broadcast="numpy" />
			<input>
				<port id="0" precision="FP32">
					<dim>1</dim>
					<dim>64</dim>
					<dim>384</dim>
					<dim>640</dim>
				</port>
				<port id="1" precision="FP32">
					<dim>1</dim>
					<dim>64</dim>
					<dim>1</dim>
					<dim>1</dim>
				</port>
			</input>
			<output>
				<port id="2" precision="FP32" names="1817">
					<dim>1</dim>
					<dim>64</dim>
					<dim>384</dim>
					<dim>640</dim>
				</port>
			</output>
		</layer>
		<layer id="16" name="Relu_7" type="ReLU" version="opset1">
			<input>
				<port id="0" precision="FP32">
					<dim>1</dim>
					<dim>64</dim>
					<dim>384</dim>
					<dim>640</dim>
				</port>
			</input>
			<output>
				<port id="1" precision="FP32" names="404">
					<dim>1</dim>
					<dim>64</dim>
					<dim>384</dim>
					<dim>640</dim>
				</port>
			</output>
		</layer>
		<layer id="17" name="MaxPool_8" type="MaxPool" version="opset8">
			<data strides="2, 2" dilations="1, 1" pads_begin="1, 1" pads_end="1, 1" kernel="3, 3" rounding_type="floor" auto_pad="explicit" index_element_type="i64" axis="0" />
			<input>
				<port id="0" precision="FP32">
					<dim>1</dim>
					<dim>64</dim>
					<dim>384</dim>
					<dim>640</dim>
				</port>
			</input>
			<output>
				<port id="1" precision="FP32" names="405">
					<dim>1</dim>
					<dim>64</dim>
					<dim>192</dim>
					<dim>320</dim>
				</port>
				<port id="2" precision="I64">
					<dim>1</dim>
					<dim>64</dim>
					<dim>192</dim>
					<dim>320</dim>
				</port>
			</output>
		</layer>
		<layer id="18" name="1821_compressed" type="Const" version="opset1">
			<data element_type="f16" shape="64, 64, 1, 1" offset="18988" size="8192" />
			<output>
				<port id="0" precision="FP16">
					<dim>64</dim>
					<dim>64</dim>
					<dim>1</dim>
					<dim>1</dim>
				</port>
			</output>
		</layer>
		<layer id="19" name="1821" type="Convert" version="opset1">
			<data destination_type="f32" />
			<rt_info>
				<attribute name="decompression" version="0" />
			</rt_info>
			<input>
				<port id="0" precision="FP16">
					<dim>64</dim>
					<dim>64</dim>
					<dim>1</dim>
					<dim>1</dim>
				</port>
			</input>
			<output>
				<port id="1" precision="FP32" names="1821">
					<dim>64</dim>
					<dim>64</dim>
					<dim>1</dim>
					<dim>1</dim>
				</port>
			</output>
		</layer>
		<layer id="20" name="Conv_9/WithoutBiases" type="Convolution" version="opset1">
			<data strides="1, 1" dilations="1, 1" pads_begin="0, 0" pads_end="0, 0" auto_pad="explicit" />
			<input>
				<port id="0" precision="FP32">
					<dim>1</dim>
					<dim>64</dim>
					<dim>192</dim>
					<dim>320</dim>
				</port>
				<port id="1" precision="FP32">
					<dim>64</dim>
					<dim>64</dim>
					<dim>1</dim>
					<dim>1</dim>
				</port>
			</input>
			<output>
				<port id="2" precision="FP32">
					<dim>1</dim>
					<dim>64</dim>
					<dim>192</dim>
					<dim>320</dim>
				</port>
			</output>
		</layer>
		<layer id="21" name="Reshape_586_compressed" type="Const" version="opset1">
			<data element_type="f16" shape="1, 64, 1, 1" offset="27180" size="128" />
			<output>
				<port id="0" precision="FP16">
					<dim>1</dim>
					<dim>64</dim>
					<dim>1</dim>
					<dim>1</dim>
				</port>
			</output>
		</layer>
		<layer id="22" name="Reshape_586" type="Convert" version="opset1">
			<data destination_type="f32" />
			<rt_info>
				<attribute name="decompression" version="0" />
			</rt_info>
			<input>
				<port id="0" precision="FP16">
					<dim>1</dim>
					<dim>64</dim>
					<dim>1</dim>
					<dim>1</dim>
				</port>
			</input>
			<output>
				<port id="1" precision="FP32">
					<dim>1</dim>
					<dim>64</dim>
					<dim>1</dim>
					<dim>1</dim>
				</port>
			</output>
		</layer>
		<layer id="23" name="Conv_9" type="Add" version="opset1">
			<data auto_broadcast="numpy" />
			<input>
				<port id="0" precision="FP32">
					<dim>1</dim>
					<dim>64</dim>
					<dim>192</dim>
					<dim>320</dim>
				</port>
				<port id="1" precision="FP32">
					<dim>1</dim>
					<dim>64</dim>
					<dim>1</dim>
					<dim>1</dim>
				</port>
			</input>
			<output>
				<port id="2" precision="FP32" names="1820">
					<dim>1</dim>
					<dim>64</dim>
					<dim>192</dim>
					<dim>320</dim>
				</port>
			</output>
		</layer>
		<layer id="24" name="Relu_10" type="ReLU" version="opset1">
			<input>
				<port id="0" precision="FP32">
					<dim>1</dim>
					<dim>64</dim>
					<dim>192</dim>
					<dim>320</dim>
				</port>
			</input>
			<output>
				<port id="1" precision="FP32" names="408">
					<dim>1</dim>
					<dim>64</dim>
					<dim>192</dim>
					<dim>320</dim>
				</port>
			</output>
		</layer>
		<layer id="25" name="1824_compressed" type="Const" version="opset1">
			<data element_type="f16" shape="64, 64, 3, 3" offset="27308" size="73728" />
			<output>
				<port id="0" precision="FP16">
					<dim>64</dim>
					<dim>64</dim>
					<dim>3</dim>
					<dim>3</dim>
				</port>
			</output>
		</layer>
		<layer id="26" name="1824" type="Convert" version="opset1">
			<data destination_type="f32" />
			<rt_info>
				<attribute name="decompression" version="0" />
			</rt_info>
			<input>
				<port id="0" precision="FP16">
					<dim>64</dim>
					<dim>64</dim>
					<dim>3</dim>
					<dim>3</dim>
				</port>
			</input>
			<output>
				<port id="1" precision="FP32" names="1824">
					<dim>64</dim>
					<dim>64</dim>
					<dim>3</dim>
					<dim>3</dim>
				</port>
			</output>
		</layer>
		<layer id="27" name="Conv_11/WithoutBiases" type="Convolution" version="opset1">
			<data strides="1, 1" dilations="1, 1" pads_begin="1, 1" pads_end="1, 1" auto_pad="explicit" />
			<input>
				<port id="0" precision="FP32">
					<dim>1</dim>
					<dim>64</dim>
					<dim>192</dim>
					<dim>320</dim>
				</port>
				<port id="1" precision="FP32">
					<dim>64</dim>
					<dim>64</dim>
					<dim>3</dim>
					<dim>3</dim>
				</port>
			</input>
			<output>
				<port id="2" precision="FP32">
					<dim>1</dim>
					<dim>64</dim>
					<dim>192</dim>
					<dim>320</dim>
				</port>
			</output>
		</layer>
		<layer id="28" name="Reshape_635_compressed" type="Const" version="opset1">
			<data element_type="f16" shape="1, 64, 1, 1" offset="101036" size="128" />
			<output>
				<port id="0" precision="FP16">
					<dim>1</dim>
					<dim>64</dim>
					<dim>1</dim>
					<dim>1</dim>
				</port>
			</output>
		</layer>
		<layer id="29" name="Reshape_635" type="Convert" version="opset1">
			<data destination_type="f32" />
			<rt_info>
				<attribute name="decompression" version="0" />
			</rt_info>
			<input>
				<port id="0" precision="FP16">
					<dim>1</dim>
					<dim>64</dim>
					<dim>1</dim>
					<dim>1</dim>
				</port>
			</input>
			<output>
				<port id="1" precision="FP32">
					<dim>1</dim>
					<dim>64</dim>
					<dim>1</dim>
					<dim>1</dim>
				</port>
			</output>
		</layer>
		<layer id="30" name="Conv_11" type="Add" version="opset1">
			<data auto_broadcast="numpy" />
			<input>
				<port id="0" precision="FP32">
					<dim>1</dim>
					<dim>64</dim>
					<dim>192</dim>
					<dim>320</dim>
				</port>
				<port id="1" precision="FP32">
					<dim>1</dim>
					<dim>64</dim>
					<dim>1</dim>
					<dim>1</dim>
				</port>
			</input>
			<output>
				<port id="2" precision="FP32" names="1823">
					<dim>1</dim>
					<dim>64</dim>
					<dim>192</dim>
					<dim>320</dim>
				</port>
			</output>
		</layer>
		<layer id="31" name="Relu_12" type="ReLU" version="opset1">
			<input>
				<port id="0" precision="FP32">
					<dim>1</dim>
					<dim>64</dim>
					<dim>192</dim>
					<dim>320</dim>
				</port>
			</input>
			<output>
				<port id="1" precision="FP32" names="411">
					<dim>1</dim>
					<dim>64</dim>
					<dim>192</dim>
					<dim>320</dim>
				</port>
			</output>
		</layer>
		<layer id="32" name="1827_compressed" type="Const" version="opset1">
			<data element_type="f16" shape="256, 64, 1, 1" offset="101164" size="32768" />
			<output>
				<port id="0" precision="FP16">
					<dim>256</dim>
					<dim>64</dim>
					<dim>1</dim>
					<dim>1</dim>
				</port>
			</output>
		</layer>
		<layer id="33" name="1827" type="Convert" version="opset1">
			<data destination_type="f32" />
			<rt_info>
				<attribute name="decompression" version="0" />
			</rt_info>
			<input>
				<port id="0" precision="FP16">
					<dim>256</dim>
					<dim>64</dim>
					<dim>1</dim>
					<dim>1</dim>
				</port>
			</input>
			<output>
				<port id="1" precision="FP32" names="1827">
					<dim>256</dim>
					<dim>64</dim>
					<dim>1</dim>
					<dim>1</dim>
				</port>
			</output>
		</layer>
		<layer id="34" name="Conv_13/WithoutBiases" type="Convolution" version="opset1">
			<data strides="1, 1" dilations="1, 1" pads_begin="0, 0" pads_end="0, 0" auto_pad="explicit" />
			<input>
				<port id="0" precision="FP32">
					<dim>1</dim>
					<dim>64</dim>
					<dim>192</dim>
					<dim>320</dim>
				</port>
				<port id="1" precision="FP32">
					<dim>256</dim>
					<dim>64</dim>
					<dim>1</dim>
					<dim>1</dim>
				</port>
			</input>
			<output>
				<port id="2" precision="FP32">
					<dim>1</dim>
					<dim>256</dim>
					<dim>192</dim>
					<dim>320</dim>
				</port>
			</output>
		</layer>
		<layer id="35" name="Reshape_684_compressed" type="Const" version="opset1">
			<data element_type="f16" shape="1, 256, 1, 1" offset="133932" size="512" />
			<output>
				<port id="0" precision="FP16">
					<dim>1</dim>
					<dim>256</dim>
					<dim>1</dim>
					<dim>1</dim>
				</port>
			</output>
		</layer>
		<layer id="36" name="Reshape_684" type="Convert" version="opset1">
			<data destination_type="f32" />
			<rt_info>
				<attribute name="decompression" version="0" />
			</rt_info>
			<input>
				<port id="0" precision="FP16">
					<dim>1</dim>
					<dim>256</dim>
					<dim>1</dim>
					<dim>1</dim>
				</port>
			</input>
			<output>
				<port id="1" precision="FP32">
					<dim>1</dim>
					<dim>256</dim>
					<dim>1</dim>
					<dim>1</dim>
				</port>
			</output>
		</layer>
		<layer id="37" name="Conv_13" type="Add" version="opset1">
			<data auto_broadcast="numpy" />
			<input>
				<port id="0" precision="FP32">
					<dim>1</dim>
					<dim>256</dim>
					<dim>192</dim>
					<dim>320</dim>
				</port>
				<port id="1" precision="FP32">
					<dim>1</dim>
					<dim>256</dim>
					<dim>1</dim>
					<dim>1</dim>
				</port>
			</input>
			<output>
				<port id="2" precision="FP32" names="1826">
					<dim>1</dim>
					<dim>256</dim>
					<dim>192</dim>
					<dim>320</dim>
				</port>
			</output>
		</layer>
		<layer id="38" name="1830_compressed" type="Const" version="opset1">
			<data element_type="f16" shape="256, 64, 1, 1" offset="134444" size="32768" />
			<output>
				<port id="0" precision="FP16">
					<dim>256</dim>
					<dim>64</dim>
					<dim>1</dim>
					<dim>1</dim>
				</port>
			</output>
		</layer>
		<layer id="39" name="1830" type="Convert" version="opset1">
			<data destination_type="f32" />
			<rt_info>
				<attribute name="decompression" version="0" />
			</rt_info>
			<input>
				<port id="0" precision="FP16">
					<dim>256</dim>
					<dim>64</dim>
					<dim>1</dim>
					<dim>1</dim>
				</port>
			</input>
			<output>
				<port id="1" precision="FP32" names="1830">
					<dim>256</dim>
					<dim>64</dim>
					<dim>1</dim>
					<dim>1</dim>
				</port>
			</output>
		</layer>
		<layer id="40" name="Conv_14/WithoutBiases" type="Convolution" version="opset1">
			<data strides="1, 1" dilations="1, 1" pads_begin="0, 0" pads_end="0, 0" auto_pad="explicit" />
			<input>
				<port id="0" precision="FP32">
					<dim>1</dim>
					<dim>64</dim>
					<dim>192</dim>
					<dim>320</dim>
				</port>
				<port id="1" precision="FP32">
					<dim>256</dim>
					<dim>64</dim>
					<dim>1</dim>
					<dim>1</dim>
				</port>
			</input>
			<output>
				<port id="2" precision="FP32">
					<dim>1</dim>
					<dim>256</dim>
					<dim>192</dim>
					<dim>320</dim>
				</port>
			</output>
		</layer>
		<layer id="41" name="Reshape_732_compressed" type="Const" version="opset1">
			<data element_type="f16" shape="1, 256, 1, 1" offset="167212" size="512" />
			<output>
				<port id="0" precision="FP16">
					<dim>1</dim>
					<dim>256</dim>
					<dim>1</dim>
					<dim>1</dim>
				</port>
			</output>
		</layer>
		<layer id="42" name="Reshape_732" type="Convert" version="opset1">
			<data destination_type="f32" />
			<rt_info>
				<attribute name="decompression" version="0" />
			</rt_info>
			<input>
				<port id="0" precision="FP16">
					<dim>1</dim>
					<dim>256</dim>
					<dim>1</dim>
					<dim>1</dim>
				</port>
			</input>
			<output>
				<port id="1" precision="FP32">
					<dim>1</dim>
					<dim>256</dim>
					<dim>1</dim>
					<dim>1</dim>
				</port>
			</output>
		</layer>
		<layer id="43" name="Conv_14" type="Add" version="opset1">
			<data auto_broadcast="numpy" />
			<input>
				<port id="0" precision="FP32">
					<dim>1</dim>
					<dim>256</dim>
					<dim>192</dim>
					<dim>320</dim>
				</port>
				<port id="1" precision="FP32">
					<dim>1</dim>
					<dim>256</dim>
					<dim>1</dim>
					<dim>1</dim>
				</port>
			</input>
			<output>
				<port id="2" precision="FP32" names="1829">
					<dim>1</dim>
					<dim>256</dim>
					<dim>192</dim>
					<dim>320</dim>
				</port>
			</output>
		</layer>
		<layer id="44" name="Add_15" type="Add" version="opset1">
			<data auto_broadcast="numpy" />
			<input>
				<port id="0" precision="FP32">
					<dim>1</dim>
					<dim>256</dim>
					<dim>192</dim>
					<dim>320</dim>
				</port>
				<port id="1" precision="FP32">
					<dim>1</dim>
					<dim>256</dim>
					<dim>192</dim>
					<dim>320</dim>
				</port>
			</input>
			<output>
				<port id="2" precision="FP32" names="416">
					<dim>1</dim>
					<dim>256</dim>
					<dim>192</dim>
					<dim>320</dim>
				</port>
			</output>
		</layer>
		<layer id="45" name="Relu_16" type="ReLU" version="opset1">
			<input>
				<port id="0" precision="FP32">
					<dim>1</dim>
					<dim>256</dim>
					<dim>192</dim>
					<dim>320</dim>
				</port>
			</input>
			<output>
				<port id="1" precision="FP32" names="417">
					<dim>1</dim>
					<dim>256</dim>
					<dim>192</dim>
					<dim>320</dim>
				</port>
			</output>
		</layer>
		<layer id="46" name="1833_compressed" type="Const" version="opset1">
			<data element_type="f16" shape="64, 256, 1, 1" offset="167724" size="32768" />
			<output>
				<port id="0" precision="FP16">
					<dim>64</dim>
					<dim>256</dim>
					<dim>1</dim>
					<dim>1</dim>
				</port>
			</output>
		</layer>
		<layer id="47" name="1833" type="Convert" version="opset1">
			<data destination_type="f32" />
			<rt_info>
				<attribute name="decompression" version="0" />
			</rt_info>
			<input>
				<port id="0" precision="FP16">
					<dim>64</dim>
					<dim>256</dim>
					<dim>1</dim>
					<dim>1</dim>
				</port>
			</input>
			<output>
				<port id="1" precision="FP32" names="1833">
					<dim>64</dim>
					<dim>256</dim>
					<dim>1</dim>
					<dim>1</dim>
				</port>
			</output>
		</layer>
		<layer id="48" name="Conv_17/WithoutBiases" type="Convolution" version="opset1">
			<data strides="1, 1" dilations="1, 1" pads_begin="0, 0" pads_end="0, 0" auto_pad="explicit" />
			<input>
				<port id="0" precision="FP32">
					<dim>1</dim>
					<dim>256</dim>
					<dim>192</dim>
					<dim>320</dim>
				</port>
				<port id="1" precision="FP32">
					<dim>64</dim>
					<dim>256</dim>
					<dim>1</dim>
					<dim>1</dim>
				</port>
			</input>
			<output>
				<port id="2" precision="FP32">
					<dim>1</dim>
					<dim>64</dim>
					<dim>192</dim>
					<dim>320</dim>
				</port>
			</output>
		</layer>
		<layer id="49" name="Reshape_782_compressed" type="Const" version="opset1">
			<data element_type="f16" shape="1, 64, 1, 1" offset="200492" size="128" />
			<output>
				<port id="0" precision="FP16">
					<dim>1</dim>
					<dim>64</dim>
					<dim>1</dim>
					<dim>1</dim>
				</port>
			</output>
		</layer>
		<layer id="50" name="Reshape_782" type="Convert" version="opset1">
			<data destination_type="f32" />
			<rt_info>
				<attribute name="decompression" version="0" />
			</rt_info>
			<input>
				<port id="0" precision="FP16">
					<dim>1</dim>
					<dim>64</dim>
					<dim>1</dim>
					<dim>1</dim>
				</port>
			</input>
			<output>
				<port id="1" precision="FP32">
					<dim>1</dim>
					<dim>64</dim>
					<dim>1</dim>
					<dim>1</dim>
				</port>
			</output>
		</layer>
		<layer id="51" name="Conv_17" type="Add" version="opset1">
			<data auto_broadcast="numpy" />
			<input>
				<port id="0" precision="FP32">
					<dim>1</dim>
					<dim>64</dim>
					<dim>192</dim>
					<dim>320</dim>
				</port>
				<port id="1" precision="FP32">
					<dim>1</dim>
					<dim>64</dim>
					<dim>1</dim>
					<dim>1</dim>
				</port>
			</input>
			<output>
				<port id="2" precision="FP32" names="1832">
					<dim>1</dim>
					<dim>64</dim>
					<dim>192</dim>
					<dim>320</dim>
				</port>
			</output>
		</layer>
		<layer id="52" name="Relu_18" type="ReLU" version="opset1">
			<input>
				<port id="0" precision="FP32">
					<dim>1</dim>
					<dim>64</dim>
					<dim>192</dim>
					<dim>320</dim>
				</port>
			</input>
			<output>
				<port id="1" precision="FP32" names="420">
					<dim>1</dim>
					<dim>64</dim>
					<dim>192</dim>
					<dim>320</dim>
				</port>
			</output>
		</layer>
		<layer id="53" name="1836_compressed" type="Const" version="opset1">
			<data element_type="f16" shape="64, 64, 3, 3" offset="200620" size="73728" />
			<output>
				<port id="0" precision="FP16">
					<dim>64</dim>
					<dim>64</dim>
					<dim>3</dim>
					<dim>3</dim>
				</port>
			</output>
		</layer>
		<layer id="54" name="1836" type="Convert" version="opset1">
			<data destination_type="f32" />
			<rt_info>
				<attribute name="decompression" version="0" />
			</rt_info>
			<input>
				<port id="0" precision="FP16">
					<dim>64</dim>
					<dim>64</dim>
					<dim>3</dim>
					<dim>3</dim>
				</port>
			</input>
			<output>
				<port id="1" precision="FP32" names="1836">
					<dim>64</dim>
					<dim>64</dim>
					<dim>3</dim>
					<dim>3</dim>
				</port>
			</output>
		</layer>
		<layer id="55" name="Conv_19/WithoutBiases" type="Convolution" version="opset1">
			<data strides="1, 1" dilations="1, 1" pads_begin="1, 1" pads_end="1, 1" auto_pad="explicit" />
			<input>
				<port id="0" precision="FP32">
					<dim>1</dim>
					<dim>64</dim>
					<dim>192</dim>
					<dim>320</dim>
				</port>
				<port id="1" precision="FP32">
					<dim>64</dim>
					<dim>64</dim>
					<dim>3</dim>
					<dim>3</dim>
				</port>
			</input>
			<output>
				<port id="2" precision="FP32">
					<dim>1</dim>
					<dim>64</dim>
					<dim>192</dim>
					<dim>320</dim>
				</port>
			</output>
		</layer>
		<layer id="56" name="Reshape_831_compressed" type="Const" version="opset1">
			<data element_type="f16" shape="1, 64, 1, 1" offset="274348" size="128" />
			<output>
				<port id="0" precision="FP16">
					<dim>1</dim>
					<dim>64</dim>
					<dim>1</dim>
					<dim>1</dim>
				</port>
			</output>
		</layer>
		<layer id="57" name="Reshape_831" type="Convert" version="opset1">
			<data destination_type="f32" />
			<rt_info>
				<attribute name="decompression" version="0" />
			</rt_info>
			<input>
				<port id="0" precision="FP16">
					<dim>1</dim>
					<dim>64</dim>
					<dim>1</dim>
					<dim>1</dim>
				</port>
			</input>
			<output>
				<port id="1" precision="FP32">
					<dim>1</dim>
					<dim>64</dim>
					<dim>1</dim>
					<dim>1</dim>
				</port>
			</output>
		</layer>
		<layer id="58" name="Conv_19" type="Add" version="opset1">
			<data auto_broadcast="numpy" />
			<input>
				<port id="0" precision="FP32">
					<dim>1</dim>
					<dim>64</dim>
					<dim>192</dim>
					<dim>320</dim>
				</port>
				<port id="1" precision="FP32">
					<dim>1</dim>
					<dim>64</dim>
					<dim>1</dim>
					<dim>1</dim>
				</port>
			</input>
			<output>
				<port id="2" precision="FP32" names="1835">
					<dim>1</dim>
					<dim>64</dim>
					<dim>192</dim>
					<dim>320</dim>
				</port>
			</output>
		</layer>
		<layer id="59" name="Relu_20" type="ReLU" version="opset1">
			<input>
				<port id="0" precision="FP32">
					<dim>1</dim>
					<dim>64</dim>
					<dim>192</dim>
					<dim>320</dim>
				</port>
			</input>
			<output>
				<port id="1" precision="FP32" names="423">
					<dim>1</dim>
					<dim>64</dim>
					<dim>192</dim>
					<dim>320</dim>
				</port>
			</output>
		</layer>
		<layer id="60" name="1839_compressed" type="Const" version="opset1">
			<data element_type="f16" shape="256, 64, 1, 1" offset="274476" size="32768" />
			<output>
				<port id="0" precision="FP16">
					<dim>256</dim>
					<dim>64</dim>
					<dim>1</dim>
					<dim>1</dim>
				</port>
			</output>
		</layer>
		<layer id="61" name="1839" type="Convert" version="opset1">
			<data destination_type="f32" />
			<rt_info>
				<attribute name="decompression" version="0" />
			</rt_info>
			<input>
				<port id="0" precision="FP16">
					<dim>256</dim>
					<dim>64</dim>
					<dim>1</dim>
					<dim>1</dim>
				</port>
			</input>
			<output>
				<port id="1" precision="FP32" names="1839">
					<dim>256</dim>
					<dim>64</dim>
					<dim>1</dim>
					<dim>1</dim>
				</port>
			</output>
		</layer>
		<layer id="62" name="Conv_21/WithoutBiases" type="Convolution" version="opset1">
			<data strides="1, 1" dilations="1, 1" pads_begin="0, 0" pads_end="0, 0" auto_pad="explicit" />
			<input>
				<port id="0" precision="FP32">
					<dim>1</dim>
					<dim>64</dim>
					<dim>192</dim>
					<dim>320</dim>
				</port>
				<port id="1" precision="FP32">
					<dim>256</dim>
					<dim>64</dim>
					<dim>1</dim>
					<dim>1</dim>
				</port>
			</input>
			<output>
				<port id="2" precision="FP32">
					<dim>1</dim>
					<dim>256</dim>
					<dim>192</dim>
					<dim>320</dim>
				</port>
			</output>
		</layer>
		<layer id="63" name="Reshape_880_compressed" type="Const" version="opset1">
			<data element_type="f16" shape="1, 256, 1, 1" offset="307244" size="512" />
			<output>
				<port id="0" precision="FP16">
					<dim>1</dim>
					<dim>256</dim>
					<dim>1</dim>
					<dim>1</dim>
				</port>
			</output>
		</layer>
		<layer id="64" name="Reshape_880" type="Convert" version="opset1">
			<data destination_type="f32" />
			<rt_info>
				<attribute name="decompression" version="0" />
			</rt_info>
			<input>
				<port id="0" precision="FP16">
					<dim>1</dim>
					<dim>256</dim>
					<dim>1</dim>
					<dim>1</dim>
				</port>
			</input>
			<output>
				<port id="1" precision="FP32">
					<dim>1</dim>
					<dim>256</dim>
					<dim>1</dim>
					<dim>1</dim>
				</port>
			</output>
		</layer>
		<layer id="65" name="Conv_21" type="Add" version="opset1">
			<data auto_broadcast="numpy" />
			<input>
				<port id="0" precision="FP32">
					<dim>1</dim>
					<dim>256</dim>
					<dim>192</dim>
					<dim>320</dim>
				</port>
				<port id="1" precision="FP32">
					<dim>1</dim>
					<dim>256</dim>
					<dim>1</dim>
					<dim>1</dim>
				</port>
			</input>
			<output>
				<port id="2" precision="FP32" names="1838">
					<dim>1</dim>
					<dim>256</dim>
					<dim>192</dim>
					<dim>320</dim>
				</port>
			</output>
		</layer>
		<layer id="66" name="Add_22" type="Add" version="opset1">
			<data auto_broadcast="numpy" />
			<input>
				<port id="0" precision="FP32">
					<dim>1</dim>
					<dim>256</dim>
					<dim>192</dim>
					<dim>320</dim>
				</port>
				<port id="1" precision="FP32">
					<dim>1</dim>
					<dim>256</dim>
					<dim>192</dim>
					<dim>320</dim>
				</port>
			</input>
			<output>
				<port id="2" precision="FP32" names="426">
					<dim>1</dim>
					<dim>256</dim>
					<dim>192</dim>
					<dim>320</dim>
				</port>
			</output>
		</layer>
		<layer id="67" name="Relu_23" type="ReLU" version="opset1">
			<input>
				<port id="0" precision="FP32">
					<dim>1</dim>
					<dim>256</dim>
					<dim>192</dim>
					<dim>320</dim>
				</port>
			</input>
			<output>
				<port id="1" precision="FP32" names="427">
					<dim>1</dim>
					<dim>256</dim>
					<dim>192</dim>
					<dim>320</dim>
				</port>
			</output>
		</layer>
		<layer id="68" name="1842_compressed" type="Const" version="opset1">
			<data element_type="f16" shape="64, 256, 1, 1" offset="307756" size="32768" />
			<output>
				<port id="0" precision="FP16">
					<dim>64</dim>
					<dim>256</dim>
					<dim>1</dim>
					<dim>1</dim>
				</port>
			</output>
		</layer>
		<layer id="69" name="1842" type="Convert" version="opset1">
			<data destination_type="f32" />
			<rt_info>
				<attribute name="decompression" version="0" />
			</rt_info>
			<input>
				<port id="0" precision="FP16">
					<dim>64</dim>
					<dim>256</dim>
					<dim>1</dim>
					<dim>1</dim>
				</port>
			</input>
			<output>
				<port id="1" precision="FP32" names="1842">
					<dim>64</dim>
					<dim>256</dim>
					<dim>1</dim>
					<dim>1</dim>
				</port>
			</output>
		</layer>
		<layer id="70" name="Conv_24/WithoutBiases" type="Convolution" version="opset1">
			<data strides="1, 1" dilations="1, 1" pads_begin="0, 0" pads_end="0, 0" auto_pad="explicit" />
			<input>
				<port id="0" precision="FP32">
					<dim>1</dim>
					<dim>256</dim>
					<dim>192</dim>
					<dim>320</dim>
				</port>
				<port id="1" precision="FP32">
					<dim>64</dim>
					<dim>256</dim>
					<dim>1</dim>
					<dim>1</dim>
				</port>
			</input>
			<output>
				<port id="2" precision="FP32">
					<dim>1</dim>
					<dim>64</dim>
					<dim>192</dim>
					<dim>320</dim>
				</port>
			</output>
		</layer>
		<layer id="71" name="Reshape_930_compressed" type="Const" version="opset1">
			<data element_type="f16" shape="1, 64, 1, 1" offset="340524" size="128" />
			<output>
				<port id="0" precision="FP16">
					<dim>1</dim>
					<dim>64</dim>
					<dim>1</dim>
					<dim>1</dim>
				</port>
			</output>
		</layer>
		<layer id="72" name="Reshape_930" type="Convert" version="opset1">
			<data destination_type="f32" />
			<rt_info>
				<attribute name="decompression" version="0" />
			</rt_info>
			<input>
				<port id="0" precision="FP16">
					<dim>1</dim>
					<dim>64</dim>
					<dim>1</dim>
					<dim>1</dim>
				</port>
			</input>
			<output>
				<port id="1" precision="FP32">
					<dim>1</dim>
					<dim>64</dim>
					<dim>1</dim>
					<dim>1</dim>
				</port>
			</output>
		</layer>
		<layer id="73" name="Conv_24" type="Add" version="opset1">
			<data auto_broadcast="numpy" />
			<input>
				<port id="0" precision="FP32">
					<dim>1</dim>
					<dim>64</dim>
					<dim>192</dim>
					<dim>320</dim>
				</port>
				<port id="1" precision="FP32">
					<dim>1</dim>
					<dim>64</dim>
					<dim>1</dim>
					<dim>1</dim>
				</port>
			</input>
			<output>
				<port id="2" precision="FP32" names="1841">
					<dim>1</dim>
					<dim>64</dim>
					<dim>192</dim>
					<dim>320</dim>
				</port>
			</output>
		</layer>
		<layer id="74" name="Relu_25" type="ReLU" version="opset1">
			<input>
				<port id="0" precision="FP32">
					<dim>1</dim>
					<dim>64</dim>
					<dim>192</dim>
					<dim>320</dim>
				</port>
			</input>
			<output>
				<port id="1" precision="FP32" names="430">
					<dim>1</dim>
					<dim>64</dim>
					<dim>192</dim>
					<dim>320</dim>
				</port>
			</output>
		</layer>
		<layer id="75" name="1845_compressed" type="Const" version="opset1">
			<data element_type="f16" shape="64, 64, 3, 3" offset="340652" size="73728" />
			<output>
				<port id="0" precision="FP16">
					<dim>64</dim>
					<dim>64</dim>
					<dim>3</dim>
					<dim>3</dim>
				</port>
			</output>
		</layer>
		<layer id="76" name="1845" type="Convert" version="opset1">
			<data destination_type="f32" />
			<rt_info>
				<attribute name="decompression" version="0" />
			</rt_info>
			<input>
				<port id="0" precision="FP16">
					<dim>64</dim>
					<dim>64</dim>
					<dim>3</dim>
					<dim>3</dim>
				</port>
			</input>
			<output>
				<port id="1" precision="FP32" names="1845">
					<dim>64</dim>
					<dim>64</dim>
					<dim>3</dim>
					<dim>3</dim>
				</port>
			</output>
		</layer>
		<layer id="77" name="Conv_26/WithoutBiases" type="Convolution" version="opset1">
			<data strides="1, 1" dilations="1, 1" pads_begin="1, 1" pads_end="1, 1" auto_pad="explicit" />
			<input>
				<port id="0" precision="FP32">
					<dim>1</dim>
					<dim>64</dim>
					<dim>192</dim>
					<dim>320</dim>
				</port>
				<port id="1" precision="FP32">
					<dim>64</dim>
					<dim>64</dim>
					<dim>3</dim>
					<dim>3</dim>
				</port>
			</input>
			<output>
				<port id="2" precision="FP32">
					<dim>1</dim>
					<dim>64</dim>
					<dim>192</dim>
					<dim>320</dim>
				</port>
			</output>
		</layer>
		<layer id="78" name="Reshape_979_compressed" type="Const" version="opset1">
			<data element_type="f16" shape="1, 64, 1, 1" offset="414380" size="128" />
			<output>
				<port id="0" precision="FP16">
					<dim>1</dim>
					<dim>64</dim>
					<dim>1</dim>
					<dim>1</dim>
				</port>
			</output>
		</layer>
		<layer id="79" name="Reshape_979" type="Convert" version="opset1">
			<data destination_type="f32" />
			<rt_info>
				<attribute name="decompression" version="0" />
			</rt_info>
			<input>
				<port id="0" precision="FP16">
					<dim>1</dim>
					<dim>64</dim>
					<dim>1</dim>
					<dim>1</dim>
				</port>
			</input>
			<output>
				<port id="1" precision="FP32">
					<dim>1</dim>
					<dim>64</dim>
					<dim>1</dim>
					<dim>1</dim>
				</port>
			</output>
		</layer>
		<layer id="80" name="Conv_26" type="Add" version="opset1">
			<data auto_broadcast="numpy" />
			<input>
				<port id="0" precision="FP32">
					<dim>1</dim>
					<dim>64</dim>
					<dim>192</dim>
					<dim>320</dim>
				</port>
				<port id="1" precision="FP32">
					<dim>1</dim>
					<dim>64</dim>
					<dim>1</dim>
					<dim>1</dim>
				</port>
			</input>
			<output>
				<port id="2" precision="FP32" names="1844">
					<dim>1</dim>
					<dim>64</dim>
					<dim>192</dim>
					<dim>320</dim>
				</port>
			</output>
		</layer>
		<layer id="81" name="Relu_27" type="ReLU" version="opset1">
			<input>
				<port id="0" precision="FP32">
					<dim>1</dim>
					<dim>64</dim>
					<dim>192</dim>
					<dim>320</dim>
				</port>
			</input>
			<output>
				<port id="1" precision="FP32" names="433">
					<dim>1</dim>
					<dim>64</dim>
					<dim>192</dim>
					<dim>320</dim>
				</port>
			</output>
		</layer>
		<layer id="82" name="1848_compressed" type="Const" version="opset1">
			<data element_type="f16" shape="256, 64, 1, 1" offset="414508" size="32768" />
			<output>
				<port id="0" precision="FP16">
					<dim>256</dim>
					<dim>64</dim>
					<dim>1</dim>
					<dim>1</dim>
				</port>
			</output>
		</layer>
		<layer id="83" name="1848" type="Convert" version="opset1">
			<data destination_type="f32" />
			<rt_info>
				<attribute name="decompression" version="0" />
			</rt_info>
			<input>
				<port id="0" precision="FP16">
					<dim>256</dim>
					<dim>64</dim>
					<dim>1</dim>
					<dim>1</dim>
				</port>
			</input>
			<output>
				<port id="1" precision="FP32" names="1848">
					<dim>256</dim>
					<dim>64</dim>
					<dim>1</dim>
					<dim>1</dim>
				</port>
			</output>
		</layer>
		<layer id="84" name="Conv_28/WithoutBiases" type="Convolution" version="opset1">
			<data strides="1, 1" dilations="1, 1" pads_begin="0, 0" pads_end="0, 0" auto_pad="explicit" />
			<input>
				<port id="0" precision="FP32">
					<dim>1</dim>
					<dim>64</dim>
					<dim>192</dim>
					<dim>320</dim>
				</port>
				<port id="1" precision="FP32">
					<dim>256</dim>
					<dim>64</dim>
					<dim>1</dim>
					<dim>1</dim>
				</port>
			</input>
			<output>
				<port id="2" precision="FP32">
					<dim>1</dim>
					<dim>256</dim>
					<dim>192</dim>
					<dim>320</dim>
				</port>
			</output>
		</layer>
		<layer id="85" name="Reshape_1028_compressed" type="Const" version="opset1">
			<data element_type="f16" shape="1, 256, 1, 1" offset="447276" size="512" />
			<output>
				<port id="0" precision="FP16">
					<dim>1</dim>
					<dim>256</dim>
					<dim>1</dim>
					<dim>1</dim>
				</port>
			</output>
		</layer>
		<layer id="86" name="Reshape_1028" type="Convert" version="opset1">
			<data destination_type="f32" />
			<rt_info>
				<attribute name="decompression" version="0" />
			</rt_info>
			<input>
				<port id="0" precision="FP16">
					<dim>1</dim>
					<dim>256</dim>
					<dim>1</dim>
					<dim>1</dim>
				</port>
			</input>
			<output>
				<port id="1" precision="FP32">
					<dim>1</dim>
					<dim>256</dim>
					<dim>1</dim>
					<dim>1</dim>
				</port>
			</output>
		</layer>
		<layer id="87" name="Conv_28" type="Add" version="opset1">
			<data auto_broadcast="numpy" />
			<input>
				<port id="0" precision="FP32">
					<dim>1</dim>
					<dim>256</dim>
					<dim>192</dim>
					<dim>320</dim>
				</port>
				<port id="1" precision="FP32">
					<dim>1</dim>
					<dim>256</dim>
					<dim>1</dim>
					<dim>1</dim>
				</port>
			</input>
			<output>
				<port id="2" precision="FP32" names="1847">
					<dim>1</dim>
					<dim>256</dim>
					<dim>192</dim>
					<dim>320</dim>
				</port>
			</output>
		</layer>
		<layer id="88" name="Add_29" type="Add" version="opset1">
			<data auto_broadcast="numpy" />
			<input>
				<port id="0" precision="FP32">
					<dim>1</dim>
					<dim>256</dim>
					<dim>192</dim>
					<dim>320</dim>
				</port>
				<port id="1" precision="FP32">
					<dim>1</dim>
					<dim>256</dim>
					<dim>192</dim>
					<dim>320</dim>
				</port>
			</input>
			<output>
				<port id="2" precision="FP32" names="436">
					<dim>1</dim>
					<dim>256</dim>
					<dim>192</dim>
					<dim>320</dim>
				</port>
			</output>
		</layer>
		<layer id="89" name="Relu_30" type="ReLU" version="opset1">
			<input>
				<port id="0" precision="FP32">
					<dim>1</dim>
					<dim>256</dim>
					<dim>192</dim>
					<dim>320</dim>
				</port>
			</input>
			<output>
				<port id="1" precision="FP32" names="437">
					<dim>1</dim>
					<dim>256</dim>
					<dim>192</dim>
					<dim>320</dim>
				</port>
			</output>
		</layer>
		<layer id="90" name="neck.lateral_convs.0.conv.weight_compressed" type="Const" version="opset1">
			<data element_type="f16" shape="64, 256, 1, 1" offset="447788" size="32768" />
			<output>
				<port id="0" precision="FP16">
					<dim>64</dim>
					<dim>256</dim>
					<dim>1</dim>
					<dim>1</dim>
				</port>
			</output>
		</layer>
		<layer id="91" name="neck.lateral_convs.0.conv.weight" type="Convert" version="opset1">
			<data destination_type="f32" />
			<rt_info>
				<attribute name="decompression" version="0" />
			</rt_info>
			<input>
				<port id="0" precision="FP16">
					<dim>64</dim>
					<dim>256</dim>
					<dim>1</dim>
					<dim>1</dim>
				</port>
			</input>
			<output>
				<port id="1" precision="FP32" names="neck.lateral_convs.0.conv.weight">
					<dim>64</dim>
					<dim>256</dim>
					<dim>1</dim>
					<dim>1</dim>
				</port>
			</output>
		</layer>
		<layer id="92" name="Conv_125/WithoutBiases" type="Convolution" version="opset1">
			<data strides="1, 1" dilations="1, 1" pads_begin="0, 0" pads_end="0, 0" auto_pad="explicit" />
			<input>
				<port id="0" precision="FP32">
					<dim>1</dim>
					<dim>256</dim>
					<dim>192</dim>
					<dim>320</dim>
				</port>
				<port id="1" precision="FP32">
					<dim>64</dim>
					<dim>256</dim>
					<dim>1</dim>
					<dim>1</dim>
				</port>
			</input>
			<output>
				<port id="2" precision="FP32">
					<dim>1</dim>
					<dim>64</dim>
					<dim>192</dim>
					<dim>320</dim>
				</port>
			</output>
		</layer>
		<layer id="93" name="Reshape_3146_compressed" type="Const" version="opset1">
			<data element_type="f16" shape="1, 64, 1, 1" offset="480556" size="128" />
			<output>
				<port id="0" precision="FP16">
					<dim>1</dim>
					<dim>64</dim>
					<dim>1</dim>
					<dim>1</dim>
				</port>
			</output>
		</layer>
		<layer id="94" name="Reshape_3146" type="Convert" version="opset1">
			<data destination_type="f32" />
			<rt_info>
				<attribute name="decompression" version="0" />
			</rt_info>
			<input>
				<port id="0" precision="FP16">
					<dim>1</dim>
					<dim>64</dim>
					<dim>1</dim>
					<dim>1</dim>
				</port>
			</input>
			<output>
				<port id="1" precision="FP32">
					<dim>1</dim>
					<dim>64</dim>
					<dim>1</dim>
					<dim>1</dim>
				</port>
			</output>
		</layer>
		<layer id="95" name="Conv_125" type="Add" version="opset1">
			<data auto_broadcast="numpy" />
			<input>
				<port id="0" precision="FP32">
					<dim>1</dim>
					<dim>64</dim>
					<dim>192</dim>
					<dim>320</dim>
				</port>
				<port id="1" precision="FP32">
					<dim>1</dim>
					<dim>64</dim>
					<dim>1</dim>
					<dim>1</dim>
				</port>
			</input>
			<output>
				<port id="2" precision="FP32" names="574">
					<dim>1</dim>
					<dim>64</dim>
					<dim>192</dim>
					<dim>320</dim>
				</port>
			</output>
		</layer>
		<layer id="96" name="1851_compressed" type="Const" version="opset1">
			<data element_type="f16" shape="128, 256, 1, 1" offset="480684" size="65536" />
			<output>
				<port id="0" precision="FP16">
					<dim>128</dim>
					<dim>256</dim>
					<dim>1</dim>
					<dim>1</dim>
				</port>
			</output>
		</layer>
		<layer id="97" name="1851" type="Convert" version="opset1">
			<data destination_type="f32" />
			<rt_info>
				<attribute name="decompression" version="0" />
			</rt_info>
			<input>
				<port id="0" precision="FP16">
					<dim>128</dim>
					<dim>256</dim>
					<dim>1</dim>
					<dim>1</dim>
				</port>
			</input>
			<output>
				<port id="1" precision="FP32" names="1851">
					<dim>128</dim>
					<dim>256</dim>
					<dim>1</dim>
					<dim>1</dim>
				</port>
			</output>
		</layer>
		<layer id="98" name="Conv_31/WithoutBiases" type="Convolution" version="opset1">
			<data strides="1, 1" dilations="1, 1" pads_begin="0, 0" pads_end="0, 0" auto_pad="explicit" />
			<input>
				<port id="0" precision="FP32">
					<dim>1</dim>
					<dim>256</dim>
					<dim>192</dim>
					<dim>320</dim>
				</port>
				<port id="1" precision="FP32">
					<dim>128</dim>
					<dim>256</dim>
					<dim>1</dim>
					<dim>1</dim>
				</port>
			</input>
			<output>
				<port id="2" precision="FP32">
					<dim>1</dim>
					<dim>128</dim>
					<dim>192</dim>
					<dim>320</dim>
				</port>
			</output>
		</layer>
		<layer id="99" name="Reshape_1078_compressed" type="Const" version="opset1">
			<data element_type="f16" shape="1, 128, 1, 1" offset="546220" size="256" />
			<output>
				<port id="0" precision="FP16">
					<dim>1</dim>
					<dim>128</dim>
					<dim>1</dim>
					<dim>1</dim>
				</port>
			</output>
		</layer>
		<layer id="100" name="Reshape_1078" type="Convert" version="opset1">
			<data destination_type="f32" />
			<rt_info>
				<attribute name="decompression" version="0" />
			</rt_info>
			<input>
				<port id="0" precision="FP16">
					<dim>1</dim>
					<dim>128</dim>
					<dim>1</dim>
					<dim>1</dim>
				</port>
			</input>
			<output>
				<port id="1" precision="FP32">
					<dim>1</dim>
					<dim>128</dim>
					<dim>1</dim>
					<dim>1</dim>
				</port>
			</output>
		</layer>
		<layer id="101" name="Conv_31" type="Add" version="opset1">
			<data auto_broadcast="numpy" />
			<input>
				<port id="0" precision="FP32">
					<dim>1</dim>
					<dim>128</dim>
					<dim>192</dim>
					<dim>320</dim>
				</port>
				<port id="1" precision="FP32">
					<dim>1</dim>
					<dim>128</dim>
					<dim>1</dim>
					<dim>1</dim>
				</port>
			</input>
			<output>
				<port id="2" precision="FP32" names="1850">
					<dim>1</dim>
					<dim>128</dim>
					<dim>192</dim>
					<dim>320</dim>
				</port>
			</output>
		</layer>
		<layer id="102" name="Relu_32" type="ReLU" version="opset1">
			<input>
				<port id="0" precision="FP32">
					<dim>1</dim>
					<dim>128</dim>
					<dim>192</dim>
					<dim>320</dim>
				</port>
			</input>
			<output>
				<port id="1" precision="FP32" names="440">
					<dim>1</dim>
					<dim>128</dim>
					<dim>192</dim>
					<dim>320</dim>
				</port>
			</output>
		</layer>
		<layer id="103" name="1854_compressed" type="Const" version="opset1">
			<data element_type="f16" shape="128, 128, 3, 3" offset="546476" size="294912" />
			<output>
				<port id="0" precision="FP16">
					<dim>128</dim>
					<dim>128</dim>
					<dim>3</dim>
					<dim>3</dim>
				</port>
			</output>
		</layer>
		<layer id="104" name="1854" type="Convert" version="opset1">
			<data destination_type="f32" />
			<rt_info>
				<attribute name="decompression" version="0" />
			</rt_info>
			<input>
				<port id="0" precision="FP16">
					<dim>128</dim>
					<dim>128</dim>
					<dim>3</dim>
					<dim>3</dim>
				</port>
			</input>
			<output>
				<port id="1" precision="FP32" names="1854">
					<dim>128</dim>
					<dim>128</dim>
					<dim>3</dim>
					<dim>3</dim>
				</port>
			</output>
		</layer>
		<layer id="105" name="Conv_33/WithoutBiases" type="Convolution" version="opset1">
			<data strides="2, 2" dilations="1, 1" pads_begin="1, 1" pads_end="1, 1" auto_pad="explicit" />
			<input>
				<port id="0" precision="FP32">
					<dim>1</dim>
					<dim>128</dim>
					<dim>192</dim>
					<dim>320</dim>
				</port>
				<port id="1" precision="FP32">
					<dim>128</dim>
					<dim>128</dim>
					<dim>3</dim>
					<dim>3</dim>
				</port>
			</input>
			<output>
				<port id="2" precision="FP32">
					<dim>1</dim>
					<dim>128</dim>
					<dim>96</dim>
					<dim>160</dim>
				</port>
			</output>
		</layer>
		<layer id="106" name="Reshape_1127_compressed" type="Const" version="opset1">
			<data element_type="f16" shape="1, 128, 1, 1" offset="841388" size="256" />
			<output>
				<port id="0" precision="FP16">
					<dim>1</dim>
					<dim>128</dim>
					<dim>1</dim>
					<dim>1</dim>
				</port>
			</output>
		</layer>
		<layer id="107" name="Reshape_1127" type="Convert" version="opset1">
			<data destination_type="f32" />
			<rt_info>
				<attribute name="decompression" version="0" />
			</rt_info>
			<input>
				<port id="0" precision="FP16">
					<dim>1</dim>
					<dim>128</dim>
					<dim>1</dim>
					<dim>1</dim>
				</port>
			</input>
			<output>
				<port id="1" precision="FP32">
					<dim>1</dim>
					<dim>128</dim>
					<dim>1</dim>
					<dim>1</dim>
				</port>
			</output>
		</layer>
		<layer id="108" name="Conv_33" type="Add" version="opset1">
			<data auto_broadcast="numpy" />
			<input>
				<port id="0" precision="FP32">
					<dim>1</dim>
					<dim>128</dim>
					<dim>96</dim>
					<dim>160</dim>
				</port>
				<port id="1" precision="FP32">
					<dim>1</dim>
					<dim>128</dim>
					<dim>1</dim>
					<dim>1</dim>
				</port>
			</input>
			<output>
				<port id="2" precision="FP32" names="1853">
					<dim>1</dim>
					<dim>128</dim>
					<dim>96</dim>
					<dim>160</dim>
				</port>
			</output>
		</layer>
		<layer id="109" name="Relu_34" type="ReLU" version="opset1">
			<input>
				<port id="0" precision="FP32">
					<dim>1</dim>
					<dim>128</dim>
					<dim>96</dim>
					<dim>160</dim>
				</port>
			</input>
			<output>
				<port id="1" precision="FP32" names="443">
					<dim>1</dim>
					<dim>128</dim>
					<dim>96</dim>
					<dim>160</dim>
				</port>
			</output>
		</layer>
		<layer id="110" name="1857_compressed" type="Const" version="opset1">
			<data element_type="f16" shape="512, 128, 1, 1" offset="841644" size="131072" />
			<output>
				<port id="0" precision="FP16">
					<dim>512</dim>
					<dim>128</dim>
					<dim>1</dim>
					<dim>1</dim>
				</port>
			</output>
		</layer>
		<layer id="111" name="1857" type="Convert" version="opset1">
			<data destination_type="f32" />
			<rt_info>
				<attribute name="decompression" version="0" />
			</rt_info>
			<input>
				<port id="0" precision="FP16">
					<dim>512</dim>
					<dim>128</dim>
					<dim>1</dim>
					<dim>1</dim>
				</port>
			</input>
			<output>
				<port id="1" precision="FP32" names="1857">
					<dim>512</dim>
					<dim>128</dim>
					<dim>1</dim>
					<dim>1</dim>
				</port>
			</output>
		</layer>
		<layer id="112" name="Conv_35/WithoutBiases" type="Convolution" version="opset1">
			<data strides="1, 1" dilations="1, 1" pads_begin="0, 0" pads_end="0, 0" auto_pad="explicit" />
			<input>
				<port id="0" precision="FP32">
					<dim>1</dim>
					<dim>128</dim>
					<dim>96</dim>
					<dim>160</dim>
				</port>
				<port id="1" precision="FP32">
					<dim>512</dim>
					<dim>128</dim>
					<dim>1</dim>
					<dim>1</dim>
				</port>
			</input>
			<output>
				<port id="2" precision="FP32">
					<dim>1</dim>
					<dim>512</dim>
					<dim>96</dim>
					<dim>160</dim>
				</port>
			</output>
		</layer>
		<layer id="113" name="Reshape_1176_compressed" type="Const" version="opset1">
			<data element_type="f16" shape="1, 512, 1, 1" offset="972716" size="1024" />
			<output>
				<port id="0" precision="FP16">
					<dim>1</dim>
					<dim>512</dim>
					<dim>1</dim>
					<dim>1</dim>
				</port>
			</output>
		</layer>
		<layer id="114" name="Reshape_1176" type="Convert" version="opset1">
			<data destination_type="f32" />
			<rt_info>
				<attribute name="decompression" version="0" />
			</rt_info>
			<input>
				<port id="0" precision="FP16">
					<dim>1</dim>
					<dim>512</dim>
					<dim>1</dim>
					<dim>1</dim>
				</port>
			</input>
			<output>
				<port id="1" precision="FP32">
					<dim>1</dim>
					<dim>512</dim>
					<dim>1</dim>
					<dim>1</dim>
				</port>
			</output>
		</layer>
		<layer id="115" name="Conv_35" type="Add" version="opset1">
			<data auto_broadcast="numpy" />
			<input>
				<port id="0" precision="FP32">
					<dim>1</dim>
					<dim>512</dim>
					<dim>96</dim>
					<dim>160</dim>
				</port>
				<port id="1" precision="FP32">
					<dim>1</dim>
					<dim>512</dim>
					<dim>1</dim>
					<dim>1</dim>
				</port>
			</input>
			<output>
				<port id="2" precision="FP32" names="1856">
					<dim>1</dim>
					<dim>512</dim>
					<dim>96</dim>
					<dim>160</dim>
				</port>
			</output>
		</layer>
		<layer id="116" name="1860_compressed" type="Const" version="opset1">
			<data element_type="f16" shape="512, 256, 1, 1" offset="973740" size="262144" />
			<output>
				<port id="0" precision="FP16">
					<dim>512</dim>
					<dim>256</dim>
					<dim>1</dim>
					<dim>1</dim>
				</port>
			</output>
		</layer>
		<layer id="117" name="1860" type="Convert" version="opset1">
			<data destination_type="f32" />
			<rt_info>
				<attribute name="decompression" version="0" />
			</rt_info>
			<input>
				<port id="0" precision="FP16">
					<dim>512</dim>
					<dim>256</dim>
					<dim>1</dim>
					<dim>1</dim>
				</port>
			</input>
			<output>
				<port id="1" precision="FP32" names="1860">
					<dim>512</dim>
					<dim>256</dim>
					<dim>1</dim>
					<dim>1</dim>
				</port>
			</output>
		</layer>
		<layer id="118" name="Conv_36/WithoutBiases" type="Convolution" version="opset1">
			<data strides="2, 2" dilations="1, 1" pads_begin="0, 0" pads_end="0, 0" auto_pad="explicit" />
			<input>
				<port id="0" precision="FP32">
					<dim>1</dim>
					<dim>256</dim>
					<dim>192</dim>
					<dim>320</dim>
				</port>
				<port id="1" precision="FP32">
					<dim>512</dim>
					<dim>256</dim>
					<dim>1</dim>
					<dim>1</dim>
				</port>
			</input>
			<output>
				<port id="2" precision="FP32">
					<dim>1</dim>
					<dim>512</dim>
					<dim>96</dim>
					<dim>160</dim>
				</port>
			</output>
		</layer>
		<layer id="119" name="Reshape_1224_compressed" type="Const" version="opset1">
			<data element_type="f16" shape="1, 512, 1, 1" offset="1235884" size="1024" />
			<output>
				<port id="0" precision="FP16">
					<dim>1</dim>
					<dim>512</dim>
					<dim>1</dim>
					<dim>1</dim>
				</port>
			</output>
		</layer>
		<layer id="120" name="Reshape_1224" type="Convert" version="opset1">
			<data destination_type="f32" />
			<rt_info>
				<attribute name="decompression" version="0" />
			</rt_info>
			<input>
				<port id="0" precision="FP16">
					<dim>1</dim>
					<dim>512</dim>
					<dim>1</dim>
					<dim>1</dim>
				</port>
			</input>
			<output>
				<port id="1" precision="FP32">
					<dim>1</dim>
					<dim>512</dim>
					<dim>1</dim>
					<dim>1</dim>
				</port>
			</output>
		</layer>
		<layer id="121" name="Conv_36" type="Add" version="opset1">
			<data auto_broadcast="numpy" />
			<input>
				<port id="0" precision="FP32">
					<dim>1</dim>
					<dim>512</dim>
					<dim>96</dim>
					<dim>160</dim>
				</port>
				<port id="1" precision="FP32">
					<dim>1</dim>
					<dim>512</dim>
					<dim>1</dim>
					<dim>1</dim>
				</port>
			</input>
			<output>
				<port id="2" precision="FP32" names="1859">
					<dim>1</dim>
					<dim>512</dim>
					<dim>96</dim>
					<dim>160</dim>
				</port>
			</output>
		</layer>
		<layer id="122" name="Add_37" type="Add" version="opset1">
			<data auto_broadcast="numpy" />
			<input>
				<port id="0" precision="FP32">
					<dim>1</dim>
					<dim>512</dim>
					<dim>96</dim>
					<dim>160</dim>
				</port>
				<port id="1" precision="FP32">
					<dim>1</dim>
					<dim>512</dim>
					<dim>96</dim>
					<dim>160</dim>
				</port>
			</input>
			<output>
				<port id="2" precision="FP32" names="448">
					<dim>1</dim>
					<dim>512</dim>
					<dim>96</dim>
					<dim>160</dim>
				</port>
			</output>
		</layer>
		<layer id="123" name="Relu_38" type="ReLU" version="opset1">
			<input>
				<port id="0" precision="FP32">
					<dim>1</dim>
					<dim>512</dim>
					<dim>96</dim>
					<dim>160</dim>
				</port>
			</input>
			<output>
				<port id="1" precision="FP32" names="449">
					<dim>1</dim>
					<dim>512</dim>
					<dim>96</dim>
					<dim>160</dim>
				</port>
			</output>
		</layer>
		<layer id="124" name="1863_compressed" type="Const" version="opset1">
			<data element_type="f16" shape="128, 512, 1, 1" offset="1236908" size="131072" />
			<output>
				<port id="0" precision="FP16">
					<dim>128</dim>
					<dim>512</dim>
					<dim>1</dim>
					<dim>1</dim>
				</port>
			</output>
		</layer>
		<layer id="125" name="1863" type="Convert" version="opset1">
			<data destination_type="f32" />
			<rt_info>
				<attribute name="decompression" version="0" />
			</rt_info>
			<input>
				<port id="0" precision="FP16">
					<dim>128</dim>
					<dim>512</dim>
					<dim>1</dim>
					<dim>1</dim>
				</port>
			</input>
			<output>
				<port id="1" precision="FP32" names="1863">
					<dim>128</dim>
					<dim>512</dim>
					<dim>1</dim>
					<dim>1</dim>
				</port>
			</output>
		</layer>
		<layer id="126" name="Conv_39/WithoutBiases" type="Convolution" version="opset1">
			<data strides="1, 1" dilations="1, 1" pads_begin="0, 0" pads_end="0, 0" auto_pad="explicit" />
			<input>
				<port id="0" precision="FP32">
					<dim>1</dim>
					<dim>512</dim>
					<dim>96</dim>
					<dim>160</dim>
				</port>
				<port id="1" precision="FP32">
					<dim>128</dim>
					<dim>512</dim>
					<dim>1</dim>
					<dim>1</dim>
				</port>
			</input>
			<output>
				<port id="2" precision="FP32">
					<dim>1</dim>
					<dim>128</dim>
					<dim>96</dim>
					<dim>160</dim>
				</port>
			</output>
		</layer>
		<layer id="127" name="Reshape_1274_compressed" type="Const" version="opset1">
			<data element_type="f16" shape="1, 128, 1, 1" offset="1367980" size="256" />
			<output>
				<port id="0" precision="FP16">
					<dim>1</dim>
					<dim>128</dim>
					<dim>1</dim>
					<dim>1</dim>
				</port>
			</output>
		</layer>
		<layer id="128" name="Reshape_1274" type="Convert" version="opset1">
			<data destination_type="f32" />
			<rt_info>
				<attribute name="decompression" version="0" />
			</rt_info>
			<input>
				<port id="0" precision="FP16">
					<dim>1</dim>
					<dim>128</dim>
					<dim>1</dim>
					<dim>1</dim>
				</port>
			</input>
			<output>
				<port id="1" precision="FP32">
					<dim>1</dim>
					<dim>128</dim>
					<dim>1</dim>
					<dim>1</dim>
				</port>
			</output>
		</layer>
		<layer id="129" name="Conv_39" type="Add" version="opset1">
			<data auto_broadcast="numpy" />
			<input>
				<port id="0" precision="FP32">
					<dim>1</dim>
					<dim>128</dim>
					<dim>96</dim>
					<dim>160</dim>
				</port>
				<port id="1" precision="FP32">
					<dim>1</dim>
					<dim>128</dim>
					<dim>1</dim>
					<dim>1</dim>
				</port>
			</input>
			<output>
				<port id="2" precision="FP32" names="1862">
					<dim>1</dim>
					<dim>128</dim>
					<dim>96</dim>
					<dim>160</dim>
				</port>
			</output>
		</layer>
		<layer id="130" name="Relu_40" type="ReLU" version="opset1">
			<input>
				<port id="0" precision="FP32">
					<dim>1</dim>
					<dim>128</dim>
					<dim>96</dim>
					<dim>160</dim>
				</port>
			</input>
			<output>
				<port id="1" precision="FP32" names="452">
					<dim>1</dim>
					<dim>128</dim>
					<dim>96</dim>
					<dim>160</dim>
				</port>
			</output>
		</layer>
		<layer id="131" name="1866_compressed" type="Const" version="opset1">
			<data element_type="f16" shape="128, 128, 3, 3" offset="1368236" size="294912" />
			<output>
				<port id="0" precision="FP16">
					<dim>128</dim>
					<dim>128</dim>
					<dim>3</dim>
					<dim>3</dim>
				</port>
			</output>
		</layer>
		<layer id="132" name="1866" type="Convert" version="opset1">
			<data destination_type="f32" />
			<rt_info>
				<attribute name="decompression" version="0" />
			</rt_info>
			<input>
				<port id="0" precision="FP16">
					<dim>128</dim>
					<dim>128</dim>
					<dim>3</dim>
					<dim>3</dim>
				</port>
			</input>
			<output>
				<port id="1" precision="FP32" names="1866">
					<dim>128</dim>
					<dim>128</dim>
					<dim>3</dim>
					<dim>3</dim>
				</port>
			</output>
		</layer>
		<layer id="133" name="Conv_41/WithoutBiases" type="Convolution" version="opset1">
			<data strides="1, 1" dilations="1, 1" pads_begin="1, 1" pads_end="1, 1" auto_pad="explicit" />
			<input>
				<port id="0" precision="FP32">
					<dim>1</dim>
					<dim>128</dim>
					<dim>96</dim>
					<dim>160</dim>
				</port>
				<port id="1" precision="FP32">
					<dim>128</dim>
					<dim>128</dim>
					<dim>3</dim>
					<dim>3</dim>
				</port>
			</input>
			<output>
				<port id="2" precision="FP32">
					<dim>1</dim>
					<dim>128</dim>
					<dim>96</dim>
					<dim>160</dim>
				</port>
			</output>
		</layer>
		<layer id="134" name="Reshape_1323_compressed" type="Const" version="opset1">
			<data element_type="f16" shape="1, 128, 1, 1" offset="1663148" size="256" />
			<output>
				<port id="0" precision="FP16">
					<dim>1</dim>
					<dim>128</dim>
					<dim>1</dim>
					<dim>1</dim>
				</port>
			</output>
		</layer>
		<layer id="135" name="Reshape_1323" type="Convert" version="opset1">
			<data destination_type="f32" />
			<rt_info>
				<attribute name="decompression" version="0" />
			</rt_info>
			<input>
				<port id="0" precision="FP16">
					<dim>1</dim>
					<dim>128</dim>
					<dim>1</dim>
					<dim>1</dim>
				</port>
			</input>
			<output>
				<port id="1" precision="FP32">
					<dim>1</dim>
					<dim>128</dim>
					<dim>1</dim>
					<dim>1</dim>
				</port>
			</output>
		</layer>
		<layer id="136" name="Conv_41" type="Add" version="opset1">
			<data auto_broadcast="numpy" />
			<input>
				<port id="0" precision="FP32">
					<dim>1</dim>
					<dim>128</dim>
					<dim>96</dim>
					<dim>160</dim>
				</port>
				<port id="1" precision="FP32">
					<dim>1</dim>
					<dim>128</dim>
					<dim>1</dim>
					<dim>1</dim>
				</port>
			</input>
			<output>
				<port id="2" precision="FP32" names="1865">
					<dim>1</dim>
					<dim>128</dim>
					<dim>96</dim>
					<dim>160</dim>
				</port>
			</output>
		</layer>
		<layer id="137" name="Relu_42" type="ReLU" version="opset1">
			<input>
				<port id="0" precision="FP32">
					<dim>1</dim>
					<dim>128</dim>
					<dim>96</dim>
					<dim>160</dim>
				</port>
			</input>
			<output>
				<port id="1" precision="FP32" names="455">
					<dim>1</dim>
					<dim>128</dim>
					<dim>96</dim>
					<dim>160</dim>
				</port>
			</output>
		</layer>
		<layer id="138" name="1869_compressed" type="Const" version="opset1">
			<data element_type="f16" shape="512, 128, 1, 1" offset="1663404" size="131072" />
			<output>
				<port id="0" precision="FP16">
					<dim>512</dim>
					<dim>128</dim>
					<dim>1</dim>
					<dim>1</dim>
				</port>
			</output>
		</layer>
		<layer id="139" name="1869" type="Convert" version="opset1">
			<data destination_type="f32" />
			<rt_info>
				<attribute name="decompression" version="0" />
			</rt_info>
			<input>
				<port id="0" precision="FP16">
					<dim>512</dim>
					<dim>128</dim>
					<dim>1</dim>
					<dim>1</dim>
				</port>
			</input>
			<output>
				<port id="1" precision="FP32" names="1869">
					<dim>512</dim>
					<dim>128</dim>
					<dim>1</dim>
					<dim>1</dim>
				</port>
			</output>
		</layer>
		<layer id="140" name="Conv_43/WithoutBiases" type="Convolution" version="opset1">
			<data strides="1, 1" dilations="1, 1" pads_begin="0, 0" pads_end="0, 0" auto_pad="explicit" />
			<input>
				<port id="0" precision="FP32">
					<dim>1</dim>
					<dim>128</dim>
					<dim>96</dim>
					<dim>160</dim>
				</port>
				<port id="1" precision="FP32">
					<dim>512</dim>
					<dim>128</dim>
					<dim>1</dim>
					<dim>1</dim>
				</port>
			</input>
			<output>
				<port id="2" precision="FP32">
					<dim>1</dim>
					<dim>512</dim>
					<dim>96</dim>
					<dim>160</dim>
				</port>
			</output>
		</layer>
		<layer id="141" name="Reshape_1372_compressed" type="Const" version="opset1">
			<data element_type="f16" shape="1, 512, 1, 1" offset="1794476" size="1024" />
			<output>
				<port id="0" precision="FP16">
					<dim>1</dim>
					<dim>512</dim>
					<dim>1</dim>
					<dim>1</dim>
				</port>
			</output>
		</layer>
		<layer id="142" name="Reshape_1372" type="Convert" version="opset1">
			<data destination_type="f32" />
			<rt_info>
				<attribute name="decompression" version="0" />
			</rt_info>
			<input>
				<port id="0" precision="FP16">
					<dim>1</dim>
					<dim>512</dim>
					<dim>1</dim>
					<dim>1</dim>
				</port>
			</input>
			<output>
				<port id="1" precision="FP32">
					<dim>1</dim>
					<dim>512</dim>
					<dim>1</dim>
					<dim>1</dim>
				</port>
			</output>
		</layer>
		<layer id="143" name="Conv_43" type="Add" version="opset1">
			<data auto_broadcast="numpy" />
			<input>
				<port id="0" precision="FP32">
					<dim>1</dim>
					<dim>512</dim>
					<dim>96</dim>
					<dim>160</dim>
				</port>
				<port id="1" precision="FP32">
					<dim>1</dim>
					<dim>512</dim>
					<dim>1</dim>
					<dim>1</dim>
				</port>
			</input>
			<output>
				<port id="2" precision="FP32" names="1868">
					<dim>1</dim>
					<dim>512</dim>
					<dim>96</dim>
					<dim>160</dim>
				</port>
			</output>
		</layer>
		<layer id="144" name="Add_44" type="Add" version="opset1">
			<data auto_broadcast="numpy" />
			<input>
				<port id="0" precision="FP32">
					<dim>1</dim>
					<dim>512</dim>
					<dim>96</dim>
					<dim>160</dim>
				</port>
				<port id="1" precision="FP32">
					<dim>1</dim>
					<dim>512</dim>
					<dim>96</dim>
					<dim>160</dim>
				</port>
			</input>
			<output>
				<port id="2" precision="FP32" names="458">
					<dim>1</dim>
					<dim>512</dim>
					<dim>96</dim>
					<dim>160</dim>
				</port>
			</output>
		</layer>
		<layer id="145" name="Relu_45" type="ReLU" version="opset1">
			<input>
				<port id="0" precision="FP32">
					<dim>1</dim>
					<dim>512</dim>
					<dim>96</dim>
					<dim>160</dim>
				</port>
			</input>
			<output>
				<port id="1" precision="FP32" names="459">
					<dim>1</dim>
					<dim>512</dim>
					<dim>96</dim>
					<dim>160</dim>
				</port>
			</output>
		</layer>
		<layer id="146" name="1872_compressed" type="Const" version="opset1">
			<data element_type="f16" shape="128, 512, 1, 1" offset="1795500" size="131072" />
			<output>
				<port id="0" precision="FP16">
					<dim>128</dim>
					<dim>512</dim>
					<dim>1</dim>
					<dim>1</dim>
				</port>
			</output>
		</layer>
		<layer id="147" name="1872" type="Convert" version="opset1">
			<data destination_type="f32" />
			<rt_info>
				<attribute name="decompression" version="0" />
			</rt_info>
			<input>
				<port id="0" precision="FP16">
					<dim>128</dim>
					<dim>512</dim>
					<dim>1</dim>
					<dim>1</dim>
				</port>
			</input>
			<output>
				<port id="1" precision="FP32" names="1872">
					<dim>128</dim>
					<dim>512</dim>
					<dim>1</dim>
					<dim>1</dim>
				</port>
			</output>
		</layer>
		<layer id="148" name="Conv_46/WithoutBiases" type="Convolution" version="opset1">
			<data strides="1, 1" dilations="1, 1" pads_begin="0, 0" pads_end="0, 0" auto_pad="explicit" />
			<input>
				<port id="0" precision="FP32">
					<dim>1</dim>
					<dim>512</dim>
					<dim>96</dim>
					<dim>160</dim>
				</port>
				<port id="1" precision="FP32">
					<dim>128</dim>
					<dim>512</dim>
					<dim>1</dim>
					<dim>1</dim>
				</port>
			</input>
			<output>
				<port id="2" precision="FP32">
					<dim>1</dim>
					<dim>128</dim>
					<dim>96</dim>
					<dim>160</dim>
				</port>
			</output>
		</layer>
		<layer id="149" name="Reshape_1422_compressed" type="Const" version="opset1">
			<data element_type="f16" shape="1, 128, 1, 1" offset="1926572" size="256" />
			<output>
				<port id="0" precision="FP16">
					<dim>1</dim>
					<dim>128</dim>
					<dim>1</dim>
					<dim>1</dim>
				</port>
			</output>
		</layer>
		<layer id="150" name="Reshape_1422" type="Convert" version="opset1">
			<data destination_type="f32" />
			<rt_info>
				<attribute name="decompression" version="0" />
			</rt_info>
			<input>
				<port id="0" precision="FP16">
					<dim>1</dim>
					<dim>128</dim>
					<dim>1</dim>
					<dim>1</dim>
				</port>
			</input>
			<output>
				<port id="1" precision="FP32">
					<dim>1</dim>
					<dim>128</dim>
					<dim>1</dim>
					<dim>1</dim>
				</port>
			</output>
		</layer>
		<layer id="151" name="Conv_46" type="Add" version="opset1">
			<data auto_broadcast="numpy" />
			<input>
				<port id="0" precision="FP32">
					<dim>1</dim>
					<dim>128</dim>
					<dim>96</dim>
					<dim>160</dim>
				</port>
				<port id="1" precision="FP32">
					<dim>1</dim>
					<dim>128</dim>
					<dim>1</dim>
					<dim>1</dim>
				</port>
			</input>
			<output>
				<port id="2" precision="FP32" names="1871">
					<dim>1</dim>
					<dim>128</dim>
					<dim>96</dim>
					<dim>160</dim>
				</port>
			</output>
		</layer>
		<layer id="152" name="Relu_47" type="ReLU" version="opset1">
			<input>
				<port id="0" precision="FP32">
					<dim>1</dim>
					<dim>128</dim>
					<dim>96</dim>
					<dim>160</dim>
				</port>
			</input>
			<output>
				<port id="1" precision="FP32" names="462">
					<dim>1</dim>
					<dim>128</dim>
					<dim>96</dim>
					<dim>160</dim>
				</port>
			</output>
		</layer>
		<layer id="153" name="1875_compressed" type="Const" version="opset1">
			<data element_type="f16" shape="128, 128, 3, 3" offset="1926828" size="294912" />
			<output>
				<port id="0" precision="FP16">
					<dim>128</dim>
					<dim>128</dim>
					<dim>3</dim>
					<dim>3</dim>
				</port>
			</output>
		</layer>
		<layer id="154" name="1875" type="Convert" version="opset1">
			<data destination_type="f32" />
			<rt_info>
				<attribute name="decompression" version="0" />
			</rt_info>
			<input>
				<port id="0" precision="FP16">
					<dim>128</dim>
					<dim>128</dim>
					<dim>3</dim>
					<dim>3</dim>
				</port>
			</input>
			<output>
				<port id="1" precision="FP32" names="1875">
					<dim>128</dim>
					<dim>128</dim>
					<dim>3</dim>
					<dim>3</dim>
				</port>
			</output>
		</layer>
		<layer id="155" name="Conv_48/WithoutBiases" type="Convolution" version="opset1">
			<data strides="1, 1" dilations="1, 1" pads_begin="1, 1" pads_end="1, 1" auto_pad="explicit" />
			<input>
				<port id="0" precision="FP32">
					<dim>1</dim>
					<dim>128</dim>
					<dim>96</dim>
					<dim>160</dim>
				</port>
				<port id="1" precision="FP32">
					<dim>128</dim>
					<dim>128</dim>
					<dim>3</dim>
					<dim>3</dim>
				</port>
			</input>
			<output>
				<port id="2" precision="FP32">
					<dim>1</dim>
					<dim>128</dim>
					<dim>96</dim>
					<dim>160</dim>
				</port>
			</output>
		</layer>
		<layer id="156" name="Reshape_1471_compressed" type="Const" version="opset1">
			<data element_type="f16" shape="1, 128, 1, 1" offset="2221740" size="256" />
			<output>
				<port id="0" precision="FP16">
					<dim>1</dim>
					<dim>128</dim>
					<dim>1</dim>
					<dim>1</dim>
				</port>
			</output>
		</layer>
		<layer id="157" name="Reshape_1471" type="Convert" version="opset1">
			<data destination_type="f32" />
			<rt_info>
				<attribute name="decompression" version="0" />
			</rt_info>
			<input>
				<port id="0" precision="FP16">
					<dim>1</dim>
					<dim>128</dim>
					<dim>1</dim>
					<dim>1</dim>
				</port>
			</input>
			<output>
				<port id="1" precision="FP32">
					<dim>1</dim>
					<dim>128</dim>
					<dim>1</dim>
					<dim>1</dim>
				</port>
			</output>
		</layer>
		<layer id="158" name="Conv_48" type="Add" version="opset1">
			<data auto_broadcast="numpy" />
			<input>
				<port id="0" precision="FP32">
					<dim>1</dim>
					<dim>128</dim>
					<dim>96</dim>
					<dim>160</dim>
				</port>
				<port id="1" precision="FP32">
					<dim>1</dim>
					<dim>128</dim>
					<dim>1</dim>
					<dim>1</dim>
				</port>
			</input>
			<output>
				<port id="2" precision="FP32" names="1874">
					<dim>1</dim>
					<dim>128</dim>
					<dim>96</dim>
					<dim>160</dim>
				</port>
			</output>
		</layer>
		<layer id="159" name="Relu_49" type="ReLU" version="opset1">
			<input>
				<port id="0" precision="FP32">
					<dim>1</dim>
					<dim>128</dim>
					<dim>96</dim>
					<dim>160</dim>
				</port>
			</input>
			<output>
				<port id="1" precision="FP32" names="465">
					<dim>1</dim>
					<dim>128</dim>
					<dim>96</dim>
					<dim>160</dim>
				</port>
			</output>
		</layer>
		<layer id="160" name="1878_compressed" type="Const" version="opset1">
			<data element_type="f16" shape="512, 128, 1, 1" offset="2221996" size="131072" />
			<output>
				<port id="0" precision="FP16">
					<dim>512</dim>
					<dim>128</dim>
					<dim>1</dim>
					<dim>1</dim>
				</port>
			</output>
		</layer>
		<layer id="161" name="1878" type="Convert" version="opset1">
			<data destination_type="f32" />
			<rt_info>
				<attribute name="decompression" version="0" />
			</rt_info>
			<input>
				<port id="0" precision="FP16">
					<dim>512</dim>
					<dim>128</dim>
					<dim>1</dim>
					<dim>1</dim>
				</port>
			</input>
			<output>
				<port id="1" precision="FP32" names="1878">
					<dim>512</dim>
					<dim>128</dim>
					<dim>1</dim>
					<dim>1</dim>
				</port>
			</output>
		</layer>
		<layer id="162" name="Conv_50/WithoutBiases" type="Convolution" version="opset1">
			<data strides="1, 1" dilations="1, 1" pads_begin="0, 0" pads_end="0, 0" auto_pad="explicit" />
			<input>
				<port id="0" precision="FP32">
					<dim>1</dim>
					<dim>128</dim>
					<dim>96</dim>
					<dim>160</dim>
				</port>
				<port id="1" precision="FP32">
					<dim>512</dim>
					<dim>128</dim>
					<dim>1</dim>
					<dim>1</dim>
				</port>
			</input>
			<output>
				<port id="2" precision="FP32">
					<dim>1</dim>
					<dim>512</dim>
					<dim>96</dim>
					<dim>160</dim>
				</port>
			</output>
		</layer>
		<layer id="163" name="Reshape_1520_compressed" type="Const" version="opset1">
			<data element_type="f16" shape="1, 512, 1, 1" offset="2353068" size="1024" />
			<output>
				<port id="0" precision="FP16">
					<dim>1</dim>
					<dim>512</dim>
					<dim>1</dim>
					<dim>1</dim>
				</port>
			</output>
		</layer>
		<layer id="164" name="Reshape_1520" type="Convert" version="opset1">
			<data destination_type="f32" />
			<rt_info>
				<attribute name="decompression" version="0" />
			</rt_info>
			<input>
				<port id="0" precision="FP16">
					<dim>1</dim>
					<dim>512</dim>
					<dim>1</dim>
					<dim>1</dim>
				</port>
			</input>
			<output>
				<port id="1" precision="FP32">
					<dim>1</dim>
					<dim>512</dim>
					<dim>1</dim>
					<dim>1</dim>
				</port>
			</output>
		</layer>
		<layer id="165" name="Conv_50" type="Add" version="opset1">
			<data auto_broadcast="numpy" />
			<input>
				<port id="0" precision="FP32">
					<dim>1</dim>
					<dim>512</dim>
					<dim>96</dim>
					<dim>160</dim>
				</port>
				<port id="1" precision="FP32">
					<dim>1</dim>
					<dim>512</dim>
					<dim>1</dim>
					<dim>1</dim>
				</port>
			</input>
			<output>
				<port id="2" precision="FP32" names="1877">
					<dim>1</dim>
					<dim>512</dim>
					<dim>96</dim>
					<dim>160</dim>
				</port>
			</output>
		</layer>
		<layer id="166" name="Add_51" type="Add" version="opset1">
			<data auto_broadcast="numpy" />
			<input>
				<port id="0" precision="FP32">
					<dim>1</dim>
					<dim>512</dim>
					<dim>96</dim>
					<dim>160</dim>
				</port>
				<port id="1" precision="FP32">
					<dim>1</dim>
					<dim>512</dim>
					<dim>96</dim>
					<dim>160</dim>
				</port>
			</input>
			<output>
				<port id="2" precision="FP32" names="468">
					<dim>1</dim>
					<dim>512</dim>
					<dim>96</dim>
					<dim>160</dim>
				</port>
			</output>
		</layer>
		<layer id="167" name="Relu_52" type="ReLU" version="opset1">
			<input>
				<port id="0" precision="FP32">
					<dim>1</dim>
					<dim>512</dim>
					<dim>96</dim>
					<dim>160</dim>
				</port>
			</input>
			<output>
				<port id="1" precision="FP32" names="469">
					<dim>1</dim>
					<dim>512</dim>
					<dim>96</dim>
					<dim>160</dim>
				</port>
			</output>
		</layer>
		<layer id="168" name="1881_compressed" type="Const" version="opset1">
			<data element_type="f16" shape="128, 512, 1, 1" offset="2354092" size="131072" />
			<output>
				<port id="0" precision="FP16">
					<dim>128</dim>
					<dim>512</dim>
					<dim>1</dim>
					<dim>1</dim>
				</port>
			</output>
		</layer>
		<layer id="169" name="1881" type="Convert" version="opset1">
			<data destination_type="f32" />
			<rt_info>
				<attribute name="decompression" version="0" />
			</rt_info>
			<input>
				<port id="0" precision="FP16">
					<dim>128</dim>
					<dim>512</dim>
					<dim>1</dim>
					<dim>1</dim>
				</port>
			</input>
			<output>
				<port id="1" precision="FP32" names="1881">
					<dim>128</dim>
					<dim>512</dim>
					<dim>1</dim>
					<dim>1</dim>
				</port>
			</output>
		</layer>
		<layer id="170" name="Conv_53/WithoutBiases" type="Convolution" version="opset1">
			<data strides="1, 1" dilations="1, 1" pads_begin="0, 0" pads_end="0, 0" auto_pad="explicit" />
			<input>
				<port id="0" precision="FP32">
					<dim>1</dim>
					<dim>512</dim>
					<dim>96</dim>
					<dim>160</dim>
				</port>
				<port id="1" precision="FP32">
					<dim>128</dim>
					<dim>512</dim>
					<dim>1</dim>
					<dim>1</dim>
				</port>
			</input>
			<output>
				<port id="2" precision="FP32">
					<dim>1</dim>
					<dim>128</dim>
					<dim>96</dim>
					<dim>160</dim>
				</port>
			</output>
		</layer>
		<layer id="171" name="Reshape_1570_compressed" type="Const" version="opset1">
			<data element_type="f16" shape="1, 128, 1, 1" offset="2485164" size="256" />
			<output>
				<port id="0" precision="FP16">
					<dim>1</dim>
					<dim>128</dim>
					<dim>1</dim>
					<dim>1</dim>
				</port>
			</output>
		</layer>
		<layer id="172" name="Reshape_1570" type="Convert" version="opset1">
			<data destination_type="f32" />
			<rt_info>
				<attribute name="decompression" version="0" />
			</rt_info>
			<input>
				<port id="0" precision="FP16">
					<dim>1</dim>
					<dim>128</dim>
					<dim>1</dim>
					<dim>1</dim>
				</port>
			</input>
			<output>
				<port id="1" precision="FP32">
					<dim>1</dim>
					<dim>128</dim>
					<dim>1</dim>
					<dim>1</dim>
				</port>
			</output>
		</layer>
		<layer id="173" name="Conv_53" type="Add" version="opset1">
			<data auto_broadcast="numpy" />
			<input>
				<port id="0" precision="FP32">
					<dim>1</dim>
					<dim>128</dim>
					<dim>96</dim>
					<dim>160</dim>
				</port>
				<port id="1" precision="FP32">
					<dim>1</dim>
					<dim>128</dim>
					<dim>1</dim>
					<dim>1</dim>
				</port>
			</input>
			<output>
				<port id="2" precision="FP32" names="1880">
					<dim>1</dim>
					<dim>128</dim>
					<dim>96</dim>
					<dim>160</dim>
				</port>
			</output>
		</layer>
		<layer id="174" name="Relu_54" type="ReLU" version="opset1">
			<input>
				<port id="0" precision="FP32">
					<dim>1</dim>
					<dim>128</dim>
					<dim>96</dim>
					<dim>160</dim>
				</port>
			</input>
			<output>
				<port id="1" precision="FP32" names="472">
					<dim>1</dim>
					<dim>128</dim>
					<dim>96</dim>
					<dim>160</dim>
				</port>
			</output>
		</layer>
		<layer id="175" name="1884_compressed" type="Const" version="opset1">
			<data element_type="f16" shape="128, 128, 3, 3" offset="2485420" size="294912" />
			<output>
				<port id="0" precision="FP16">
					<dim>128</dim>
					<dim>128</dim>
					<dim>3</dim>
					<dim>3</dim>
				</port>
			</output>
		</layer>
		<layer id="176" name="1884" type="Convert" version="opset1">
			<data destination_type="f32" />
			<rt_info>
				<attribute name="decompression" version="0" />
			</rt_info>
			<input>
				<port id="0" precision="FP16">
					<dim>128</dim>
					<dim>128</dim>
					<dim>3</dim>
					<dim>3</dim>
				</port>
			</input>
			<output>
				<port id="1" precision="FP32" names="1884">
					<dim>128</dim>
					<dim>128</dim>
					<dim>3</dim>
					<dim>3</dim>
				</port>
			</output>
		</layer>
		<layer id="177" name="Conv_55/WithoutBiases" type="Convolution" version="opset1">
			<data strides="1, 1" dilations="1, 1" pads_begin="1, 1" pads_end="1, 1" auto_pad="explicit" />
			<input>
				<port id="0" precision="FP32">
					<dim>1</dim>
					<dim>128</dim>
					<dim>96</dim>
					<dim>160</dim>
				</port>
				<port id="1" precision="FP32">
					<dim>128</dim>
					<dim>128</dim>
					<dim>3</dim>
					<dim>3</dim>
				</port>
			</input>
			<output>
				<port id="2" precision="FP32">
					<dim>1</dim>
					<dim>128</dim>
					<dim>96</dim>
					<dim>160</dim>
				</port>
			</output>
		</layer>
		<layer id="178" name="Reshape_1619_compressed" type="Const" version="opset1">
			<data element_type="f16" shape="1, 128, 1, 1" offset="2780332" size="256" />
			<output>
				<port id="0" precision="FP16">
					<dim>1</dim>
					<dim>128</dim>
					<dim>1</dim>
					<dim>1</dim>
				</port>
			</output>
		</layer>
		<layer id="179" name="Reshape_1619" type="Convert" version="opset1">
			<data destination_type="f32" />
			<rt_info>
				<attribute name="decompression" version="0" />
			</rt_info>
			<input>
				<port id="0" precision="FP16">
					<dim>1</dim>
					<dim>128</dim>
					<dim>1</dim>
					<dim>1</dim>
				</port>
			</input>
			<output>
				<port id="1" precision="FP32">
					<dim>1</dim>
					<dim>128</dim>
					<dim>1</dim>
					<dim>1</dim>
				</port>
			</output>
		</layer>
		<layer id="180" name="Conv_55" type="Add" version="opset1">
			<data auto_broadcast="numpy" />
			<input>
				<port id="0" precision="FP32">
					<dim>1</dim>
					<dim>128</dim>
					<dim>96</dim>
					<dim>160</dim>
				</port>
				<port id="1" precision="FP32">
					<dim>1</dim>
					<dim>128</dim>
					<dim>1</dim>
					<dim>1</dim>
				</port>
			</input>
			<output>
				<port id="2" precision="FP32" names="1883">
					<dim>1</dim>
					<dim>128</dim>
					<dim>96</dim>
					<dim>160</dim>
				</port>
			</output>
		</layer>
		<layer id="181" name="Relu_56" type="ReLU" version="opset1">
			<input>
				<port id="0" precision="FP32">
					<dim>1</dim>
					<dim>128</dim>
					<dim>96</dim>
					<dim>160</dim>
				</port>
			</input>
			<output>
				<port id="1" precision="FP32" names="475">
					<dim>1</dim>
					<dim>128</dim>
					<dim>96</dim>
					<dim>160</dim>
				</port>
			</output>
		</layer>
		<layer id="182" name="1887_compressed" type="Const" version="opset1">
			<data element_type="f16" shape="512, 128, 1, 1" offset="2780588" size="131072" />
			<output>
				<port id="0" precision="FP16">
					<dim>512</dim>
					<dim>128</dim>
					<dim>1</dim>
					<dim>1</dim>
				</port>
			</output>
		</layer>
		<layer id="183" name="1887" type="Convert" version="opset1">
			<data destination_type="f32" />
			<rt_info>
				<attribute name="decompression" version="0" />
			</rt_info>
			<input>
				<port id="0" precision="FP16">
					<dim>512</dim>
					<dim>128</dim>
					<dim>1</dim>
					<dim>1</dim>
				</port>
			</input>
			<output>
				<port id="1" precision="FP32" names="1887">
					<dim>512</dim>
					<dim>128</dim>
					<dim>1</dim>
					<dim>1</dim>
				</port>
			</output>
		</layer>
		<layer id="184" name="Conv_57/WithoutBiases" type="Convolution" version="opset1">
			<data strides="1, 1" dilations="1, 1" pads_begin="0, 0" pads_end="0, 0" auto_pad="explicit" />
			<input>
				<port id="0" precision="FP32">
					<dim>1</dim>
					<dim>128</dim>
					<dim>96</dim>
					<dim>160</dim>
				</port>
				<port id="1" precision="FP32">
					<dim>512</dim>
					<dim>128</dim>
					<dim>1</dim>
					<dim>1</dim>
				</port>
			</input>
			<output>
				<port id="2" precision="FP32">
					<dim>1</dim>
					<dim>512</dim>
					<dim>96</dim>
					<dim>160</dim>
				</port>
			</output>
		</layer>
		<layer id="185" name="Reshape_1668_compressed" type="Const" version="opset1">
			<data element_type="f16" shape="1, 512, 1, 1" offset="2911660" size="1024" />
			<output>
				<port id="0" precision="FP16">
					<dim>1</dim>
					<dim>512</dim>
					<dim>1</dim>
					<dim>1</dim>
				</port>
			</output>
		</layer>
		<layer id="186" name="Reshape_1668" type="Convert" version="opset1">
			<data destination_type="f32" />
			<rt_info>
				<attribute name="decompression" version="0" />
			</rt_info>
			<input>
				<port id="0" precision="FP16">
					<dim>1</dim>
					<dim>512</dim>
					<dim>1</dim>
					<dim>1</dim>
				</port>
			</input>
			<output>
				<port id="1" precision="FP32">
					<dim>1</dim>
					<dim>512</dim>
					<dim>1</dim>
					<dim>1</dim>
				</port>
			</output>
		</layer>
		<layer id="187" name="Conv_57" type="Add" version="opset1">
			<data auto_broadcast="numpy" />
			<input>
				<port id="0" precision="FP32">
					<dim>1</dim>
					<dim>512</dim>
					<dim>96</dim>
					<dim>160</dim>
				</port>
				<port id="1" precision="FP32">
					<dim>1</dim>
					<dim>512</dim>
					<dim>1</dim>
					<dim>1</dim>
				</port>
			</input>
			<output>
				<port id="2" precision="FP32" names="1886">
					<dim>1</dim>
					<dim>512</dim>
					<dim>96</dim>
					<dim>160</dim>
				</port>
			</output>
		</layer>
		<layer id="188" name="Add_58" type="Add" version="opset1">
			<data auto_broadcast="numpy" />
			<input>
				<port id="0" precision="FP32">
					<dim>1</dim>
					<dim>512</dim>
					<dim>96</dim>
					<dim>160</dim>
				</port>
				<port id="1" precision="FP32">
					<dim>1</dim>
					<dim>512</dim>
					<dim>96</dim>
					<dim>160</dim>
				</port>
			</input>
			<output>
				<port id="2" precision="FP32" names="478">
					<dim>1</dim>
					<dim>512</dim>
					<dim>96</dim>
					<dim>160</dim>
				</port>
			</output>
		</layer>
		<layer id="189" name="Relu_59" type="ReLU" version="opset1">
			<input>
				<port id="0" precision="FP32">
					<dim>1</dim>
					<dim>512</dim>
					<dim>96</dim>
					<dim>160</dim>
				</port>
			</input>
			<output>
				<port id="1" precision="FP32" names="479">
					<dim>1</dim>
					<dim>512</dim>
					<dim>96</dim>
					<dim>160</dim>
				</port>
			</output>
		</layer>
		<layer id="190" name="neck.lateral_convs.1.conv.weight_compressed" type="Const" version="opset1">
			<data element_type="f16" shape="64, 512, 1, 1" offset="2912684" size="65536" />
			<output>
				<port id="0" precision="FP16">
					<dim>64</dim>
					<dim>512</dim>
					<dim>1</dim>
					<dim>1</dim>
				</port>
			</output>
		</layer>
		<layer id="191" name="neck.lateral_convs.1.conv.weight" type="Convert" version="opset1">
			<data destination_type="f32" />
			<rt_info>
				<attribute name="decompression" version="0" />
			</rt_info>
			<input>
				<port id="0" precision="FP16">
					<dim>64</dim>
					<dim>512</dim>
					<dim>1</dim>
					<dim>1</dim>
				</port>
			</input>
			<output>
				<port id="1" precision="FP32" names="neck.lateral_convs.1.conv.weight">
					<dim>64</dim>
					<dim>512</dim>
					<dim>1</dim>
					<dim>1</dim>
				</port>
			</output>
		</layer>
		<layer id="192" name="Conv_126/WithoutBiases" type="Convolution" version="opset1">
			<data strides="1, 1" dilations="1, 1" pads_begin="0, 0" pads_end="0, 0" auto_pad="explicit" />
			<input>
				<port id="0" precision="FP32">
					<dim>1</dim>
					<dim>512</dim>
					<dim>96</dim>
					<dim>160</dim>
				</port>
				<port id="1" precision="FP32">
					<dim>64</dim>
					<dim>512</dim>
					<dim>1</dim>
					<dim>1</dim>
				</port>
			</input>
			<output>
				<port id="2" precision="FP32">
					<dim>1</dim>
					<dim>64</dim>
					<dim>96</dim>
					<dim>160</dim>
				</port>
			</output>
		</layer>
		<layer id="193" name="Reshape_3194_compressed" type="Const" version="opset1">
			<data element_type="f16" shape="1, 64, 1, 1" offset="2978220" size="128" />
			<output>
				<port id="0" precision="FP16">
					<dim>1</dim>
					<dim>64</dim>
					<dim>1</dim>
					<dim>1</dim>
				</port>
			</output>
		</layer>
		<layer id="194" name="Reshape_3194" type="Convert" version="opset1">
			<data destination_type="f32" />
			<rt_info>
				<attribute name="decompression" version="0" />
			</rt_info>
			<input>
				<port id="0" precision="FP16">
					<dim>1</dim>
					<dim>64</dim>
					<dim>1</dim>
					<dim>1</dim>
				</port>
			</input>
			<output>
				<port id="1" precision="FP32">
					<dim>1</dim>
					<dim>64</dim>
					<dim>1</dim>
					<dim>1</dim>
				</port>
			</output>
		</layer>
		<layer id="195" name="Conv_126" type="Add" version="opset1">
			<data auto_broadcast="numpy" />
			<input>
				<port id="0" precision="FP32">
					<dim>1</dim>
					<dim>64</dim>
					<dim>96</dim>
					<dim>160</dim>
				</port>
				<port id="1" precision="FP32">
					<dim>1</dim>
					<dim>64</dim>
					<dim>1</dim>
					<dim>1</dim>
				</port>
			</input>
			<output>
				<port id="2" precision="FP32" names="575">
					<dim>1</dim>
					<dim>64</dim>
					<dim>96</dim>
					<dim>160</dim>
				</port>
			</output>
		</layer>
		<layer id="196" name="1890_compressed" type="Const" version="opset1">
			<data element_type="f16" shape="256, 512, 1, 1" offset="2978348" size="262144" />
			<output>
				<port id="0" precision="FP16">
					<dim>256</dim>
					<dim>512</dim>
					<dim>1</dim>
					<dim>1</dim>
				</port>
			</output>
		</layer>
		<layer id="197" name="1890" type="Convert" version="opset1">
			<data destination_type="f32" />
			<rt_info>
				<attribute name="decompression" version="0" />
			</rt_info>
			<input>
				<port id="0" precision="FP16">
					<dim>256</dim>
					<dim>512</dim>
					<dim>1</dim>
					<dim>1</dim>
				</port>
			</input>
			<output>
				<port id="1" precision="FP32" names="1890">
					<dim>256</dim>
					<dim>512</dim>
					<dim>1</dim>
					<dim>1</dim>
				</port>
			</output>
		</layer>
		<layer id="198" name="Conv_60/WithoutBiases" type="Convolution" version="opset1">
			<data strides="1, 1" dilations="1, 1" pads_begin="0, 0" pads_end="0, 0" auto_pad="explicit" />
			<input>
				<port id="0" precision="FP32">
					<dim>1</dim>
					<dim>512</dim>
					<dim>96</dim>
					<dim>160</dim>
				</port>
				<port id="1" precision="FP32">
					<dim>256</dim>
					<dim>512</dim>
					<dim>1</dim>
					<dim>1</dim>
				</port>
			</input>
			<output>
				<port id="2" precision="FP32">
					<dim>1</dim>
					<dim>256</dim>
					<dim>96</dim>
					<dim>160</dim>
				</port>
			</output>
		</layer>
		<layer id="199" name="Reshape_1718_compressed" type="Const" version="opset1">
			<data element_type="f16" shape="1, 256, 1, 1" offset="3240492" size="512" />
			<output>
				<port id="0" precision="FP16">
					<dim>1</dim>
					<dim>256</dim>
					<dim>1</dim>
					<dim>1</dim>
				</port>
			</output>
		</layer>
		<layer id="200" name="Reshape_1718" type="Convert" version="opset1">
			<data destination_type="f32" />
			<rt_info>
				<attribute name="decompression" version="0" />
			</rt_info>
			<input>
				<port id="0" precision="FP16">
					<dim>1</dim>
					<dim>256</dim>
					<dim>1</dim>
					<dim>1</dim>
				</port>
			</input>
			<output>
				<port id="1" precision="FP32">
					<dim>1</dim>
					<dim>256</dim>
					<dim>1</dim>
					<dim>1</dim>
				</port>
			</output>
		</layer>
		<layer id="201" name="Conv_60" type="Add" version="opset1">
			<data auto_broadcast="numpy" />
			<input>
				<port id="0" precision="FP32">
					<dim>1</dim>
					<dim>256</dim>
					<dim>96</dim>
					<dim>160</dim>
				</port>
				<port id="1" precision="FP32">
					<dim>1</dim>
					<dim>256</dim>
					<dim>1</dim>
					<dim>1</dim>
				</port>
			</input>
			<output>
				<port id="2" precision="FP32" names="1889">
					<dim>1</dim>
					<dim>256</dim>
					<dim>96</dim>
					<dim>160</dim>
				</port>
			</output>
		</layer>
		<layer id="202" name="Relu_61" type="ReLU" version="opset1">
			<input>
				<port id="0" precision="FP32">
					<dim>1</dim>
					<dim>256</dim>
					<dim>96</dim>
					<dim>160</dim>
				</port>
			</input>
			<output>
				<port id="1" precision="FP32" names="482">
					<dim>1</dim>
					<dim>256</dim>
					<dim>96</dim>
					<dim>160</dim>
				</port>
			</output>
		</layer>
		<layer id="203" name="1893_compressed" type="Const" version="opset1">
			<data element_type="f16" shape="256, 256, 3, 3" offset="3241004" size="1179648" />
			<output>
				<port id="0" precision="FP16">
					<dim>256</dim>
					<dim>256</dim>
					<dim>3</dim>
					<dim>3</dim>
				</port>
			</output>
		</layer>
		<layer id="204" name="1893" type="Convert" version="opset1">
			<data destination_type="f32" />
			<rt_info>
				<attribute name="decompression" version="0" />
			</rt_info>
			<input>
				<port id="0" precision="FP16">
					<dim>256</dim>
					<dim>256</dim>
					<dim>3</dim>
					<dim>3</dim>
				</port>
			</input>
			<output>
				<port id="1" precision="FP32" names="1893">
					<dim>256</dim>
					<dim>256</dim>
					<dim>3</dim>
					<dim>3</dim>
				</port>
			</output>
		</layer>
		<layer id="205" name="Conv_62/WithoutBiases" type="Convolution" version="opset1">
			<data strides="2, 2" dilations="1, 1" pads_begin="1, 1" pads_end="1, 1" auto_pad="explicit" />
			<input>
				<port id="0" precision="FP32">
					<dim>1</dim>
					<dim>256</dim>
					<dim>96</dim>
					<dim>160</dim>
				</port>
				<port id="1" precision="FP32">
					<dim>256</dim>
					<dim>256</dim>
					<dim>3</dim>
					<dim>3</dim>
				</port>
			</input>
			<output>
				<port id="2" precision="FP32">
					<dim>1</dim>
					<dim>256</dim>
					<dim>48</dim>
					<dim>80</dim>
				</port>
			</output>
		</layer>
		<layer id="206" name="Reshape_1767_compressed" type="Const" version="opset1">
			<data element_type="f16" shape="1, 256, 1, 1" offset="4420652" size="512" />
			<output>
				<port id="0" precision="FP16">
					<dim>1</dim>
					<dim>256</dim>
					<dim>1</dim>
					<dim>1</dim>
				</port>
			</output>
		</layer>
		<layer id="207" name="Reshape_1767" type="Convert" version="opset1">
			<data destination_type="f32" />
			<rt_info>
				<attribute name="decompression" version="0" />
			</rt_info>
			<input>
				<port id="0" precision="FP16">
					<dim>1</dim>
					<dim>256</dim>
					<dim>1</dim>
					<dim>1</dim>
				</port>
			</input>
			<output>
				<port id="1" precision="FP32">
					<dim>1</dim>
					<dim>256</dim>
					<dim>1</dim>
					<dim>1</dim>
				</port>
			</output>
		</layer>
		<layer id="208" name="Conv_62" type="Add" version="opset1">
			<data auto_broadcast="numpy" />
			<input>
				<port id="0" precision="FP32">
					<dim>1</dim>
					<dim>256</dim>
					<dim>48</dim>
					<dim>80</dim>
				</port>
				<port id="1" precision="FP32">
					<dim>1</dim>
					<dim>256</dim>
					<dim>1</dim>
					<dim>1</dim>
				</port>
			</input>
			<output>
				<port id="2" precision="FP32" names="1892">
					<dim>1</dim>
					<dim>256</dim>
					<dim>48</dim>
					<dim>80</dim>
				</port>
			</output>
		</layer>
		<layer id="209" name="Relu_63" type="ReLU" version="opset1">
			<input>
				<port id="0" precision="FP32">
					<dim>1</dim>
					<dim>256</dim>
					<dim>48</dim>
					<dim>80</dim>
				</port>
			</input>
			<output>
				<port id="1" precision="FP32" names="485">
					<dim>1</dim>
					<dim>256</dim>
					<dim>48</dim>
					<dim>80</dim>
				</port>
			</output>
		</layer>
		<layer id="210" name="1896_compressed" type="Const" version="opset1">
			<data element_type="f16" shape="1024, 256, 1, 1" offset="4421164" size="524288" />
			<output>
				<port id="0" precision="FP16">
					<dim>1024</dim>
					<dim>256</dim>
					<dim>1</dim>
					<dim>1</dim>
				</port>
			</output>
		</layer>
		<layer id="211" name="1896" type="Convert" version="opset1">
			<data destination_type="f32" />
			<rt_info>
				<attribute name="decompression" version="0" />
			</rt_info>
			<input>
				<port id="0" precision="FP16">
					<dim>1024</dim>
					<dim>256</dim>
					<dim>1</dim>
					<dim>1</dim>
				</port>
			</input>
			<output>
				<port id="1" precision="FP32" names="1896">
					<dim>1024</dim>
					<dim>256</dim>
					<dim>1</dim>
					<dim>1</dim>
				</port>
			</output>
		</layer>
		<layer id="212" name="Conv_64/WithoutBiases" type="Convolution" version="opset1">
			<data strides="1, 1" dilations="1, 1" pads_begin="0, 0" pads_end="0, 0" auto_pad="explicit" />
			<input>
				<port id="0" precision="FP32">
					<dim>1</dim>
					<dim>256</dim>
					<dim>48</dim>
					<dim>80</dim>
				</port>
				<port id="1" precision="FP32">
					<dim>1024</dim>
					<dim>256</dim>
					<dim>1</dim>
					<dim>1</dim>
				</port>
			</input>
			<output>
				<port id="2" precision="FP32">
					<dim>1</dim>
					<dim>1024</dim>
					<dim>48</dim>
					<dim>80</dim>
				</port>
			</output>
		</layer>
		<layer id="213" name="Reshape_1816_compressed" type="Const" version="opset1">
			<data element_type="f16" shape="1, 1024, 1, 1" offset="4945452" size="2048" />
			<output>
				<port id="0" precision="FP16">
					<dim>1</dim>
					<dim>1024</dim>
					<dim>1</dim>
					<dim>1</dim>
				</port>
			</output>
		</layer>
		<layer id="214" name="Reshape_1816" type="Convert" version="opset1">
			<data destination_type="f32" />
			<rt_info>
				<attribute name="decompression" version="0" />
			</rt_info>
			<input>
				<port id="0" precision="FP16">
					<dim>1</dim>
					<dim>1024</dim>
					<dim>1</dim>
					<dim>1</dim>
				</port>
			</input>
			<output>
				<port id="1" precision="FP32">
					<dim>1</dim>
					<dim>1024</dim>
					<dim>1</dim>
					<dim>1</dim>
				</port>
			</output>
		</layer>
		<layer id="215" name="Conv_64" type="Add" version="opset1">
			<data auto_broadcast="numpy" />
			<input>
				<port id="0" precision="FP32">
					<dim>1</dim>
					<dim>1024</dim>
					<dim>48</dim>
					<dim>80</dim>
				</port>
				<port id="1" precision="FP32">
					<dim>1</dim>
					<dim>1024</dim>
					<dim>1</dim>
					<dim>1</dim>
				</port>
			</input>
			<output>
				<port id="2" precision="FP32" names="1895">
					<dim>1</dim>
					<dim>1024</dim>
					<dim>48</dim>
					<dim>80</dim>
				</port>
			</output>
		</layer>
		<layer id="216" name="1899_compressed" type="Const" version="opset1">
			<data element_type="f16" shape="1024, 512, 1, 1" offset="4947500" size="1048576" />
			<output>
				<port id="0" precision="FP16">
					<dim>1024</dim>
					<dim>512</dim>
					<dim>1</dim>
					<dim>1</dim>
				</port>
			</output>
		</layer>
		<layer id="217" name="1899" type="Convert" version="opset1">
			<data destination_type="f32" />
			<rt_info>
				<attribute name="decompression" version="0" />
			</rt_info>
			<input>
				<port id="0" precision="FP16">
					<dim>1024</dim>
					<dim>512</dim>
					<dim>1</dim>
					<dim>1</dim>
				</port>
			</input>
			<output>
				<port id="1" precision="FP32" names="1899">
					<dim>1024</dim>
					<dim>512</dim>
					<dim>1</dim>
					<dim>1</dim>
				</port>
			</output>
		</layer>
		<layer id="218" name="Conv_65/WithoutBiases" type="Convolution" version="opset1">
			<data strides="2, 2" dilations="1, 1" pads_begin="0, 0" pads_end="0, 0" auto_pad="explicit" />
			<input>
				<port id="0" precision="FP32">
					<dim>1</dim>
					<dim>512</dim>
					<dim>96</dim>
					<dim>160</dim>
				</port>
				<port id="1" precision="FP32">
					<dim>1024</dim>
					<dim>512</dim>
					<dim>1</dim>
					<dim>1</dim>
				</port>
			</input>
			<output>
				<port id="2" precision="FP32">
					<dim>1</dim>
					<dim>1024</dim>
					<dim>48</dim>
					<dim>80</dim>
				</port>
			</output>
		</layer>
		<layer id="219" name="Reshape_1864_compressed" type="Const" version="opset1">
			<data element_type="f16" shape="1, 1024, 1, 1" offset="5996076" size="2048" />
			<output>
				<port id="0" precision="FP16">
					<dim>1</dim>
					<dim>1024</dim>
					<dim>1</dim>
					<dim>1</dim>
				</port>
			</output>
		</layer>
		<layer id="220" name="Reshape_1864" type="Convert" version="opset1">
			<data destination_type="f32" />
			<rt_info>
				<attribute name="decompression" version="0" />
			</rt_info>
			<input>
				<port id="0" precision="FP16">
					<dim>1</dim>
					<dim>1024</dim>
					<dim>1</dim>
					<dim>1</dim>
				</port>
			</input>
			<output>
				<port id="1" precision="FP32">
					<dim>1</dim>
					<dim>1024</dim>
					<dim>1</dim>
					<dim>1</dim>
				</port>
			</output>
		</layer>
		<layer id="221" name="Conv_65" type="Add" version="opset1">
			<data auto_broadcast="numpy" />
			<input>
				<port id="0" precision="FP32">
					<dim>1</dim>
					<dim>1024</dim>
					<dim>48</dim>
					<dim>80</dim>
				</port>
				<port id="1" precision="FP32">
					<dim>1</dim>
					<dim>1024</dim>
					<dim>1</dim>
					<dim>1</dim>
				</port>
			</input>
			<output>
				<port id="2" precision="FP32" names="1898">
					<dim>1</dim>
					<dim>1024</dim>
					<dim>48</dim>
					<dim>80</dim>
				</port>
			</output>
		</layer>
		<layer id="222" name="Add_66" type="Add" version="opset1">
			<data auto_broadcast="numpy" />
			<input>
				<port id="0" precision="FP32">
					<dim>1</dim>
					<dim>1024</dim>
					<dim>48</dim>
					<dim>80</dim>
				</port>
				<port id="1" precision="FP32">
					<dim>1</dim>
					<dim>1024</dim>
					<dim>48</dim>
					<dim>80</dim>
				</port>
			</input>
			<output>
				<port id="2" precision="FP32" names="490">
					<dim>1</dim>
					<dim>1024</dim>
					<dim>48</dim>
					<dim>80</dim>
				</port>
			</output>
		</layer>
		<layer id="223" name="Relu_67" type="ReLU" version="opset1">
			<input>
				<port id="0" precision="FP32">
					<dim>1</dim>
					<dim>1024</dim>
					<dim>48</dim>
					<dim>80</dim>
				</port>
			</input>
			<output>
				<port id="1" precision="FP32" names="491">
					<dim>1</dim>
					<dim>1024</dim>
					<dim>48</dim>
					<dim>80</dim>
				</port>
			</output>
		</layer>
		<layer id="224" name="1902_compressed" type="Const" version="opset1">
			<data element_type="f16" shape="256, 1024, 1, 1" offset="5998124" size="524288" />
			<output>
				<port id="0" precision="FP16">
					<dim>256</dim>
					<dim>1024</dim>
					<dim>1</dim>
					<dim>1</dim>
				</port>
			</output>
		</layer>
		<layer id="225" name="1902" type="Convert" version="opset1">
			<data destination_type="f32" />
			<rt_info>
				<attribute name="decompression" version="0" />
			</rt_info>
			<input>
				<port id="0" precision="FP16">
					<dim>256</dim>
					<dim>1024</dim>
					<dim>1</dim>
					<dim>1</dim>
				</port>
			</input>
			<output>
				<port id="1" precision="FP32" names="1902">
					<dim>256</dim>
					<dim>1024</dim>
					<dim>1</dim>
					<dim>1</dim>
				</port>
			</output>
		</layer>
		<layer id="226" name="Conv_68/WithoutBiases" type="Convolution" version="opset1">
			<data strides="1, 1" dilations="1, 1" pads_begin="0, 0" pads_end="0, 0" auto_pad="explicit" />
			<input>
				<port id="0" precision="FP32">
					<dim>1</dim>
					<dim>1024</dim>
					<dim>48</dim>
					<dim>80</dim>
				</port>
				<port id="1" precision="FP32">
					<dim>256</dim>
					<dim>1024</dim>
					<dim>1</dim>
					<dim>1</dim>
				</port>
			</input>
			<output>
				<port id="2" precision="FP32">
					<dim>1</dim>
					<dim>256</dim>
					<dim>48</dim>
					<dim>80</dim>
				</port>
			</output>
		</layer>
		<layer id="227" name="Reshape_1914_compressed" type="Const" version="opset1">
			<data element_type="f16" shape="1, 256, 1, 1" offset="6522412" size="512" />
			<output>
				<port id="0" precision="FP16">
					<dim>1</dim>
					<dim>256</dim>
					<dim>1</dim>
					<dim>1</dim>
				</port>
			</output>
		</layer>
		<layer id="228" name="Reshape_1914" type="Convert" version="opset1">
			<data destination_type="f32" />
			<rt_info>
				<attribute name="decompression" version="0" />
			</rt_info>
			<input>
				<port id="0" precision="FP16">
					<dim>1</dim>
					<dim>256</dim>
					<dim>1</dim>
					<dim>1</dim>
				</port>
			</input>
			<output>
				<port id="1" precision="FP32">
					<dim>1</dim>
					<dim>256</dim>
					<dim>1</dim>
					<dim>1</dim>
				</port>
			</output>
		</layer>
		<layer id="229" name="Conv_68" type="Add" version="opset1">
			<data auto_broadcast="numpy" />
			<input>
				<port id="0" precision="FP32">
					<dim>1</dim>
					<dim>256</dim>
					<dim>48</dim>
					<dim>80</dim>
				</port>
				<port id="1" precision="FP32">
					<dim>1</dim>
					<dim>256</dim>
					<dim>1</dim>
					<dim>1</dim>
				</port>
			</input>
			<output>
				<port id="2" precision="FP32" names="1901">
					<dim>1</dim>
					<dim>256</dim>
					<dim>48</dim>
					<dim>80</dim>
				</port>
			</output>
		</layer>
		<layer id="230" name="Relu_69" type="ReLU" version="opset1">
			<input>
				<port id="0" precision="FP32">
					<dim>1</dim>
					<dim>256</dim>
					<dim>48</dim>
					<dim>80</dim>
				</port>
			</input>
			<output>
				<port id="1" precision="FP32" names="494">
					<dim>1</dim>
					<dim>256</dim>
					<dim>48</dim>
					<dim>80</dim>
				</port>
			</output>
		</layer>
		<layer id="231" name="1905_compressed" type="Const" version="opset1">
			<data element_type="f16" shape="256, 256, 3, 3" offset="6522924" size="1179648" />
			<output>
				<port id="0" precision="FP16">
					<dim>256</dim>
					<dim>256</dim>
					<dim>3</dim>
					<dim>3</dim>
				</port>
			</output>
		</layer>
		<layer id="232" name="1905" type="Convert" version="opset1">
			<data destination_type="f32" />
			<rt_info>
				<attribute name="decompression" version="0" />
			</rt_info>
			<input>
				<port id="0" precision="FP16">
					<dim>256</dim>
					<dim>256</dim>
					<dim>3</dim>
					<dim>3</dim>
				</port>
			</input>
			<output>
				<port id="1" precision="FP32" names="1905">
					<dim>256</dim>
					<dim>256</dim>
					<dim>3</dim>
					<dim>3</dim>
				</port>
			</output>
		</layer>
		<layer id="233" name="Conv_70/WithoutBiases" type="Convolution" version="opset1">
			<data strides="1, 1" dilations="1, 1" pads_begin="1, 1" pads_end="1, 1" auto_pad="explicit" />
			<input>
				<port id="0" precision="FP32">
					<dim>1</dim>
					<dim>256</dim>
					<dim>48</dim>
					<dim>80</dim>
				</port>
				<port id="1" precision="FP32">
					<dim>256</dim>
					<dim>256</dim>
					<dim>3</dim>
					<dim>3</dim>
				</port>
			</input>
			<output>
				<port id="2" precision="FP32">
					<dim>1</dim>
					<dim>256</dim>
					<dim>48</dim>
					<dim>80</dim>
				</port>
			</output>
		</layer>
		<layer id="234" name="Reshape_1963_compressed" type="Const" version="opset1">
			<data element_type="f16" shape="1, 256, 1, 1" offset="7702572" size="512" />
			<output>
				<port id="0" precision="FP16">
					<dim>1</dim>
					<dim>256</dim>
					<dim>1</dim>
					<dim>1</dim>
				</port>
			</output>
		</layer>
		<layer id="235" name="Reshape_1963" type="Convert" version="opset1">
			<data destination_type="f32" />
			<rt_info>
				<attribute name="decompression" version="0" />
			</rt_info>
			<input>
				<port id="0" precision="FP16">
					<dim>1</dim>
					<dim>256</dim>
					<dim>1</dim>
					<dim>1</dim>
				</port>
			</input>
			<output>
				<port id="1" precision="FP32">
					<dim>1</dim>
					<dim>256</dim>
					<dim>1</dim>
					<dim>1</dim>
				</port>
			</output>
		</layer>
		<layer id="236" name="Conv_70" type="Add" version="opset1">
			<data auto_broadcast="numpy" />
			<input>
				<port id="0" precision="FP32">
					<dim>1</dim>
					<dim>256</dim>
					<dim>48</dim>
					<dim>80</dim>
				</port>
				<port id="1" precision="FP32">
					<dim>1</dim>
					<dim>256</dim>
					<dim>1</dim>
					<dim>1</dim>
				</port>
			</input>
			<output>
				<port id="2" precision="FP32" names="1904">
					<dim>1</dim>
					<dim>256</dim>
					<dim>48</dim>
					<dim>80</dim>
				</port>
			</output>
		</layer>
		<layer id="237" name="Relu_71" type="ReLU" version="opset1">
			<input>
				<port id="0" precision="FP32">
					<dim>1</dim>
					<dim>256</dim>
					<dim>48</dim>
					<dim>80</dim>
				</port>
			</input>
			<output>
				<port id="1" precision="FP32" names="497">
					<dim>1</dim>
					<dim>256</dim>
					<dim>48</dim>
					<dim>80</dim>
				</port>
			</output>
		</layer>
		<layer id="238" name="1908_compressed" type="Const" version="opset1">
			<data element_type="f16" shape="1024, 256, 1, 1" offset="7703084" size="524288" />
			<output>
				<port id="0" precision="FP16">
					<dim>1024</dim>
					<dim>256</dim>
					<dim>1</dim>
					<dim>1</dim>
				</port>
			</output>
		</layer>
		<layer id="239" name="1908" type="Convert" version="opset1">
			<data destination_type="f32" />
			<rt_info>
				<attribute name="decompression" version="0" />
			</rt_info>
			<input>
				<port id="0" precision="FP16">
					<dim>1024</dim>
					<dim>256</dim>
					<dim>1</dim>
					<dim>1</dim>
				</port>
			</input>
			<output>
				<port id="1" precision="FP32" names="1908">
					<dim>1024</dim>
					<dim>256</dim>
					<dim>1</dim>
					<dim>1</dim>
				</port>
			</output>
		</layer>
		<layer id="240" name="Conv_72/WithoutBiases" type="Convolution" version="opset1">
			<data strides="1, 1" dilations="1, 1" pads_begin="0, 0" pads_end="0, 0" auto_pad="explicit" />
			<input>
				<port id="0" precision="FP32">
					<dim>1</dim>
					<dim>256</dim>
					<dim>48</dim>
					<dim>80</dim>
				</port>
				<port id="1" precision="FP32">
					<dim>1024</dim>
					<dim>256</dim>
					<dim>1</dim>
					<dim>1</dim>
				</port>
			</input>
			<output>
				<port id="2" precision="FP32">
					<dim>1</dim>
					<dim>1024</dim>
					<dim>48</dim>
					<dim>80</dim>
				</port>
			</output>
		</layer>
		<layer id="241" name="Reshape_2012_compressed" type="Const" version="opset1">
			<data element_type="f16" shape="1, 1024, 1, 1" offset="8227372" size="2048" />
			<output>
				<port id="0" precision="FP16">
					<dim>1</dim>
					<dim>1024</dim>
					<dim>1</dim>
					<dim>1</dim>
				</port>
			</output>
		</layer>
		<layer id="242" name="Reshape_2012" type="Convert" version="opset1">
			<data destination_type="f32" />
			<rt_info>
				<attribute name="decompression" version="0" />
			</rt_info>
			<input>
				<port id="0" precision="FP16">
					<dim>1</dim>
					<dim>1024</dim>
					<dim>1</dim>
					<dim>1</dim>
				</port>
			</input>
			<output>
				<port id="1" precision="FP32">
					<dim>1</dim>
					<dim>1024</dim>
					<dim>1</dim>
					<dim>1</dim>
				</port>
			</output>
		</layer>
		<layer id="243" name="Conv_72" type="Add" version="opset1">
			<data auto_broadcast="numpy" />
			<input>
				<port id="0" precision="FP32">
					<dim>1</dim>
					<dim>1024</dim>
					<dim>48</dim>
					<dim>80</dim>
				</port>
				<port id="1" precision="FP32">
					<dim>1</dim>
					<dim>1024</dim>
					<dim>1</dim>
					<dim>1</dim>
				</port>
			</input>
			<output>
				<port id="2" precision="FP32" names="1907">
					<dim>1</dim>
					<dim>1024</dim>
					<dim>48</dim>
					<dim>80</dim>
				</port>
			</output>
		</layer>
		<layer id="244" name="Add_73" type="Add" version="opset1">
			<data auto_broadcast="numpy" />
			<input>
				<port id="0" precision="FP32">
					<dim>1</dim>
					<dim>1024</dim>
					<dim>48</dim>
					<dim>80</dim>
				</port>
				<port id="1" precision="FP32">
					<dim>1</dim>
					<dim>1024</dim>
					<dim>48</dim>
					<dim>80</dim>
				</port>
			</input>
			<output>
				<port id="2" precision="FP32" names="500">
					<dim>1</dim>
					<dim>1024</dim>
					<dim>48</dim>
					<dim>80</dim>
				</port>
			</output>
		</layer>
		<layer id="245" name="Relu_74" type="ReLU" version="opset1">
			<input>
				<port id="0" precision="FP32">
					<dim>1</dim>
					<dim>1024</dim>
					<dim>48</dim>
					<dim>80</dim>
				</port>
			</input>
			<output>
				<port id="1" precision="FP32" names="501">
					<dim>1</dim>
					<dim>1024</dim>
					<dim>48</dim>
					<dim>80</dim>
				</port>
			</output>
		</layer>
		<layer id="246" name="1911_compressed" type="Const" version="opset1">
			<data element_type="f16" shape="256, 1024, 1, 1" offset="8229420" size="524288" />
			<output>
				<port id="0" precision="FP16">
					<dim>256</dim>
					<dim>1024</dim>
					<dim>1</dim>
					<dim>1</dim>
				</port>
			</output>
		</layer>
		<layer id="247" name="1911" type="Convert" version="opset1">
			<data destination_type="f32" />
			<rt_info>
				<attribute name="decompression" version="0" />
			</rt_info>
			<input>
				<port id="0" precision="FP16">
					<dim>256</dim>
					<dim>1024</dim>
					<dim>1</dim>
					<dim>1</dim>
				</port>
			</input>
			<output>
				<port id="1" precision="FP32" names="1911">
					<dim>256</dim>
					<dim>1024</dim>
					<dim>1</dim>
					<dim>1</dim>
				</port>
			</output>
		</layer>
		<layer id="248" name="Conv_75/WithoutBiases" type="Convolution" version="opset1">
			<data strides="1, 1" dilations="1, 1" pads_begin="0, 0" pads_end="0, 0" auto_pad="explicit" />
			<input>
				<port id="0" precision="FP32">
					<dim>1</dim>
					<dim>1024</dim>
					<dim>48</dim>
					<dim>80</dim>
				</port>
				<port id="1" precision="FP32">
					<dim>256</dim>
					<dim>1024</dim>
					<dim>1</dim>
					<dim>1</dim>
				</port>
			</input>
			<output>
				<port id="2" precision="FP32">
					<dim>1</dim>
					<dim>256</dim>
					<dim>48</dim>
					<dim>80</dim>
				</port>
			</output>
		</layer>
		<layer id="249" name="Reshape_2062_compressed" type="Const" version="opset1">
			<data element_type="f16" shape="1, 256, 1, 1" offset="8753708" size="512" />
			<output>
				<port id="0" precision="FP16">
					<dim>1</dim>
					<dim>256</dim>
					<dim>1</dim>
					<dim>1</dim>
				</port>
			</output>
		</layer>
		<layer id="250" name="Reshape_2062" type="Convert" version="opset1">
			<data destination_type="f32" />
			<rt_info>
				<attribute name="decompression" version="0" />
			</rt_info>
			<input>
				<port id="0" precision="FP16">
					<dim>1</dim>
					<dim>256</dim>
					<dim>1</dim>
					<dim>1</dim>
				</port>
			</input>
			<output>
				<port id="1" precision="FP32">
					<dim>1</dim>
					<dim>256</dim>
					<dim>1</dim>
					<dim>1</dim>
				</port>
			</output>
		</layer>
		<layer id="251" name="Conv_75" type="Add" version="opset1">
			<data auto_broadcast="numpy" />
			<input>
				<port id="0" precision="FP32">
					<dim>1</dim>
					<dim>256</dim>
					<dim>48</dim>
					<dim>80</dim>
				</port>
				<port id="1" precision="FP32">
					<dim>1</dim>
					<dim>256</dim>
					<dim>1</dim>
					<dim>1</dim>
				</port>
			</input>
			<output>
				<port id="2" precision="FP32" names="1910">
					<dim>1</dim>
					<dim>256</dim>
					<dim>48</dim>
					<dim>80</dim>
				</port>
			</output>
		</layer>
		<layer id="252" name="Relu_76" type="ReLU" version="opset1">
			<input>
				<port id="0" precision="FP32">
					<dim>1</dim>
					<dim>256</dim>
					<dim>48</dim>
					<dim>80</dim>
				</port>
			</input>
			<output>
				<port id="1" precision="FP32" names="504">
					<dim>1</dim>
					<dim>256</dim>
					<dim>48</dim>
					<dim>80</dim>
				</port>
			</output>
		</layer>
		<layer id="253" name="1914_compressed" type="Const" version="opset1">
			<data element_type="f16" shape="256, 256, 3, 3" offset="8754220" size="1179648" />
			<output>
				<port id="0" precision="FP16">
					<dim>256</dim>
					<dim>256</dim>
					<dim>3</dim>
					<dim>3</dim>
				</port>
			</output>
		</layer>
		<layer id="254" name="1914" type="Convert" version="opset1">
			<data destination_type="f32" />
			<rt_info>
				<attribute name="decompression" version="0" />
			</rt_info>
			<input>
				<port id="0" precision="FP16">
					<dim>256</dim>
					<dim>256</dim>
					<dim>3</dim>
					<dim>3</dim>
				</port>
			</input>
			<output>
				<port id="1" precision="FP32" names="1914">
					<dim>256</dim>
					<dim>256</dim>
					<dim>3</dim>
					<dim>3</dim>
				</port>
			</output>
		</layer>
		<layer id="255" name="Conv_77/WithoutBiases" type="Convolution" version="opset1">
			<data strides="1, 1" dilations="1, 1" pads_begin="1, 1" pads_end="1, 1" auto_pad="explicit" />
			<input>
				<port id="0" precision="FP32">
					<dim>1</dim>
					<dim>256</dim>
					<dim>48</dim>
					<dim>80</dim>
				</port>
				<port id="1" precision="FP32">
					<dim>256</dim>
					<dim>256</dim>
					<dim>3</dim>
					<dim>3</dim>
				</port>
			</input>
			<output>
				<port id="2" precision="FP32">
					<dim>1</dim>
					<dim>256</dim>
					<dim>48</dim>
					<dim>80</dim>
				</port>
			</output>
		</layer>
		<layer id="256" name="Reshape_2111_compressed" type="Const" version="opset1">
			<data element_type="f16" shape="1, 256, 1, 1" offset="9933868" size="512" />
			<output>
				<port id="0" precision="FP16">
					<dim>1</dim>
					<dim>256</dim>
					<dim>1</dim>
					<dim>1</dim>
				</port>
			</output>
		</layer>
		<layer id="257" name="Reshape_2111" type="Convert" version="opset1">
			<data destination_type="f32" />
			<rt_info>
				<attribute name="decompression" version="0" />
			</rt_info>
			<input>
				<port id="0" precision="FP16">
					<dim>1</dim>
					<dim>256</dim>
					<dim>1</dim>
					<dim>1</dim>
				</port>
			</input>
			<output>
				<port id="1" precision="FP32">
					<dim>1</dim>
					<dim>256</dim>
					<dim>1</dim>
					<dim>1</dim>
				</port>
			</output>
		</layer>
		<layer id="258" name="Conv_77" type="Add" version="opset1">
			<data auto_broadcast="numpy" />
			<input>
				<port id="0" precision="FP32">
					<dim>1</dim>
					<dim>256</dim>
					<dim>48</dim>
					<dim>80</dim>
				</port>
				<port id="1" precision="FP32">
					<dim>1</dim>
					<dim>256</dim>
					<dim>1</dim>
					<dim>1</dim>
				</port>
			</input>
			<output>
				<port id="2" precision="FP32" names="1913">
					<dim>1</dim>
					<dim>256</dim>
					<dim>48</dim>
					<dim>80</dim>
				</port>
			</output>
		</layer>
		<layer id="259" name="Relu_78" type="ReLU" version="opset1">
			<input>
				<port id="0" precision="FP32">
					<dim>1</dim>
					<dim>256</dim>
					<dim>48</dim>
					<dim>80</dim>
				</port>
			</input>
			<output>
				<port id="1" precision="FP32" names="507">
					<dim>1</dim>
					<dim>256</dim>
					<dim>48</dim>
					<dim>80</dim>
				</port>
			</output>
		</layer>
		<layer id="260" name="1917_compressed" type="Const" version="opset1">
			<data element_type="f16" shape="1024, 256, 1, 1" offset="9934380" size="524288" />
			<output>
				<port id="0" precision="FP16">
					<dim>1024</dim>
					<dim>256</dim>
					<dim>1</dim>
					<dim>1</dim>
				</port>
			</output>
		</layer>
		<layer id="261" name="1917" type="Convert" version="opset1">
			<data destination_type="f32" />
			<rt_info>
				<attribute name="decompression" version="0" />
			</rt_info>
			<input>
				<port id="0" precision="FP16">
					<dim>1024</dim>
					<dim>256</dim>
					<dim>1</dim>
					<dim>1</dim>
				</port>
			</input>
			<output>
				<port id="1" precision="FP32" names="1917">
					<dim>1024</dim>
					<dim>256</dim>
					<dim>1</dim>
					<dim>1</dim>
				</port>
			</output>
		</layer>
		<layer id="262" name="Conv_79/WithoutBiases" type="Convolution" version="opset1">
			<data strides="1, 1" dilations="1, 1" pads_begin="0, 0" pads_end="0, 0" auto_pad="explicit" />
			<input>
				<port id="0" precision="FP32">
					<dim>1</dim>
					<dim>256</dim>
					<dim>48</dim>
					<dim>80</dim>
				</port>
				<port id="1" precision="FP32">
					<dim>1024</dim>
					<dim>256</dim>
					<dim>1</dim>
					<dim>1</dim>
				</port>
			</input>
			<output>
				<port id="2" precision="FP32">
					<dim>1</dim>
					<dim>1024</dim>
					<dim>48</dim>
					<dim>80</dim>
				</port>
			</output>
		</layer>
		<layer id="263" name="Reshape_2160_compressed" type="Const" version="opset1">
			<data element_type="f16" shape="1, 1024, 1, 1" offset="10458668" size="2048" />
			<output>
				<port id="0" precision="FP16">
					<dim>1</dim>
					<dim>1024</dim>
					<dim>1</dim>
					<dim>1</dim>
				</port>
			</output>
		</layer>
		<layer id="264" name="Reshape_2160" type="Convert" version="opset1">
			<data destination_type="f32" />
			<rt_info>
				<attribute name="decompression" version="0" />
			</rt_info>
			<input>
				<port id="0" precision="FP16">
					<dim>1</dim>
					<dim>1024</dim>
					<dim>1</dim>
					<dim>1</dim>
				</port>
			</input>
			<output>
				<port id="1" precision="FP32">
					<dim>1</dim>
					<dim>1024</dim>
					<dim>1</dim>
					<dim>1</dim>
				</port>
			</output>
		</layer>
		<layer id="265" name="Conv_79" type="Add" version="opset1">
			<data auto_broadcast="numpy" />
			<input>
				<port id="0" precision="FP32">
					<dim>1</dim>
					<dim>1024</dim>
					<dim>48</dim>
					<dim>80</dim>
				</port>
				<port id="1" precision="FP32">
					<dim>1</dim>
					<dim>1024</dim>
					<dim>1</dim>
					<dim>1</dim>
				</port>
			</input>
			<output>
				<port id="2" precision="FP32" names="1916">
					<dim>1</dim>
					<dim>1024</dim>
					<dim>48</dim>
					<dim>80</dim>
				</port>
			</output>
		</layer>
		<layer id="266" name="Add_80" type="Add" version="opset1">
			<data auto_broadcast="numpy" />
			<input>
				<port id="0" precision="FP32">
					<dim>1</dim>
					<dim>1024</dim>
					<dim>48</dim>
					<dim>80</dim>
				</port>
				<port id="1" precision="FP32">
					<dim>1</dim>
					<dim>1024</dim>
					<dim>48</dim>
					<dim>80</dim>
				</port>
			</input>
			<output>
				<port id="2" precision="FP32" names="510">
					<dim>1</dim>
					<dim>1024</dim>
					<dim>48</dim>
					<dim>80</dim>
				</port>
			</output>
		</layer>
		<layer id="267" name="Relu_81" type="ReLU" version="opset1">
			<input>
				<port id="0" precision="FP32">
					<dim>1</dim>
					<dim>1024</dim>
					<dim>48</dim>
					<dim>80</dim>
				</port>
			</input>
			<output>
				<port id="1" precision="FP32" names="511">
					<dim>1</dim>
					<dim>1024</dim>
					<dim>48</dim>
					<dim>80</dim>
				</port>
			</output>
		</layer>
		<layer id="268" name="1920_compressed" type="Const" version="opset1">
			<data element_type="f16" shape="256, 1024, 1, 1" offset="10460716" size="524288" />
			<output>
				<port id="0" precision="FP16">
					<dim>256</dim>
					<dim>1024</dim>
					<dim>1</dim>
					<dim>1</dim>
				</port>
			</output>
		</layer>
		<layer id="269" name="1920" type="Convert" version="opset1">
			<data destination_type="f32" />
			<rt_info>
				<attribute name="decompression" version="0" />
			</rt_info>
			<input>
				<port id="0" precision="FP16">
					<dim>256</dim>
					<dim>1024</dim>
					<dim>1</dim>
					<dim>1</dim>
				</port>
			</input>
			<output>
				<port id="1" precision="FP32" names="1920">
					<dim>256</dim>
					<dim>1024</dim>
					<dim>1</dim>
					<dim>1</dim>
				</port>
			</output>
		</layer>
		<layer id="270" name="Conv_82/WithoutBiases" type="Convolution" version="opset1">
			<data strides="1, 1" dilations="1, 1" pads_begin="0, 0" pads_end="0, 0" auto_pad="explicit" />
			<input>
				<port id="0" precision="FP32">
					<dim>1</dim>
					<dim>1024</dim>
					<dim>48</dim>
					<dim>80</dim>
				</port>
				<port id="1" precision="FP32">
					<dim>256</dim>
					<dim>1024</dim>
					<dim>1</dim>
					<dim>1</dim>
				</port>
			</input>
			<output>
				<port id="2" precision="FP32">
					<dim>1</dim>
					<dim>256</dim>
					<dim>48</dim>
					<dim>80</dim>
				</port>
			</output>
		</layer>
		<layer id="271" name="Reshape_2210_compressed" type="Const" version="opset1">
			<data element_type="f16" shape="1, 256, 1, 1" offset="10985004" size="512" />
			<output>
				<port id="0" precision="FP16">
					<dim>1</dim>
					<dim>256</dim>
					<dim>1</dim>
					<dim>1</dim>
				</port>
			</output>
		</layer>
		<layer id="272" name="Reshape_2210" type="Convert" version="opset1">
			<data destination_type="f32" />
			<rt_info>
				<attribute name="decompression" version="0" />
			</rt_info>
			<input>
				<port id="0" precision="FP16">
					<dim>1</dim>
					<dim>256</dim>
					<dim>1</dim>
					<dim>1</dim>
				</port>
			</input>
			<output>
				<port id="1" precision="FP32">
					<dim>1</dim>
					<dim>256</dim>
					<dim>1</dim>
					<dim>1</dim>
				</port>
			</output>
		</layer>
		<layer id="273" name="Conv_82" type="Add" version="opset1">
			<data auto_broadcast="numpy" />
			<input>
				<port id="0" precision="FP32">
					<dim>1</dim>
					<dim>256</dim>
					<dim>48</dim>
					<dim>80</dim>
				</port>
				<port id="1" precision="FP32">
					<dim>1</dim>
					<dim>256</dim>
					<dim>1</dim>
					<dim>1</dim>
				</port>
			</input>
			<output>
				<port id="2" precision="FP32" names="1919">
					<dim>1</dim>
					<dim>256</dim>
					<dim>48</dim>
					<dim>80</dim>
				</port>
			</output>
		</layer>
		<layer id="274" name="Relu_83" type="ReLU" version="opset1">
			<input>
				<port id="0" precision="FP32">
					<dim>1</dim>
					<dim>256</dim>
					<dim>48</dim>
					<dim>80</dim>
				</port>
			</input>
			<output>
				<port id="1" precision="FP32" names="514">
					<dim>1</dim>
					<dim>256</dim>
					<dim>48</dim>
					<dim>80</dim>
				</port>
			</output>
		</layer>
		<layer id="275" name="1923_compressed" type="Const" version="opset1">
			<data element_type="f16" shape="256, 256, 3, 3" offset="10985516" size="1179648" />
			<output>
				<port id="0" precision="FP16">
					<dim>256</dim>
					<dim>256</dim>
					<dim>3</dim>
					<dim>3</dim>
				</port>
			</output>
		</layer>
		<layer id="276" name="1923" type="Convert" version="opset1">
			<data destination_type="f32" />
			<rt_info>
				<attribute name="decompression" version="0" />
			</rt_info>
			<input>
				<port id="0" precision="FP16">
					<dim>256</dim>
					<dim>256</dim>
					<dim>3</dim>
					<dim>3</dim>
				</port>
			</input>
			<output>
				<port id="1" precision="FP32" names="1923">
					<dim>256</dim>
					<dim>256</dim>
					<dim>3</dim>
					<dim>3</dim>
				</port>
			</output>
		</layer>
		<layer id="277" name="Conv_84/WithoutBiases" type="Convolution" version="opset1">
			<data strides="1, 1" dilations="1, 1" pads_begin="1, 1" pads_end="1, 1" auto_pad="explicit" />
			<input>
				<port id="0" precision="FP32">
					<dim>1</dim>
					<dim>256</dim>
					<dim>48</dim>
					<dim>80</dim>
				</port>
				<port id="1" precision="FP32">
					<dim>256</dim>
					<dim>256</dim>
					<dim>3</dim>
					<dim>3</dim>
				</port>
			</input>
			<output>
				<port id="2" precision="FP32">
					<dim>1</dim>
					<dim>256</dim>
					<dim>48</dim>
					<dim>80</dim>
				</port>
			</output>
		</layer>
		<layer id="278" name="Reshape_2259_compressed" type="Const" version="opset1">
			<data element_type="f16" shape="1, 256, 1, 1" offset="12165164" size="512" />
			<output>
				<port id="0" precision="FP16">
					<dim>1</dim>
					<dim>256</dim>
					<dim>1</dim>
					<dim>1</dim>
				</port>
			</output>
		</layer>
		<layer id="279" name="Reshape_2259" type="Convert" version="opset1">
			<data destination_type="f32" />
			<rt_info>
				<attribute name="decompression" version="0" />
			</rt_info>
			<input>
				<port id="0" precision="FP16">
					<dim>1</dim>
					<dim>256</dim>
					<dim>1</dim>
					<dim>1</dim>
				</port>
			</input>
			<output>
				<port id="1" precision="FP32">
					<dim>1</dim>
					<dim>256</dim>
					<dim>1</dim>
					<dim>1</dim>
				</port>
			</output>
		</layer>
		<layer id="280" name="Conv_84" type="Add" version="opset1">
			<data auto_broadcast="numpy" />
			<input>
				<port id="0" precision="FP32">
					<dim>1</dim>
					<dim>256</dim>
					<dim>48</dim>
					<dim>80</dim>
				</port>
				<port id="1" precision="FP32">
					<dim>1</dim>
					<dim>256</dim>
					<dim>1</dim>
					<dim>1</dim>
				</port>
			</input>
			<output>
				<port id="2" precision="FP32" names="1922">
					<dim>1</dim>
					<dim>256</dim>
					<dim>48</dim>
					<dim>80</dim>
				</port>
			</output>
		</layer>
		<layer id="281" name="Relu_85" type="ReLU" version="opset1">
			<input>
				<port id="0" precision="FP32">
					<dim>1</dim>
					<dim>256</dim>
					<dim>48</dim>
					<dim>80</dim>
				</port>
			</input>
			<output>
				<port id="1" precision="FP32" names="517">
					<dim>1</dim>
					<dim>256</dim>
					<dim>48</dim>
					<dim>80</dim>
				</port>
			</output>
		</layer>
		<layer id="282" name="1926_compressed" type="Const" version="opset1">
			<data element_type="f16" shape="1024, 256, 1, 1" offset="12165676" size="524288" />
			<output>
				<port id="0" precision="FP16">
					<dim>1024</dim>
					<dim>256</dim>
					<dim>1</dim>
					<dim>1</dim>
				</port>
			</output>
		</layer>
		<layer id="283" name="1926" type="Convert" version="opset1">
			<data destination_type="f32" />
			<rt_info>
				<attribute name="decompression" version="0" />
			</rt_info>
			<input>
				<port id="0" precision="FP16">
					<dim>1024</dim>
					<dim>256</dim>
					<dim>1</dim>
					<dim>1</dim>
				</port>
			</input>
			<output>
				<port id="1" precision="FP32" names="1926">
					<dim>1024</dim>
					<dim>256</dim>
					<dim>1</dim>
					<dim>1</dim>
				</port>
			</output>
		</layer>
		<layer id="284" name="Conv_86/WithoutBiases" type="Convolution" version="opset1">
			<data strides="1, 1" dilations="1, 1" pads_begin="0, 0" pads_end="0, 0" auto_pad="explicit" />
			<input>
				<port id="0" precision="FP32">
					<dim>1</dim>
					<dim>256</dim>
					<dim>48</dim>
					<dim>80</dim>
				</port>
				<port id="1" precision="FP32">
					<dim>1024</dim>
					<dim>256</dim>
					<dim>1</dim>
					<dim>1</dim>
				</port>
			</input>
			<output>
				<port id="2" precision="FP32">
					<dim>1</dim>
					<dim>1024</dim>
					<dim>48</dim>
					<dim>80</dim>
				</port>
			</output>
		</layer>
		<layer id="285" name="Reshape_2308_compressed" type="Const" version="opset1">
			<data element_type="f16" shape="1, 1024, 1, 1" offset="12689964" size="2048" />
			<output>
				<port id="0" precision="FP16">
					<dim>1</dim>
					<dim>1024</dim>
					<dim>1</dim>
					<dim>1</dim>
				</port>
			</output>
		</layer>
		<layer id="286" name="Reshape_2308" type="Convert" version="opset1">
			<data destination_type="f32" />
			<rt_info>
				<attribute name="decompression" version="0" />
			</rt_info>
			<input>
				<port id="0" precision="FP16">
					<dim>1</dim>
					<dim>1024</dim>
					<dim>1</dim>
					<dim>1</dim>
				</port>
			</input>
			<output>
				<port id="1" precision="FP32">
					<dim>1</dim>
					<dim>1024</dim>
					<dim>1</dim>
					<dim>1</dim>
				</port>
			</output>
		</layer>
		<layer id="287" name="Conv_86" type="Add" version="opset1">
			<data auto_broadcast="numpy" />
			<input>
				<port id="0" precision="FP32">
					<dim>1</dim>
					<dim>1024</dim>
					<dim>48</dim>
					<dim>80</dim>
				</port>
				<port id="1" precision="FP32">
					<dim>1</dim>
					<dim>1024</dim>
					<dim>1</dim>
					<dim>1</dim>
				</port>
			</input>
			<output>
				<port id="2" precision="FP32" names="1925">
					<dim>1</dim>
					<dim>1024</dim>
					<dim>48</dim>
					<dim>80</dim>
				</port>
			</output>
		</layer>
		<layer id="288" name="Add_87" type="Add" version="opset1">
			<data auto_broadcast="numpy" />
			<input>
				<port id="0" precision="FP32">
					<dim>1</dim>
					<dim>1024</dim>
					<dim>48</dim>
					<dim>80</dim>
				</port>
				<port id="1" precision="FP32">
					<dim>1</dim>
					<dim>1024</dim>
					<dim>48</dim>
					<dim>80</dim>
				</port>
			</input>
			<output>
				<port id="2" precision="FP32" names="520">
					<dim>1</dim>
					<dim>1024</dim>
					<dim>48</dim>
					<dim>80</dim>
				</port>
			</output>
		</layer>
		<layer id="289" name="Relu_88" type="ReLU" version="opset1">
			<input>
				<port id="0" precision="FP32">
					<dim>1</dim>
					<dim>1024</dim>
					<dim>48</dim>
					<dim>80</dim>
				</port>
			</input>
			<output>
				<port id="1" precision="FP32" names="521">
					<dim>1</dim>
					<dim>1024</dim>
					<dim>48</dim>
					<dim>80</dim>
				</port>
			</output>
		</layer>
		<layer id="290" name="1929_compressed" type="Const" version="opset1">
			<data element_type="f16" shape="256, 1024, 1, 1" offset="12692012" size="524288" />
			<output>
				<port id="0" precision="FP16">
					<dim>256</dim>
					<dim>1024</dim>
					<dim>1</dim>
					<dim>1</dim>
				</port>
			</output>
		</layer>
		<layer id="291" name="1929" type="Convert" version="opset1">
			<data destination_type="f32" />
			<rt_info>
				<attribute name="decompression" version="0" />
			</rt_info>
			<input>
				<port id="0" precision="FP16">
					<dim>256</dim>
					<dim>1024</dim>
					<dim>1</dim>
					<dim>1</dim>
				</port>
			</input>
			<output>
				<port id="1" precision="FP32" names="1929">
					<dim>256</dim>
					<dim>1024</dim>
					<dim>1</dim>
					<dim>1</dim>
				</port>
			</output>
		</layer>
		<layer id="292" name="Conv_89/WithoutBiases" type="Convolution" version="opset1">
			<data strides="1, 1" dilations="1, 1" pads_begin="0, 0" pads_end="0, 0" auto_pad="explicit" />
			<input>
				<port id="0" precision="FP32">
					<dim>1</dim>
					<dim>1024</dim>
					<dim>48</dim>
					<dim>80</dim>
				</port>
				<port id="1" precision="FP32">
					<dim>256</dim>
					<dim>1024</dim>
					<dim>1</dim>
					<dim>1</dim>
				</port>
			</input>
			<output>
				<port id="2" precision="FP32">
					<dim>1</dim>
					<dim>256</dim>
					<dim>48</dim>
					<dim>80</dim>
				</port>
			</output>
		</layer>
		<layer id="293" name="Reshape_2358_compressed" type="Const" version="opset1">
			<data element_type="f16" shape="1, 256, 1, 1" offset="13216300" size="512" />
			<output>
				<port id="0" precision="FP16">
					<dim>1</dim>
					<dim>256</dim>
					<dim>1</dim>
					<dim>1</dim>
				</port>
			</output>
		</layer>
		<layer id="294" name="Reshape_2358" type="Convert" version="opset1">
			<data destination_type="f32" />
			<rt_info>
				<attribute name="decompression" version="0" />
			</rt_info>
			<input>
				<port id="0" precision="FP16">
					<dim>1</dim>
					<dim>256</dim>
					<dim>1</dim>
					<dim>1</dim>
				</port>
			</input>
			<output>
				<port id="1" precision="FP32">
					<dim>1</dim>
					<dim>256</dim>
					<dim>1</dim>
					<dim>1</dim>
				</port>
			</output>
		</layer>
		<layer id="295" name="Conv_89" type="Add" version="opset1">
			<data auto_broadcast="numpy" />
			<input>
				<port id="0" precision="FP32">
					<dim>1</dim>
					<dim>256</dim>
					<dim>48</dim>
					<dim>80</dim>
				</port>
				<port id="1" precision="FP32">
					<dim>1</dim>
					<dim>256</dim>
					<dim>1</dim>
					<dim>1</dim>
				</port>
			</input>
			<output>
				<port id="2" precision="FP32" names="1928">
					<dim>1</dim>
					<dim>256</dim>
					<dim>48</dim>
					<dim>80</dim>
				</port>
			</output>
		</layer>
		<layer id="296" name="Relu_90" type="ReLU" version="opset1">
			<input>
				<port id="0" precision="FP32">
					<dim>1</dim>
					<dim>256</dim>
					<dim>48</dim>
					<dim>80</dim>
				</port>
			</input>
			<output>
				<port id="1" precision="FP32" names="524">
					<dim>1</dim>
					<dim>256</dim>
					<dim>48</dim>
					<dim>80</dim>
				</port>
			</output>
		</layer>
		<layer id="297" name="1932_compressed" type="Const" version="opset1">
			<data element_type="f16" shape="256, 256, 3, 3" offset="13216812" size="1179648" />
			<output>
				<port id="0" precision="FP16">
					<dim>256</dim>
					<dim>256</dim>
					<dim>3</dim>
					<dim>3</dim>
				</port>
			</output>
		</layer>
		<layer id="298" name="1932" type="Convert" version="opset1">
			<data destination_type="f32" />
			<rt_info>
				<attribute name="decompression" version="0" />
			</rt_info>
			<input>
				<port id="0" precision="FP16">
					<dim>256</dim>
					<dim>256</dim>
					<dim>3</dim>
					<dim>3</dim>
				</port>
			</input>
			<output>
				<port id="1" precision="FP32" names="1932">
					<dim>256</dim>
					<dim>256</dim>
					<dim>3</dim>
					<dim>3</dim>
				</port>
			</output>
		</layer>
		<layer id="299" name="Conv_91/WithoutBiases" type="Convolution" version="opset1">
			<data strides="1, 1" dilations="1, 1" pads_begin="1, 1" pads_end="1, 1" auto_pad="explicit" />
			<input>
				<port id="0" precision="FP32">
					<dim>1</dim>
					<dim>256</dim>
					<dim>48</dim>
					<dim>80</dim>
				</port>
				<port id="1" precision="FP32">
					<dim>256</dim>
					<dim>256</dim>
					<dim>3</dim>
					<dim>3</dim>
				</port>
			</input>
			<output>
				<port id="2" precision="FP32">
					<dim>1</dim>
					<dim>256</dim>
					<dim>48</dim>
					<dim>80</dim>
				</port>
			</output>
		</layer>
		<layer id="300" name="Reshape_2407_compressed" type="Const" version="opset1">
			<data element_type="f16" shape="1, 256, 1, 1" offset="14396460" size="512" />
			<output>
				<port id="0" precision="FP16">
					<dim>1</dim>
					<dim>256</dim>
					<dim>1</dim>
					<dim>1</dim>
				</port>
			</output>
		</layer>
		<layer id="301" name="Reshape_2407" type="Convert" version="opset1">
			<data destination_type="f32" />
			<rt_info>
				<attribute name="decompression" version="0" />
			</rt_info>
			<input>
				<port id="0" precision="FP16">
					<dim>1</dim>
					<dim>256</dim>
					<dim>1</dim>
					<dim>1</dim>
				</port>
			</input>
			<output>
				<port id="1" precision="FP32">
					<dim>1</dim>
					<dim>256</dim>
					<dim>1</dim>
					<dim>1</dim>
				</port>
			</output>
		</layer>
		<layer id="302" name="Conv_91" type="Add" version="opset1">
			<data auto_broadcast="numpy" />
			<input>
				<port id="0" precision="FP32">
					<dim>1</dim>
					<dim>256</dim>
					<dim>48</dim>
					<dim>80</dim>
				</port>
				<port id="1" precision="FP32">
					<dim>1</dim>
					<dim>256</dim>
					<dim>1</dim>
					<dim>1</dim>
				</port>
			</input>
			<output>
				<port id="2" precision="FP32" names="1931">
					<dim>1</dim>
					<dim>256</dim>
					<dim>48</dim>
					<dim>80</dim>
				</port>
			</output>
		</layer>
		<layer id="303" name="Relu_92" type="ReLU" version="opset1">
			<input>
				<port id="0" precision="FP32">
					<dim>1</dim>
					<dim>256</dim>
					<dim>48</dim>
					<dim>80</dim>
				</port>
			</input>
			<output>
				<port id="1" precision="FP32" names="527">
					<dim>1</dim>
					<dim>256</dim>
					<dim>48</dim>
					<dim>80</dim>
				</port>
			</output>
		</layer>
		<layer id="304" name="1935_compressed" type="Const" version="opset1">
			<data element_type="f16" shape="1024, 256, 1, 1" offset="14396972" size="524288" />
			<output>
				<port id="0" precision="FP16">
					<dim>1024</dim>
					<dim>256</dim>
					<dim>1</dim>
					<dim>1</dim>
				</port>
			</output>
		</layer>
		<layer id="305" name="1935" type="Convert" version="opset1">
			<data destination_type="f32" />
			<rt_info>
				<attribute name="decompression" version="0" />
			</rt_info>
			<input>
				<port id="0" precision="FP16">
					<dim>1024</dim>
					<dim>256</dim>
					<dim>1</dim>
					<dim>1</dim>
				</port>
			</input>
			<output>
				<port id="1" precision="FP32" names="1935">
					<dim>1024</dim>
					<dim>256</dim>
					<dim>1</dim>
					<dim>1</dim>
				</port>
			</output>
		</layer>
		<layer id="306" name="Conv_93/WithoutBiases" type="Convolution" version="opset1">
			<data strides="1, 1" dilations="1, 1" pads_begin="0, 0" pads_end="0, 0" auto_pad="explicit" />
			<input>
				<port id="0" precision="FP32">
					<dim>1</dim>
					<dim>256</dim>
					<dim>48</dim>
					<dim>80</dim>
				</port>
				<port id="1" precision="FP32">
					<dim>1024</dim>
					<dim>256</dim>
					<dim>1</dim>
					<dim>1</dim>
				</port>
			</input>
			<output>
				<port id="2" precision="FP32">
					<dim>1</dim>
					<dim>1024</dim>
					<dim>48</dim>
					<dim>80</dim>
				</port>
			</output>
		</layer>
		<layer id="307" name="Reshape_2456_compressed" type="Const" version="opset1">
			<data element_type="f16" shape="1, 1024, 1, 1" offset="14921260" size="2048" />
			<output>
				<port id="0" precision="FP16">
					<dim>1</dim>
					<dim>1024</dim>
					<dim>1</dim>
					<dim>1</dim>
				</port>
			</output>
		</layer>
		<layer id="308" name="Reshape_2456" type="Convert" version="opset1">
			<data destination_type="f32" />
			<rt_info>
				<attribute name="decompression" version="0" />
			</rt_info>
			<input>
				<port id="0" precision="FP16">
					<dim>1</dim>
					<dim>1024</dim>
					<dim>1</dim>
					<dim>1</dim>
				</port>
			</input>
			<output>
				<port id="1" precision="FP32">
					<dim>1</dim>
					<dim>1024</dim>
					<dim>1</dim>
					<dim>1</dim>
				</port>
			</output>
		</layer>
		<layer id="309" name="Conv_93" type="Add" version="opset1">
			<data auto_broadcast="numpy" />
			<input>
				<port id="0" precision="FP32">
					<dim>1</dim>
					<dim>1024</dim>
					<dim>48</dim>
					<dim>80</dim>
				</port>
				<port id="1" precision="FP32">
					<dim>1</dim>
					<dim>1024</dim>
					<dim>1</dim>
					<dim>1</dim>
				</port>
			</input>
			<output>
				<port id="2" precision="FP32" names="1934">
					<dim>1</dim>
					<dim>1024</dim>
					<dim>48</dim>
					<dim>80</dim>
				</port>
			</output>
		</layer>
		<layer id="310" name="Add_94" type="Add" version="opset1">
			<data auto_broadcast="numpy" />
			<input>
				<port id="0" precision="FP32">
					<dim>1</dim>
					<dim>1024</dim>
					<dim>48</dim>
					<dim>80</dim>
				</port>
				<port id="1" precision="FP32">
					<dim>1</dim>
					<dim>1024</dim>
					<dim>48</dim>
					<dim>80</dim>
				</port>
			</input>
			<output>
				<port id="2" precision="FP32" names="530">
					<dim>1</dim>
					<dim>1024</dim>
					<dim>48</dim>
					<dim>80</dim>
				</port>
			</output>
		</layer>
		<layer id="311" name="Relu_95" type="ReLU" version="opset1">
			<input>
				<port id="0" precision="FP32">
					<dim>1</dim>
					<dim>1024</dim>
					<dim>48</dim>
					<dim>80</dim>
				</port>
			</input>
			<output>
				<port id="1" precision="FP32" names="531">
					<dim>1</dim>
					<dim>1024</dim>
					<dim>48</dim>
					<dim>80</dim>
				</port>
			</output>
		</layer>
		<layer id="312" name="1938_compressed" type="Const" version="opset1">
			<data element_type="f16" shape="256, 1024, 1, 1" offset="14923308" size="524288" />
			<output>
				<port id="0" precision="FP16">
					<dim>256</dim>
					<dim>1024</dim>
					<dim>1</dim>
					<dim>1</dim>
				</port>
			</output>
		</layer>
		<layer id="313" name="1938" type="Convert" version="opset1">
			<data destination_type="f32" />
			<rt_info>
				<attribute name="decompression" version="0" />
			</rt_info>
			<input>
				<port id="0" precision="FP16">
					<dim>256</dim>
					<dim>1024</dim>
					<dim>1</dim>
					<dim>1</dim>
				</port>
			</input>
			<output>
				<port id="1" precision="FP32" names="1938">
					<dim>256</dim>
					<dim>1024</dim>
					<dim>1</dim>
					<dim>1</dim>
				</port>
			</output>
		</layer>
		<layer id="314" name="Conv_96/WithoutBiases" type="Convolution" version="opset1">
			<data strides="1, 1" dilations="1, 1" pads_begin="0, 0" pads_end="0, 0" auto_pad="explicit" />
			<input>
				<port id="0" precision="FP32">
					<dim>1</dim>
					<dim>1024</dim>
					<dim>48</dim>
					<dim>80</dim>
				</port>
				<port id="1" precision="FP32">
					<dim>256</dim>
					<dim>1024</dim>
					<dim>1</dim>
					<dim>1</dim>
				</port>
			</input>
			<output>
				<port id="2" precision="FP32">
					<dim>1</dim>
					<dim>256</dim>
					<dim>48</dim>
					<dim>80</dim>
				</port>
			</output>
		</layer>
		<layer id="315" name="Reshape_2506_compressed" type="Const" version="opset1">
			<data element_type="f16" shape="1, 256, 1, 1" offset="15447596" size="512" />
			<output>
				<port id="0" precision="FP16">
					<dim>1</dim>
					<dim>256</dim>
					<dim>1</dim>
					<dim>1</dim>
				</port>
			</output>
		</layer>
		<layer id="316" name="Reshape_2506" type="Convert" version="opset1">
			<data destination_type="f32" />
			<rt_info>
				<attribute name="decompression" version="0" />
			</rt_info>
			<input>
				<port id="0" precision="FP16">
					<dim>1</dim>
					<dim>256</dim>
					<dim>1</dim>
					<dim>1</dim>
				</port>
			</input>
			<output>
				<port id="1" precision="FP32">
					<dim>1</dim>
					<dim>256</dim>
					<dim>1</dim>
					<dim>1</dim>
				</port>
			</output>
		</layer>
		<layer id="317" name="Conv_96" type="Add" version="opset1">
			<data auto_broadcast="numpy" />
			<input>
				<port id="0" precision="FP32">
					<dim>1</dim>
					<dim>256</dim>
					<dim>48</dim>
					<dim>80</dim>
				</port>
				<port id="1" precision="FP32">
					<dim>1</dim>
					<dim>256</dim>
					<dim>1</dim>
					<dim>1</dim>
				</port>
			</input>
			<output>
				<port id="2" precision="FP32" names="1937">
					<dim>1</dim>
					<dim>256</dim>
					<dim>48</dim>
					<dim>80</dim>
				</port>
			</output>
		</layer>
		<layer id="318" name="Relu_97" type="ReLU" version="opset1">
			<input>
				<port id="0" precision="FP32">
					<dim>1</dim>
					<dim>256</dim>
					<dim>48</dim>
					<dim>80</dim>
				</port>
			</input>
			<output>
				<port id="1" precision="FP32" names="534">
					<dim>1</dim>
					<dim>256</dim>
					<dim>48</dim>
					<dim>80</dim>
				</port>
			</output>
		</layer>
		<layer id="319" name="1941_compressed" type="Const" version="opset1">
			<data element_type="f16" shape="256, 256, 3, 3" offset="15448108" size="1179648" />
			<output>
				<port id="0" precision="FP16">
					<dim>256</dim>
					<dim>256</dim>
					<dim>3</dim>
					<dim>3</dim>
				</port>
			</output>
		</layer>
		<layer id="320" name="1941" type="Convert" version="opset1">
			<data destination_type="f32" />
			<rt_info>
				<attribute name="decompression" version="0" />
			</rt_info>
			<input>
				<port id="0" precision="FP16">
					<dim>256</dim>
					<dim>256</dim>
					<dim>3</dim>
					<dim>3</dim>
				</port>
			</input>
			<output>
				<port id="1" precision="FP32" names="1941">
					<dim>256</dim>
					<dim>256</dim>
					<dim>3</dim>
					<dim>3</dim>
				</port>
			</output>
		</layer>
		<layer id="321" name="Conv_98/WithoutBiases" type="Convolution" version="opset1">
			<data strides="1, 1" dilations="1, 1" pads_begin="1, 1" pads_end="1, 1" auto_pad="explicit" />
			<input>
				<port id="0" precision="FP32">
					<dim>1</dim>
					<dim>256</dim>
					<dim>48</dim>
					<dim>80</dim>
				</port>
				<port id="1" precision="FP32">
					<dim>256</dim>
					<dim>256</dim>
					<dim>3</dim>
					<dim>3</dim>
				</port>
			</input>
			<output>
				<port id="2" precision="FP32">
					<dim>1</dim>
					<dim>256</dim>
					<dim>48</dim>
					<dim>80</dim>
				</port>
			</output>
		</layer>
		<layer id="322" name="Reshape_2555_compressed" type="Const" version="opset1">
			<data element_type="f16" shape="1, 256, 1, 1" offset="16627756" size="512" />
			<output>
				<port id="0" precision="FP16">
					<dim>1</dim>
					<dim>256</dim>
					<dim>1</dim>
					<dim>1</dim>
				</port>
			</output>
		</layer>
		<layer id="323" name="Reshape_2555" type="Convert" version="opset1">
			<data destination_type="f32" />
			<rt_info>
				<attribute name="decompression" version="0" />
			</rt_info>
			<input>
				<port id="0" precision="FP16">
					<dim>1</dim>
					<dim>256</dim>
					<dim>1</dim>
					<dim>1</dim>
				</port>
			</input>
			<output>
				<port id="1" precision="FP32">
					<dim>1</dim>
					<dim>256</dim>
					<dim>1</dim>
					<dim>1</dim>
				</port>
			</output>
		</layer>
		<layer id="324" name="Conv_98" type="Add" version="opset1">
			<data auto_broadcast="numpy" />
			<input>
				<port id="0" precision="FP32">
					<dim>1</dim>
					<dim>256</dim>
					<dim>48</dim>
					<dim>80</dim>
				</port>
				<port id="1" precision="FP32">
					<dim>1</dim>
					<dim>256</dim>
					<dim>1</dim>
					<dim>1</dim>
				</port>
			</input>
			<output>
				<port id="2" precision="FP32" names="1940">
					<dim>1</dim>
					<dim>256</dim>
					<dim>48</dim>
					<dim>80</dim>
				</port>
			</output>
		</layer>
		<layer id="325" name="Relu_99" type="ReLU" version="opset1">
			<input>
				<port id="0" precision="FP32">
					<dim>1</dim>
					<dim>256</dim>
					<dim>48</dim>
					<dim>80</dim>
				</port>
			</input>
			<output>
				<port id="1" precision="FP32" names="537">
					<dim>1</dim>
					<dim>256</dim>
					<dim>48</dim>
					<dim>80</dim>
				</port>
			</output>
		</layer>
		<layer id="326" name="1944_compressed" type="Const" version="opset1">
			<data element_type="f16" shape="1024, 256, 1, 1" offset="16628268" size="524288" />
			<output>
				<port id="0" precision="FP16">
					<dim>1024</dim>
					<dim>256</dim>
					<dim>1</dim>
					<dim>1</dim>
				</port>
			</output>
		</layer>
		<layer id="327" name="1944" type="Convert" version="opset1">
			<data destination_type="f32" />
			<rt_info>
				<attribute name="decompression" version="0" />
			</rt_info>
			<input>
				<port id="0" precision="FP16">
					<dim>1024</dim>
					<dim>256</dim>
					<dim>1</dim>
					<dim>1</dim>
				</port>
			</input>
			<output>
				<port id="1" precision="FP32" names="1944">
					<dim>1024</dim>
					<dim>256</dim>
					<dim>1</dim>
					<dim>1</dim>
				</port>
			</output>
		</layer>
		<layer id="328" name="Conv_100/WithoutBiases" type="Convolution" version="opset1">
			<data strides="1, 1" dilations="1, 1" pads_begin="0, 0" pads_end="0, 0" auto_pad="explicit" />
			<input>
				<port id="0" precision="FP32">
					<dim>1</dim>
					<dim>256</dim>
					<dim>48</dim>
					<dim>80</dim>
				</port>
				<port id="1" precision="FP32">
					<dim>1024</dim>
					<dim>256</dim>
					<dim>1</dim>
					<dim>1</dim>
				</port>
			</input>
			<output>
				<port id="2" precision="FP32">
					<dim>1</dim>
					<dim>1024</dim>
					<dim>48</dim>
					<dim>80</dim>
				</port>
			</output>
		</layer>
		<layer id="329" name="Reshape_2604_compressed" type="Const" version="opset1">
			<data element_type="f16" shape="1, 1024, 1, 1" offset="17152556" size="2048" />
			<output>
				<port id="0" precision="FP16">
					<dim>1</dim>
					<dim>1024</dim>
					<dim>1</dim>
					<dim>1</dim>
				</port>
			</output>
		</layer>
		<layer id="330" name="Reshape_2604" type="Convert" version="opset1">
			<data destination_type="f32" />
			<rt_info>
				<attribute name="decompression" version="0" />
			</rt_info>
			<input>
				<port id="0" precision="FP16">
					<dim>1</dim>
					<dim>1024</dim>
					<dim>1</dim>
					<dim>1</dim>
				</port>
			</input>
			<output>
				<port id="1" precision="FP32">
…
		<edge from-layer="1152" from-port="0" to-layer="1153" to-port="0" />
		<edge from-layer="1153" from-port="1" to-layer="1155" to-port="0" />
		<edge from-layer="1154" from-port="1" to-layer="1155" to-port="1" />
		<edge from-layer="1155" from-port="2" to-layer="1157" to-port="0" />
		<edge from-layer="1156" from-port="0" to-layer="1157" to-port="1" />
		<edge from-layer="1157" from-port="2" to-layer="1158" to-port="1" />
		<edge from-layer="1158" from-port="2" to-layer="1160" to-port="0" />
		<edge from-layer="1159" from-port="0" to-layer="1160" to-port="1" />
		<edge from-layer="1160" from-port="2" to-layer="1162" to-port="0" />
		<edge from-layer="1160" from-port="2" to-layer="1169" to-port="0" />
		<edge from-layer="1161" from-port="0" to-layer="1162" to-port="1" />
		<edge from-layer="1162" from-port="2" to-layer="1173" to-port="0" />
		<edge from-layer="1163" from-port="0" to-layer="1165" to-port="1" />
		<edge from-layer="1164" from-port="0" to-layer="1165" to-port="2" />
		<edge from-layer="1165" from-port="3" to-layer="1166" to-port="0" />
		<edge from-layer="1166" from-port="1" to-layer="1168" to-port="0" />
		<edge from-layer="1167" from-port="0" to-layer="1168" to-port="1" />
		<edge from-layer="1168" from-port="2" to-layer="1170" to-port="0" />
		<edge from-layer="1169" from-port="1" to-layer="1170" to-port="1" />
		<edge from-layer="1170" from-port="2" to-layer="1172" to-port="0" />
		<edge from-layer="1171" from-port="0" to-layer="1172" to-port="1" />
		<edge from-layer="1172" from-port="2" to-layer="1173" to-port="1" />
		<edge from-layer="1173" from-port="2" to-layer="1175" to-port="0" />
		<edge from-layer="1174" from-port="0" to-layer="1175" to-port="1" />
		<edge from-layer="1175" from-port="2" to-layer="1177" to-port="0" />
		<edge from-layer="1176" from-port="0" to-layer="1177" to-port="1" />
		<edge from-layer="1177" from-port="2" to-layer="1210" to-port="2" />
		<edge from-layer="1178" from-port="0" to-layer="1179" to-port="0" />
		<edge from-layer="1179" from-port="1" to-layer="1180" to-port="1" />
		<edge from-layer="1180" from-port="2" to-layer="1181" to-port="1" />
		<edge from-layer="1181" from-port="2" to-layer="1183" to-port="0" />
		<edge from-layer="1181" from-port="2" to-layer="1186" to-port="0" />
		<edge from-layer="1182" from-port="0" to-layer="1183" to-port="1" />
		<edge from-layer="1183" from-port="2" to-layer="1190" to-port="0" />
		<edge from-layer="1184" from-port="0" to-layer="1185" to-port="0" />
		<edge from-layer="1185" from-port="1" to-layer="1187" to-port="0" />
		<edge from-layer="1186" from-port="1" to-layer="1187" to-port="1" />
		<edge from-layer="1187" from-port="2" to-layer="1189" to-port="0" />
		<edge from-layer="1188" from-port="0" to-layer="1189" to-port="1" />
		<edge from-layer="1189" from-port="2" to-layer="1190" to-port="1" />
		<edge from-layer="1190" from-port="2" to-layer="1192" to-port="0" />
		<edge from-layer="1191" from-port="0" to-layer="1192" to-port="1" />
		<edge from-layer="1192" from-port="2" to-layer="1201" to-port="0" />
		<edge from-layer="1192" from-port="2" to-layer="1194" to-port="0" />
		<edge from-layer="1193" from-port="0" to-layer="1194" to-port="1" />
		<edge from-layer="1194" from-port="2" to-layer="1205" to-port="0" />
		<edge from-layer="1195" from-port="0" to-layer="1197" to-port="1" />
		<edge from-layer="1196" from-port="0" to-layer="1197" to-port="2" />
		<edge from-layer="1197" from-port="3" to-layer="1198" to-port="0" />
		<edge from-layer="1198" from-port="1" to-layer="1200" to-port="0" />
		<edge from-layer="1199" from-port="0" to-layer="1200" to-port="1" />
		<edge from-layer="1200" from-port="2" to-layer="1202" to-port="0" />
		<edge from-layer="1201" from-port="1" to-layer="1202" to-port="1" />
		<edge from-layer="1202" from-port="2" to-layer="1204" to-port="0" />
		<edge from-layer="1203" from-port="0" to-layer="1204" to-port="1" />
		<edge from-layer="1204" from-port="2" to-layer="1205" to-port="1" />
		<edge from-layer="1205" from-port="2" to-layer="1207" to-port="0" />
		<edge from-layer="1206" from-port="0" to-layer="1207" to-port="1" />
		<edge from-layer="1207" from-port="2" to-layer="1209" to-port="0" />
		<edge from-layer="1208" from-port="0" to-layer="1209" to-port="1" />
		<edge from-layer="1209" from-port="2" to-layer="1210" to-port="3" />
		<edge from-layer="1210" from-port="4" to-layer="1211" to-port="0" />
		<edge from-layer="1211" from-port="2" to-layer="1261" to-port="0" />
		<edge from-layer="1211" from-port="2" to-layer="1237" to-port="0" />
		<edge from-layer="1211" from-port="2" to-layer="1230" to-port="0" />
		<edge from-layer="1212" from-port="0" to-layer="1214" to-port="0" />
		<edge from-layer="1213" from-port="1" to-layer="1214" to-port="1" />
		<edge from-layer="1214" from-port="2" to-layer="1227" to-port="0" />
		<edge from-layer="1215" from-port="0" to-layer="1217" to-port="0" />
		<edge from-layer="1216" from-port="1" to-layer="1217" to-port="1" />
		<edge from-layer="1217" from-port="2" to-layer="1227" to-port="1" />
		<edge from-layer="1218" from-port="0" to-layer="1220" to-port="0" />
		<edge from-layer="1219" from-port="1" to-layer="1220" to-port="1" />
		<edge from-layer="1220" from-port="2" to-layer="1227" to-port="2" />
		<edge from-layer="1221" from-port="0" to-layer="1223" to-port="0" />
		<edge from-layer="1222" from-port="1" to-layer="1223" to-port="1" />
		<edge from-layer="1223" from-port="2" to-layer="1227" to-port="3" />
		<edge from-layer="1224" from-port="0" to-layer="1226" to-port="0" />
		<edge from-layer="1225" from-port="1" to-layer="1226" to-port="1" />
		<edge from-layer="1226" from-port="2" to-layer="1227" to-port="4" />
		<edge from-layer="1227" from-port="5" to-layer="1228" to-port="0" />
		<edge from-layer="1228" from-port="1" to-layer="1234" to-port="0" />
		<edge from-layer="1229" from-port="0" to-layer="1230" to-port="1" />
		<edge from-layer="1230" from-port="2" to-layer="1233" to-port="0" />
		<edge from-layer="1231" from-port="0" to-layer="1232" to-port="0" />
		<edge from-layer="1232" from-port="1" to-layer="1233" to-port="1" />
		<edge from-layer="1233" from-port="2" to-layer="1234" to-port="1" />
		<edge from-layer="1234" from-port="2" to-layer="1236" to-port="0" />
		<edge from-layer="1235" from-port="0" to-layer="1236" to-port="1" />
		<edge from-layer="1236" from-port="2" to-layer="1237" to-port="1" />
		<edge from-layer="1237" from-port="2" to-layer="1239" to-port="0" />
		<edge from-layer="1237" from-port="2" to-layer="1264" to-port="0" />
		<edge from-layer="1237" from-port="2" to-layer="1245" to-port="0" />
		<edge from-layer="1238" from-port="0" to-layer="1239" to-port="1" />
		<edge from-layer="1239" from-port="2" to-layer="1253" to-port="0" />
		<edge from-layer="1240" from-port="5" to-layer="1242" to-port="0" />
		<edge from-layer="1240" from-port="5" to-layer="1267" to-port="0" />
		<edge from-layer="1241" from-port="0" to-layer="1242" to-port="1" />
		<edge from-layer="1242" from-port="2" to-layer="1244" to-port="0" />
		<edge from-layer="1243" from-port="0" to-layer="1244" to-port="1" />
		<edge from-layer="1244" from-port="2" to-layer="1253" to-port="1" />
		<edge from-layer="1245" from-port="1" to-layer="1248" to-port="0" />
		<edge from-layer="1246" from-port="0" to-layer="1248" to-port="1" />
		<edge from-layer="1247" from-port="0" to-layer="1248" to-port="2" />
		<edge from-layer="1248" from-port="3" to-layer="1253" to-port="2" />
		<edge from-layer="1249" from-port="0" to-layer="1250" to-port="0" />
		<edge from-layer="1250" from-port="1" to-layer="1253" to-port="3" />
		<edge from-layer="1251" from-port="0" to-layer="1252" to-port="0" />
		<edge from-layer="1252" from-port="1" to-layer="1253" to-port="4" />
		<edge from-layer="1253" from-port="5" to-layer="1256" to-port="0" />
		<edge from-layer="1254" from-port="0" to-layer="1256" to-port="1" />
		<edge from-layer="1255" from-port="0" to-layer="1256" to-port="2" />
		<edge from-layer="1256" from-port="3" to-layer="1258" to-port="0" />
		<edge from-layer="1257" from-port="0" to-layer="1258" to-port="1" />
		<edge from-layer="1258" from-port="2" to-layer="1259" to-port="0" />
		<edge from-layer="1258" from-port="2" to-layer="1265" to-port="0" />
		<edge from-layer="1258" from-port="2" to-layer="1262" to-port="0" />
		<edge from-layer="1259" from-port="1" to-layer="1261" to-port="1" />
		<edge from-layer="1260" from-port="0" to-layer="1261" to-port="2" />
		<edge from-layer="1261" from-port="3" to-layer="1276" to-port="0" />
		<edge from-layer="1262" from-port="1" to-layer="1264" to-port="1" />
		<edge from-layer="1263" from-port="0" to-layer="1264" to-port="2" />
		<edge from-layer="1264" from-port="3" to-layer="1270" to-port="0" />
		<edge from-layer="1265" from-port="1" to-layer="1267" to-port="1" />
		<edge from-layer="1266" from-port="0" to-layer="1267" to-port="2" />
		<edge from-layer="1267" from-port="3" to-layer="1269" to-port="0" />
		<edge from-layer="1268" from-port="0" to-layer="1269" to-port="1" />
		<edge from-layer="1269" from-port="2" to-layer="1270" to-port="1" />
		<edge from-layer="1270" from-port="2" to-layer="1273" to-port="0" />
		<edge from-layer="1271" from-port="0" to-layer="1273" to-port="1" />
		<edge from-layer="1272" from-port="0" to-layer="1273" to-port="2" />
		<edge from-layer="1273" from-port="3" to-layer="1275" to-port="0" />
		<edge from-layer="1274" from-port="0" to-layer="1275" to-port="1" />
		<edge from-layer="1275" from-port="2" to-layer="1276" to-port="1" />
		<edge from-layer="1276" from-port="2" to-layer="1280" to-port="0" />
		<edge from-layer="1277" from-port="0" to-layer="1280" to-port="1" />
		<edge from-layer="1278" from-port="0" to-layer="1280" to-port="2" />
		<edge from-layer="1279" from-port="0" to-layer="1280" to-port="3" />
		<edge from-layer="1280" from-port="4" to-layer="1284" to-port="0" />
		<edge from-layer="1281" from-port="0" to-layer="1284" to-port="1" />
		<edge from-layer="1282" from-port="0" to-layer="1284" to-port="2" />
		<edge from-layer="1283" from-port="0" to-layer="1284" to-port="3" />
		<edge from-layer="1284" from-port="4" to-layer="1286" to-port="0" />
		<edge from-layer="1285" from-port="0" to-layer="1286" to-port="1" />
		<edge from-layer="1286" from-port="2" to-layer="1291" to-port="0" />
		<edge from-layer="1287" from-port="0" to-layer="1291" to-port="1" />
		<edge from-layer="1288" from-port="0" to-layer="1291" to-port="2" />
		<edge from-layer="1289" from-port="0" to-layer="1290" to-port="0" />
		<edge from-layer="1290" from-port="1" to-layer="1291" to-port="3" />
		<edge from-layer="1291" from-port="4" to-layer="1295" to-port="0" />
		<edge from-layer="1291" from-port="4" to-layer="1311" to-port="0" />
		<edge from-layer="1292" from-port="0" to-layer="1295" to-port="1" />
		<edge from-layer="1293" from-port="0" to-layer="1295" to-port="2" />
		<edge from-layer="1294" from-port="0" to-layer="1295" to-port="3" />
		<edge from-layer="1295" from-port="4" to-layer="1440" to-port="0" />
		<edge from-layer="1295" from-port="4" to-layer="1425" to-port="0" />
		<edge from-layer="1295" from-port="4" to-layer="1422" to-port="0" />
		<edge from-layer="1295" from-port="4" to-layer="1298" to-port="0" />
		<edge from-layer="1295" from-port="4" to-layer="1373" to-port="0" />
		<edge from-layer="1295" from-port="4" to-layer="1301" to-port="0" />
		<edge from-layer="1295" from-port="4" to-layer="1370" to-port="0" />
		<edge from-layer="1295" from-port="4" to-layer="1443" to-port="0" />
		<edge from-layer="1296" from-port="0" to-layer="1298" to-port="1" />
		<edge from-layer="1297" from-port="0" to-layer="1298" to-port="2" />
		<edge from-layer="1298" from-port="3" to-layer="1302" to-port="0" />
		<edge from-layer="1299" from-port="0" to-layer="1301" to-port="1" />
		<edge from-layer="1300" from-port="0" to-layer="1301" to-port="2" />
		<edge from-layer="1301" from-port="3" to-layer="1302" to-port="1" />
		<edge from-layer="1302" from-port="2" to-layer="1305" to-port="0" />
		<edge from-layer="1303" from-port="0" to-layer="1304" to-port="0" />
		<edge from-layer="1304" from-port="1" to-layer="1305" to-port="1" />
		<edge from-layer="1305" from-port="2" to-layer="1307" to-port="0" />
		<edge from-layer="1306" from-port="0" to-layer="1307" to-port="1" />
		<edge from-layer="1307" from-port="2" to-layer="1367" to-port="0" />
		<edge from-layer="1308" from-port="0" to-layer="1311" to-port="1" />
		<edge from-layer="1309" from-port="0" to-layer="1311" to-port="2" />
		<edge from-layer="1310" from-port="0" to-layer="1311" to-port="3" />
		<edge from-layer="1311" from-port="4" to-layer="1312" to-port="0" />
		<edge from-layer="1312" from-port="5" to-layer="1314" to-port="0" />
		<edge from-layer="1313" from-port="0" to-layer="1314" to-port="1" />
		<edge from-layer="1314" from-port="2" to-layer="1317" to-port="0" />
		<edge from-layer="1315" from-port="0" to-layer="1316" to-port="0" />
		<edge from-layer="1316" from-port="1" to-layer="1317" to-port="1" />
		<edge from-layer="1317" from-port="2" to-layer="1320" to-port="0" />
		<edge from-layer="1318" from-port="0" to-layer="1319" to-port="0" />
		<edge from-layer="1319" from-port="1" to-layer="1320" to-port="1" />
		<edge from-layer="1320" from-port="2" to-layer="1321" to-port="0" />
		<edge from-layer="1321" from-port="1" to-layer="1324" to-port="0" />
		<edge from-layer="1322" from-port="0" to-layer="1323" to-port="0" />
		<edge from-layer="1323" from-port="1" to-layer="1324" to-port="1" />
		<edge from-layer="1324" from-port="2" to-layer="1327" to-port="0" />
		<edge from-layer="1325" from-port="0" to-layer="1326" to-port="0" />
		<edge from-layer="1326" from-port="1" to-layer="1327" to-port="1" />
		<edge from-layer="1327" from-port="2" to-layer="1328" to-port="0" />
		<edge from-layer="1328" from-port="1" to-layer="1564" to-port="0" />
		<edge from-layer="1328" from-port="1" to-layer="1331" to-port="0" />
		<edge from-layer="1329" from-port="0" to-layer="1330" to-port="0" />
		<edge from-layer="1330" from-port="1" to-layer="1331" to-port="1" />
		<edge from-layer="1331" from-port="2" to-layer="1334" to-port="0" />
		<edge from-layer="1332" from-port="0" to-layer="1333" to-port="0" />
		<edge from-layer="1333" from-port="1" to-layer="1334" to-port="1" />
		<edge from-layer="1334" from-port="2" to-layer="1348" to-port="0" />
		<edge from-layer="1334" from-port="2" to-layer="1338" to-port="0" />
		<edge from-layer="1335" from-port="0" to-layer="1336" to-port="0" />
		<edge from-layer="1336" from-port="1" to-layer="1347" to-port="0" />
		<edge from-layer="1337" from-port="0" to-layer="1346" to-port="0" />
		<edge from-layer="1338" from-port="1" to-layer="1555" to-port="1" />
		<edge from-layer="1338" from-port="1" to-layer="1354" to-port="0" />
		<edge from-layer="1338" from-port="1" to-layer="1341" to-port="0" />
		<edge from-layer="1339" from-port="0" to-layer="1341" to-port="1" />
		<edge from-layer="1340" from-port="0" to-layer="1341" to-port="2" />
		<edge from-layer="1341" from-port="3" to-layer="1343" to-port="0" />
		<edge from-layer="1342" from-port="0" to-layer="1343" to-port="1" />
		<edge from-layer="1343" from-port="2" to-layer="1345" to-port="0" />
		<edge from-layer="1344" from-port="0" to-layer="1345" to-port="1" />
		<edge from-layer="1345" from-port="2" to-layer="1346" to-port="1" />
		<edge from-layer="1346" from-port="2" to-layer="1347" to-port="1" />
		<edge from-layer="1347" from-port="2" to-layer="1348" to-port="1" />
		<edge from-layer="1348" from-port="2" to-layer="1361" to-port="0" />
		<edge from-layer="1349" from-port="0" to-layer="1350" to-port="0" />
		<edge from-layer="1350" from-port="1" to-layer="1360" to-port="0" />
		<edge from-layer="1351" from-port="0" to-layer="1359" to-port="0" />
		<edge from-layer="1352" from-port="0" to-layer="1354" to-port="1" />
		<edge from-layer="1353" from-port="0" to-layer="1354" to-port="2" />
		<edge from-layer="1354" from-port="3" to-layer="1356" to-port="0" />
		<edge from-layer="1355" from-port="0" to-layer="1356" to-port="1" />
		<edge from-layer="1356" from-port="2" to-layer="1358" to-port="0" />
		<edge from-layer="1357" from-port="0" to-layer="1358" to-port="1" />
		<edge from-layer="1358" from-port="2" to-layer="1359" to-port="1" />
		<edge from-layer="1359" from-port="2" to-layer="1360" to-port="1" />
		<edge from-layer="1360" from-port="2" to-layer="1361" to-port="1" />
		<edge from-layer="1361" from-port="2" to-layer="1365" to-port="0" />
		<edge from-layer="1361" from-port="2" to-layer="1435" to-port="0" />
		<edge from-layer="1361" from-port="2" to-layer="1450" to-port="0" />
		<edge from-layer="1361" from-port="2" to-layer="1380" to-port="0" />
		<edge from-layer="1362" from-port="0" to-layer="1365" to-port="1" />
		<edge from-layer="1363" from-port="0" to-layer="1365" to-port="2" />
		<edge from-layer="1364" from-port="0" to-layer="1365" to-port="3" />
		<edge from-layer="1365" from-port="4" to-layer="1384" to-port="1" />
		<edge from-layer="1365" from-port="4" to-layer="1366" to-port="0" />
		<edge from-layer="1366" from-port="1" to-layer="1367" to-port="1" />
		<edge from-layer="1367" from-port="2" to-layer="1385" to-port="0" />
		<edge from-layer="1368" from-port="0" to-layer="1370" to-port="1" />
		<edge from-layer="1369" from-port="0" to-layer="1370" to-port="2" />
		<edge from-layer="1370" from-port="3" to-layer="1374" to-port="0" />
		<edge from-layer="1371" from-port="0" to-layer="1373" to-port="1" />
		<edge from-layer="1372" from-port="0" to-layer="1373" to-port="2" />
		<edge from-layer="1373" from-port="3" to-layer="1374" to-port="1" />
		<edge from-layer="1374" from-port="2" to-layer="1376" to-port="0" />
		<edge from-layer="1375" from-port="0" to-layer="1376" to-port="1" />
		<edge from-layer="1376" from-port="2" to-layer="1383" to-port="0" />
		<edge from-layer="1377" from-port="0" to-layer="1380" to-port="1" />
		<edge from-layer="1378" from-port="0" to-layer="1380" to-port="2" />
		<edge from-layer="1379" from-port="0" to-layer="1380" to-port="3" />
		<edge from-layer="1380" from-port="4" to-layer="1381" to-port="0" />
		<edge from-layer="1381" from-port="1" to-layer="1382" to-port="0" />
		<edge from-layer="1381" from-port="1" to-layer="1386" to-port="0" />
		<edge from-layer="1382" from-port="1" to-layer="1383" to-port="1" />
		<edge from-layer="1383" from-port="2" to-layer="1387" to-port="0" />
		<edge from-layer="1383" from-port="2" to-layer="1384" to-port="0" />
		<edge from-layer="1384" from-port="2" to-layer="1385" to-port="1" />
		<edge from-layer="1385" from-port="2" to-layer="1391" to-port="0" />
		<edge from-layer="1385" from-port="2" to-layer="1493" to-port="0" />
		<edge from-layer="1386" from-port="1" to-layer="1387" to-port="1" />
		<edge from-layer="1387" from-port="2" to-layer="1390" to-port="0" />
		<edge from-layer="1387" from-port="2" to-layer="1492" to-port="0" />
		<edge from-layer="1388" from-port="0" to-layer="1389" to-port="0" />
		<edge from-layer="1389" from-port="1" to-layer="1390" to-port="1" />
		<edge from-layer="1390" from-port="2" to-layer="1391" to-port="1" />
		<edge from-layer="1391" from-port="2" to-layer="1393" to-port="0" />
		<edge from-layer="1391" from-port="2" to-layer="1396" to-port="0" />
		<edge from-layer="1392" from-port="0" to-layer="1393" to-port="1" />
		<edge from-layer="1393" from-port="2" to-layer="1400" to-port="0" />
		<edge from-layer="1394" from-port="0" to-layer="1395" to-port="0" />
		<edge from-layer="1395" from-port="1" to-layer="1397" to-port="0" />
		<edge from-layer="1396" from-port="1" to-layer="1397" to-port="1" />
		<edge from-layer="1397" from-port="2" to-layer="1399" to-port="0" />
		<edge from-layer="1398" from-port="0" to-layer="1399" to-port="1" />
		<edge from-layer="1399" from-port="2" to-layer="1400" to-port="1" />
		<edge from-layer="1400" from-port="2" to-layer="1402" to-port="0" />
		<edge from-layer="1401" from-port="0" to-layer="1402" to-port="1" />
		<edge from-layer="1402" from-port="2" to-layer="1404" to-port="0" />
		<edge from-layer="1402" from-port="2" to-layer="1411" to-port="0" />
		<edge from-layer="1403" from-port="0" to-layer="1404" to-port="1" />
		<edge from-layer="1404" from-port="2" to-layer="1415" to-port="0" />
		<edge from-layer="1405" from-port="0" to-layer="1407" to-port="1" />
		<edge from-layer="1406" from-port="0" to-layer="1407" to-port="2" />
		<edge from-layer="1407" from-port="3" to-layer="1408" to-port="0" />
		<edge from-layer="1408" from-port="1" to-layer="1410" to-port="0" />
		<edge from-layer="1409" from-port="0" to-layer="1410" to-port="1" />
		<edge from-layer="1410" from-port="2" to-layer="1412" to-port="0" />
		<edge from-layer="1411" from-port="1" to-layer="1412" to-port="1" />
		<edge from-layer="1412" from-port="2" to-layer="1414" to-port="0" />
		<edge from-layer="1413" from-port="0" to-layer="1414" to-port="1" />
		<edge from-layer="1414" from-port="2" to-layer="1415" to-port="1" />
		<edge from-layer="1415" from-port="2" to-layer="1417" to-port="0" />
		<edge from-layer="1416" from-port="0" to-layer="1417" to-port="1" />
		<edge from-layer="1417" from-port="2" to-layer="1419" to-port="0" />
		<edge from-layer="1418" from-port="0" to-layer="1419" to-port="1" />
		<edge from-layer="1419" from-port="2" to-layer="1554" to-port="0" />
		<edge from-layer="1420" from-port="0" to-layer="1422" to-port="1" />
		<edge from-layer="1421" from-port="0" to-layer="1422" to-port="2" />
		<edge from-layer="1422" from-port="3" to-layer="1426" to-port="0" />
		<edge from-layer="1423" from-port="0" to-layer="1425" to-port="1" />
		<edge from-layer="1424" from-port="0" to-layer="1425" to-port="2" />
		<edge from-layer="1425" from-port="3" to-layer="1426" to-port="1" />
		<edge from-layer="1426" from-port="2" to-layer="1429" to-port="0" />
		<edge from-layer="1427" from-port="0" to-layer="1428" to-port="0" />
		<edge from-layer="1428" from-port="1" to-layer="1429" to-port="1" />
		<edge from-layer="1429" from-port="2" to-layer="1431" to-port="0" />
		<edge from-layer="1430" from-port="0" to-layer="1431" to-port="1" />
		<edge from-layer="1431" from-port="2" to-layer="1437" to-port="0" />
		<edge from-layer="1432" from-port="0" to-layer="1435" to-port="1" />
		<edge from-layer="1433" from-port="0" to-layer="1435" to-port="2" />
		<edge from-layer="1434" from-port="0" to-layer="1435" to-port="3" />
		<edge from-layer="1435" from-port="4" to-layer="1436" to-port="0" />
		<edge from-layer="1435" from-port="4" to-layer="1454" to-port="1" />
		<edge from-layer="1436" from-port="1" to-layer="1437" to-port="1" />
		<edge from-layer="1437" from-port="2" to-layer="1455" to-port="0" />
		<edge from-layer="1438" from-port="0" to-layer="1440" to-port="1" />
		<edge from-layer="1439" from-port="0" to-layer="1440" to-port="2" />
		<edge from-layer="1440" from-port="3" to-layer="1444" to-port="0" />
		<edge from-layer="1441" from-port="0" to-layer="1443" to-port="1" />
		<edge from-layer="1442" from-port="0" to-layer="1443" to-port="2" />
		<edge from-layer="1443" from-port="3" to-layer="1444" to-port="1" />
		<edge from-layer="1444" from-port="2" to-layer="1446" to-port="0" />
		<edge from-layer="1445" from-port="0" to-layer="1446" to-port="1" />
		<edge from-layer="1446" from-port="2" to-layer="1453" to-port="0" />
		<edge from-layer="1447" from-port="0" to-layer="1450" to-port="1" />
		<edge from-layer="1448" from-port="0" to-layer="1450" to-port="2" />
		<edge from-layer="1449" from-port="0" to-layer="1450" to-port="3" />
		<edge from-layer="1450" from-port="4" to-layer="1451" to-port="0" />
		<edge from-layer="1451" from-port="1" to-layer="1456" to-port="0" />
		<edge from-layer="1451" from-port="1" to-layer="1452" to-port="0" />
		<edge from-layer="1452" from-port="1" to-layer="1453" to-port="1" />
		<edge from-layer="1453" from-port="2" to-layer="1457" to-port="0" />
		<edge from-layer="1453" from-port="2" to-layer="1454" to-port="0" />
		<edge from-layer="1454" from-port="2" to-layer="1455" to-port="1" />
		<edge from-layer="1455" from-port="2" to-layer="1461" to-port="0" />
		<edge from-layer="1455" from-port="2" to-layer="1525" to-port="0" />
		<edge from-layer="1456" from-port="1" to-layer="1457" to-port="1" />
		<edge from-layer="1457" from-port="2" to-layer="1460" to-port="0" />
		<edge from-layer="1457" from-port="2" to-layer="1524" to-port="0" />
		<edge from-layer="1458" from-port="0" to-layer="1459" to-port="0" />
		<edge from-layer="1459" from-port="1" to-layer="1460" to-port="1" />
		<edge from-layer="1460" from-port="2" to-layer="1461" to-port="1" />
		<edge from-layer="1461" from-port="2" to-layer="1466" to-port="0" />
		<edge from-layer="1461" from-port="2" to-layer="1463" to-port="0" />
		<edge from-layer="1462" from-port="0" to-layer="1463" to-port="1" />
		<edge from-layer="1463" from-port="2" to-layer="1470" to-port="0" />
		<edge from-layer="1464" from-port="0" to-layer="1465" to-port="0" />
		<edge from-layer="1465" from-port="1" to-layer="1467" to-port="0" />
		<edge from-layer="1466" from-port="1" to-layer="1467" to-port="1" />
		<edge from-layer="1467" from-port="2" to-layer="1469" to-port="0" />
		<edge from-layer="1468" from-port="0" to-layer="1469" to-port="1" />
		<edge from-layer="1469" from-port="2" to-layer="1470" to-port="1" />
		<edge from-layer="1470" from-port="2" to-layer="1472" to-port="0" />
		<edge from-layer="1471" from-port="0" to-layer="1472" to-port="1" />
		<edge from-layer="1472" from-port="2" to-layer="1474" to-port="0" />
		<edge from-layer="1472" from-port="2" to-layer="1481" to-port="0" />
		<edge from-layer="1473" from-port="0" to-layer="1474" to-port="1" />
		<edge from-layer="1474" from-port="2" to-layer="1485" to-port="0" />
		<edge from-layer="1475" from-port="0" to-layer="1477" to-port="1" />
		<edge from-layer="1476" from-port="0" to-layer="1477" to-port="2" />
		<edge from-layer="1477" from-port="3" to-layer="1478" to-port="0" />
		<edge from-layer="1478" from-port="1" to-layer="1480" to-port="0" />
		<edge from-layer="1479" from-port="0" to-layer="1480" to-port="1" />
		<edge from-layer="1480" from-port="2" to-layer="1482" to-port="0" />
		<edge from-layer="1481" from-port="1" to-layer="1482" to-port="1" />
		<edge from-layer="1482" from-port="2" to-layer="1484" to-port="0" />
		<edge from-layer="1483" from-port="0" to-layer="1484" to-port="1" />
		<edge from-layer="1484" from-port="2" to-layer="1485" to-port="1" />
		<edge from-layer="1485" from-port="2" to-layer="1487" to-port="0" />
		<edge from-layer="1486" from-port="0" to-layer="1487" to-port="1" />
		<edge from-layer="1487" from-port="2" to-layer="1489" to-port="0" />
		<edge from-layer="1488" from-port="0" to-layer="1489" to-port="1" />
		<edge from-layer="1489" from-port="2" to-layer="1554" to-port="1" />
		<edge from-layer="1490" from-port="0" to-layer="1491" to-port="0" />
		<edge from-layer="1491" from-port="1" to-layer="1492" to-port="1" />
		<edge from-layer="1492" from-port="2" to-layer="1493" to-port="1" />
		<edge from-layer="1493" from-port="2" to-layer="1498" to-port="0" />
		<edge from-layer="1493" from-port="2" to-layer="1495" to-port="0" />
		<edge from-layer="1494" from-port="0" to-layer="1495" to-port="1" />
		<edge from-layer="1495" from-port="2" to-layer="1502" to-port="0" />
		<edge from-layer="1496" from-port="0" to-layer="1497" to-port="0" />
		<edge from-layer="1497" from-port="1" to-layer="1499" to-port="0" />
		<edge from-layer="1498" from-port="1" to-layer="1499" to-port="1" />
		<edge from-layer="1499" from-port="2" to-layer="1501" to-port="0" />
		<edge from-layer="1500" from-port="0" to-layer="1501" to-port="1" />
		<edge from-layer="1501" from-port="2" to-layer="1502" to-port="1" />
		<edge from-layer="1502" from-port="2" to-layer="1504" to-port="0" />
		<edge from-layer="1503" from-port="0" to-layer="1504" to-port="1" />
		<edge from-layer="1504" from-port="2" to-layer="1506" to-port="0" />
		<edge from-layer="1504" from-port="2" to-layer="1513" to-port="0" />
		<edge from-layer="1505" from-port="0" to-layer="1506" to-port="1" />
		<edge from-layer="1506" from-port="2" to-layer="1517" to-port="0" />
		<edge from-layer="1507" from-port="0" to-layer="1509" to-port="1" />
		<edge from-layer="1508" from-port="0" to-layer="1509" to-port="2" />
		<edge from-layer="1509" from-port="3" to-layer="1510" to-port="0" />
		<edge from-layer="1510" from-port="1" to-layer="1512" to-port="0" />
		<edge from-layer="1511" from-port="0" to-layer="1512" to-port="1" />
		<edge from-layer="1512" from-port="2" to-layer="1514" to-port="0" />
		<edge from-layer="1513" from-port="1" to-layer="1514" to-port="1" />
		<edge from-layer="1514" from-port="2" to-layer="1516" to-port="0" />
		<edge from-layer="1515" from-port="0" to-layer="1516" to-port="1" />
		<edge from-layer="1516" from-port="2" to-layer="1517" to-port="1" />
		<edge from-layer="1517" from-port="2" to-layer="1519" to-port="0" />
		<edge from-layer="1518" from-port="0" to-layer="1519" to-port="1" />
		<edge from-layer="1519" from-port="2" to-layer="1521" to-port="0" />
		<edge from-layer="1520" from-port="0" to-layer="1521" to-port="1" />
		<edge from-layer="1521" from-port="2" to-layer="1554" to-port="2" />
		<edge from-layer="1522" from-port="0" to-layer="1523" to-port="0" />
		<edge from-layer="1523" from-port="1" to-layer="1524" to-port="1" />
		<edge from-layer="1524" from-port="2" to-layer="1525" to-port="1" />
		<edge from-layer="1525" from-port="2" to-layer="1530" to-port="0" />
		<edge from-layer="1525" from-port="2" to-layer="1527" to-port="0" />
		<edge from-layer="1526" from-port="0" to-layer="1527" to-port="1" />
		<edge from-layer="1527" from-port="2" to-layer="1534" to-port="0" />
		<edge from-layer="1528" from-port="0" to-layer="1529" to-port="0" />
		<edge from-layer="1529" from-port="1" to-layer="1531" to-port="0" />
		<edge from-layer="1530" from-port="1" to-layer="1531" to-port="1" />
		<edge from-layer="1531" from-port="2" to-layer="1533" to-port="0" />
		<edge from-layer="1532" from-port="0" to-layer="1533" to-port="1" />
		<edge from-layer="1533" from-port="2" to-layer="1534" to-port="1" />
		<edge from-layer="1534" from-port="2" to-layer="1536" to-port="0" />
		<edge from-layer="1535" from-port="0" to-layer="1536" to-port="1" />
		<edge from-layer="1536" from-port="2" to-layer="1545" to-port="0" />
		<edge from-layer="1536" from-port="2" to-layer="1538" to-port="0" />
		<edge from-layer="1537" from-port="0" to-layer="1538" to-port="1" />
		<edge from-layer="1538" from-port="2" to-layer="1549" to-port="0" />
		<edge from-layer="1539" from-port="0" to-layer="1541" to-port="1" />
		<edge from-layer="1540" from-port="0" to-layer="1541" to-port="2" />
		<edge from-layer="1541" from-port="3" to-layer="1542" to-port="0" />
		<edge from-layer="1542" from-port="1" to-layer="1544" to-port="0" />
		<edge from-layer="1543" from-port="0" to-layer="1544" to-port="1" />
		<edge from-layer="1544" from-port="2" to-layer="1546" to-port="0" />
		<edge from-layer="1545" from-port="1" to-layer="1546" to-port="1" />
		<edge from-layer="1546" from-port="2" to-layer="1548" to-port="0" />
		<edge from-layer="1547" from-port="0" to-layer="1548" to-port="1" />
		<edge from-layer="1548" from-port="2" to-layer="1549" to-port="1" />
		<edge from-layer="1549" from-port="2" to-layer="1551" to-port="0" />
		<edge from-layer="1550" from-port="0" to-layer="1551" to-port="1" />
		<edge from-layer="1551" from-port="2" to-layer="1553" to-port="0" />
		<edge from-layer="1552" from-port="0" to-layer="1553" to-port="1" />
		<edge from-layer="1553" from-port="2" to-layer="1554" to-port="3" />
		<edge from-layer="1554" from-port="4" to-layer="1555" to-port="0" />
		<edge from-layer="1555" from-port="2" to-layer="1559" to-port="0" />
		<edge from-layer="1556" from-port="0" to-layer="1559" to-port="1" />
		<edge from-layer="1557" from-port="0" to-layer="1559" to-port="2" />
		<edge from-layer="1558" from-port="0" to-layer="1559" to-port="3" />
		<edge from-layer="1559" from-port="4" to-layer="1561" to-port="0" />
		<edge from-layer="1560" from-port="0" to-layer="1561" to-port="1" />
		<edge from-layer="1561" from-port="2" to-layer="1582" to-port="0" />
		<edge from-layer="1562" from-port="0" to-layer="1563" to-port="0" />
		<edge from-layer="1563" from-port="1" to-layer="1564" to-port="1" />
		<edge from-layer="1564" from-port="2" to-layer="1567" to-port="0" />
		<edge from-layer="1565" from-port="0" to-layer="1566" to-port="0" />
		<edge from-layer="1566" from-port="1" to-layer="1567" to-port="1" />
		<edge from-layer="1567" from-port="2" to-layer="1568" to-port="0" />
		<edge from-layer="1568" from-port="1" to-layer="1572" to-port="0" />
		<edge from-layer="1569" from-port="0" to-layer="1572" to-port="1" />
		<edge from-layer="1570" from-port="0" to-layer="1572" to-port="2" />
		<edge from-layer="1571" from-port="0" to-layer="1572" to-port="3" />
		<edge from-layer="1572" from-port="4" to-layer="1573" to-port="0" />
		<edge from-layer="1572" from-port="4" to-layer="1609" to-port="0" />
		<edge from-layer="1573" from-port="1" to-layer="1588" to-port="0" />
		<edge from-layer="1573" from-port="1" to-layer="1575" to-port="0" />
		<edge from-layer="1573" from-port="1" to-layer="1593" to-port="1" />
		<edge from-layer="1574" from-port="0" to-layer="1575" to-port="1" />
		<edge from-layer="1575" from-port="2" to-layer="1577" to-port="0" />
		<edge from-layer="1576" from-port="0" to-layer="1577" to-port="1" />
		<edge from-layer="1577" from-port="2" to-layer="1581" to-port="2" />
		<edge from-layer="1577" from-port="2" to-layer="1579" to-port="0" />
		<edge from-layer="1578" from-port="0" to-layer="1579" to-port="1" />
		<edge from-layer="1579" from-port="2" to-layer="1581" to-port="0" />
		<edge from-layer="1580" from-port="0" to-layer="1581" to-port="1" />
		<edge from-layer="1581" from-port="3" to-layer="1582" to-port="1" />
		<edge from-layer="1582" from-port="2" to-layer="1584" to-port="0" />
		<edge from-layer="1583" from-port="0" to-layer="1584" to-port="1" />
		<edge from-layer="1584" from-port="2" to-layer="1598" to-port="0" />
		<edge from-layer="1584" from-port="2" to-layer="1627" to-port="0" />
		<edge from-layer="1584" from-port="2" to-layer="1605" to-port="0" />
		<edge from-layer="1585" from-port="0" to-layer="1590" to-port="0" />
		<edge from-layer="1586" from-port="0" to-layer="1588" to-port="1" />
		<edge from-layer="1587" from-port="0" to-layer="1588" to-port="2" />
		<edge from-layer="1588" from-port="3" to-layer="1590" to-port="1" />
		<edge from-layer="1589" from-port="0" to-layer="1590" to-port="2" />
		<edge from-layer="1590" from-port="3" to-layer="1592" to-port="0" />
		<edge from-layer="1591" from-port="0" to-layer="1592" to-port="1" />
		<edge from-layer="1592" from-port="2" to-layer="1593" to-port="0" />
		<edge from-layer="1593" from-port="2" to-layer="1595" to-port="0" />
		<edge from-layer="1594" from-port="0" to-layer="1595" to-port="1" />
		<edge from-layer="1595" from-port="2" to-layer="1645" to-port="0" />
		<edge from-layer="1595" from-port="2" to-layer="1596" to-port="0" />
		<edge from-layer="1596" from-port="1" to-layer="1602" to-port="0" />
		<edge from-layer="1597" from-port="0" to-layer="1598" to-port="1" />
		<edge from-layer="1598" from-port="2" to-layer="1601" to-port="0" />
		<edge from-layer="1599" from-port="0" to-layer="1600" to-port="0" />
		<edge from-layer="1600" from-port="1" to-layer="1601" to-port="1" />
		<edge from-layer="1601" from-port="2" to-layer="1602" to-port="1" />
		<edge from-layer="1602" from-port="2" to-layer="1604" to-port="0" />
		<edge from-layer="1603" from-port="0" to-layer="1604" to-port="1" />
		<edge from-layer="1604" from-port="2" to-layer="1605" to-port="1" />
		<edge from-layer="1605" from-port="2" to-layer="1607" to-port="0" />
		<edge from-layer="1605" from-port="2" to-layer="1630" to-port="0" />
		<edge from-layer="1606" from-port="0" to-layer="1607" to-port="1" />
		<edge from-layer="1607" from-port="2" to-layer="1619" to-port="0" />
		<edge from-layer="1608" from-port="0" to-layer="1609" to-port="1" />
		<edge from-layer="1609" from-port="2" to-layer="1611" to-port="0" />
		<edge from-layer="1609" from-port="2" to-layer="1633" to-port="0" />
		<edge from-layer="1610" from-port="0" to-layer="1611" to-port="1" />
		<edge from-layer="1611" from-port="2" to-layer="1613" to-port="0" />
		<edge from-layer="1612" from-port="0" to-layer="1613" to-port="1" />
		<edge from-layer="1613" from-port="2" to-layer="1619" to-port="1" />
		<edge from-layer="1614" from-port="0" to-layer="1619" to-port="2" />
		<edge from-layer="1615" from-port="0" to-layer="1616" to-port="0" />
		<edge from-layer="1616" from-port="1" to-layer="1619" to-port="3" />
		<edge from-layer="1617" from-port="0" to-layer="1618" to-port="0" />
		<edge from-layer="1618" from-port="1" to-layer="1619" to-port="4" />
		<edge from-layer="1619" from-port="5" to-layer="1622" to-port="0" />
		<edge from-layer="1620" from-port="0" to-layer="1622" to-port="1" />
		<edge from-layer="1621" from-port="0" to-layer="1622" to-port="2" />
		<edge from-layer="1622" from-port="3" to-layer="1624" to-port="0" />
		<edge from-layer="1623" from-port="0" to-layer="1624" to-port="1" />
		<edge from-layer="1624" from-port="2" to-layer="1631" to-port="0" />
		<edge from-layer="1624" from-port="2" to-layer="1643" to-port="0" />
		<edge from-layer="1624" from-port="2" to-layer="1628" to-port="0" />
		<edge from-layer="1624" from-port="2" to-layer="1625" to-port="0" />
		<edge from-layer="1625" from-port="1" to-layer="1627" to-port="1" />
		<edge from-layer="1626" from-port="0" to-layer="1627" to-port="2" />
		<edge from-layer="1627" from-port="3" to-layer="1642" to-port="0" />
		<edge from-layer="1628" from-port="1" to-layer="1630" to-port="1" />
		<edge from-layer="1629" from-port="0" to-layer="1630" to-port="2" />
		<edge from-layer="1630" from-port="3" to-layer="1636" to-port="0" />
		<edge from-layer="1631" from-port="1" to-layer="1633" to-port="1" />
		<edge from-layer="1632" from-port="0" to-layer="1633" to-port="2" />
		<edge from-layer="1633" from-port="3" to-layer="1635" to-port="0" />
		<edge from-layer="1634" from-port="0" to-layer="1635" to-port="1" />
		<edge from-layer="1635" from-port="2" to-layer="1636" to-port="1" />
		<edge from-layer="1636" from-port="2" to-layer="1639" to-port="0" />
		<edge from-layer="1637" from-port="0" to-layer="1639" to-port="1" />
		<edge from-layer="1638" from-port="0" to-layer="1639" to-port="2" />
		<edge from-layer="1639" from-port="3" to-layer="1641" to-port="0" />
		<edge from-layer="1640" from-port="0" to-layer="1641" to-port="1" />
		<edge from-layer="1641" from-port="2" to-layer="1642" to-port="1" />
		<edge from-layer="1642" from-port="2" to-layer="1649" to-port="0" />
		<edge from-layer="1643" from-port="1" to-layer="1645" to-port="1" />
		<edge from-layer="1644" from-port="0" to-layer="1645" to-port="2" />
		<edge from-layer="1645" from-port="3" to-layer="1646" to-port="0" />
		<edge from-layer="1646" from-port="1" to-layer="1648" to-port="0" />
		<edge from-layer="1647" from-port="0" to-layer="1648" to-port="1" />
		<edge from-layer="1648" from-port="2" to-layer="1649" to-port="1" />
		<edge from-layer="1649" from-port="2" to-layer="1744" to-port="0" />
		<edge from-layer="1649" from-port="2" to-layer="1653" to-port="0" />
		<edge from-layer="1650" from-port="0" to-layer="1653" to-port="1" />
		<edge from-layer="1651" from-port="0" to-layer="1653" to-port="2" />
		<edge from-layer="1652" from-port="0" to-layer="1653" to-port="3" />
		<edge from-layer="1653" from-port="4" to-layer="1674" to-port="0" />
		<edge from-layer="1653" from-port="4" to-layer="1784" to-port="0" />
		<edge from-layer="1653" from-port="4" to-layer="1657" to-port="0" />
		<edge from-layer="1654" from-port="0" to-layer="1657" to-port="1" />
		<edge from-layer="1655" from-port="0" to-layer="1657" to-port="2" />
		<edge from-layer="1656" from-port="0" to-layer="1657" to-port="3" />
		<edge from-layer="1657" from-port="4" to-layer="1659" to-port="0" />
		<edge from-layer="1658" from-port="0" to-layer="1659" to-port="1" />
		<edge from-layer="1659" from-port="2" to-layer="1664" to-port="0" />
		<edge from-layer="1660" from-port="0" to-layer="1664" to-port="1" />
		<edge from-layer="1661" from-port="0" to-layer="1664" to-port="2" />
		<edge from-layer="1662" from-port="0" to-layer="1663" to-port="0" />
		<edge from-layer="1663" from-port="1" to-layer="1664" to-port="3" />
		<edge from-layer="1664" from-port="4" to-layer="1668" to-port="0" />
		<edge from-layer="1665" from-port="0" to-layer="1668" to-port="1" />
		<edge from-layer="1666" from-port="0" to-layer="1668" to-port="2" />
		<edge from-layer="1667" from-port="0" to-layer="1668" to-port="3" />
		<edge from-layer="1668" from-port="4" to-layer="1669" to-port="0" />
		<edge from-layer="1669" from-port="5" to-layer="1670" to-port="0" />
		<edge from-layer="1671" from-port="0" to-layer="1674" to-port="1" />
		<edge from-layer="1672" from-port="0" to-layer="1674" to-port="2" />
		<edge from-layer="1673" from-port="0" to-layer="1674" to-port="3" />
		<edge from-layer="1674" from-port="4" to-layer="1678" to-port="0" />
		<edge from-layer="1675" from-port="0" to-layer="1678" to-port="1" />
		<edge from-layer="1676" from-port="0" to-layer="1678" to-port="2" />
		<edge from-layer="1677" from-port="0" to-layer="1678" to-port="3" />
		<edge from-layer="1678" from-port="4" to-layer="1680" to-port="0" />
		<edge from-layer="1679" from-port="0" to-layer="1680" to-port="1" />
		<edge from-layer="1680" from-port="2" to-layer="1685" to-port="0" />
		<edge from-layer="1681" from-port="0" to-layer="1685" to-port="1" />
		<edge from-layer="1682" from-port="0" to-layer="1685" to-port="2" />
		<edge from-layer="1683" from-port="0" to-layer="1684" to-port="0" />
		<edge from-layer="1684" from-port="1" to-layer="1685" to-port="3" />
		<edge from-layer="1685" from-port="4" to-layer="1689" to-port="0" />
		<edge from-layer="1686" from-port="0" to-layer="1689" to-port="1" />
		<edge from-layer="1687" from-port="0" to-layer="1689" to-port="2" />
		<edge from-layer="1688" from-port="0" to-layer="1689" to-port="3" />
		<edge from-layer="1689" from-port="4" to-layer="1690" to-port="0" />
		<edge from-layer="1690" from-port="5" to-layer="1693" to-port="0" />
		<edge from-layer="1691" from-port="0" to-layer="1692" to-port="0" />
		<edge from-layer="1692" from-port="1" to-layer="1693" to-port="1" />
		<edge from-layer="1693" from-port="2" to-layer="1696" to-port="0" />
		<edge from-layer="1694" from-port="0" to-layer="1695" to-port="0" />
		<edge from-layer="1695" from-port="1" to-layer="1696" to-port="1" />
		<edge from-layer="1696" from-port="2" to-layer="1697" to-port="0" />
		<edge from-layer="1697" from-port="1" to-layer="1700" to-port="0" />
		<edge from-layer="1698" from-port="0" to-layer="1699" to-port="0" />
		<edge from-layer="1699" from-port="1" to-layer="1700" to-port="1" />
		<edge from-layer="1700" from-port="2" to-layer="1703" to-port="0" />
		<edge from-layer="1701" from-port="0" to-layer="1702" to-port="0" />
		<edge from-layer="1702" from-port="1" to-layer="1703" to-port="1" />
		<edge from-layer="1703" from-port="2" to-layer="1704" to-port="0" />
		<edge from-layer="1704" from-port="1" to-layer="1707" to-port="0" />
		<edge from-layer="1705" from-port="0" to-layer="1706" to-port="0" />
		<edge from-layer="1706" from-port="1" to-layer="1707" to-port="1" />
		<edge from-layer="1707" from-port="2" to-layer="1710" to-port="0" />
		<edge from-layer="1708" from-port="0" to-layer="1709" to-port="0" />
		<edge from-layer="1709" from-port="1" to-layer="1710" to-port="1" />
		<edge from-layer="1710" from-port="2" to-layer="1711" to-port="0" />
		<edge from-layer="1711" from-port="1" to-layer="1714" to-port="0" />
		<edge from-layer="1712" from-port="0" to-layer="1713" to-port="0" />
		<edge from-layer="1713" from-port="1" to-layer="1714" to-port="1" />
		<edge from-layer="1714" from-port="2" to-layer="1717" to-port="0" />
		<edge from-layer="1715" from-port="0" to-layer="1716" to-port="0" />
		<edge from-layer="1716" from-port="1" to-layer="1717" to-port="1" />
		<edge from-layer="1717" from-port="2" to-layer="1718" to-port="0" />
		<edge from-layer="1718" from-port="1" to-layer="1721" to-port="0" />
		<edge from-layer="1719" from-port="0" to-layer="1720" to-port="0" />
		<edge from-layer="1720" from-port="1" to-layer="1721" to-port="1" />
		<edge from-layer="1721" from-port="2" to-layer="1724" to-port="0" />
		<edge from-layer="1722" from-port="0" to-layer="1723" to-port="0" />
		<edge from-layer="1723" from-port="1" to-layer="1724" to-port="1" />
		<edge from-layer="1724" from-port="2" to-layer="1725" to-port="0" />
		<edge from-layer="1725" from-port="1" to-layer="1728" to-port="0" />
		<edge from-layer="1726" from-port="0" to-layer="1727" to-port="0" />
		<edge from-layer="1727" from-port="1" to-layer="1728" to-port="1" />
		<edge from-layer="1728" from-port="2" to-layer="1731" to-port="0" />
		<edge from-layer="1729" from-port="0" to-layer="1730" to-port="0" />
		<edge from-layer="1730" from-port="1" to-layer="1731" to-port="1" />
		<edge from-layer="1731" from-port="2" to-layer="1732" to-port="0" />
		<edge from-layer="1731" from-port="2" to-layer="1741" to-port="0" />
		<edge from-layer="1732" from-port="1" to-layer="1736" to-port="0" />
		<edge from-layer="1732" from-port="1" to-layer="1778" to-port="0" />
		<edge from-layer="1732" from-port="1" to-layer="1772" to-port="0" />
		<edge from-layer="1732" from-port="1" to-layer="1764" to-port="0" />
		<edge from-layer="1733" from-port="0" to-layer="1736" to-port="1" />
		<edge from-layer="1734" from-port="0" to-layer="1736" to-port="2" />
		<edge from-layer="1735" from-port="0" to-layer="1736" to-port="3" />
		<edge from-layer="1736" from-port="4" to-layer="1738" to-port="0" />
		<edge from-layer="1737" from-port="0" to-layer="1738" to-port="1" />
		<edge from-layer="1738" from-port="2" to-layer="1740" to-port="0" />
		<edge from-layer="1739" from-port="0" to-layer="1740" to-port="1" />
		<edge from-layer="1740" from-port="2" to-layer="1741" to-port="1" />
		<edge from-layer="1741" from-port="2" to-layer="1768" to-port="0" />
		<edge from-layer="1742" from-port="0" to-layer="1744" to-port="1" />
		<edge from-layer="1743" from-port="0" to-layer="1744" to-port="2" />
		<edge from-layer="1744" from-port="3" to-layer="1745" to-port="0" />
		<edge from-layer="1745" from-port="1" to-layer="1747" to-port="0" />
		<edge from-layer="1746" from-port="0" to-layer="1747" to-port="1" />
		<edge from-layer="1747" from-port="2" to-layer="1783" to-port="0" />
		<edge from-layer="1747" from-port="2" to-layer="1766" to-port="0" />
		<edge from-layer="1747" from-port="2" to-layer="1750" to-port="0" />
		<edge from-layer="1748" from-port="0" to-layer="1749" to-port="0" />
		<edge from-layer="1749" from-port="1" to-layer="1756" to-port="0" />
		<edge from-layer="1750" from-port="1" to-layer="1753" to-port="0" />
		<edge from-layer="1751" from-port="0" to-layer="1753" to-port="1" />
		<edge from-layer="1752" from-port="0" to-layer="1753" to-port="2" />
		<edge from-layer="1753" from-port="3" to-layer="1755" to-port="0" />
		<edge from-layer="1754" from-port="0" to-layer="1755" to-port="1" />
		<edge from-layer="1755" from-port="2" to-layer="1756" to-port="1" />
		<edge from-layer="1756" from-port="2" to-layer="1757" to-port="0" />
		<edge from-layer="1757" from-port="1" to-layer="1759" to-port="0" />
		<edge from-layer="1758" from-port="0" to-layer="1759" to-port="1" />
		<edge from-layer="1759" from-port="2" to-layer="1761" to-port="0" />
		<edge from-layer="1760" from-port="0" to-layer="1761" to-port="1" />
		<edge from-layer="1761" from-port="2" to-layer="1765" to-port="0" />
		<edge from-layer="1762" from-port="0" to-layer="1764" to-port="1" />
		<edge from-layer="1763" from-port="0" to-layer="1764" to-port="2" />
		<edge from-layer="1764" from-port="3" to-layer="1765" to-port="1" />
		<edge from-layer="1765" from-port="2" to-layer="1766" to-port="1" />
		<edge from-layer="1766" from-port="2" to-layer="1775" to-port="0" />
		<edge from-layer="1766" from-port="2" to-layer="1768" to-port="1" />
		<edge from-layer="1767" from-port="0" to-layer="1768" to-port="2" />
		<edge from-layer="1768" from-port="3" to-layer="1774" to-port="0" />
		<edge from-layer="1769" from-port="0" to-layer="1773" to-port="0" />
		<edge from-layer="1770" from-port="0" to-layer="1772" to-port="1" />
		<edge from-layer="1771" from-port="0" to-layer="1772" to-port="2" />
		<edge from-layer="1772" from-port="3" to-layer="1773" to-port="1" />
		<edge from-layer="1773" from-port="2" to-layer="1774" to-port="1" />
		<edge from-layer="1774" from-port="2" to-layer="1780" to-port="0" />
		<edge from-layer="1775" from-port="1" to-layer="1779" to-port="0" />
		<edge from-layer="1776" from-port="0" to-layer="1778" to-port="1" />
		<edge from-layer="1777" from-port="0" to-layer="1778" to-port="2" />
		<edge from-layer="1778" from-port="3" to-layer="1779" to-port="1" />
		<edge from-layer="1779" from-port="2" to-layer="1780" to-port="1" />
		<edge from-layer="1780" from-port="2" to-layer="1781" to-port="0" />
		<edge from-layer="1781" from-port="1" to-layer="1782" to-port="0" />
	</edges>
	<rt_info>
		<MO_version value="custom_HEAD_3b86f12c37fa7b35388be509ccabf6c7423268b7" />
		<Runtime_version value="2022.3.0-8987-3b86f12c37f-HEAD" />
		<conversion_parameters>
			<data_type value="FP16" />
			<framework value="onnx" />
			<input value="image" />
			<input_model value="DIR/detector.onnx" />
			<input_shape value="[1,3,768,1280]" />
			<layout value="image(nchw)" />
			<mean_values value="image[123.675,116.28,103.53]" />
			<model_name value="text-spotting-0005-detector" />
			<output value="boxes,labels,masks,text_features" />
			<output_dir value="DIR" />
			<reverse_input_channels value="True" />
			<scale_values value="image[58.395,57.12,57.375]" />
		</conversion_parameters>
		<legacy_frontend value="False" />
	</rt_info>
</net>
